250607/tflite_models/enhanced_hadnn_model.tflite (tflite, 628756 bytes, 24 tensors)

floor_output/bias f2 [5]
00000000: c824 ea24 8224 ef23 aea8
0.01868 0.0192 0.01761 0.015495 -0.03656

dense_6/bias f2 [128]
00000000: ce1e 3028 a122 3722 f122 9f21 361d 7d28
00000010: ca23 fb27 991b 0f26 8920 0f20 fa28 a222
00000020: bf2a 3427 fc20 6527 3927 b3a2 4f9d e326
00000030: 4326 cb23 d027 a422 4f28 5226 9825 b021
00000040: 541c 7316 0528 8026 2927 9c20 789b 7da2
00000050: 781c 819a 6e28 2222 e926 5e90 3699 d528
00000060: 0c18 282a c725 a423 8124 d624 6228 9d23
00000070: 7221 06a0 2e27 a59e c525 c319 3924 b529
00000080: 3b29 2429 6fa5 af26 5c28 559e 5622 9617
00000090: 0b27 5820 8b21 1f24 b81f c629 8fa1 f5a0
000000a0: 1227 3c25 b923 659f 6922 7e26 2e24 392b
000000b0: 9923 b328 0d29 8c26 9e25 0127 5223 132a
000000c0: 3627 c816 2628 a60f cd28 fe22 2b27 1e99
000000d0: 4725 3c23 c824 d388 3026 0a25 f825 bb24
000000e0: 1526 b721 2926 201d bb2b 5824 15a2 1928
000000f0: 8024 9006 2a23 51a5 a698 2120 b825 c623
0.006645 0.0327 0.01295 0.01214 0.01356 0.01098 0.00509 0.03506
0.01521 0.03117 0.00371 0.02367 0.00886 0.00793 0.03888 0.012955
0.0527 0.02814 0.009735 0.02888 0.02821 -0.013084 -0.005184 0.0269
0.02446 0.01522 0.03052 0.01297 0.03366 0.02469 0.02185 0.01111
0.004227 0.0015745 0.0314 0.02539 0.02797 0.009 -0.003647 -0.01267
0.004364 -0.003176 0.0346 0.01198 0.027 -0.000533 -0.002544 0.03775
0.001976 0.0481 0.02257 0.01492 0.0176 0.01889 0.03424 0.01487
0.010635 -0.00786 0.02805 -0.00649 0.02254 0.002813 0.0165 0.0446
0.04086 0.04016 -0.02122 0.02611 0.03406 -0.006184 0.012375 0.001852
0.02751 0.008484 0.010826 0.0161 0.007538 0.0451 -0.01086 -0.00968
0.02762 0.02045 0.01508 -0.00722 0.01252 0.02536 0.01633 0.05643
0.01484 0.0367 0.03946 0.02557 0.02194 0.02736 0.0143 0.04745
0.02817 0.001656 0.0324 0.0004668 0.0375 0.01366 0.028 -0.002499
0.02061 0.01413 0.01868 -0.0001472 0.02417 0.01968 0.02332 0.01848
0.02376 0.01116 0.02406 0.005005 0.0604 0.01697 -0.01188 0.032
0.01758 0.00010014 0.01399 -0.02077 -0.00227 0.008064 0.02234 0.01518

dense_4/bias f2 [128]
00000000: 1725 042a 912b 7f16 8e99 6d15 5f28 9ca5
00000010: e6a0 e81f 2428 0528 4227 4724 682c 9529
00000020: 1b28 0c1d 5da6 2121 e72a b899 5a28 cea5
00000030: 2c28 5526 5f28 5b2a dd28 1426 b71e 74a4
00000040: 4e26 9a1d fa24 642a 1196 162a 0fa1 9326
00000050: cb2a 7018 c826 6e93 4a29 f827 1725 8f9e
00000060: f927 d321 a925 a425 63a8 5126 5624 441e
00000070: b22a 8021 c722 8da2 522a 7199 4c24 1ea5
00000080: f99c a825 6627 bd22 2e29 5628 29a0 b325
00000090: 9024 f320 c225 391e 289b 6329 53a5 5128
000000a0: 1928 88a8 7326 1928 3928 f527 6227 6da5
000000b0: 981e b629 2b29 1e9c 4828 c4a7 de24 4329
000000c0: aa26 2d14 e529 16a0 0f26 3021 c023 3124
000000d0: 4718 321f 3ea5 5924 8827 6924 1a1d 1921
000000e0: 8f28 fe9e 9525 a825 3825 409a a824 ae28
000000f0: 8e25 5f25 969e 3025 212b 2a24 4aa0 5225
0.01988 0.047 0.0591 0.001586 -0.002712 0.001325 0.03415 -0.02191
-0.00957 0.00772 0.03235 0.0314 0.02835 0.01671 0.06885 0.0436
0.03207 0.00493 -0.02486 0.01002 0.05392 -0.002792 0.034 -0.02267
0.0326 0.02473 0.03415 0.04965 0.038 0.02374 0.006557 -0.0174
0.02463 0.00547 0.01944 0.04993 -0.001481 0.04755 -0.00988 0.02568
0.05307 0.002167 0.02649 -0.000907 0.04132 0.03113 0.01988 -0.006405
0.03114 0.011375 0.02211 0.02203 -0.03427 0.02467 0.01694 0.00612
0.0523 0.01074 0.01324 -0.012794 0.04938 -0.002657 0.01678 -0.01999
-0.004856 0.0221 0.0289 0.01316 0.04047 0.03387 -0.008125 0.02226
0.01782 0.00967 0.02249 0.006077 -0.003494 0.04208 -0.0208 0.03372
0.032 -0.0354 0.02519 0.032 0.033 0.03108 0.02884 -0.0212
0.00644 0.04462 0.04037 -0.00402 0.03345 -0.03033 0.01901 0.0411
0.02603 0.0010195 0.04605 -0.00798 0.02367 0.01013 0.01514 0.01637
0.002089 0.007027 -0.02048 0.01698 0.02942 0.01723 0.004982 0.00996
0.0356 -0.00683 0.0218 0.0221 0.02039 -0.003052 0.01819 0.03656
0.0217 0.02098 -0.00643 0.02026 0.0557 0.01627 -0.00838 0.02078

dense_2/bias f2 [128]
00000000: 5229 ca9d 291f 022c ab29 f927 2ba9 1b24
00000010: 3c97 0aa4 a61f 5128 0824 2b28 c12a f19b
00000020: 4927 0a28 a025 192b 2f28 4925 c427 c823
00000030: 2818 5caa 60a0 1e28 dba1 bf20 6028 a122
00000040: 9a24 7212 47a0 9429 c421 fca9 902a 1ca4
00000050: 5424 9b19 4d27 f224 779f d027 1c28 7f24
00000060: a924 612b 24a5 92a0 dd2b b9a0 e329 b925
00000070: 489c 9324 b026 a427 3b2a 2c2b 0f97 b22a
00000080: d421 0d28 342b 072b 6228 2e20 8428 1828
00000090: 2d29 592c 4924 5baa 1d2c e628 dd28 001d
000000a0: 29a4 f227 9a9d c225 1323 8e23 8623 2fa1
000000b0: b80a 75a2 7013 dc28 6128 d925 2a28 ac27
000000c0: 1329 4d24 b126 16a4 842b 4c26 392a a322
000000d0: 8a24 4fa1 c125 9d1d a728 2f9e 3daa 9d12
000000e0: f827 4220 c0a3 602a 8021 a0a0 d923 f424
000000f0: 5d1e 4c23 1329 0729 eda7 0e14 840c 632b
0.04156 -0.005653 0.006992 0.0626 0.04428 0.03114 -0.04037 0.01604
-0.001766 -0.01578 0.00747 0.03372 0.01575 0.03256 0.05276 -0.003878
0.02846 0.03156 0.02197 0.05545 0.03268 0.02065 0.03033 0.0152
0.00203 -0.04968 -0.008545 0.03217 -0.01144 0.00927 0.03418 0.01295
0.01797 0.000787 -0.008354 0.04358 0.01126 -0.04675 0.05127 -0.01605
0.0169 0.002737 0.02852 0.01932 -0.00729 0.03052 0.0321 0.01756
0.0182 0.05765 -0.02008 -0.00893 0.06143 -0.009224 0.046 0.02235
-0.00418 0.01787 0.02612 0.02985 0.04868 0.05603 -0.001723 0.0523
0.01138 0.03165 0.05627 0.0549 0.03424 0.00816 0.03528 0.03198
0.04044 0.06793 0.01674 -0.04965 0.0643 0.03827 0.038 0.004883
-0.01625 0.03104 -0.00547 0.02249 0.01382 0.014755 0.014694 -0.010124
0.000205 -0.01261 0.000908 0.03796 0.0342 0.02284 0.03253 0.02997
0.03964 0.0168 0.02614 -0.01596 0.05872 0.0246 0.0486 0.01296
0.01773 -0.01037 0.02248 0.00548 0.03635 -0.00604 -0.04874 0.0008073
0.03113 0.008316 -0.01514 0.0498 0.01074 -0.00903 0.01533 0.01935
0.006214 0.01425 0.03964 0.03928 -0.03096 0.00099 0.0002756 0.0577

dense/bias f2 [256]
00000000: c799 c828 b329 909f 84a0 fd1a df2b 3a1c
00000010: 8626 169c 5d24 d38f b124 3e98 f225 6ca1
00000020: 0e9d b299 1b2f 7926 7590 d420 d028 122a
00000030: 2c2c 9915 aca5 9615 bf24 fb1f dd28 bca2
00000040: 378d 53a3 a79f f0a1 c329 6927 5224 1ca1
00000050: c827 108e d22a 1fa0 252d ce1d 6028 b01f
00000060: 60a4 1f28 4a23 a39c 8019 2e22 9e98 ec24
00000070: 9a25 a818 d998 b32b 4125 9821 359d 1410
00000080: 0728 709f 2525 ae28 c421 9b25 5124 c41d
00000090: 3d24 aa9f d0a4 a52d 4f29 8c2a e295 7623
000000a0: bc23 451f ce1f eb25 f19e 9e28 0aa8 8a2e
000000b0: 252b 7ba1 cd28 081c 2129 a69a 4a2c b528
000000c0: 2423 8f28 aa28 f627 6428 3f26 b221 b924
000000d0: ba24 012a c89b a528 a423 a898 9c1f 4aa0
000000e0: c62b 6ea4 ab1f 0324 351e 0e2b e82b 2824
000000f0: ed1b 212c 0ea2 7f9e 5024 2122 1a95 f2a8
00000100: 1b1e fe1c fd28 891a 03a0 2399 44a5 151c
00000110: bba4 7303 e79c b119 319a e820 57a3 19a8
00000120: 252c 0ea2 501c 9021 1a1c 6b2c 332d 811c
00000130: a892 6129 8028 731b 4d29 a221 6d19 bf2a
00000140: 0628 4ba2 f1a5 6f96 5a2b 5aa2 d70c 0f1e
00000150: dd24 ee23 9b22 b62b 45a3 c127 9428 45a0
00000160: 5d2a d912 afa4 fc26 2819 6202 631c a3a0
00000170: eb27 c92b a021 e996 6421 ed92 ef9a a62a
00000180: a125 a829 862a 7524 2d24 a825 fd18 6e90
00000190: 9925 709b a3a6 66a5 af9a 7697 589e 0c9d
000001a0: fe24 5e2a 8221 aa9a e298 001c 45aa f81c
000001b0: c52d 899a 7e22 fb21 052a da25 9927 4229
000001c0: 8f26 4022 a6a3 e82b f028 e028 a416 309e
000001d0: fba2 0a2a 9b25 a025 be9c 7b29 13aa 87a4
000001e0: e421 9ea8 711b 8329 87a4 409d e725 f29d
000001f0: f49d 1e28 2327 ba9c 6f25 6c22 dc27 6b98
-0.002821 0.03735 0.04453 -0.007385 -0.00882 0.003412 0.0615 0.004128
0.02548 -0.00399 0.01704 -0.0004776 0.01833 -0.002071 0.02322 -0.01059
-0.004936 -0.00278 0.111 0.02528 -0.000544 0.00943 0.0376 0.04742
0.0652 0.001367 -0.02216 0.001364 0.01854 0.007793 0.038 -0.01315
-0.0003183 -0.014305 -0.007473 -0.0116 0.045 0.02895 0.01688 -0.00998
0.0304 -0.00037 0.05328 -0.00805 0.0804 0.00567 0.03418 0.007507
-0.01709 0.0322 0.01424 -0.004528 0.002686 0.01207 -0.002254 0.01923
0.02188 0.002274 -0.002367 0.06015 0.02052 0.010925 -0.005085 0.000498
0.03146 -0.007263 0.0201 0.03656 0.01126 0.0219 0.01686 0.00563
0.01656 -0.007484 -0.0188 0.0882 0.04147 0.05115 -0.001436 0.01457
0.01511 0.0071 0.00762 0.02312 -0.00678 0.03607 -0.03156 0.1022
0.05582 -0.010704 0.0375 0.003937 0.04007 -0.003246 0.067 0.03677
0.01395 0.0356 0.03644 0.0311 0.0343 0.0244 0.01112 0.01845
0.01846 0.0469 -0.0038 0.0363 0.01492 -0.002274 0.00743 -0.00838
0.06073 -0.0173 0.00749 0.01567 0.00606 0.0551 0.06177 0.01624
0.00387 0.0645 -0.011826 -0.006344 0.01685 0.01197 -0.0012455 -0.03864
0.005962 0.004875 0.03897 0.003191 -0.007835 -0.002508 -0.02057 0.003986
-0.01848 5.263e-05 -0.004787 0.002779 -0.003023 0.00958 -0.014336 -0.032
0.06476 -0.011826 0.00421 0.010864 0.004005 0.06903 0.08124 0.0044
-0.0008125 0.04202 0.03516 0.003637 0.0414 0.011 0.00265 0.0527
0.03143 -0.01229 -0.02321 -0.001571 0.05743 -0.012405 0.0002954 0.005917
0.019 0.01549 0.0129 0.06024 -0.0142 0.03029 0.03577 -0.00834
0.0497 0.000836 -0.0183 0.02728 0.002518 3.636e-05 0.004284 -0.009056
0.03093 0.06082 0.01099 -0.001687 0.01053 -0.0008454 -0.003386 0.05194
0.02199 0.0442 0.05096 0.01741 0.01631 0.0221 0.002436 -0.0005407
0.02187 -0.003632 -0.02592 -0.02109 -0.003263 -0.0018215 -0.006195 -0.00493
0.0195 0.04974 0.01076 -0.003254 -0.002384 0.003906 -0.04898 0.004852
0.09015 -0.003191 0.01268 0.01168 0.04703 0.02286 0.02968 0.04108
0.02562 0.01221 -0.01494 0.06177 0.03857 0.0381 0.001621 -0.006042
-0.01363 0.04718 0.0219 0.02197 -0.00463 0.04282 -0.04745 -0.01768
0.011505 -0.03607 0.003633 0.04306 -0.01768 -0.005127 0.02306 -0.005806
-0.005814 0.03217 0.02788 -0.004616 0.02122 0.01254 0.0307 -0.002157

model/batch_normalization_1/batchnorm/mul f2 [256]
00000000: 553d e33d d13d f13c d93c 903c f73c 8b3c
00000010: 243d 443d 5f3f cf3d 3f3d 403d b53d ea3d
00000020: a23d 973d 503c 9b3e 373d 663d 013e 553e
00000030: e73d 893d 223c 2e3d 873d 043d d63d 103d
00000040: 683d 0c3d 563e e93d 653d 653d 103d 883d
00000050: c13c 973c c03c 533d 3a3d 3f3e 9a3f 893c
00000060: 503e 203e 523e 943d 433c 8e3e 133d 0a3d
00000070: 363c c23c b23c e83d 903c be3d f53b 033e
00000080: 373e 163d 6a3c 843d 8e3c b83c c43c 633f
00000090: ee3c 183e c93d ae3d 823d f13c 9e3d f53c
000000a0: c03c 373d fe3c 9a3e 633d 553c c83c 433d
000000b0: 2c3d 093d 703d 073d e63c d53c 663e 2c3d
000000c0: 0a3d 693d b63d 6a3d 5d3e aa3d 733c 0b3f
000000d0: 2e3c dc3c f73e 773d 163d b23d 903c 6a3d
000000e0: 4f3d 7e3c 2a3d d83c 213d af3c 5e3d 6b3e
000000f0: ff3c be3c 743d 173d 4b3d a33d bc3c 783d
00000100: 863e ea3d d43d 1d3c 8d3e f13d b23d 233d
00000110: d53d f63c 493d 2f3d d73c a23c 633c b33c
00000120: 4e3e b23d ff3c 283d a53c d23d f23c 4c3e
00000130: 543e 533d 293d b43e 463d ee3c 433c a03d
00000140: 933e 3a3d 5a3e f33c ba3e 313d 003e 573c
00000150: 453d af3d bb3d 483d d43d 753c 073e 1e3d
00000160: 803c 4c3e 073d e93c 613d 613d 283e 773d
00000170: 8e3d 413e 9f3d 583d 373c e93c ac3c 593d
00000180: fc3d 373d d53c 953d f13c 293e b53e 323d
00000190: f03c f63b 773d a83d 323e c13c ed3d db3d
000001a0: 303d 683d 983c 123d 563d c33c c63d 023e
000001b0: 2b3d d83c d23d 1f3d 8e3d 4b3d 4c3d e03d
000001c0: 273e 7b3d b73d 183d 3c3d 063d 4b3d 2f3d
000001d0: 9e3d 333d 763d f13d 2b3d ab3d a93c 193c
000001e0: 853d b93c 803e c23c 213e 353d 063d 2c3c
000001f0: 423d 013d be3d aa3c 143e 8e3c 343d 0b3d
1.333 1.472 1.454 1.235 1.212 1.141 1.241 1.136
1.285 1.316 1.843 1.452 1.312 1.3125 1.427 1.479
1.408 1.397 1.078 1.651 1.304 1.35 1.501 1.583
1.476 1.384 1.033 1.295 1.382 1.254 1.459 1.266
1.352 1.262 1.584 1.478 1.349 1.349 1.266 1.383
1.188 1.147 1.1875 1.331 1.307 1.562 1.9 1.134
1.578 1.531 1.58 1.395 1.065 1.639 1.269 1.26
1.053 1.189 1.174 1.477 1.141 1.436 0.9946 1.503
1.554 1.271 1.104 1.379 1.139 1.18 1.191 1.847
1.232 1.523 1.446 1.42 1.377 1.235 1.404 1.239
1.1875 1.304 1.248 1.65 1.347 1.083 1.195 1.315
1.293 1.259 1.359 1.257 1.225 1.208 1.6 1.293
1.26 1.353 1.428 1.354 1.591 1.416 1.112 1.761
1.045 1.215 1.741 1.366 1.271 1.424 1.141 1.354
1.327 1.123 1.291 1.211 1.282 1.171 1.342 1.6045
1.249 1.186 1.363 1.272 1.323 1.409 1.184 1.367
1.631 1.479 1.457 1.028 1.638 1.485 1.424 1.284
1.458 1.24 1.321 1.296 1.21 1.158 1.097 1.175
1.576 1.424 1.249 1.289 1.161 1.455 1.236 1.574
1.582 1.331 1.29 1.676 1.318 1.232 1.065 1.406
1.644 1.307 1.588 1.237 1.682 1.298 1.5 1.085
1.317 1.421 1.433 1.32 1.457 1.114 1.507 1.279
1.125 1.574 1.257 1.228 1.345 1.345 1.539 1.366
1.389 1.563 1.405 1.336 1.054 1.228 1.168 1.337
1.496 1.304 1.208 1.3955 1.235 1.54 1.677 1.299
1.234 0.995 1.366 1.414 1.549 1.188 1.481 1.464
1.297 1.352 1.148 1.268 1.334 1.19 1.443 1.502
1.292 1.211 1.455 1.28 1.389 1.323 1.324 1.469
1.538 1.37 1.429 1.273 1.309 1.256 1.323 1.296
1.404 1.3 1.365 1.485 1.292 1.417 1.165 1.024
1.38 1.181 1.625 1.189 1.532 1.302 1.256 1.043
1.314 1.251 1.436 1.166 1.52 1.139 1.301 1.261

model/batch_normalization_1/batchnorm/sub f2 [256]
00000000: 43b9 65ba c6b8 71b8 4db8 97b8 8fb9 fcb8
00000010: ecb8 8bb9 dfb9 b2b9 c3b8 48b9 bcb9 96b8
00000020: 0bba 4db9 b5b8 98b8 a6b9 61b8 a5b9 88b9
00000030: 2bb9 eab9 0ab9 5ab9 12b8 e0b8 4fba 00b9
00000040: 20b9 ccb9 97b9 64b9 43b9 01b9 7cb9 56b8
00000050: edb8 25b9 e3b8 a4b9 16b9 22ba 2cba 0bb8
00000060: ddb9 27b9 d2b9 e9b7 33b9 4bb9 93b9 6bb8
00000070: fbb9 07b9 f0b8 3fb8 00b9 d0b8 46b8 02b8
00000080: f5b7 8eb8 54b8 1aba 63b9 f4b8 b0b8 f6b9
00000090: 84b8 f4b9 05b9 97b8 bbb8 f9b8 ebb8 10b9
000000a0: 27b8 efb8 41b9 a1b9 e1b8 84b9 edb8 87b8
000000b0: 45b9 77b9 c8b8 f6b8 a7b8 16b9 1cb9 edb8
000000c0: d0b9 5db9 f2b8 dbb9 f9b7 c4b8 1cb8 5db9
000000d0: aeb8 8eb9 95b9 48ba 7cb8 55b9 2fb8 7bb9
000000e0: 2fb8 3db9 ebb8 d1b8 9eb8 e0b8 29b9 9ab9
000000f0: 0bb9 67b9 02b9 41ba 95b8 ebb9 99b9 2cba
00000100: 0cb9 f3b9 b3b9 76b9 ccb8 2eb9 45b8 e1b9
00000110: deb8 5bb8 15b9 c6b8 b9b8 99b9 d1b7 aab9
00000120: 63b8 c5b8 9bb9 efb9 45b8 aab9 77b9 6cb8
00000130: 98b9 08b9 36b9 6fba 04b9 68b9 0fba f8b8
00000140: fab8 ebb8 80b9 6fb9 bcb8 dab9 23ba 48b8
00000150: 1ab8 6eb8 67b9 38b9 97b8 cbb8 dcb8 77b8
00000160: 29b9 c0b9 5ab9 59b9 edb8 57b9 27ba a8b8
00000170: 60b9 15b8 e3b8 6eb8 8fb8 79b8 20ba 57b8
00000180: 7db9 3ab9 b1b8 e6b8 9cb8 bdb9 b2b9 ebb8
00000190: adb8 c2b8 7fb9 ecb8 25b9 85b8 1cba c5b7
000001a0: 52ba 1fb8 d6b8 ecb8 e5b8 fab8 a8b8 7db9
000001b0: cbb8 52b8 3db9 cfb8 cbb9 f4b8 d0b8 67ba
000001c0: 8eba d2b8 16b8 5fb8 18b9 fdb7 17b9 a5b8
000001d0: b1b9 8ab9 12ba c2b8 8bb9 12ba 8bb9 eab8
000001e0: deb8 98b8 73b9 9db9 4bba 3cb9 8bb8 24b9
000001f0: e6b8 56b8 e6b9 5db8 8bb8 6fb9 f4b8 0eb9
-0.6577 -0.7993 -0.5967 -0.555 -0.5376 -0.5737 -0.695 -0.623
-0.615 -0.693 -0.734 -0.712 -0.595 -0.66 -0.717 -0.573
-0.7554 -0.6626 -0.5884 -0.574 -0.706 -0.5474 -0.7056 -0.6914
-0.646 -0.7393 -0.63 -0.669 -0.509 -0.6094 -0.7886 -0.625
-0.6406 -0.7246 -0.6987 -0.674 -0.6577 -0.6255 -0.6855 -0.542
-0.6157 -0.643 -0.611 -0.705 -0.6357 -0.7666 -0.7715 -0.5054
-0.733 -0.644 -0.7275 -0.4944 -0.65 -0.6616 -0.697 -0.5522
-0.7476 -0.6284 -0.617 -0.531 -0.625 -0.6016 -0.534 -0.501
-0.4973 -0.5693 -0.541 -0.7627 -0.6733 -0.619 -0.586 -0.745
-0.5645 -0.744 -0.6274 -0.5737 -0.5913 -0.6216 -0.6147 -0.633
-0.519 -0.6167 -0.6567 -0.7036 -0.61 -0.6895 -0.6157 -0.566
-0.6587 -0.683 -0.5977 -0.62 -0.5815 -0.6357 -0.6387 -0.6157
-0.7266 -0.6704 -0.618 -0.732 -0.4983 -0.5957 -0.5137 -0.6704
-0.585 -0.6943 -0.6978 -0.785 -0.5605 -0.6665 -0.523 -0.685
-0.523 -0.655 -0.6147 -0.602 -0.577 -0.6094 -0.645 -0.7
-0.6304 -0.6753 -0.626 -0.7817 -0.5728 -0.7397 -0.6997 -0.7715
-0.631 -0.7437 -0.7124 -0.6826 -0.5996 -0.6475 -0.5337 -0.735
-0.6084 -0.5444 -0.6353 -0.5967 -0.5903 -0.6997 -0.4885 -0.708
-0.5483 -0.596 -0.7007 -0.7417 -0.5337 -0.708 -0.683 -0.5527
-0.699 -0.629 -0.6514 -0.804 -0.627 -0.676 -0.7573 -0.621
-0.622 -0.6147 -0.6875 -0.679 -0.592 -0.7314 -0.767 -0.535
-0.5127 -0.5537 -0.6753 -0.6523 -0.5737 -0.599 -0.6074 -0.558
-0.645 -0.7188 -0.669 -0.6685 -0.6157 -0.6675 -0.769 -0.582
-0.672 -0.5103 -0.611 -0.5537 -0.57 -0.559 -0.7656 -0.5425
-0.686 -0.6533 -0.5864 -0.6123 -0.576 -0.7173 -0.712 -0.6147
-0.5845 -0.5947 -0.687 -0.615 -0.643 -0.565 -0.7637 -0.4856
-0.79 -0.515 -0.6045 -0.615 -0.612 -0.622 -0.582 -0.686
-0.599 -0.54 -0.655 -0.601 -0.724 -0.619 -0.6016 -0.8003
-0.8193 -0.6025 -0.5107 -0.5464 -0.6367 -0.4993 -0.636 -0.5806
-0.7114 -0.6924 -0.759 -0.5947 -0.693 -0.759 -0.693 -0.6143
-0.6084 -0.574 -0.681 -0.7017 -0.7866 -0.6543 -0.568 -0.6426
-0.6123 -0.542 -0.7373 -0.5454 -0.568 -0.679 -0.619 -0.632

model/dense/MatMul f2 [256, 237]
00000000: d523 0f9a 19a2 5823 d52b 7ba2 ab29 8b24
00000010: b7a2 7324 9115 a4a6 fd25 15ab 9e20 0000
00000020: e4ab 231b 5428 ada5 682c 810f 9226 9e28
00000030: 4aad 0080 fe24 09ab 3da0 0000 0000 c09f
00000040: 68a3 c626 55a0 e1aa a9a9 3b29 0b09 2aa8
00000050: 23a3 7f96 0080 8ead 02a6 0080 ea86 33a0
00000060: 2290 4b2a 0b22 b128 7d96 662f de1e 5aa1
00000070: b928 4caa 2dac 2ca5 c8a3 eb2b 48a9 2ca8
00000080: b824 be26 2725 d92c e19c 54ac de99 1aa9
00000090: e823 582b 802c 90a8 862c d2ac b7ac 71aa
000000a0: 0328 f029 43a3 eea6 142a 1ca8 79a9 b7a9
000000b0: 5ba7 43a6 8e96 7022 f020 a39c 0000 0810
000000c0: c5a9 7e2a 9b24 83a1 0aa7 4f9e 7f1f 19a4
000000d0: 0080 09ab d9a0 292a d6a6 322b a8ac 72a9
000000e0: c5a8 74a9 4e24 cf15 0080 b299 d7a5 0080
000000f0: f286 85a0 3690 5030 9a9e 0080 0080 4b9e
00000100: 569f f325 991f b82d e52b 252d 522b 5627
00000110: fdad 5ea8 94a9 3aa7 cfa9 a9a7 d6a8 62ab
00000120: 7929 c9a4 302d 0aa7 2fad 789f 9ea6 3b30
00000130: b928 9da8 2b29 a1a6 2719 a5ad 3928 0d2d
00000140: 9ca0 8b17 2fa0 e8a7 84a4 7eaa 8aac 612a
00000150: 4c97 1f15 86a5 eaa4 0dac cda9 0080 0c22
00000160: 5c17 f327 0b1c a417 d223 8528 89a8 c925
00000170: 5e24 c4ac 5920 69a6 b12a 7425 aea2 1228
00000180: a1a4 1fa9 2d16 0000 1829 181c 0080 9083
00000190: 3aa0 2390 f7a1 cdae 63a8 95a8 eb2e 3ca8
000001a0: ca2c 0aaa 49a5 3eac caaa 5221 c32a 85ab
000001b0: b6a9 4b22 96a9 72a7 bd2c c925 0daa 1c29
000001c0: ce27 1e30 5da2 0d2d 172d 422b ba26 c6a1
000001d0: 3ea0 59a6 0000 5ca0 7ba2 e7a5 2d9f 2d1d
000001e0: 7aab ba2c 1aab 6d99 8924 1995 0425 0080
000001f0: 7228 cba7 7fa5 051f dba4 b8a1 37a8 d8a4
0.0153 -0.002958 -0.01191 0.01434 0.0612 -0.01266 0.04428 0.01775
-0.013115 0.01738 0.001359 -0.02594 0.02339 -0.05533 0.00902 0.0
-0.06165 0.003485 0.0338 -0.02217 0.06885 0.000458 0.02567 0.03607
-0.08264 -0.0 0.0195 -0.05496 -0.00828 0.0 0.0 -0.00757
-0.014465 0.02646 -0.00846 -0.05374 -0.04422 0.04086 0.0001539 -0.03253
-0.01394 -0.001586 -0.0 -0.0868 -0.02347 -0.0 -0.0001055 -0.0082
-0.0005045 0.04916 0.0118 0.03665 -0.001584 0.1156 0.006706 -0.01045
0.0369 -0.0492 -0.06525 -0.0202 -0.0152 0.06186 -0.04126 -0.0326
0.01843 0.02634 0.02013 0.07574 -0.004765 -0.0676 -0.002865 -0.03986
0.01544 0.05737 0.0703 -0.03564 0.0707 -0.0753 -0.07367 -0.05032
0.03134 0.0464 -0.01418 -0.02707 0.0475 -0.0321 -0.04276 -0.04465
-0.02873 -0.02446 -0.0016 0.01257 0.00964 -0.004528 0.0 0.000492
-0.04507 0.05072 0.01799 -0.010765 -0.0275 -0.00616 0.00732 -0.016
-0.0 -0.05496 -0.00947 0.04813 -0.0267 0.0562 -0.07275 -0.04254
-0.03726 -0.0426 0.01682 0.001418 -0.0 -0.00278 -0.02281 -0.0
-0.000106 -0.00883 -0.000514 0.1348 -0.006447 -0.0 -0.0 -0.006145
-0.007164 0.02324 0.00742 0.08936 0.06168 0.0804 0.0572 0.02866
-0.09357 -0.03412 -0.04358 -0.02823 -0.04538 -0.02992 -0.03778 -0.05768
0.04276 -0.01869 0.08105 -0.0275 -0.081 -0.007294 -0.02585 0.1322
0.0369 -0.03604 0.04037 -0.0259 0.002516 -0.0882 0.033 0.0789
-0.009 0.001842 -0.00817 -0.03088 -0.01764 -0.05072 -0.0709 0.04984
-0.001781 0.00125 -0.02158 -0.0192 -0.0633 -0.04532 -0.0 0.01181
0.001797 0.03105 0.00395 0.001865 0.015274 0.0353 -0.03543 0.0226
0.01706 -0.07446 0.00849 -0.02504 0.05228 0.0213 -0.01305 0.0318
-0.01808 -0.04 0.001508 0.0 0.0398 0.003998 -0.0 -5.436e-05
-0.008255 -0.000505 -0.01165 -0.10626 -0.03427 -0.0358 0.1081 -0.03308
0.0748 -0.04718 -0.02065 -0.0663 -0.05304 0.01039 0.05283 -0.05875
-0.04462 0.01229 -0.04364 -0.02908 0.07404 0.0226 -0.04727 0.03992
0.03049 0.1287 -0.01243 0.0789 0.0795 0.0567 0.02628 -0.01128
-0.008286 -0.0248 0.0 -0.008514 -0.01266 -0.02306 -0.007008 0.005054
-0.0584 0.07385 -0.05548 -0.00265 0.01772 -0.001245 0.01959 -0.0
0.03473 -0.03044 -0.02147 0.006855 -0.01897 -0.01117 -0.03293 -0.01892

model/attention_layer/MatMul f2 [128, 256]
00000000: e9a0 c7ad 302b f2a8 9829 7f23 c22b e6a1
00000010: f01e b824 4c24 c528 4928 a92e 74ab b0a9
00000020: fe2e 68af a72f ef29 172e 542a 4920 4917
00000030: 5e27 6dad e327 89a2 442e 19af 5e2c f22f
00000040: b5ac 03a9 c7ab ecae dc29 34ae 3cab 752d
00000050: a92a 44af a6ac 732a 899f bdae fa26 c72e
00000060: c61c 61ad dfac 0825 8418 73af c11e 98a8
00000070: 3125 39ae 7b2e 27ad ad2e 2124 49af a1af
00000080: 982c fa24 0f2c fcae 432e 3aab a323 c623
00000090: 872b caa7 9a2c 619c 10af acad b92f 1a2e
000000a0: 09a9 7e2c 0d2d 2c24 7e09 6e2a 5d2e 9c2d
000000b0: 22ae 1aa4 56af 3da9 7caf 032f 322f f22a
000000c0: 5fac fbae 44ac 012f d7aa 0baa 2717 0c28
000000d0: fbae 6ba5 db2c 53ac c12c a62d eaa4 bf20
000000e0: 372e 66a5 372d a4ae 14aa 41ad 6faf 092f
000000f0: 562f ff21 692b 92ab ea2f 1fad 0c24 daa1
00000100: 141c 3c24 61ac 392d bf2b 3425 9428 712d
00000110: f52e 6a2e 46ae 6baa aead 1a2e 5b2c e19f
00000120: 0e2b 84ae 5da9 78ac 482d 1629 b2a4 a02b
00000130: 392e 0525 10a9 4529 1525 d01d 61ac 5bae
00000140: f0ae cbaf fbaf b7ac ea2e 0428 03a8 5e2e
00000150: 24af 9f9f fb24 d82a ac29 9d2f 9b28 7712
00000160: 742d 8f2e ca2b bd2a 06a3 942e 1fac 15aa
00000170: b92d 6b2e 122b 162d 85a9 e4ae b62a 282e
00000180: 0ba6 5a2e 212d 0b2c e6af 432e c0ab 1dac
00000190: d927 ab28 802f 6eae 74ae 36ac 37aa c3a4
000001a0: 9bae db23 67ae 11a8 dfaf 75ae b2af acaa
000001b0: 6923 2e2a e7ab 742c 90ac 26ae 85ab 2f2c
000001c0: 10a5 1e2f 5fae 2d2d 2d2a 86a4 65ac 75ab
000001d0: f6a0 cd2f 232a 3da2 eba7 80a8 3c2a 1f2a
000001e0: 19a8 002f caaa 152a 3a2f 5f23 2a2f bd2d
000001f0: a82c f8ad 8eae baa7 fe26 3eae b22f fca9
-0.00959 -0.0903 0.05615 -0.03864 0.0437 0.01464 0.0606 -0.01152
0.006775 0.01843 0.01678 0.03726 0.03348 0.10406 -0.05823 -0.04443
0.10925 -0.1157 0.11957 0.04636 0.09515 0.04944 0.00837 0.001779
0.02878 -0.0848 0.0308 -0.012764 0.0979 -0.1109 0.06824 0.12415
-0.07355 -0.03915 -0.06076 -0.10815 0.04578 -0.0969 -0.05652 0.08527
0.05203 -0.1135 -0.07263 0.05038 -0.00736 -0.1053 0.02725 0.1059
0.00466 -0.08405 -0.0761 0.01965 0.002205 -0.1164 0.006596 -0.0359
0.02028 -0.0972 0.10126 -0.0805 0.1043 0.01613 -0.11383 -0.1192
0.0718 0.01944 0.0634 -0.10913 0.09784 -0.05646 0.014915 0.01518
0.0588 -0.03043 0.0719 -0.004276 -0.11035 -0.0886 0.12067 0.09534
-0.03934 0.0702 0.0789 0.0163 0.0001676 0.05023 0.0994 0.08765
-0.0958 -0.01602 -0.1146 -0.04092 -0.11694 0.10956 0.1124 0.05426
-0.0683 -0.1091 -0.06665 0.10944 -0.05344 -0.0472 0.001746 0.03162
-0.1091 -0.02116 0.07587 -0.06757 0.0743 0.08826 -0.0192 0.00927
0.0971 -0.02109 0.0815 -0.10376 -0.0475 -0.0821 -0.11615 0.1099
0.1146 0.01171 0.0579 -0.05914 0.12366 -0.08 0.01581 -0.01143
0.003983 0.01654 -0.0684 0.0816 0.06052 0.02032 0.03577 0.085
0.1087 0.1002 -0.098 -0.05014 -0.08875 0.09534 0.06805 -0.007694
0.0551 -0.1018 -0.0419 -0.0698 0.0825 0.03973 -0.01834 0.05957
0.0972 0.0196 -0.03955 0.04117 0.01985 0.005676 -0.0684 -0.0993
-0.1084 -0.12177 -0.1247 -0.07367 0.10803 0.03137 -0.03134 0.0995
-0.1116 -0.007442 0.01945 0.05347 0.0443 0.11896 0.03598 0.000789
0.0852 0.1025 0.06085 0.05264 -0.01372 0.1028 -0.0644 -0.04752
0.0894 0.1003 0.05524 0.07947 -0.04312 -0.10767 0.05243 0.0962
-0.0236 0.09924 0.08014 0.0632 -0.1234 0.09784 -0.06055 -0.0643
0.03065 0.03647 0.1172 -0.10046 -0.1008 -0.0658 -0.04855 -0.0186
-0.1032 0.01534 -0.10004 -0.03177 -0.123 -0.1009 -0.12024 -0.05212
0.01447 0.04828 -0.06174 0.0696 -0.0713 -0.09607 -0.05875 0.06537
-0.01978 0.1112 -0.09955 0.0809 0.04825 -0.01767 -0.06866 -0.05826
-0.00969 0.1219 0.04794 -0.012184 -0.03093 -0.03516 0.0487 0.04782
-0.032 0.1094 -0.05304 0.04752 0.1129 0.0144 0.11194 0.08966
0.07275 -0.09326 -0.1024 -0.03018 0.02731 -0.09753 0.12024 -0.04675

model/attention_layer/MatMul_1 f2 [1, 128]
00000000: ad25 2630 b90f e531 cbac 0c31 982a f530
00000010: c5ac f2ab 4fb0 c231 e72b acb2 33a6 09b1
00000020: 64af 00b1 48b2 fcad ae2e 8fa8 ec28 a9b1
00000030: c1af ceae 2f2f f330 af1b feaf 6eab 9428
00000040: 2b21 7ba5 f1ae 3ead c3ae ec2d 6d2d 5fa9
00000050: 30b0 ec31 5c31 0731 f429 50a7 ed2c 60af
00000060: 1b2e 162d daa4 2d29 63ad dc2d 52ac ce25
00000070: a7b0 6920 ec9c e72f ea2e 06ae b930 6e2c
00000080: 73a9 52b0 bd22 e1a8 db32 54ab 3aa3 4b2d
00000090: 15af 1d2d d7a6 c432 7ab2 b4b0 0928 e630
000000a0: da29 c922 db28 54b1 40b1 1927 e02a 01af
000000b0: 742c 0630 ceb2 3e30 622c 5cb0 02a9 45b0
000000c0: a89f dd30 1f31 1d32 f5ac 98b0 0bb2 c8b0
000000d0: 8f2f 1428 292b 17b0 5b32 4331 73b0 89ae
000000e0: 002f 1830 0cac 7bb0 012c 2a30 ba2c 3e25
000000f0: e8ad f730 6b1e 652e 3c2e 3f31 5e2d bd2e
0.02217 0.1296 0.0004714 0.1842 -0.0749 0.1577 0.0515 0.1549
-0.0745 -0.06207 -0.1346 0.1799 0.06174 -0.2085 -0.02422 -0.1573
-0.1155 -0.1562 -0.1963 -0.0935 0.1044 -0.0356 0.03845 -0.1769
-0.12115 -0.1063 0.11224 0.1547 0.003752 -0.1249 -0.05804 0.03577
0.01009 -0.02141 -0.10846 -0.0819 -0.10565 0.0925 0.0848 -0.04196
-0.1309 0.185 0.1675 0.1571 0.0465 -0.02856 0.07697 -0.11523
0.0954 0.07947 -0.01895 0.04044 -0.08417 0.09155 -0.0675 0.02267
-0.1454 0.00861 -0.004807 0.1235 0.10803 -0.0941 0.1476 0.0692
-0.04257 -0.135 0.01316 -0.03812 0.2142 -0.05725 -0.014114 0.0827
-0.11066 0.0799 -0.02672 0.2114 -0.2024 -0.147 0.03152 0.1531
0.04572 0.01325 0.03793 -0.1665 -0.1641 0.02773 0.0537 -0.10944
0.0696 0.1257 -0.2126 0.1326 0.0685 -0.1362 -0.03912 -0.1334
-0.007477 0.152 0.16 0.191 -0.07745 -0.1436 -0.1888 -0.1494
0.1181 0.03186 0.05594 -0.1278 0.1986 0.1644 -0.139 -0.1021
0.1094 0.1279 -0.06323 -0.14 0.06256 0.1301 0.07385 0.02048
-0.0923 0.1552 0.006268 0.0999 0.0974 0.164 0.08386 0.1053

model/dense_2/MatMul f2 [128, 256]
00000000: b82f d4ae 71ab 7227 5bac aab0 73ab 3c9e
00000010: a625 27b0 d4ae 5cab b92c 0d2c 1fa8 b7ab
00000020: 01a1 b52c c930 f527 c7a8 8d21 b2b1 52ac
00000030: 18a9 25aa a02e 6430 99aa fdad 702c 0a1e
00000040: 06af aead d4ae 91a9 3b20 0aaf b328 311e
00000050: d52e cdae 362c c2ac c199 1b2d 402b 66a7
00000060: 4f30 9bac feac 0d30 1828 c7a3 ec2f 22a5
00000070: 1821 312e bbaf cca9 bf2d 08ac 6c24 08ae
00000080: ec29 572f 752b dc9a 0a92 5cac 53ad 762e
00000090: 7d2d b8a9 21a4 97ae 4eaf 3f26 5ea8 5f30
000000a0: b41e 71ac a225 362d d0a2 13ad 94ab 92a0
000000b0: 40a9 1129 59ac 5329 2cb1 1728 032e 0ea6
000000c0: 22a5 b2a9 4930 b3a9 5a21 1b30 582b 39ab
000000d0: 7524 412f 212a e4ae de2e 5db1 c02b cea4
000000e0: beae 362a 2123 85a2 abaa a89f a92f 4aaa
000000f0: 32ad 1faa aa24 082d 07af 102c 982a ef2c
00000100: 3ea8 622d 8627 ea9e 65a2 ef25 08a8 80ac
00000110: 7fa4 9d26 8aab f120 cca6 bc9c 9cac d42d
00000120: 4a04 69ae f0a4 7fa8 1d27 b3ad 852e 2aac
00000130: 1a2d 702e 0f26 0bae 18b0 b2a6 0dac d0ad
00000140: 3630 18a6 6ba5 00ad 9424 1c2b 802d 7d24
00000150: dd2e 419e 562c 3da4 f7ae d42c 6d2b 5eb0
00000160: f226 cb98 ab20 db9d 97ad 7f2e 7ead 2f24
00000170: e3a9 af9f e627 202c 212b a727 a1a8 c01c
00000180: 5513 32a8 06b0 ec28 0b2b 1bac cc2e 19ae
00000190: 54ae 62a5 cbaf f62f 192c 0c2c f32c 8b1b
000001a0: 64af 8b25 4f2f 0aae 8ea7 83af 76ad 1021
000001b0: e2ab 38af 3e2c 76ae 6329 1b98 5e2c c625
000001c0: 25a0 3eaf 81ae d6a9 af2a 0f14 55ae 31ae
000001d0: 4927 3ca3 1325 9222 f92d c830 6a88 192f
000001e0: fcae 4b2f e730 8aa6 ea9a a7a0 4030 77b0
000001f0: 4db1 c6ad 2694 e3ac f0a9 1e23 c6a5 ce86
0.1206 -0.1067 -0.05814 0.02908 -0.06805 -0.1458 -0.0582 -0.00609
0.02206 -0.1298 -0.1067 -0.0575 0.0738 0.0633 -0.0322 -0.06027
-0.00977 0.07355 0.1495 0.03108 -0.03732 0.01084 -0.178 -0.0675
-0.0398 -0.048 0.1035 0.1372 -0.05154 -0.09357 0.06934 0.005898
-0.10974 -0.08875 -0.1067 -0.0435 0.00826 -0.11 0.0367 0.006046
0.10675 -0.10626 0.0658 -0.07434 -0.00281 0.0798 0.05664 -0.0289
0.1346 -0.07196 -0.078 0.1266 0.03198 -0.01519 0.1238 -0.02005
0.00995 0.09674 -0.1208 -0.0453 0.0898 -0.063 0.01727 -0.09424
0.04626 0.1147 0.05826 -0.00335 -0.000737 -0.0681 -0.0832 0.10095
0.08575 -0.04468 -0.01613 -0.10297 -0.11414 0.0244 -0.03412 0.1366
0.006546 -0.0694 0.022 0.0814 -0.013306 -0.0793 -0.0592 -0.00893
-0.04102 0.03958 -0.06793 0.0416 -0.1616 0.03195 0.09393 -0.02365
-0.02005 -0.0445 0.1339 -0.04453 0.01045 0.1283 0.05737 -0.05643
0.01741 0.11334 0.04788 -0.10767 0.1073 -0.1676 0.06055 -0.01877
-0.10535 0.04852 0.01392 -0.01273 -0.0521 -0.007477 0.1197 -0.04913
-0.0812 -0.04782 0.01822 0.0786 -0.1098 0.0635 0.0515 0.0771
-0.03314 0.0841 0.02939 -0.006752 -0.01249 0.02318 -0.0315 -0.0703
-0.01756 0.02583 -0.0589 0.00965 -0.02655 -0.004623 -0.072 0.09106
6.545e-05 -0.10016 -0.01929 -0.03513 0.02779 -0.08905 0.10187 -0.06506
0.0797 0.1006 0.02367 -0.0944 -0.1279 -0.02615 -0.0633 -0.0908
0.1316 -0.0238 -0.02116 -0.0781 0.01788 0.05554 0.08594 0.01753
0.10724 -0.006107 0.06775 -0.01656 -0.1088 0.07544 0.058 -0.1365
0.02713 -0.00234 0.00912 -0.00572 -0.08734 0.1015 -0.0858 0.01634
-0.046 -0.007504 0.03085 0.06445 0.0557 0.02989 -0.03616 0.00464
0.000895 -0.03278 -0.1257 0.03845 0.05502 -0.06415 0.1062 -0.0953
-0.0989 -0.02103 -0.12177 0.1244 0.064 0.06323 0.07733 0.003683
-0.1155 0.02165 0.1142 -0.09436 -0.02951 -0.1174 -0.0853 0.00989
-0.06158 -0.1128 0.0663 -0.10095 0.04208 -0.002005 0.06824 0.02255
-0.008095 -0.11316 -0.1016 -0.0456 0.05222 0.000991 -0.09894 -0.09674
0.02846 -0.01413 0.01982 0.01283 0.0933 0.1494 -0.0001347 0.1109
-0.10913 0.11395 0.1532 -0.02554 -0.003376 -0.00909 0.1328 -0.1395
-0.1656 -0.0902 -0.001013 -0.07635 -0.0464 0.0139 -0.02255 -0.00010383

model/building_output/MatMul f2 [3, 64]
00000000: 7225 4634 f29e c622 4d34 b433 26ae e4a8
00000010: b933 9f2a 432c e033 9f34 ecaf 84b5 12b6
00000020: 29b5 4a2c f3b3 8e2d d833 e5b3 a133 01b4
00000030: 02a5 68a8 4ea9 782f a4af c533 53b3 65aa
00000040: da2f 7b33 b6b4 3ab2 79b5 57aa 4ead d3b2
00000050: 702c f331 4cb2 3d25 dd25 fdaf 02b0 40b4
00000060: a631 88b3 dead 79b0 1db5 7bb3 5bac 4a34
00000070: 2cad 83b1 2330 d434 3a24 ca2f 692f 5db5
00000080: 452b e333 37b6 8232 2c31 3535 88b1 1a32
00000090: 219f 74b5 08b5 30aa 7730 c531 5632 46b1
000000a0: 90b5 09ae 7219 8c34 d5a5 6234 2fb4 e1ab
000000b0: 8333 22b4 a130 9534 d5a1 8432 9c30 76af
000000c0: 63b5 80ad 7ca7 11b2 852e c830 7ead 3e34
000000d0: 2d27 05b3 2133 f9af 73a9 a5a8 5433 052e
000000e0: c8b3 9b31 83b3 54b4 6d2d 4c34 c327 552c
000000f0: 0330 0407 b8b5 1fae f0b3 c633 8aad 1bac
00000100: 28b2 18a8 6d30 8534 872c 8eb4 9928 e8ad
00000110: c527 3c36 d8b3 12ae 12b0 a532 b8aa 1836
00000120: 389a b9ad cea5 0635 b4a8 371f 8e35 e0b0
00000130: 79ab 52af 90b4 cc30 572e 0233 661b 8035
00000140: e733 392e bd34 7f2c 9a33 20a6 552d f2ae
00000150: 1d33 a5ac faac 9eb0 3cae 4935 ac34 44b4
00000160: d2b1 a435 6935 bd34 c6a0 5331 90b1 a49e
00000170: 322e 2826 74b1 bcaa 699b 06b3 d232 3727
0.02127 0.267 -0.006783 0.01323 0.2688 0.2407 -0.09607 -0.0382
0.2413 0.05173 0.0666 0.2461 0.2888 -0.1238 -0.3447 -0.3794
-0.3225 0.067 -0.2484 0.0868 0.2451 -0.2467 0.2384 -0.2502
-0.01956 -0.03442 -0.04144 0.1167 -0.1194 0.2428 -0.2289 -0.04996
0.1227 0.2338 -0.2944 -0.1946 -0.342 -0.04953 -0.0829 -0.2133
0.06934 0.1859 -0.1968 0.02046 0.0229 -0.1248 -0.1252 -0.2656
0.1765 -0.2354 -0.0917 -0.1398 -0.3196 -0.2338 -0.06805 0.268
-0.0808 -0.1722 0.1293 0.3018 0.01651 0.1217 0.1158 -0.3352
0.0568 0.2465 -0.3884 0.2034 0.1616 0.3254 -0.1729 0.1907
-0.00696 -0.3408 -0.3145 -0.04834 0.1395 0.1803 0.198 -0.1648
-0.3477 -0.0943 0.002659 0.2842 -0.02278 0.274 -0.2615 -0.06155
0.2347 -0.2583 0.1447 0.2864 -0.01139 0.2036 0.144 -0.1166
-0.3367 -0.08594 -0.02924 -0.1896 0.10187 0.1494 -0.0858 0.2651
0.02803 -0.2194 0.2228 -0.1246 -0.04257 -0.0363 0.229 0.09406
-0.2432 0.1752 -0.2347 -0.2705 0.0848 0.2686 0.03032 0.0677
0.1254 0.00010705 -0.3574 -0.09564 -0.248 0.2429 -0.08655 -0.06415
-0.1924 -0.03198 0.1383 0.2825 0.07074 -0.2847 0.03592 -0.0923
0.03035 0.3896 -0.2451 -0.09485 -0.1272 0.2076 -0.0525 0.3809
-0.003036 -0.0894 -0.02267 0.314 -0.03674 0.007046 0.3472 -0.1523
-0.05838 -0.1144 -0.2852 0.1499 0.09906 0.219 0.003613 0.3438
0.247 0.0972 0.2961 0.07025 0.2375 -0.02393 0.0833 -0.1085
0.2223 -0.0726 -0.07776 -0.1443 -0.0974 0.3303 0.292 -0.2666
-0.1819 0.3525 0.3381 0.2961 -0.00932 0.1664 -0.1738 -0.006485
0.0968 0.02405 -0.1704 -0.0526 -0.003618 -0.2195 0.2131 0.02818

model/dense_4/MatMul f2 [128, 320]
00000000: 4aae f1a3 f6ad 0e2b 2f23 0e2a 7ea8 9227
00000010: 9f2c 6e29 bd2d 462d 3318 79ac 6da8 b127
00000020: 122e 4aad 6bb0 deaa 2aab eaac 04a6 6224
00000030: dca6 ec2b 87ac ba2e 789f 7425 d024 8c29
00000040: cf22 8827 bd28 d6ac 5fa4 712d 172c ca2a
00000050: 1ea9 8630 692e 31ad 9eac 452c f32e df28
00000060: b611 912b c82d ca98 e015 bdb0 8629 f925
00000070: 3497 15a7 762b 1a2c f1a9 e8ad ba29 6ead
00000080: 0da9 f4ae 9719 e82d 90ae b5ae cfae 02ad
00000090: 8ea9 a430 202b 0cb0 c3ad eeae 33af 262f
000000a0: b324 e9ae e3a9 d12e fa22 9dac a7ae f5a2
000000b0: 1d31 f7ab 1da4 2129 9aa4 bcac 58ae f020
000000c0: 52ac eb2d 2a2b 1f24 4daa 782a 1a28 39ab
000000d0: 1ba1 70ad 2faa 2b2c b2af 99b0 3eb0 6023
000000e0: c621 e4a8 13ad 1a2c c71d 46a9 db29 68ad
000000f0: ed26 0d25 c728 a1a5 b92c fbaa 4c25 6ea3
00000100: dcae 33a4 17a1 9f2d ceab e329 472c e2a9
00000110: 10b0 2aab 0dac b69f 71ae 0631 8929 a095
00000120: 2b2c 6ead b82c 4da0 3dad 6aaf 7eae c42f
00000130: 2b2b fdae 352d 5b2f f12c 6121 9e2c 4029
00000140: 48ab ddad 39ac bfad 941a 66af bc2e 0cad
00000150: ae9d 01af 44a8 eb25 5da6 aea3 132d 4225
00000160: 9f29 882e 7c29 622c aa2f 3dac 402c 432c
00000170: b4af 89ad 382c 0cab 50a2 132e 4cad dca7
00000180: 5e28 aa2b 5ba4 b129 f0ad 36a8 dfad 242e
00000190: 632b e7ae a821 312b 782a 1b30 0324 d7a9
000001a0: 902f 4aad 30a9 36b0 d620 40ac 1627 47ae
000001b0: d42f 31a1 9aac 2e30 5d2a 1f2d 04a8 da99
000001c0: 4a26 2e1d b729 832e b2af 1fad 552a e9ab
000001d0: a99f a425 632a 81ac 90ad a428 a42f 7c2f
000001e0: ff2e 9d2c 672b ad2d 5723 96a1 8d9a 7cad
000001f0: f6ac d8a8 0429 592c 1e26 062b 6a28 bdaa
-0.09827 -0.01551 -0.09314 0.0551 0.01403 0.0473 -0.0351 0.02957
0.0722 0.04242 0.08966 0.0824 0.00205 -0.0699 -0.03458 0.03004
0.09485 -0.08264 -0.1381 -0.05365 -0.05597 -0.0768 -0.0235 0.01712
-0.0268 0.0619 -0.07074 0.1051 -0.007294 0.0213 0.0188 0.04333
0.0133 0.02942 0.03702 -0.07556 -0.01707 0.085 0.0639 0.05304
-0.03998 0.1414 0.10016 -0.0811 -0.07214 0.0667 0.1086 0.03806
0.000697 0.0591 0.09033 -0.002338 0.001434 -0.1481 0.04315 0.02333
-0.001759 -0.02766 0.0583 0.0641 -0.04642 -0.0923 0.04474 -0.08484
-0.03946 -0.10864 0.00273 0.0923 -0.10254 -0.1048 -0.1064 -0.07825
-0.0434 0.145 0.05566 -0.1265 -0.09 -0.1083 -0.1125 0.1117
0.01836 -0.108 -0.046 0.1065 0.013626 -0.0721 -0.10394 -0.01359
0.1598 -0.06223 -0.01607 0.04007 -0.01797 -0.074 -0.0991 0.00964
-0.0675 0.09247 0.05597 0.0161 -0.04922 0.05054 0.03204 -0.05643
-0.00997 -0.08496 -0.0483 0.0651 -0.12024 -0.1437 -0.1326 0.014404
0.01128 -0.0382 -0.0793 0.0641 0.005642 -0.0412 0.04575 -0.0845
0.02705 0.01973 0.03732 -0.02199 0.0738 -0.05453 0.02069 -0.01451
-0.1072 -0.0164 -0.00994 0.0878 -0.06097 0.046 0.06683 -0.04596
-0.127 -0.05597 -0.0633 -0.00753 -0.10065 0.157 0.04324 -0.001373
0.0651 -0.08484 0.0737 -0.0084 -0.08185 -0.11584 -0.10144 0.12134
0.056 -0.1092 0.08136 0.1149 0.0772 0.010506 0.07214 0.04102
-0.0569 -0.0916 -0.066 -0.0898 0.003212 -0.1156 0.1052 -0.07886
-0.005547 -0.10944 -0.03333 0.02312 -0.02486 -0.015 0.0793 0.02054
0.0439 0.10205 0.04285 0.0685 0.11975 -0.0662 0.0664 0.0666
-0.12036 -0.0865 0.0659 -0.05505 -0.01233 0.0949 -0.08276 -0.0307
0.03412 0.05988 -0.01701 0.04446 -0.0928 -0.0329 -0.09174 0.09595
0.0577 -0.10785 0.01105 0.05618 0.05054 0.1283 0.01567 -0.04562
0.11816 -0.08264 -0.04053 -0.1316 0.009445 -0.0664 0.02768 -0.0981
0.1223 -0.01014 -0.0719 0.1306 0.0497 0.08 -0.03137 -0.002857
0.02457 0.00506 0.04465 0.10175 -0.12024 -0.08 0.04947 -0.0618
-0.00748 0.02203 0.0499 -0.0704 -0.0869 0.03625 0.1194 0.11694
0.1093 0.0721 0.05783 0.0887 0.014336 -0.01091 -0.003199 -0.0857
-0.0775 -0.03784 0.03918 0.06793 0.0239 0.05487 0.0345 -0.05264

model/dense_6/MatMul f2 [128, 384]
00000000: 3622 c026 a3a9 082b bf28 0dab a5a4 48ad
00000010: 032f 7b21 c22d ccae 232b 601c 05ae 0ca8
00000020: 6ca4 af2e 24ab dfad 0bab f1ac 812a 502b
00000030: 0f26 732c a92c 16a9 3cae a32c 3a2b 36a0
00000040: c526 c7aa 2cad 9ca8 c72b fbad 6fad 5d2e
00000050: d6aa a321 bfa9 8dab 4d2b 982f e023 6794
00000060: 51af 9f2c 5f2c 8328 7bae 52ad feac 53a5
00000070: c32c a0a7 bfad 301e 7f2d 1fac 2d21 782f
00000080: a4ae 01aa 28aa 4d28 ef28 3fab 8ba6 aa2a
00000090: e4ab efab b02c b1ad bfac f9ad 6bac ff2a
000000a0: 63aa 682b 22a9 79ab 002a e8ac a5aa e1a8
000000b0: c11d c72e 66ad 7d29 7c29 e3a2 e423 6730
000000c0: 61ad 94aa 1aad 35aa 85ad b42d b2a5 5fae
000000d0: 2bae 998f 7eae 4e2e 262e 20ac 8faa 5b2a
000000e0: 9529 b129 272c 2c29 07ae 662a 9da9 bd2c
000000f0: b996 f02c c4a6 54aa 4b2d 3eaf d42c 0921
00000100: 002e 02ac 632a 83a5 b2a9 f02a 02aa 3cab
00000110: 85ad 752b 49ac 00ad 44a9 902c 3e2a 8518
00000120: 3eac 7ba8 392c 44ae 0c29 72a4 6ba9 6eaa
00000130: ef26 b927 3d25 ae2c b0a2 7c2e bdab 23aa
00000140: e2ae 68ad 46ae 05ab ccaa aaad 23a7 1ead
00000150: b1a3 5eae 9624 6e2d d8af 0c26 0aa8 36a9
00000160: c6ac 7ca6 3820 57ad b529 eba3 9b2b daa8
00000170: e52c f428 feae 882a e62e 2ea5 862c 31a6
00000180: bbaa 6cac 321c ca22 43ac 42a0 0a22 e72c
00000190: 1ba5 939c 5fa8 b52b 0d28 7f2d 8c2d d82b
000001a0: 622f d62b 30aa afaa d229 ff1f 09a6 bc26
000001b0: e4a8 d92e c7ac f5a5 1a27 0326 20a9 f52c
000001c0: fb28 512d 1128 f92e 732a 3022 602b c62c
000001d0: 0a2c 072a 552d 142b 5020 3bad 86ab da29
000001e0: a62a 13ac a111 b224 4727 ef94 5628 bb22
000001f0: a22c 65a3 b02c c1ab ba28 4013 922b d52f
0.01213 0.02637 -0.04404 0.05493 0.03708 -0.05508 -0.01814 -0.0825
0.10956 0.010704 0.08997 -0.1062 0.05576 0.004272 -0.09406 -0.03162
-0.01727 0.10443 -0.0558 -0.09174 -0.05502 -0.0772 0.0508 0.05713
0.02367 0.0695 0.0728 -0.03973 -0.0974 0.07245 0.05646 -0.008224
0.02644 -0.05295 -0.0808 -0.036 0.06076 -0.09344 -0.0849 0.0994
-0.0534 0.01101 -0.0449 -0.059 0.05704 0.11865 0.01538 -0.001075
-0.1143 0.0722 0.0683 0.03525 -0.10126 -0.0831 -0.078 -0.0208
0.0744 -0.02979 -0.0898 0.006042 0.0859 -0.0644 0.01011 0.1167
-0.10376 -0.0469 -0.0481 0.0336 0.03854 -0.0566 -0.02556 0.05206
-0.06165 -0.06198 0.07324 -0.0889 -0.07416 -0.0933 -0.06903 0.05466
-0.0499 0.05786 -0.0401 -0.05838 0.04688 -0.07666 -0.0519 -0.03812
0.00562 0.1059 -0.08435 0.04288 0.04285 -0.01345 0.01541 0.1376
-0.08405 -0.0514 -0.0797 -0.0485 -0.08624 0.0891 -0.02225 -0.09955
-0.0964 -0.0004637 -0.10144 0.0985 0.09607 -0.06445 -0.05124 0.04965
0.0436 0.04446 0.0649 0.0404 -0.0942 0.05 -0.04385 0.07404
-0.001641 0.07715 -0.02643 -0.04944 0.0827 -0.11316 0.07544 0.009834
0.09375 -0.0626 0.0499 -0.02153 -0.0445 0.0542 -0.04694 -0.05652
-0.08624 0.05826 -0.06696 -0.0781 -0.04114 0.0713 0.04877 0.002207
-0.0663 -0.035 0.066 -0.0979 0.03943 -0.01736 -0.04233 -0.05023
0.02708 0.03017 0.02046 0.0731 -0.01306 0.1013 -0.06046 -0.04794
-0.10754 -0.0845 -0.098 -0.05484 -0.0531 -0.0885 -0.02788 -0.07996
-0.01502 -0.0995 0.01791 0.08484 -0.12256 0.02362 -0.03156 -0.0407
-0.0746 -0.02533 0.00824 -0.08344 0.0446 -0.015465 0.05942 -0.0379
0.0765 0.0387 -0.10925 0.05103 0.1078 -0.02023 0.0707 -0.02419
-0.05258 -0.0691 0.004097 0.01326 -0.0666 -0.008316 0.011795 0.0766
-0.01994 -0.004467 -0.03415 0.0602 0.03165 0.0859 0.0867 0.06128
0.11536 0.06122 -0.04834 -0.05222 0.04547 0.00781 -0.02357 0.0263
-0.0382 0.107 -0.07465 -0.02327 0.02774 0.02348 -0.04004 0.07745
0.0389 0.08307 0.03177 0.10895 0.05038 0.012085 0.05762 0.0746
0.0631 0.0471 0.0833 0.0553 0.00842 -0.0817 -0.05878 0.04572
0.05194 -0.06366 0.000687 0.01834 0.02843 -0.0012045 0.03387 0.013145
0.0724 -0.01444 0.07324 -0.06058 0.03693 0.000885 0.05914 0.1224

model/floor_output/MatMul f2 [5, 64]
00000000: a0ae c132 cfb4 34af f9b1 772e c4b2 20a4
00000010: 99b3 c6ac 3a35 34b4 21a7 01b2 f830 3f35
00000020: d5a8 3b30 8334 2ab4 1430 1233 67b0 d5b4
00000030: 4a33 c8b2 6db2 852c 6eaf 9528 e1b2 3a35
00000040: 25b0 4230 3eae f832 08b5 c02c 8934 6f25
00000050: 1cb4 4e2e 6733 e7b2 f399 6d35 a633 4eb1
00000060: ffb0 7d32 502d 3832 fbaa c134 eb2f 3fb4
00000070: 0635 6325 b2b3 cd34 53ac 661a 1db0 c430
00000080: 8633 63b1 0134 36a8 53b3 08ad 6b35 3d1a
00000090: aa35 7931 ceb3 07b0 bbad 66ab 18b4 dfaf
000000a0: e635 2d32 2035 92ab 1e33 4d2f f4b2 8d35
000000b0: 0da5 bcb4 b92b 3db4 0628 1cac 3834 1131
000000c0: fab1 042d 9ab4 fd34 ac31 31b3 f234 e6b2
000000d0: 8eb4 2ab5 bdb3 7134 2531 a52f bc33 90b1
000000e0: 05af 6134 b72e f733 512e f8b4 a42d e8b0
000000f0: dd34 1730 f5aa c6b2 8b26 cbb4 c8b3 d3ae
00000100: e2b4 6fb5 7f33 a6b4 02b2 7fb1 30b0 fa2d
00000110: 95b2 2930 81b5 b432 7d32 d228 9532 0d2b
00000120: ec2d 23b4 8ab4 ce2a 9eb4 322d 2734 2eb4
00000130: b733 2236 f9ab 9daf 5f28 76b0 7fb4 baab
00000140: ecaa ecab cd32 2d2f a9b1 6194 1334 0ab4
00000150: 85a8 c931 6034 0caa 3334 54b4 5cb2 272b
00000160: 542e 7ea1 dc35 15b2 b934 ca28 331d 14b2
00000170: 0334 0932 b7ac bc33 c335 7633 75b4 d0b3
00000180: 2aaf 5ab1 fc34 1db2 54b4 3735 11b5 2531
00000190: c7b1 5132 2bb3 90b0 afb1 acb4 ba34 14b5
000001a0: 13b3 a832 2a34 04b5 602a 5931 b6ae f42b
000001b0: 1833 e6ac ebb4 2c34 0bb4 8e34 f1b1 67a8
000001c0: 4636 d233 5d30 63b3 6434 39b5 b6ac 70b1
000001d0: b4b0 e6b4 a7b0 f3b4 34b4 a034 8135 b0b2
000001e0: ef2c 8232 66b0 b2b2 a333 67b0 3ca8 64b3
000001f0: 98b2 56b4 c2b0 c4b3 17af 6835 bcb1 3db4
-0.1035 0.211 -0.3005 -0.11255 -0.1866 0.101 -0.2114 -0.01611
-0.2374 -0.0746 0.3267 -0.2627 -0.02785 -0.1876 0.1553 0.328
-0.03775 0.1322 0.282 -0.2603 0.1274 0.221 -0.1376 -0.302
0.2278 -0.2119 -0.2008 0.0706 -0.1161 0.0358 -0.215 0.3267
-0.1295 0.133 -0.09753 0.2178 -0.3145 0.0742 0.2834 0.02122
-0.2568 0.0985 0.2313 -0.2157 -0.002905 0.339 0.239 -0.1658
-0.1561 0.2028 0.083 0.1943 -0.05453 0.297 0.1237 -0.2654
0.314 0.02104 -0.2405 0.3 -0.06757 0.003124 -0.1285 0.1489
0.2351 -0.1683 0.2502 -0.0329 -0.2289 -0.0786 0.3386 0.003046
0.354 0.171 -0.2439 -0.1259 -0.08954 -0.0578 -0.2559 -0.123
0.3687 0.193 0.3203 -0.05914 0.2224 0.1141 -0.2173 0.347
-0.01973 -0.296 0.06033 -0.265 0.03143 -0.0642 0.2637 0.1583
-0.1868 0.07837 -0.2876 0.3118 0.1772 -0.2247 0.309 -0.2156
-0.2847 -0.3228 -0.2418 0.2776 0.1608 0.11945 0.2417 -0.1738
-0.1097 0.2737 0.1049 0.2489 0.0987 -0.3105 0.08813 -0.1533
0.304 0.1278 -0.05435 -0.2117 0.02556 -0.2996 -0.2432 -0.1066
-0.3052 -0.3396 0.2343 -0.2905 -0.1877 -0.1718 -0.1309 0.0934
-0.2057 0.13 -0.344 0.2095 0.2028 0.03766 0.2057 0.05508
0.0925 -0.2585 -0.2837 0.05316 -0.2886 0.0812 0.2595 -0.2612
0.2411 0.3833 -0.0623 -0.11896 0.03415 -0.1394 -0.281 -0.06036
-0.05408 -0.0619 0.2125 0.1121 -0.1769 -0.001069 0.2546 -0.2524
-0.0353 0.1808 0.2734 -0.04724 0.2625 -0.2705 -0.1987 0.05588
0.0989 -0.01073 0.3662 -0.1901 0.2952 0.0374 0.005077 -0.19
0.2507 0.1886 -0.07367 0.2417 0.36 0.2332 -0.2786 -0.2441
-0.11194 -0.1672 0.3115 -0.191 -0.2705 0.326 -0.3167 0.1608
-0.1805 0.1974 -0.224 -0.1426 -0.1776 -0.292 0.2954 -0.3174
-0.2211 0.208 0.2603 -0.3135 0.0498 0.1671 -0.10486 0.06213
0.2217 -0.07654 -0.3074 0.2607 -0.2527 0.2847 -0.1857 -0.0344
0.392 0.2444 0.1364 -0.2308 0.2744 -0.3264 -0.0736 -0.1699
-0.147 -0.3062 -0.1454 -0.3093 -0.2627 0.289 0.344 -0.209
0.0771 0.2034 -0.1375 -0.2092 0.2386 -0.1376 -0.03308 -0.231
-0.206 -0.271 -0.1487 -0.2427 -0.1108 0.338 -0.1792 -0.265

model/position_output/MatMul f2 [2, 64]
00000000: 18a0 482e 28ae 5433 87b1 94b0 38ae 881c
00000010: 8031 bb30 c8ae 842e f2b0 fe20 8984 5aac
00000020: 392c e5b0 d924 b830 e51f ae30 1baf 792a
00000030: 542c 1cac 132f 1a98 4127 362a 6429 891c
00000040: 292a 1527 b730 1eb1 99ad 06a9 1930 94ab
00000050: 682d 6ab1 0832 75b1 cd30 c928 042a 3b32
00000060: 18b0 022c 4aa9 16b2 0bb1 a0ac 9ab0 83b0
00000070: 8323 7825 0327 60a6 fab0 6832 2e31 c3b1
00000080: ea31 bd2f 6532 8f2e bc2a 52b1 e12a f532
00000090: b7b0 ff30 45b1 0baa 2eb0 b7b0 5232 35ac
000000a0: 0aaf d32f eeb1 3faa 502c 8da8 71a9 1e28
000000b0: efb1 c6ac ac2d 622d 47b0 469c cc2d d82f
000000c0: a3b2 80ae bdaa 41ad 2820 36a2 e42c 2db0
000000d0: 39a9 14b2 bba0 9d28 7930 f82c 1e24 d530
000000e0: 692a 19b1 0eb0 1b2d aea4 d530 4b2d 8d13
000000f0: d319 ee2e 9faa 17b1 5bb2 6425 e82f 1eae
-0.007996 0.09814 -0.0962 0.229 -0.1727 -0.1431 -0.09717 0.004425
0.1719 0.1478 -0.10596 0.1018 -0.1545 0.00975 -6.92e-05 -0.068
0.066 -0.153 0.01894 0.1475 0.00771 0.1462 -0.111 0.05057
0.0676 -0.0642 0.11053 -0.002003 0.02834 0.04852 0.0421 0.00443
0.04813 0.02766 0.1473 -0.1599 -0.08746 -0.03925 0.128 -0.0592
0.0845 -0.1692 0.1885 -0.1705 0.15 0.03738 0.047 0.1947
-0.1279 0.0626 -0.04132 -0.1902 -0.1576 -0.07227 -0.1438 -0.141
0.01467 0.02136 0.02739 -0.0249 -0.1555 0.2002 0.1619 -0.18
0.1848 0.1209 0.1998 0.1025 0.0526 -0.1663 0.05374 0.2174
-0.1473 0.1561 -0.1647 -0.0472 -0.1306 -0.1473 0.1975 -0.06573
-0.11 0.12225 -0.1853 -0.0488 0.0674 -0.03555 -0.0425 0.03217
-0.1854 -0.0746 0.0886 0.0841 -0.1337 -0.004173 0.0906 0.12256
-0.2074 -0.10156 -0.05264 -0.0821 0.00812 -0.01213 0.0764 -0.1305
-0.0408 -0.19 -0.00924 0.03604 0.1398 0.07764 0.01608 0.151
0.05008 -0.1593 -0.1267 0.0798 -0.01828 0.151 0.0827 0.0009217
0.002844 0.1083 -0.05173 -0.159 -0.1986 0.02106 0.12354 -0.0956

model/dense_1/MatMul;model/dense_1/Relu;model/dense_1/BiasAdd f2 [256]
00000000: c7ae 733c 29ae 50bb 77b9 73b0 d8b1 693c
00000010: 6835 6932 8a3b bd34 7f3d 243b 0f3a 61a8
00000020: f33c a338 40b8 9d36 1c3a 27b3 8b38 033c
00000030: 43b1 3b3f 0b37 a23d bcb9 e5ad 2e39 13b3
00000040: d53b 893e d6b2 103e 433c 613e ac25 0bbc
00000050: 1fb9 d23c b43d 3c38 d0b4 573d e539 aeb7
00000060: cd3c a9ad 033f 1fb8 003e d532 04bc 20b8
00000070: 0438 8cb6 95ae eb2a d135 a0b6 18b9 aeb1
00000080: 81ae 6b34 49bc 5b3d a23e f334 e4b6 bf3e
00000090: 25b1 673d d13c beb9 3bba af32 67a3 b7ae
000000a0: dcb8 2db3 b430 163d 6d35 3636 74bb bb32
000000b0: 3c3c a8b7 9030 87b3 20b8 5c30 c5ad 9937
000000c0: e53c bd31 f338 9c3c 46b1 e830 ceb7 bf38
000000d0: a0b8 bc2e 6e3b 2430 2fb5 f8b0 43bc 52b4
000000e0: 17b0 903c b9b1 10b9 4f36 ac30 682c e121
000000f0: 343e 9e3b 84b8 483d a82f e039 8f35 e93d
00000100: eb39 d9b4 5c36 10b8 4bb1 cf39 74a9 673e
00000110: abb8 d1b1 0e3e 83b9 5ab9 c631 12bd f2b8
00000120: a5b3 073c 8e2f 9a3d 86b6 e532 a43a b9b9
00000130: ce32 4333 a43a e33d 3ca8 2839 563d d838
00000140: c3ba c4b1 6e32 6fac 7335 f22d 093e 5bba
00000150: 03bc f7b3 ffb7 64b0 3b3b 053d 6a3c 38b9
00000160: 5338 183d 453c d63d b2b7 f8b8 843a d0b1
00000170: 5c39 512a cbb5 3330 03b6 b629 c43a 22b4
00000180: 5214 b7af 582d 792c f838 063c fd3c 0eba
00000190: fbab 26ba 0326 83b1 1c3a cbab e03c 82a6
000001a0: 303d beb9 2639 cd38 4faf 3236 f730 0b33
000001b0: 89b6 d2a0 f53d aa2f 5b3b 6832 7daf ad3c
000001c0: 1a3e 35b9 6fb5 e13b 1526 22b4 bd3c 1430
000001d0: 593c abac ec3c d931 1340 e03d 7f35 bbaf
000001e0: ff38 9b2c ad3c b23d 583e e51e eb37 7bb6
000001f0: 8cb7 41b1 4f3d 27ba dab6 6c37 bcb5 4ba5
-0.1059 1.112 -0.09625 -0.914 -0.683 -0.139 -0.1826 1.103
0.338 0.2003 0.9424 0.2961 1.374 0.8926 0.7573 -0.0342
1.237 0.5796 -0.5312 0.4133 0.7637 -0.2235 0.568 1.003
-0.1644 1.808 0.4402 1.408 -0.717 -0.0921 0.6475 -0.2211
0.979 1.634 -0.2136 1.516 1.065 1.595 0.02216 -1.011
-0.64 1.205 1.426 0.5293 -0.3008 1.335 0.737 -0.48
1.2 -0.08844 1.753 -0.515 1.5 0.2135 -1.004 -0.5156
0.502 -0.4092 -0.10284 0.05405 0.3635 -0.414 -0.6367 -0.1775
-0.1016 0.2761 -1.071 1.339 1.658 0.3093 -0.4307 1.687
-0.1608 1.351 1.204 -0.718 -0.779 0.2089 -0.01446 -0.1049
-0.6074 -0.2242 0.147 1.271 0.339 0.3882 -0.9316 0.2103
1.059 -0.4785 0.1426 -0.2352 -0.5156 0.1362 -0.09015 0.4749
1.224 0.1793 0.6187 1.152 -0.1648 0.1533 -0.4878 0.5933
-0.578 0.1052 0.9287 0.1294 -0.324 -0.1553 -1.065 -0.27
-0.1278 1.141 -0.1788 -0.633 0.3943 0.146 0.06885 0.01148
1.551 0.952 -0.5645 1.32 0.1196 0.7344 0.3474 1.478
0.7397 -0.303 0.3975 -0.508 -0.1654 0.726 -0.0426 1.601
-0.5835 -0.1818 1.514 -0.689 -0.669 0.1804 -1.268 -0.618
-0.2389 1.007 0.11804 1.4 -0.4077 0.2155 0.83 -0.7153
0.2126 0.2269 0.83 1.472 -0.03308 0.6445 1.334 0.6055
-0.845 -0.1802 0.2009 -0.0693 0.3406 0.0929 1.509 -0.7944
-1.003 -0.2489 -0.4998 -0.1372 0.904 1.255 1.104 -0.6523
0.5405 1.273 1.067 1.459 -0.481 -0.621 0.8145 -0.1816
0.67 0.04935 -0.362 0.1312 -0.3757 0.04462 0.8457 -0.2583
0.001055 -0.12054 0.0835 0.0699 0.621 1.006 1.247 -0.757
-0.06235 -0.7686 0.02348 -0.1722 0.7637 -0.06088 1.219 -0.02542
1.297 -0.718 0.6436 0.6 -0.1142 0.3872 0.1552 0.2201
-0.4084 -0.009415 1.489 0.11975 0.9194 0.2002 -0.117 1.169
1.525 -0.651 -0.3396 0.985 0.02376 -0.2583 1.185 0.1274
1.087 -0.07294 1.23 0.1827 2.037 1.469 0.3435 -0.1208
0.6245 0.07196 1.169 1.424 1.586 0.006733 0.4949 -0.405
-0.4717 -0.1642 1.327 -0.769 -0.4282 0.4639 -0.3584 -0.02068
