251015/models/mlp.tflite (tflite, 370224 bytes, 16 tensors)

model/dense_1/MatMul;model/dense_1/Relu;model/dense_1/BiasAdd f4 [64]
0.33257192 0.6711499 0.89460146 -0.64257854 -0.08570947 0.50651264 0.22623423 0.7946739
1.4142207 0.21454276 0.72272563 1.2137643 0.71814835 1.2722411 -0.98270416 0.45706138
-0.9702451 1.0838726 1.223844 0.5869219 1.6029986 0.6335219 0.28804675 -0.30905917
-0.7914445 0.88396555 0.7669063 1.2470313 1.1437149 -0.59962386 0.82820445 0.4922002
0.41101173 0.7702686 0.9362266 0.86199594 1.178992 1.0501542 0.52994287 1.0917472
0.22445366 0.7656201 0.31298518 -0.87835854 1.2689422 1.3431039 -0.5564001 0.19390978
0.7603132 1.2069961 0.96480167 0.8763089 0.8719115 0.5225563 0.27843508 0.2341642
1.2754488 0.39076054 0.9340292 0.95257694 0.60671914 -0.25160164 0.8295579 0.9168989
00000000: de46 aa3e 7bd0 2b3f 9a04 653f 0780 24bf
00000010: 7288 afbd d0aa 013f f2a9 673e c06f 4b3f
00000020: 2f05 b53f 19b1 5b3e 8c04 393f a15c 9b3f
00000030: 92d8 373f ccd8 a23f 8092 7bbf f303 ea3e
00000040: fc61 78bf 56bc 8a3f eca6 9c3f 8340 163f
00000050: 0f2f cd3f 7e2e 223f dd7a 933e 013d 9ebe
00000060: 1b9c 4abf 914b 623f f953 443f b99e 9f3f
00000070: 4065 923f f380 19bf 3505 543f aa01 fc3e
00000080: 2170 d23e 5330 453f 8cac 6f3f c4ab 5c3f
00000090: 36e9 963f 746b 863f 56aa 073f 5fbe 8b3f
000000a0: 2ed7 653e aeff 433f 983f a03e 1bdc 60bf
000000b0: b36c a23f d4ea ab3f 3d70 0ebf 4990 463e
000000c0: e3a3 423f d97e 9a3f 3efd 763f c855 603f
000000d0: 9835 5f3f 40c6 053f 0b8f 8e3e bdc8 6f3e
000000e0: e841 a33f c411 c83e 8a1c 6f3f 15dc 733f
000000f0: f251 1b3f eed1 80be e85d 543f e3b9 6a3f

model/batch_normalization/batchnorm/mul_1;model/batch_normalization/batchnorm/add_1;model/dense_1/MatMul;model/dense_1/Relu;model/dense_1/BiasAdd f4 [64, 128]
0.08567134 -0.24363138 0.26476273 -0.12325098 0.010155259 -0.0034605914 0.017138228 -0.0019587174
-0.26616645 0.031586096 0.022621952 0.041939493 0.01872321 -0.13365887 -0.25011212 0.19552578
-0.07439135 -0.018855728 0.012719938 0.077808864 -0.0977876 0.07927261 0.07786354 -0.03673082
-0.029571144 0.17454216 0.09773923 0.08534465 -0.024897119 0.0045275404 -0.13746575 0.08726942
0.1032307 0.2460305 -0.13206434 -0.063844495 -0.08437145 0.020859342 0.11122849 0.19632576
-0.02134558 0.09348743 -0.07385642 0.108981706 -0.108778104 -0.12645862 0.051613115 0.09098902
-0.2484978 0.031406585 0.3938073 -0.11688133 -0.09821281 -0.028149419 -0.13227026 -0.37519434
0.14566812 -0.08663011 -0.099761926 0.21066844 0.39018756 0.03129027 0.10018948 -0.09369077
0.010326071 -0.105345935 -0.012311002 -0.086143635 0.052581858 0.09887878 0.09621772 0.050168373
-0.11398715 0.17683885 0.2326262 0.012514257 0.057966135 0.08335556 -0.11816935 -0.20263366
-0.33385146 -0.035768762 -0.14159857 -0.20409147 -0.066000305 0.13846827 -0.13332522 0.29294556
0.1425925 -0.1034814 0.025510881 -0.04405081 -0.07221407 0.021986544 0.010759466 0.14650235
0.0024899729 -0.14943704 0.24753752 -0.078408755 -0.046369012 -0.1391959 -0.047913764 0.012906113
0.19719651 -0.20336987 0.08899893 -0.048251007 -0.0012356772 -0.076423004 0.0034510454 -0.067073636
-0.019154783 -0.06658116 -0.01914187 -0.023362089 0.017476246 -0.15660849 0.0049604373 -0.009366369
-0.03338143 -0.076383814 0.11728757 0.04257288 0.04727592 0.054017752 -0.07863072 0.1503125
-0.08979489 -0.1951593 0.06085746 -0.1295542 0.05393204 0.025724236 -0.004227202 0.0045365896
-0.48597747 -0.21109168 -0.08915851 -0.026877694 -0.18360893 0.07924993 0.14883554 -0.12682965
0.025267666 -0.006453364 -0.017817767 0.0014684871 -0.089869365 -0.07198428 -0.16919062 0.005435225
0.20853607 0.13280514 0.10863358 -0.028059179 -0.010790302 -0.06889884 0.10120516 0.019738324
-0.05182392 0.1725898 0.24670231 0.16989937 -0.16055639 -0.14468865 0.053187836 0.07188458
-0.03185371 0.020680796 -0.02680151 -0.108563244 0.07985486 -0.07764353 -0.028908743 0.13028252
-0.41849506 -0.016483435 -0.11893894 0.47418523 0.047503237 0.041409925 -0.116129085 -0.26567194
-0.14448039 -0.12671512 0.16736469 -0.22137812 0.33655888 0.0573636 0.04499762 0.050483532
-0.13684015 0.2464705 -0.22296073 -0.01667011 -0.11438217 -0.021122448 0.1538548 0.08126881
0.05822875 0.24810135 0.027053712 -0.027855953 0.01831659 0.086043015 -0.07647927 -0.10445989
-0.27649823 -0.025050282 -0.27132982 -0.08665705 -0.092597514 0.028082162 -0.03156928 -0.6090117
-0.15943831 -0.14038023 0.021359567 -0.17031439 0.066842556 0.004267816 0.12202741 0.18319589
-0.06144348 0.10087459 -0.038306475 0.19146484 0.040639874 0.112254485 -0.06663811 -0.11445397
0.18445928 -0.096031375 0.021287 -0.13793454 0.027842993 0.0027397939 -0.09846185 0.13871655
-0.007791876 -0.020837346 -0.018852727 -0.026840625 0.008014112 0.0015930489 0.10906541 0.021880442
0.18514013 0.029358273 -0.11062954 -0.08162946 -0.21210805 0.13270186 -0.05174699 -0.09869575
00000000: 7574 af3d 817a 79be fb8e 873e 036b fcbd
00000010: 3e62 263c 17cb 62bb 7865 8c3c d35d 00bb
00000020: f846 88be 6c60 013d ac51 b93c bfc8 2b3d
00000030: 6b61 993c dfdd 08be b20e 80be e937 483e
00000040: 7e5a 98bd 5477 9abc 4967 503c 415a 9f3d
00000050: dd44 c8bd ae59 a23d eb76 9f3d 0e73 16bd
00000060: 2f3f f2bc 2ebb 323e 812b c83d 2dc9 ae3d
00000070: 0bf5 cbbc c35b 943b d2c3 0cbe 4fba b23d
00000080: 9e6a d33d 6bef 7b3e e03b 07be e7c0 82bd
00000090: f0ca acbd 36e1 aa3c c3cb e33d 9f09 493e
000000a0: eddc aebc 5676 bf3d 0942 97bd cd31 df3d
000000b0: 0ec7 debd 5e7e 01be 4668 533d 7458 ba3d
000000c0: 3576 7ebe 31a4 003d 1ca1 c93e 7b5f efbd
000000d0: cc23 c9bd 9c99 e6bc db71 07be 7919 c0be
000000e0: 062a 153e 216b b1bd fb4f ccbd 78b9 573e
000000f0: aac6 c73e 3a2a 003d 2430 cd3d f2e0 bfbd
00000100: ae2e 293c 9cbf d7bd 16b4 49bc 136c b0bd
00000110: 1360 573d f580 ca3d cc0d c53d 5a7d 4d3d
00000120: 1872 e9bd 3e15 353e 9035 6e3e 9908 4d3c
00000130: e66d 6d3d 52b6 aa3d c602 f2bd 337f 4fbe
00000140: 94ee aabe 4482 12bd 37ff 10be 5bfd 50be
00000150: 2b2b 87bd a0ca 0d3e 6886 08be f6fc 953e
00000160: c503 123e 0eee d3bd 32fc d03c 9f6e 34bd
00000170: f8e4 93bd 201d b43c 7948 303c b604 163e
00000180: d02e 233b 0606 19be 7a7a 7d3e c594 a0bd
00000190: 6fed 3dbd 5f89 0ebe 3941 44bd 2974 533c
000001a0: e2ed 493e 3140 50be 1245 b63d d9a2 45bd
000001b0: 72f6 a1ba aa83 9cbd ef2a 623b e75d 89bd
000001c0: 7eea 9cbc b45b 88bd 69cf 9cbc da61 bfbc
000001d0: 582a 8f3c fa5d 20be 2a8b a23b 6675 19bc
000001e0: f7ba 08bd 1e6f 9cbd 7734 f03d e660 2e3d
000001f0: 65a4 413d b841 5d3d 2509 a1bd 85eb 193e
00000200: 62e6 b7bd d7d7 47be ac45 793d dba9 04be
00000210: d8e7 5c3d a2bb d23c 5784 8abb aca7 943b
00000220: 0ad2 f8be 6b28 58be bd98 b6bd 9c2e dcbc
00000230: fb03 3cbe ca4d a23d 5868 183e a2df 01be
00000240: 23fe ce3c be76 d3bb 91f6 91bc 407a c03a
00000250: 6e0d b8bd 7f6c 93bd 4e40 2dbe f919 b23b
00000260: 7b8a 553e 12fe 073e 487b de3d 5ddc e5bc
00000270: cfc9 30bc d61a 8dbd a744 cf3d 44b2 a13c
00000280: 5245 54bd 61bb 303e 889f 7c3e 1afa 2d3e
00000290: e568 24be 4329 14be 7ddb 593d 3938 933d
000002a0: 0979 02bd c66a a93c d78e dbbc 6856 debd
000002b0: f28a a33d 9203 9fbd 07d2 ecbc c868 053e
000002c0: fc44 d6be 4508 87bc 4296 f3bd 68c8 f23e
000002d0: c192 423d 749d 293d 16d5 edbd 2706 88be
000002e0: abf2 13be 9cc1 01be a661 2b3e f2b0 62be
000002f0: 7251 ac3e 18f6 6a3d 6d4f 383d d2c7 4e3d
00000300: d31f 0cbe c362 7c3e d14f 64be c18f 88bc
00000310: 3341 eabd fc08 adbc 1d8c 1d3e 4370 a63d
00000320: 4581 6e3d 480e 7e3e bf9f dd3c 2b32 e4bc
00000330: ac0c 963c 5237 b03d 2aa1 9cbd 11ef d5bd
00000340: 2d91 8dbe 4036 cdbc beeb 8abe 4079 b1bd
00000350: c4a3 bdbd 900c e63c ca4e 01bd 31e8 1bbf
00000360: cc43 23be d6bf 0fbe 42fa ae3c e566 2ebe
00000370: c0e4 883d 09d9 8b3b 82e9 f93d b497 3b3e
00000380: 29ac 7bbd 5697 ce3d 40e7 1cbd 5c0f 443e
00000390: ff75 263d aee5 e53d 9079 88bd d866 eabd
000003a0: e5e2 3c3e 19ac c4bd 1362 ae3c b63e 0dbe
000003b0: fd16 e43c 1d8e 333b 5ea6 c9bd b60b 0e3e
000003c0: fe52 ffbb 15b3 aabc 0971 9abc dfe0 dbbc
000003d0: 9f4d 033c dacd d03a b05d df3d 9d3e b33c
000003e0: 6095 3d3e c380 f03c be91 e2bd 592d a7bd
000003f0: da32 59be ffe2 073e a7f4 53bd ff20 cabd

model/dense_2/MatMul;model/dense_2/Relu;model/dense_2/BiasAdd f4 [64]
-0.365118 -1.2709675 1.6719211 -0.7926447 0.19855104 0.92767817 1.1187505 0.2146995
1.108944 0.15056026 -0.41944662 -0.026354522 -0.29930967 1.35454 0.73757136 0.5566514
-0.46472067 1.0849249 0.2511135 -0.7841899 -0.314907 -0.426735 -1.072246 -0.13831042
0.01756398 0.3262127 0.20469029 1.3418585 -0.016699845 -0.9012013 0.072346576 0.6530726
0.7077042 0.5837594 0.35972145 -0.48803914 0.7289038 0.03689852 0.2135454 0.4115773
-0.1492545 -0.098198876 -0.13486269 0.15409894 0.4279313 1.6300192 1.3362646 0.13267389
0.18067114 0.32522073 0.4277535 0.1899157 -0.24873787 -0.5472218 -0.31284356 -0.2866925
0.319182 -0.74805844 -0.7042293 -0.13804658 -0.855175 0.6986622 -0.36162418 0.7229186
00000000: bff0 babe 10af a2bf 8301 d63f c3ea 4abf
00000010: f750 4b3e 517c 6d3f 3733 8f3f 30da 5b3e
00000020: e1f1 8d3f 782c 1a3e b5c1 d6be 70e5 d7bc
00000030: 1e3f 99be 9161 ad3f 7ad1 3c3f b580 0e3f
00000040: deef edbe d2de 8a3f f391 803e abc0 48bf
00000050: 7e3b a1be 037d dabe 5b3f 89bf 3fa1 0dbe
00000060: 56e2 8f3c 5a05 a73e 559a 513e 05c2 ab3f
00000070: 1dce 88bc 21b5 66bf 712a 943d c42f 273f
00000080: 1a2c 353f 4271 153f 692d b83e 44e0 f9be
00000090: 7099 3a3f e722 173d a5ab 5a3e 43ba d23e
000000a0: 2cd6 18be 7e1c c9bd 7219 0abe 1dcc 1d3e
000000b0: d019 db3e 78a4 d03f b80a ab3f aadb 073e
000000c0: db01 393e 5583 a63e 8202 db3e 4379 423e
000000d0: 24b5 7ebe ba16 0cbf 082d a0be 5cc9 92be
000000e0: d36b a33e c280 3fbf 5f48 34bf 155c 0dbe
000000f0: c0ec 5abf 87db 323f ce26 b9be 3211 393f

model/batch_normalization_1/batchnorm/mul_1;model/batch_normalization_1/batchnorm/add_1;model/dense_2/MatMul;model/dense_2/Relu;model/dense_2/BiasAdd f4 [64, 64]
-0.1718922 -0.118917905 -0.0034201634 -0.06993645 0.16397752 -0.15388617 0.10532566 0.21371575
0.087240815 -0.15421382 0.11505863 0.10568413 -0.04047547 0.011692697 0.066071555 0.10164887
0.14379878 0.111857764 -0.12741101 -0.12983397 0.018643247 -0.09515426 -0.17185126 -0.13707231
-0.06532132 0.17876694 -0.032577384 -0.06010626 0.31519872 0.04535167 -0.17524377 -0.1730503
-0.13382092 -0.038545143 -0.04137028 0.18420129 -0.19675337 0.0034959652 -0.016074833 -0.07257631
0.12191983 -0.16230738 0.14746748 -0.11248802 0.18370003 -0.058047168 0.07535074 -0.04879148
-0.059876572 -0.13891988 -0.033288505 -0.05992727 0.103793375 0.0013488398 -0.000509669 0.20412554
0.12132639 0.05544609 -0.06960245 0.013896692 0.15051448 -0.14732414 0.13247511 0.2262758
-0.09093352 0.14438434 0.15481623 0.12311648 -0.059773058 0.042219914 0.18817468 0.14689596
-0.25592178 0.050392665 0.026220838 0.18821643 -0.024622982 0.10162961 -0.09784885 0.066561915
-0.1453966 0.03401009 0.20045951 -0.023447618 -0.050863232 0.06131724 -0.044599146 0.118671924
-0.0012851447 0.04184432 -0.07539422 -0.16316018 -0.0408191 0.027075138 -0.10090679 0.18414752
-0.010992297 -0.01991574 0.028876115 0.0063676117 0.06433948 0.059363097 -0.021009684 -0.159962
-0.05022328 0.029711269 0.17293467 0.13750423 0.091402404 0.10839813 0.07024489 -0.13849442
0.029475424 -0.015782103 0.20763408 0.13945368 -0.024333533 0.0875874 0.089018375 0.10031719
-0.055008434 -0.0032894588 0.06687177 -0.092540465 -0.051519167 -0.1570891 0.14594696 0.1757456
0.029964905 -0.038878866 -0.12454904 -0.1620616 0.14163941 -0.090037614 -0.039758366 0.11816697
-0.2135057 -0.05109792 -0.08091961 -0.16893604 0.115267605 0.07979087 0.0090299975 -0.13409853
0.03596578 -0.19726092 -0.27728954 0.041356288 -0.13155761 -0.18847327 -0.19581012 0.17590983
-0.06278759 -0.13657466 -0.13674761 -0.1077752 0.09433689 -0.15255186 -0.0557137 0.018302625
0.07419753 -0.038551755 0.11652086 -0.101183884 -0.01899564 0.09756142 0.06068901 -0.19174755
0.040571887 -0.11828489 0.22772561 -0.12919118 -0.1685572 0.040203024 -0.05737758 0.019816881
0.031278018 -0.08231756 -0.13544755 0.103584394 -0.13986543 -0.044796936 0.02039886 0.02327976
-0.19718613 -0.09768552 -0.0695593 0.044389255 0.03951882 0.028823337 -0.14669618 -0.060438454
-0.013682139 0.17706634 -0.12126978 -0.0041962387 0.1509695 -0.014840665 -0.1392799 -0.06822429
0.17066997 -0.06551668 0.16507642 -0.14969292 -0.037133127 0.18624085 0.07219988 -0.022966461
-0.06334486 0.07946466 0.10480956 0.08188968 -0.026645778 0.08830418 -0.20293495 0.17275776
0.1071064 -0.2105608 -0.01831613 0.050053112 -0.09946334 0.242577 0.08368608 0.110924125
0.047241244 0.0120986225 0.04854433 0.036254857 0.11293258 -0.16307482 -0.09073907 -0.08583528
-0.020733697 0.09951082 -0.14636327 0.06517304 -0.13006918 -0.2518387 0.15817744 -0.0715038
0.1544784 0.2604651 -0.057595123 -0.09254544 0.2170137 -0.16044277 0.16172943 0.15078361
0.14009906 0.11859364 0.055937685 0.09831072 -0.06232268 -0.016452279 -0.088733956 -0.008427719
00000000: 8204 30be 3b8b f3bd d224 60bb d73a 8fbd
00000010: b9e9 273e 5694 1dbe fbb4 d73d 4dd8 5a3e
00000020: 50ab b23d 3aea 1dbe dca3 eb3d ec70 d83d
00000030: 9bc9 25bd ba92 3f3c 8650 873d 482d d03d
00000040: fd3f 133e af15 e53d 0878 02be 32f3 04be
00000050: b9b9 983c 3de0 c2bd c7f9 2fbe af5c 0cbe
00000060: 2fc7 85bd ae0e 373e dd6f 05bd fb31 76bd
00000070: ba61 a13e acc2 393d 1a73 33be 1934 31be
00000080: 5a08 09be 83e1 1dbd e273 29bd 439f 3c3e
00000090: b779 49be 901c 653b 5eaf 83bc e3a2 94bd
000000a0: 1bb1 f93d e833 26be b701 173e 1e60 e6bd
000000b0: dc1b 3c3e dec2 6dbd 7d51 9a3d 93d9 47bd
000000c0: 2341 75bd 0341 0ebe 8759 08bd 4c76 75bd
000000d0: 9f91 d43d 8ecb b03a 4f9b 05ba 4906 513e
000000e0: f879 f83d 701b 633d bb8b 8ebd f3ae 633c
000000f0: 7820 1a3e 24dc 16be 8ea7 073e d8b4 673e
00000100: 5a3b babd 7dd9 133e 2588 1e3e 7e24 fc3d
00000110: 98d4 74bd caee 2c3d ddb0 403e e56b 163e
00000120: 2e08 83be 8a68 4e3d 15cd d63c cfbb 403e
00000130: 23b6 c9bc 2f23 d03d fa64 c8bd 9d51 883d
00000140: d9e2 14be 2a4e 0b3d 4245 4d3e 3815 c0bc
00000150: f755 50bd c927 7b3d 98ad 36bd 440a f33d
00000160: 4d72 a8ba f364 2b3d 4968 9abd 7613 27be
00000170: ee31 27bd aecc dd3c 38a8 cebd 2b91 3c3e
00000180: 0919 34bc 5526 a3bc 9a8d ec3c 66a7 d03b
00000190: 6bc4 833d b826 733d 801c acbc 14cd 23be
000001a0: edb6 4dbd 0c65 f33c c915 313e e9cd 0c3e
000001b0: 2f31 bb3d d7ff dd3d 8edc 8f3d 7bd1 0dbe
000001c0: 7276 f13c 7849 81bc 079e 543e f2cc 0e3e
000001d0: 1e57 c7bc 0661 b33d 444f b63d 1973 cd3d
000001e0: 8650 61bd f693 57bb 11f4 883d db85 bdbd
000001f0: c305 53bd f7db 20be 1f73 153e a8f6 333e
00000200: f678 f53c 723f 1fbd 9113 ffbd 7af3 25be
00000210: ec09 113e a465 b8bd abd9 22bd 8601 f23d
00000220: 3da1 5abe 0d4c 51bd 2eb9 a5bd 92fd 2cbe
00000230: 6c11 ec3d 6569 a33d 8ef2 133c 2051 09be
00000240: db50 133d c4fe 49be e5f8 8dbe 3665 293d
00000250: 0ab7 06be 23ff 40be 7382 48be b521 343e
00000260: c896 80bd 3ada 0bbe 9107 0cbe 3eb9 dcbd
00000270: b333 c13d 8e36 1cbe 0c34 64bd 63ef 953c
00000280: e0f4 973d 72e8 1dbd 7da2 ee3d 7f39 cfbd
00000290: bf9c 9bbc 48ce c73d 0a95 783d 7859 44be
000002a0: b52e 263d 593f f2bd e730 693e b14a 04be
000002b0: 429a 2cbe edab 243d c104 6bbd 0357 a23c
000002c0: 611d 003d 1c96 a8bd c3b2 0abe 0e24 d43d
000002d0: e238 0fbe fe7c 37bd 831b a73c 32b5 be3c
000002e0: 29eb 49be 590f c8bd 1b75 8ebd 82d1 353d
000002f0: 7cde 213d eb1e ec3c 8637 16be 508e 77bd
00000300: 0d2b 60bc e150 353e 4a5c f8bd 9a80 89bb
00000310: c097 1a3e 4326 73bc 649f 0ebe 2db9 8bbd
00000320: 1cc4 2e3e 9c2d 86bd cb09 293e 1a49 19be
00000330: e818 18bd ecb5 3e3e 88dd 933d 2924 bcbc
00000340: f3ba 81bd 5ebe a23d 65a6 d63d c7b5 a73d
00000350: 3f48 dabc d2d8 b43d 2ece 4fbe 69e7 303e
00000360: 9a5a db3d 409d 57be b50b 96bc 7e04 4d3d
00000370: 70b3 cbbd 1b66 783e 9c63 ab3d 302c e33d
00000380: 0980 413d 4d39 463c 6bd6 463d f97f 143d
00000390: 3249 e73d 16fd 26be 68d5 b9bd 68ca afbd
000003a0: b7d9 a9bc 54cc cb3d 41e0 15be 7179 853d
000003b0: db30 05be 01f1 80be 44f9 213e 9670 92bd
000003c0: 962f 1e3e ae5b 853e dde8 6bbd 7788 bdbd
000003d0: d738 5e3e 1c4b 24be 669c 253e 0567 1a3e
000003e0: 2176 0f3e 39e1 f23d ea1e 653d 2157 c93d
000003f0: 1146 7fbd eec6 86bc 26ba b5bd 6a14 0abc

model/dense_3/MatMul;model/dense_3/Relu;model/dense_3/BiasAdd f4 [64]
1.4268297 -0.47765768 0.39709333 0.74173105 0.38036337 1.095347 1.8254299 0.66710323
0.83645856 0.31534892 0.6450255 0.64362967 -0.30507737 1.3274809 -0.29880846 -0.7726024
-0.32694426 0.18378381 -0.80916333 1.1685255 0.8761779 0.6488829 1.4320515 0.12447369
-0.14046025 0.38357517 0.32748368 0.4244893 0.21040334 0.59131885 -0.5373736 1.1192478
0.961766 0.089801304 0.39683947 1.0661722 -0.2416211 -0.8391316 -0.19094233 1.0459608
0.7880806 -0.5921042 -0.14760919 -0.040998038 -0.029827036 0.35696808 0.07386855 1.6940981
0.40167812 0.45293772 -0.44173628 0.5373655 0.2505899 0.762239 0.35041437 0.029778065
-0.054529686 0.6577086 0.101077415 0.6439034 0.51917493 0.4417325 1.1160572 -0.42520586
00000000: 5ba2 b63f 8c8f f4be d14f cb3e 16e2 3d3f
00000010: fdbe c23e 5534 8c3f b0a7 e93f 47c7 2a3f
00000020: 2622 563f 6a75 a13e 6420 253f eac4 243f
00000030: 1a33 9cbe e5ea a93f 6cfd 98be 45c9 45bf
00000040: 3d65 a7be d331 3c3e 5425 4fbf 3e92 953f
00000050: 324d 603f 311d 263f 774d b73f 10ec fe3d
00000060: d0d4 0fbe f763 c43e f1ab a73e a956 d93e
00000070: f973 573e ac60 173f 5191 09bf 8343 8f3f
00000080: 4c36 763f bfe9 b73d 8b2e cb3e 5578 883f
00000090: 866b 77be 54d1 56bf 6386 43be 0be2 853f
000000a0: a6bf 493f 2494 17bf dd26 17be 8fed 27bd
000000b0: d457 f4bc 85c4 b63e 6548 973d 35d8 d83f
000000c0: c1a8 cd3e 74e7 e73e 422b e2be c990 093f
000000d0: 524d 803e 1822 433f 8369 b33e 21f1 f33c
000000e0: 855a 5fbd 975f 283f ad01 cf3d dad6 243f
000000f0: a6e8 043f c32a e23e f6da 8e3f 95b4 d9be

model/batch_normalization_1/batchnorm/mul_1;model/batch_normalization_1/batchnorm/add_1;model/dense_3/MatMul;model/dense_3/Relu;model/dense_3/BiasAdd f4 [64, 64]
-0.2394993 -0.22856437 0.0019756653 -0.1746024 -0.21468024 -0.05183943 0.10469773 -0.054343205
0.21429604 -0.0990432 0.10482918 -0.021644088 -0.072626255 -0.12005773 -0.14713332 -0.079840295
-0.21517211 -0.052656263 -0.088941745 -0.020461906 -0.08903834 -0.0004580612 0.09839969 -0.19224635
0.10286094 0.3264162 0.17226961 -0.030985847 -0.027988618 -0.11140524 0.11439086 0.0012430334
-0.14097811 0.079843834 0.043501478 0.118291676 -0.14967442 -0.18503964 -0.11711772 0.09813508
0.11675509 -0.16448979 0.077475734 -0.05351517 -0.16476974 -0.00029835792 -0.035132837 0.044444613
-0.11802787 0.011914694 -0.023686606 0.011019167 -0.006713335 0.10260605 -0.24258943 -0.024815084
0.24290586 -0.1361637 0.0905341 -0.048899867 -0.16582914 0.058972828 -0.15738744 -0.30848208
0.19487077 0.13030446 -0.0678879 -0.026105097 0.1342861 0.1194498 -0.083821215 -0.17102523
0.1861934 -0.037842173 0.13011943 -0.06934656 -0.13520128 -0.09735076 -0.15980406 0.010313871
0.13930519 0.25812432 0.036383614 -0.18354073 0.016904276 0.033795867 0.12208381 0.08581733
0.14178675 -0.010703357 0.06839357 0.07807027 -0.059355058 0.10717974 -0.16386975 0.067177236
0.031165019 0.055331886 -0.022201512 -0.031343676 0.04316256 -0.23600154 0.12755284 -0.014867503
-0.12523797 -0.00093440263 0.073396064 -0.12911795 -0.10918385 -0.17536646 0.03287003 0.14808542
0.11983232 0.2545232 -0.03837427 0.03230868 0.10023767 -0.11171089 -0.06343775 0.026692715
-0.010076346 -0.008718433 0.013041311 0.083276354 0.064643025 0.20933522 -0.08450882 -0.07016333
-0.16968977 -0.25475046 0.06040493 0.09378087 -0.027992496 0.089990236 -0.0900894 -0.16665003
-0.064376794 -0.13590792 0.21205115 -0.18470715 -0.19594282 0.025936477 0.08214058 0.12503456
-0.10549451 0.21448952 0.2252304 0.04597752 0.14429969 0.19056964 0.01647992 -0.039493017
0.017086364 -0.12525405 -0.04668663 0.15788919 -0.12009834 -0.02332013 -0.27256453 0.1206554
0.2115187 -0.2516705 -0.116550386 0.07327731 -0.020416956 -0.1475959 -0.062430836 0.18253948
0.018576017 0.08428065 -0.14909226 -0.09379945 -0.08362534 0.08319323 -0.06346038 -0.1523555
-0.07900524 0.28366676 0.16131121 0.004591568 -0.123451024 -0.14828338 -0.10067328 -0.025109094
0.036320265 0.060631886 -0.059305307 0.26765844 -0.047512416 0.047861923 -0.14333946 -0.09885704
0.087560564 0.10746434 -0.07205235 -0.008770661 0.096915476 0.04580486 0.033410795 -0.07031883
0.20438428 -0.087094985 -0.029552776 -0.08443934 0.03833871 0.114051856 0.09376955 -0.118901856
-0.16878483 0.20287271 0.15786834 -0.15930972 0.20075841 -0.07886432 -0.086041726 0.03385445
0.07972475 -0.19206391 0.042323306 -0.08811669 -0.16270201 -0.085176244 -0.007802374 0.06382981
0.04698371 0.027979016 0.166908 -0.08128931 0.04858865 -0.071028054 -0.1896164 -0.1769101
-0.15957941 0.05762296 0.12679671 0.05684014 -0.058580056 -0.1255567 -0.00018092495 -0.058152992
-0.09766214 0.19735394 -0.096683025 -0.23556343 -0.23375334 -0.124534234 -0.07964421 -0.0030089144
-0.049911615 -0.18556689 0.22973302 -0.16389695 0.03974355 0.057234474 0.022918658 -0.16214596
00000000: 4e3f 75be c70c 6abe 2a7a 013b f9ca 32be
00000010: 23d5 5bbe 9555 54bd c36b d63d fb96 5ebd
00000020: 6c70 5b3e 29d7 cabd aeb0 d63d f14e b1bc
00000030: 13bd 94bd d4e0 f5bd 1eaa 16be 4f83 a3bd
00000040: 1456 5cbe 18ae 57bd 1727 b6bd ba9f a7bc
00000050: bc59 b6bd ef27 f0b9 c785 c93d 3adc 44be
00000060: c2a8 d23d 0620 a73e 7267 303e 08d6 fdbc
00000070: 6348 e5bc 6e28 e4bd c145 ea3d 48ed a23a
00000080: 915c 10be 2a85 a33d 9b2e 323d e842 f23d
00000090: 4044 19be 087b 3dbe 6adb efbd 0bfb c83d
000000a0: 4b1d ef3d 0370 28be 99ab 9e3d b932 5bbd
000000b0: 66b9 28be ec6c 9cb9 73e7 0fbd 8e0b 363d
000000c0: 99b8 f1bd d935 433c 6a0a c2bc bc89 343c
000000d0: 89fb dbbb 1f23 d23d 5d69 78be 0149 cbbc
000000e0: 50bc 783e 7f6e 0bbe f169 b93d 3a4b 48bd
000000f0: 1dcf 29be 7e8d 713d 2c2a 21be 5df1 9dbe
00000100: 348c 473e 886e 053e d008 8bbd 5bda d5bc
00000110: 4c82 093e 19a2 f43d 75aa abbd 3d21 2fbe
00000120: 7ca9 3e3e 6500 1bbd 073e 053e 9205 8ebd
00000130: 3472 0abe d65f c7bd ada3 23be 83fb 283c
00000140: 05a6 0e3e df28 843e fc06 153d 1af2 3bbe
00000150: d67a 8a3c 896d 0a3d 1407 fa3d ffc0 af3d
00000160: 8c30 113e 225d 2fbc ee11 8c3d 4ee3 9f3d
00000170: 4a1e 73bd 0d81 db3d 79cd 27be 3894 893d
00000180: c84d ff3c b0a3 623d f2df b5bc 3a62 00bd
00000190: 39cb 303d 63aa 71be 369d 023e d496 73bc
000001a0: 623e 00be b3f2 74ba ad50 963d 7f37 04be
000001b0: c89b dfbd 4493 33be b9a2 063d b4a3 173e
000001c0: a66a f53d dd50 823e 572e 1dbd 1b56 043d
000001d0: 6849 cd3d aec8 e4bd a7eb 81bd aeaa da3c
000001e0: 4217 25bc c2d7 0ebc 39ab 553c cb8c aa3d
000001f0: 9063 843d f95b 563e f612 adbd cbb1 8fbd
00000200: 28c3 2dbe a76e 82be 296b 773d 2f10 c03d
00000210: 8550 e5bc cd4c b83d cb80 b8bd 4ea6 2abe
00000220: fbd7 83bd 722b 0bbe f023 593e df23 3dbe
00000230: 3ca5 48be bc78 d43c 5239 a83d 0f09 003e
00000240: 810d d8bd 24a3 5b3e cca2 663e ed52 3c3d
00000250: 4cc3 133e b024 433e e600 873c 6ec3 21bd
00000260: b4f8 8b3c 9942 00be 7b3a 3fbd b4ad 213e
00000270: 1ef6 f5bd db09 bfbc 948d 8bbe 2e1a f73d
00000280: 5c98 583e f5da 80be f8b1 eebd 6a12 963d
00000290: 7641 a7bc 6123 17be 7ab7 7fbd a1eb 3a3e
000002a0: bb2c 983c 559b ac3d a4ab 18be ed19 c0bd
000002b0: c343 abbd 3661 aa3d 84f7 81bd 1503 1cbe
000002c0: 80cd a1bd c53c 913e c42e 253e dd74 963b
000002d0: e4d3 fcbd 99d7 17be cb2d cebd 96b1 cdbc
000002e0: 8fc4 143d 2459 783d 1fea 72bd 870a 893e
000002f0: 619c 42bd dd0a 443d 94c7 12be 8f75 cabd
00000300: f452 b33d 4416 dc3d 2f90 93bd d2b2 0fbc
00000310: 9f7b c63d e09d 3b3d c2d9 083d 5203 90bd
00000320: 1d4a 513e db5e b2bd aa18 f2bc 88ee acbd
00000330: 0d09 1d3d 0594 e93d 400a c03d d182 f3bd
00000340: eed5 2cbe ddbd 4f3e 3da8 213e 1622 23be
00000350: 9d93 4d3e 9e83 a1bd a536 b0bd f7aa 0a3d
00000360: bb46 a33d 67ac 44be 345b 2d3d 8676 b4bd
00000370: 5b9b 26be e270 aebd 0fab ffbb 34b9 823d
00000380: fe71 403d 4034 e53c eee9 2a3e 027b a6bd
00000390: e404 473d 2877 91bd cd2a 42be ec27 35be
000003a0: c968 23be 0e06 6c3d ffd6 013e 35d1 683d
000003b0: a4f1 6fbd f091 00be acb6 3db9 d531 6ebd
000003c0: 1703 c8bd 2717 4a3e c001 c6bd 8a37 71be
000003d0: 095d 6fbe ce0b ffbd 811c a3bd 3531 45bb
000003e0: 1f70 4cbd 3f05 3ebe 223f 6b3e 9ad4 27be
000003f0: 22ca 223d b26e 6a3d e9bf bb3c 9709 26be

model/dense_4/MatMul;model/dense_4/Relu;model/dense_4/BiasAdd f4 [64]
0.04056896 -0.12790072 -0.21855393 -0.16712911 0.9646971 0.009075227 1.0034912 -0.08696763
1.0184125 0.084906556 0.23872115 -0.37440798 0.18477672 1.041195 -0.36018404 -0.16749996
0.12766808 0.136742 0.3048714 0.4170264 0.6262429 -0.37093732 -0.10673808 -0.7567347
-0.2751799 0.109301105 0.17507516 0.12140842 0.37476406 -0.1717469 -0.73697853 -0.6342803
1.0627357 1.6044923 0.3665537 0.15773073 -0.46978223 0.5177137 -0.2806405 0.43513924
0.28957286 0.19500297 -0.031214362 -0.44129205 -0.27489406 0.7912792 0.4755193 0.017250754
-0.4204199 0.8437041 0.02543097 -0.3369157 1.2303385 0.35730833 0.21710634 0.14913447
0.28452057 0.34516165 -0.1910476 1.0857314 1.3332342 0.9336533 -0.50408494 0.009375292
00000000: a32b 263d 68f8 02be 9acc 5fbe e523 2bbe
00000010: 64f6 763f 43b0 143c 6672 803f 161c b2bd
00000020: 575b 823f 7de3 ad3d 5173 743e 67b2 bfbe
00000030: 1c36 3d3e e145 853f 0b6a b8be 1c85 2bbe
00000040: 6cbb 023e 1806 0c3e 1b18 9c3e 7c84 d53e
00000050: 7451 203f 7feb bdbe 7f99 dabd 5eb9 41bf
00000060: 61e4 8cbe 42d9 df3d e746 333e faa4 f83d
00000070: 13e1 bf3e 6bde 2fbe a0aa 3cbf 3260 22bf
00000080: b907 883f 0160 cd3f edac bb3e 2a84 213e
00000090: 4c87 f0be e388 043f 1db0 8fbe 92ca de3e
000000a0: e542 943e dcae 473e 43b5 ffbc 08f1 e1be
000000b0: eabe 8cbe 4691 4a3f 4477 f33e 7451 8d3c
000000c0: 4741 d7be fefc 573f 9c54 d03c 3780 acbe
000000d0: bb7b 9d3f 1ef1 b63e 2051 5e3e b5b6 183e
000000e0: aeac 913e 07b9 b03e fba1 43be 3ff9 8a3f
000000f0: 6ba7 aa3f e703 6f3f b60b 01bf d39a 193c

model/batch_normalization_1/batchnorm/mul_1;model/batch_normalization_1/batchnorm/add_1;model/dense_4/MatMul;model/dense_4/Relu;model/dense_4/BiasAdd f4 [64, 64]
-0.2154283 0.05263787 -0.03028015 -0.047680862 0.04031718 -0.12169886 0.0671471 0.080260284
0.013770253 -0.03746456 0.08404926 -0.060498286 0.081668496 0.14646426 0.034759205 -0.021859115
-0.058708802 0.12650758 -0.0097098155 0.08152498 0.014295198 -0.14115714 -0.034868143 0.039721664
-0.091686144 -0.023159597 0.042898063 -0.09451554 0.10087963 -0.056272317 0.0875993 0.109431654
0.119756006 0.12469157 0.05428886 0.1101887 -0.034518063 0.15656917 -0.093939304 -0.093566455
-0.0360218 0.04967762 -0.031105176 -0.095070474 -0.036577497 -0.10689506 0.039330397 -0.19505873
0.1326274 0.03822268 0.013588382 0.02911401 0.06927826 0.035058726 0.109199725 -0.07141246
-0.21429428 -0.061669532 -0.007146071 -0.16944441 -0.11795326 -0.16306353 -0.017754277 -0.07366858
0.15410891 0.10004344 0.076466694 -0.06829769 -0.03782993 0.011118617 0.0051146653 0.19610476
0.19226146 -0.13282691 -0.1357088 -0.19532432 0.07756484 -0.053802714 0.058494844 0.06450045
0.16505043 0.12930416 -0.1891113 0.12394688 0.16933247 -0.0826585 0.022784207 0.00037137093
0.06267851 0.0078341635 0.027680302 0.084109135 -0.063139744 0.17502622 0.12028897 0.005988729
-0.13383254 -0.19296497 0.02958652 0.07653302 -0.05213443 0.12342741 0.02524026 -0.14648564
-0.1704607 -0.13519193 0.08881018 0.07681003 -0.04388583 0.06390078 -0.16123697 -0.17941932
0.09784344 -0.009722681 -0.20833917 0.114423186 -0.23821448 -0.04098232 0.014799582 -0.082114466
0.09189516 -0.018958274 -0.14279263 0.14442073 0.0086750025 -0.08928733 0.13395502 0.13235429
-0.20725964 0.07077876 -0.008767095 0.05478769 -0.10619274 -0.0647075 0.0035617966 0.016107274
-0.0809126 0.09479209 -0.12909502 -0.20806572 0.074266195 0.02671561 0.09239534 -0.056709554
0.0044424105 0.027360003 0.015382791 0.07309553 0.10365437 0.00059227 0.05343398 0.0097291265
-0.08239953 -0.07959297 0.045340907 0.09072954 0.05143794 0.177446 -0.16043262 0.15162992
-0.12641864 0.0050137164 -0.0094747925 0.15365016 0.10246841 0.01997926 0.012472281 -0.012974658
-0.12210869 0.0038967438 -0.085757166 -0.038491018 0.09600297 0.12297956 -0.16967897 0.1041782
-0.0238559 -0.022593787 0.04375063 0.14583175 -0.08225579 -0.12685974 -0.19010037 0.1297326
-0.17614199 0.088667504 0.035101008 0.16216128 -0.113758914 -0.007938597 0.057050955 0.049542494
-0.17562446 0.019352581 0.19558167 -0.12714167 -0.080957316 -0.13533282 -0.12844786 -0.03228203
-0.040323965 -0.030031158 -0.030263219 0.076955155 0.02489314 0.047536634 0.06938957 -0.09492674
0.13071306 0.07524663 -0.06937941 0.19465487 -0.016528051 0.24911219 0.238573 0.132003
-0.15199085 0.06401689 0.07284594 -0.04432607 0.12162269 -0.14268321 0.035760034 -0.102095105
-0.0015385847 -0.14565182 -0.0009978707 -0.067529336 -0.06487221 0.023339545 0.1847194 -0.07820606
-0.0053861304 0.08637555 0.06378574 0.10950439 0.18602262 0.060401313 0.096477285 -0.14596516
0.007996979 -0.10886033 -0.10448453 -0.13749427 -0.038293347 -0.16306812 -0.17527516 0.111941196
0.03454333 -0.036531284 0.16874151 -0.1433951 0.05302891 -0.11844881 0.14383572 0.008091423
00000000: 3c99 5cbe cf9a 573d 140e f8bc 024d 43bd
00000010: a123 253d 403d f9bd 6b84 893d 815f a43d
00000020: a19c 613c 7074 19bd 0522 ac3d 0dcd 77bd
00000030: d041 a73d bafa 153e ab5f 0e3d e311 b3bc
00000040: a478 70bd 348b 013e eb15 1fbc 92f6 a63d
00000050: 6836 6a3c 7f8b 10be e6d1 0ebd 2fb3 223d
00000060: f2c5 bbbd 32b9 bdbc e1b5 2f3d 5d91 c1bd
00000070: fb99 ce3d cd7d 66bd 4367 b33d b41d e03d
00000080: a342 f53d 4b5e ff3d ff5d 5e3d 9daa e13d
00000090: d062 0dbd ab53 203e 4063 c0bd c59f bfbd
000000a0: 988b 13bd c37a 4b3d 48d0 febc 4fb4 c2bd
000000b0: 49d2 15bd cceb dabd e918 213d 7abd 47be
000000c0: 7acf 073e 638f 1c3d cea1 5e3c 8180 ee3c
000000d0: c3e1 8d3d bd99 0f3d 1ba4 df3d b240 92bd
000000e0: f66f 5bbe 3199 7cbd 9729 eabb d682 2dbe
000000f0: 7b91 f1bd 20fa 26be 6b71 91bc 8ddf 96bd
00000100: bace 1d3e 93e3 cc3d 929a 9c3d a9df 8bbd
00000110: 8ff3 1abd dc2a 363c ec98 a73b b0cf 483e
00000120: 30e0 443e c703 08be 3ff7 0abe 1903 48be
00000130: 51da 9e3d 3c60 5cbd 4a98 6f3d d018 843d
00000140: fb02 293e 4f68 043e 65a6 41be ddd7 fd3d
00000150: 7e65 2d3e dc48 a9bd f2a5 ba3c 90b4 c239
00000160: 975d 803d dd5a 003c cdc1 e23c 6941 ac3d
00000170: 694f 81bd 133a 333e 105a f63d 1a3d c43b
00000180: 660b 09be 9c98 45be 6e5f f23c 58bd 9c3d
00000190: e98a 55bd 83c7 fc3d a9c4 ce3c 5500 16be
000001a0: 408d 2ebe c16f 0abe 1de2 b53d 944e 9d3d
000001b0: a1c1 33bd 6ade 823d 4e1b 25be b3b9 37be
000001c0: 2462 c83d e14b 1fbc dd56 55be b456 ea3d
000001d0: 7fee 73be 14dd 27bd f279 723c a12b a8bd
000001e0: 8833 bc3d 624e 9bbc 3b38 12be 07e3 133e
000001f0: 9921 0e3c 47dc b6bd 812b 093e e287 073e
00000200: df3b 54be 74f4 903d dda3 0fbc 0f69 603d
00000210: 947b d9bd 5e85 84bd 086d 693b 67f3 833c
00000220: 81b5 a5bd 5b22 c23d 7c31 04be 2e0f 55be
00000230: e018 983d b2da da3c c539 bd3d 4748 68bd
00000240: a491 913b 1622 e03c 1a08 7c3c 1cb3 953d
00000250: be48 d43d 9142 1b3a 97dd 5a3d ea66 1f3c
00000260: 16c1 a8bd a401 a3bd 63b7 393d 69d0 b93d
00000270: 97b0 523d 67b4 353e 7348 24be e044 1b3e
00000280: e373 01be 1a4a a43b 293c 1bbc 7856 1d3e
00000290: f5da d13d 8cab a33c 8a58 4c3c a993 54bc
000002a0: 1f14 fabd 8360 7f3b 74a1 afbd c2a8 1dbd
000002b0: 359d c43d b5dc fb3d 53c0 2dbe 615b d53d
000002c0: 736d c3bc 9b16 b9bc dc33 333d eb54 153e
000002d0: b975 a8bd 85e7 01be aca9 42be 9fd8 043e
000002e0: 915e 34be 4f97 b53d 13c6 0f3d 9b0d 263e
000002f0: 6ffa e8bd e410 02bc 43ae 693d 12ed 4a3d
00000300: e6d6 33be 4e89 9e3c 9046 483e 6d31 02be
00000310: f3cc a5bd b094 0abe d687 03be 293a 04bd
00000320: be2a 25bd e703 f6bc 92ea f7bc aa9a 9d3d
00000330: b3ec cb3c c6b5 423d 1e1c 8e3d f368 c2bd
00000340: a5d9 053e e81a 9a3d cb16 8ebd 9b53 473e
00000350: d665 87bc 4417 7f3e 7b4c 743e cb2b 073e
00000360: 7da3 1bbe 4a1b 833d 4130 953d 418f 35bd
00000370: 5115 f93d 8c1b 12be 1d79 123d 3d17 d1bd
00000380: 56aa c9ba c025 15be fcca 82ba d24c 8abd
00000390: b9db 84bd 9332 bf3c 1527 3d3e 802a a0bd
000003a0: 237e b0bb aae5 b03d 19a2 823d d643 e03d
000003b0: b77c 3e3e 5e67 773d e295 c53d e477 15be
000003c0: c305 033c 2af2 debd fcfb d5bd 4ccb 0cbe
000003d0: 7cd9 1cbd 54fb 26be 557b 33be 6d41 e53d
000003e0: 4f7d 0d3d d4a1 15bd 93ca 2c3e 2ad6 12be
000003f0: d834 593d 4a95 f2bd ac49 133e e391 043c

model/position_output/BiasAdd/ReadVariableOp f4 [2]
-0.042523902 0.027351808
00000000: 8b2d 2ebd e610 e03c

model/floor_output/BiasAdd/ReadVariableOp f4 [5]
-0.0027326406 -0.0029520204 0.017672138 0.051124062 -0.066737264
00000000: 1a16 33bb af76 41bb 29c5 903c 7767 513d
00000010: 8cad 88bd

model/dense/BiasAdd/ReadVariableOp f4 [128]
0.064430095 0.1400877 0.10836681 0.15299891 0.07613213 0.11303428 0.055704217 -0.0062733036
0.08686645 0.09069297 0.030746035 -0.0065123807 0.20244269 0.14600515 0.13729553 0.08713207
0.06631685 0.026955852 0.0007974527 0.13102642 0.11087175 0.16914535 0.16534168 0.059972733
-0.026854342 0.09335701 0.14028057 0.082359426 0.058823828 -0.010086985 0.06544162 0.05258658
0.1113224 0.005085725 0.05476896 0.092564456 0.09895515 0.079083785 0.15689905 0.117414445
0.089076184 0.12591186 0.07118872 0.13282755 0.0561809 0.07797157 0.1361834 0.07975783
0.15731707 0.09095568 0.0065112733 0.072471604 0.046430472 0.06040962 0.10441196 0.02526292
0.12951392 0.015381617 0.11461787 0.105631724 0.11912519 0.07784541 0.076517366 0.14324585
0.14127384 0.16811384 0.102668196 0.11846439 0.044189554 0.1841965 0.111941144 0.1143811
0.06710428 0.03295008 0.14531766 0.097373866 0.039421346 0.05327543 0.11559991 0.04949827
0.012666144 0.039552912 0.089030616 0.18048593 -0.03172869 0.11120434 0.089671806 0.13433002
0.10986505 0.010287429 0.12790625 0.179947 0.08233925 0.033872 0.12570606 0.0988663
0.1600249 0.08701526 0.17768665 0.1390827 0.04822972 0.05892055 0.17246892 0.08704136
0.049310744 0.08875128 0.1068691 0.033383157 0.06798957 0.04539434 0.13850354 0.008537275
0.087655954 0.09320399 0.050914917 0.07545206 -0.006118517 0.061139684 0.19029452 0.047253896
0.121073596 0.0804045 0.08336828 0.047920838 0.07873968 0.09072017 0.09716803 0.14877567
00000000: edf3 833d 2673 0f3e 6bef dd3d bfab 1c3e
00000010: 2aeb 9b3d 847e e73d 1b2a 643d 4990 cdbb
00000020: 0ae7 b13d 3cbd b93d 1cdf fb3c cf65 d5bb
00000030: 234d 4f3e 6082 153e 3397 0c3e 4c72 b23d
00000040: 21d1 873d 85d2 dc3c 250c 513a ca2b 063e
00000050: ba10 e33d 7034 2d3e 544f 293e f8a5 753d
00000060: a3fd dbbc f631 bf3d b6a5 0f3e 0fac a83d
00000070: 41f1 703d e243 25bc 4206 863d 0765 573d
00000080: 00fd e33d 27a6 a63b 6b55 603d 6f92 bd3d
00000090: ffa8 ca3d aef6 a13d 25aa 203e fc76 f03d
000000a0: 936d b63d 0aef 003e 64cb 913d f203 083e
000000b0: f21d 663d 8faf 9f3d a973 0b3e 1358 a33d
000000c0: ba17 213e f946 ba3d 855c d53b fe6b 943d
000000d0: e12d 3e3d 1470 773d f0d5 d53d 2ff4 ce3c
000000e0: 4c9f 043e 2d03 7c3c c6bc ea3d 7255 d83d
000000f0: e8f7 f33d 6a6d 9f3d 23b5 9c3d 0aaf 123e
00000100: 17aa 103e 0926 2c3e b443 d23d 759d f23d
00000110: 1b00 353d 029e 3c3e 6641 e53d a340 ea3d
00000120: f86d 893d aaf6 063d 27ce 143e f36b c73d
00000130: 4778 213d 5637 5a3d a5bf ec3d b3be 4a3d
00000140: a985 4f3c 3c02 223d af55 b63d 4ed1 383e
00000150: f1f5 01bd 1abf e33d daa5 b73d cf8d 093e
00000160: ed00 e13d 9b8c 283c dbf9 023e 0744 383e
00000170: 7ba1 a83d 5ebd 0a3d 17b9 003e 6a7a ca3d
00000180: 91dd 233e 0e35 b23d 7df3 353e b26b 0e3e
00000190: 878c 453d ad56 713d b19b 303e be42 b23d
000001a0: 10fa 493d 3bc3 b53d 30de da3d c7bc 083d
000001b0: 1e3e 8b3d 6aef 393d dfd3 0d3e eddf 0b3c
000001c0: f784 b33d bce1 be3d 298c 503d 9c86 9a3d
000001d0: d77d c8bb 9b6d 7a3d 91dc 423e 4d8d 413d
000001e0: 6ff5 f73d 1dab a43d fdbc aa3d a448 443d
000001f0: 4542 a13d 7fcb b93d 0800 c73d a658 183e

model/building_output/BiasAdd/ReadVariableOp f4 [3]
-0.04490741 0.03633466 0.016100973
00000000: d5f0 37bd a7d3 143d 30e6 833c

model/dense/MatMul f4 [128, 545]
-1.1711786e-23 -2.5442201e-23 1.27954185e-23 -1.8287779e-23 -0.04064378 -0.093249194 -0.01471582 0.07560364
0.019840311 -0.029584695 0.018388737 -0.025227664 0.013054732 1.5033028e-22 -0.041620728 0.045134146
0.0273201 0.027479937 0.029646441 -0.026987426 0.045808434 -0.014134664 0.05636391 -0.0033998287
-0.003983138 -0.03961911 -0.013111926 0.053941604 0.017159693 -0.005357594 -0.06498397 0.07554872
-0.03982597 -0.045718372 -0.0007867675 -0.0040124753 -0.027366165 -0.01974699 -0.016759494 -0.004293597
-0.016518207 0.015467113 0.067056604 -0.011714129 0.016744975 -0.002446266 -0.00014840465 0.00048341387
0.009119213 0.034198042 -0.019420218 5.7011493e-07 -0.059693262 -0.05513438 -0.01697138 -0.025749048
-0.020185538 0.05140213 -0.029673694 9.392722e-25 -8.017061e-24 -9.159647e-24 -2.0857668e-24 -1.826211e-25
-4.5125728e-23 -5.211381e-24 8.407701e-22 -3.847667e-24 -0.0016771666 -0.012694445 6.4785162e-24 -0.007026758
-3.546627e-05 -0.011051823 -0.008630444 -0.02936687 -0.029022565 6.855285e-24 0.0006310529 -0.02130437
-0.035838455 -0.056837276 0.025410483 0.020300582 0.023288313 0.049211696 -0.025144711 -0.05518839
-0.019214213 0.023109049 -0.0005640228 0.045745973 -0.0013555058 -0.06986512 0.02071045 -0.005284435
0.012419007 -0.008233697 0.031403314 -0.025022676 -0.0019041338 -0.0061537437 -0.012681857 0.03063663
-0.057713747 -0.0075705326 0.0076947333 0.044451937 0.030981712 -0.00829621 -0.021272045 0.11355459
-0.015356239 -0.01217106 -0.010816079 -0.020886023 -0.021180496 -0.006681368 -0.015703887 -0.023202272
-0.0011958313 -0.06052302 -0.061449986 -0.049715403 -0.057462502 0.023197468 1.3235654e-24 -3.9943574e-23
2.8907045e-24 0.01781708 0.008430004 1.4109516e-24 2.78537e-22 3.3441303e-23 -2.2227753e-25 0.054408215
-0.013739595 -0.03135061 -0.024698706 -0.030877909 -0.03284585 -0.09871696 -0.036678996 0.045645516
0.015223096 0.059194207 -0.022736663 -0.03873161 0.05622335 -0.049640033 -0.024039049 -0.017613342
0.11640063 -0.007296442 0.011095501 -0.06017705 -0.047277506 0.002153084 0.012129809 -0.017665613
-0.030816957 0.021065867 -0.036936387 -0.039221406 -0.0007859993 -0.008821767 -0.01940306 -0.011711643
-0.0020117597 0.053071465 -0.010052844 0.026760792 -0.01204656 -0.02268786 -0.05214702 0.006825226
-0.0010814476 0.00642856 -0.013187214 0.0061285156 -0.027230514 -0.035696253 -0.0018466784 0.009882631
-0.031130742 -0.022915067 -0.045538887 -0.047527432 0.0066305385 5.2135103e-05 0.028209293 -0.011150362
-0.046019126 -0.06584117 0.04095307 0.022675486 -0.03983592 -0.0076302197 -0.020670254 0.00054919557
0.037052453 -0.03237224 0.011278713 -0.06215454 -0.035357192 0.039978795 -2.8139467e-23 -0.013712129
2.126315e-25 -3.979489e-24 2.3153195e-23 3.0616477e-24 -1.3605197e-21 -6.829363e-25 -0.035587467 0.025129223
3.2298293e-25 -0.0021363073 -0.0018038582 -0.026123025 -0.018740145 0.032450847 0.013191344 2.4024597e-24
0.08765751 -1.3026517e-23 -0.027290512 -0.052239455 0.026912447 -0.006364678 0.009413125 -0.040754173
-0.08261527 0.011132015 -0.032482836 -0.065688625 0.080449894 0.044943474 0.014504335 0.03510187
-0.021688662 0.15519114 -0.014066424 -0.024039987 -0.010076535 -0.022071172 0.004266078 -0.013872038
-0.020880345 0.035046805 -0.0030837469 -0.044496458 -0.0625157 -0.0419087 -0.028209276 -0.058175016
00000000: f589 6299 d70f f699 d87f 7719 59de b099
00000010: 187a 26bd 6ff9 bebd 9f1a 71bc 15d6 9a3d
00000020: 2688 a23c 9a5b f2bc faa3 963c 3faa cebc
00000030: 84e3 553c f8bc 351b 7f7a 2abd 95de 383d
00000040: 67ce df3c 9b1d e13c 18dd f23c bc14 ddbc
00000050: a0a1 3b3d 1495 67bc d8dd 663d a9cf 5ebb
00000060: fc84 82bb a647 22bd 67d3 56bc dff1 5c3d
00000070: 7c92 8c3c c28e afbb 5116 85bd 4ab9 9a3d
00000080: 8e20 23bd 3043 3bbd 133f 4eba 157b 83bb
00000090: 022f e0bc 71c4 a1bc 354b 89bc 4db1 8cbb
000000a0: 3151 87bc c669 7d3c f954 893d 9eec 3fbc
000000b0: c22c 893c 8851 20bb 129d 1bb9 b672 fd39
000000c0: c068 153c 3f13 0c3d 2617 9fbc 000a 1935
000000d0: ec80 74bd 96d4 61bd 9007 8bbc abef d2bc
000000e0: 245c a5bc 0a8b 523d 3f16 f3bc 6858 9117
000000f0: 9012 1b99 602c 3199 de60 2198 f012 6296
00000100: f236 5a9a 059b c998 701b 7e1c 73d9 9498
00000110: 5fd4 dbba 5dfc 4fbc 1ea0 fa18 b840 e6bb
00000120: 9ec1 14b8 b512 35bc b566 0dbc ca92 f0bc
00000130: bbc0 edbc ba99 0419 3e6d 253a 8186 aebc
00000140: 58cb 12bd 34ce 68bd a529 d03c 684d a63c
00000150: 22c7 be3c 3492 493d 48fc cdbc 390d 62bd
00000160: 2067 9dbc 304f bd3c eeda 13ba 2160 3b3d
00000170: 3aab b1ba 7215 8fbd f6a8 a93c 0e29 adbb
00000180: 1779 4b3c a1e6 06bc c3a0 003d 5bfc ccbc
00000190: 2194 f9ba 58a5 c9bb 90c7 4fbc abf9 fa3c
000001a0: 4065 6cbd 3b12 f8bb 1a24 fc3b 3c13 363d
000001b0: 5ccd fd3c d4ec 07bc b642 aebc 4f8f e83d
000001c0: bc98 7bbc 2069 47bc ec35 31bc 2a19 abbc
000001d0: b882 adbc 61ef dabb 70a5 80bc b112 bebc
000001e0: 71bd 9cba fce6 77bd fbb2 7bbd 61a2 4bbd
000001f0: cd5d 6bbd 9e08 be3c d4cf cc17 c027 419a
00000200: 4da8 5f18 20f5 913c 001e 0a3c 8d55 da17
00000210: 835d a81b 54b6 211a 4895 8996 26db 5e3d
00000220: 0a1c 61bc 7f69 00bd f154 cabc abf3 fcbc
00000230: 5f89 06bd 1e2c cabd b73c 16bd cbf6 3a3d
00000240: 4b6a 793c a075 723d 3d42 babc 09a5 1ebd
00000250: 754a 663d 5953 4bbd 8aed c4bc db49 90bc
00000260: 7463 ee3d fe16 efbb e7c9 353c 367c 76bd
00000270: 0fa6 41bd c11a 0d3b 1bbc 463c 7ab7 90bc
00000280: d873 fcbc 5392 ac3c 9c4a 17bd a0a6 20bd
00000290: 850b 4eba 2c89 10bc 2bf3 9ebc 31e2 3fbc
000002a0: bad7 03bb 7761 593d afb4 24bc 7339 db3c
000002b0: ef5e 45bc e4db b9bc 1d98 55bd 25a6 df3b
000002c0: 5cbf 8dba aba6 d23b 2f0f 58bc b7d1 c83b
000002d0: 8712 dfbc 3c36 12bd 3f0c f2ba c2ea 213c
000002e0: e605 ffbc 61b8 bbbc fc86 3abd 20ac 42bd
000002f0: fd44 d93b a4ab 5a38 2d17 e73c 02b0 36bc
00000300: 8d7e 3cbd bcd7 86bd 68be 273d f1c1 b93c
00000310: fd2a 23bd ec06 fabb aa54 a9bc e4f7 0f3a
00000320: 50c4 173d c198 04bd 5aca 383c c295 7ebd
00000330: b4d2 10bd cec0 233d f912 089a d6a8 60bc
00000340: ce9c 8316 f3f2 9998 89ec df19 2ee2 6c18
00000350: 8e98 cd9c ca5b 5397 2ac4 11bd cddb cd3c
00000360: b0ea c716 4a01 0cbb 706f ecba f4ff d5bc
00000370: ef84 99bc 2eeb 043d 8220 583c 9ee1 3918
00000380: c885 b33d 30f8 7b99 5a90 dfbc 0af9 55bd
00000390: 7e77 dc3c ca8e d0bb 8239 1a3c d9ed 26bd
000003a0: 3232 a9bd 0e63 363c b90c 05bd c287 86bd
000003b0: eac2 a43d a616 383d 97a3 6d3c fac6 0f3d
000003c0: 6cac b1bc 6dea 1e3e dc76 66bc 82ef c4bc
000003d0: 0d18 25bc 9ace b4bc 75ca 8b3b 8b47 63bc
000003e0: 420d abbc 3d8d 0f3d b018 4abb eb41 36bd
000003f0: 3b08 80bd 75a8 2bbd 2417 e7bc ed48 6ebd

model/building_output/MatMul f4 [3, 64]
0.09599656 0.08741952 0.12466042 0.19301891 -0.18248543 0.12730907 -0.04644435 0.23076822
0.11338161 -0.20851383 0.24518587 0.15749723 0.04151685 -0.03687639 0.059428316 0.31993473
-0.071217485 -0.027398983 -0.013358128 0.17931849 -0.11555465 0.16293842 0.14445399 0.16973081
0.1751016 0.051309172 -0.06686984 -0.025089901 0.13903715 -0.1971971 0.1694701 -0.0054114955
0.26938146 0.028952833 0.25175515 0.21846068 -0.20473371 -0.2259913 -0.26735595 -0.21426488
0.23525685 0.085953556 0.29591063 0.08436323 -0.07113612 -0.33977273 0.10856148 -0.0015045445
0.09053961 -0.13325563 -0.1425516 -0.21635151 0.1529763 0.061789326 0.051677648 -0.17324832
0.23461623 0.1511725 0.22212486 -0.225616 0.21717435 0.2133249 -0.040002912 0.036395803
-0.24164909 0.037984613 0.16461612 -0.23218328 0.08729991 -0.15775353 0.23541205 -0.1473822
0.20286831 0.21451223 0.09093088 -0.04108667 0.13112156 0.2942358 0.09663147 0.0007441769
0.10695589 0.28557548 0.23522432 -0.31636629 -0.24194446 0.07343275 -0.122221895 -0.21308607
-0.23402683 -0.06175147 0.2620669 0.20894867 -0.08763059 0.20468402 -0.096799314 0.15506439
0.11401306 0.18953447 0.28786555 0.015546293 -0.06321863 0.13748841 -0.07377223 -0.2416252
0.058078274 -0.22283596 0.1283216 -0.16107747 -0.15956338 -0.1259423 0.18625832 -0.24275564
0.16987589 0.23260099 0.26831567 -0.14971812 -0.29732582 -0.11100671 -0.16399302 0.15474579
-0.042191844 -0.090853736 -0.04136749 -0.10925237 -0.20393243 0.24359567 -0.24289893 0.06648098
-0.23603864 -0.07225139 -0.13199376 0.2333327 -0.32461217 0.2937997 -0.29019123 -0.18377398
-0.101237595 0.16621515 0.2991084 -0.17355394 -0.059512924 0.034108803 0.2967954 -0.098597765
0.26372966 0.2940204 -0.15332273 0.1028795 -0.15522939 0.19668913 0.09770585 -0.081894234
0.11768593 -0.30283493 0.054838076 0.0106725935 0.090074755 0.17651507 -0.1451864 -0.045061942
0.03608388 0.08236124 -0.05802455 0.16681787 0.18073308 -0.05073587 0.17665479 0.057630867
0.22864611 0.235122 0.013710598 -0.24558105 -0.27791235 -0.1952736 0.24342586 -0.0703746
0.32150435 -0.06891327 0.23512855 -0.15970455 -0.01704792 0.011359064 0.15151702 0.30005312
-0.2781875 -0.209393 -0.04316103 0.2871035 -0.26878464 -0.13373911 0.19781803 0.2513893
00000000: d899 c43d 0109 b33d f64d ff3d c0a6 453e
00000010: 76dd 3abe 4f5d 023e 6e3c 3ebd 814e 6c3e
00000020: 9e34 e83d a684 55be 0112 7b3e f446 213e
00000030: 930d 2a3d b30b 17bd 1b6b 733d 7cce a33e
00000040: 79da 91bd d573 e0bc 0ddc 5abc 449f 373e
00000050: eba7 ecbd 54d9 263e bfeb 133e eacd 2d3e
00000060: d54d 333e 9129 523d 0ef3 88bd 5689 cdbc
00000070: c15f 0e3e 09ee 49be 9289 2d3e ea52 b1bb
00000080: 5eec 893e 7e2e ed3c 0de6 803e 28b4 5f3e
00000090: b7a5 51be 436a 67be e1e2 88be 4168 5bbe
000000a0: 2ce7 703e 6b08 b03d 9981 973e a1c6 ac3d
000000b0: d0af 91bd b1f6 adbe 7b55 de3d 2334 c5ba
000000c0: d56c b93d 2a74 08be 0cf9 11be 408b 5dbe
000000d0: d2a5 1c3e ce16 7d3d f1ab 533d 0268 31be
000000e0: 3d3f 703e f7cc 1a3e b374 633e e107 67be
000000f0: f462 5e3e d871 5a3e 18da 23bd c413 153d
00000100: dc72 77be c195 1b3d 2191 283e 74c1 6dbe
00000110: 4cca b23d 248a 21be db0f 713e 5ceb 16be
00000120: b6bc 4f3e 18a9 5b3e f839 ba3d 7f4a 28bd
00000130: bb44 063e 13a6 963e b8e6 c53d de14 433a
00000140: b10b db3d f336 923e a5de 703e c3fa a1be
00000150: 4ac0 77be e963 963d 794f fabd 3c33 5abe
00000160: bba4 6fbe 1cef 7cbd a22d 863e a4f6 553e
00000170: ab77 b3bd b098 513e b83e c6bd 33c9 1e3e
00000180: ae7f e93d 5315 423e 1d63 933e e1b5 7e3c
00000190: c578 81bd c3c9 0c3e e515 97bd 996c 77be
000001a0: 7ce3 6d3d 1c2f 64be bd66 033e 7ef1 24be
000001b0: 9564 23be 05f7 00be 80ba 3e3e ef94 78be
000001c0: f2f3 2d3e f42e 6e3e ac60 893e b54f 19be
000001d0: 173b 98be 7c57 e3bd c9ed 27be ae75 1e3e
000001e0: 5bd1 2cbd 8611 babd f570 29bd b5bf dfbd
000001f0: aad3 50be 2571 793e 7fba 78be 2e27 883d
00000200: 1db4 71be 89f8 93bd 5f29 07be c4ee 6e3e
00000210: 9133 a6be ea6c 963e f293 94be 3f2f 3cbe
00000220: a855 cfbd 4e34 2a3e bc24 993e 20b8 31be
00000230: d3c3 73bd acb5 0b3d 91f5 973e a0ed c9bd
00000240: 9307 873e d889 963e a200 1dbe 7db2 d23d
00000250: 74f4 1ebe e068 493e 011a c83d 2ab8 a7bd
00000260: 5205 f13d 2e0d 9bbe e49d 603d 1adc 2e3c
00000270: 1d79 b83d 5ec0 343e beab 14be df92 38bd
00000280: b1cc 133d 03ad a83d 27ab 6dbd 4ed2 2a3e
00000290: 1812 393e 6ad0 4fbd fee4 343e 580e 6c3d
000002a0: 3522 6a3e d2c3 703e 6ba2 603c 9979 7bbe
000002b0: 874a 8ebe cdf5 47be a144 793e 8f20 90bd
000002c0: 389c a43e 6722 8dbd 8ac5 703e 9789 23be
000002d0: 14a8 8bbc 5e1b 3a3c 4727 1b3e 90a0 993e
000002e0: 986e 8ebe 1e6b 56be 9fc9 30bd 3bff 923e
000002f0: 249e 89be e8f2 08be cf90 4a3e 19b6 803e
