250630/models/hadnn_n_random_forest.tflite (tflite, 306360 bytes, 20 tensors)

model_1/dense_6/MatMul;model_1/dense_6/Relu;model_1/dense_6/BiasAdd f4 [64]
000000 51 45 98 bc 95 b9 73 3e 61 e9 a0 bd 8c 80 ad bc
       -0.01858774 0.23801263 -0.078570135 -0.02117946
000010 5f 7b b3 3d cf c1 e1 3e 1e 52 d0 3c b6 4c 55 3e
       0.087637655 0.44093177 0.025429782 0.20830044
000020 a0 49 8a bd a0 51 62 be 99 ec b0 bd df b0 85 3e
       -0.06752324 -0.2210145 -0.086388774 0.26111504
000030 93 46 93 be 0c 7d 71 3c b3 e4 48 3d a0 10 e1 3d
       -0.2876478 0.014739286 0.04904623 0.10989499
000040 3c 3c d7 bd 6e 8f a5 bd f3 77 62 bc 44 eb 90 bd
       -0.10509536 -0.08083998 -0.013822543 -0.07076123
000050 d7 72 b7 3e 56 a3 2a be 85 e5 04 be e9 6f 85 bb
       0.35829803 -0.1666387 -0.1297818 -0.0040721786
000060 40 91 49 3c 0b 44 58 be 18 47 77 be b4 c4 44 be
       0.012302697 -0.21119706 -0.24148214 -0.19215661
000070 86 fd 95 be dd df 41 3e a6 c5 0d be f1 1f 7b be
       -0.29294986 0.18933053 -0.13844928 -0.24523903
000080 9b b5 ec bd 5d f5 02 be 10 f6 66 3e 6a a5 17 be
       -0.11558076 -0.12788911 0.22554803 -0.14809194
000090 0b 8d d4 bd 14 8c 3b 3e 71 c2 44 be d9 14 09 be
       -0.10378464 0.18315154 -0.19214799 -0.13386859
0000a0 6c 50 5d be 1a 4e 85 3d 60 4b 03 3d b2 49 09 3e
       -0.2161271 0.06509037 0.032054305 0.13407019
0000b0 98 e1 8e be 71 60 55 3e cf 90 8b bd 5f f3 e5 3e
       -0.2790649 0.2083757 -0.068147294 0.4491224
0000c0 b1 c7 bd 3d d3 b7 c2 3e f6 6b d9 3d 1a 62 b7 3c
       0.09266604 0.38030872 0.10616295 0.022385646
0000d0 47 53 12 be 40 2e 90 bc fc 50 cf be 38 b3 0b be
       -0.1428958 -0.017600179 -0.40491474 -0.13642585
0000e0 a1 69 ba 3d f3 c8 8d 3d f5 07 e7 3d d9 2c 22 be
       0.09102178 0.06923094 0.112808146 -0.1583742
0000f0 cd 4e 87 3d 53 06 d5 be 63 a5 09 be 7c 2a b2 3e
       0.06606827 -0.41606387 -0.13441996 0.34798038

model_1/batch_normalization_2/batchnorm/mul_1;model_1/batch_normalization_2/batchnorm/add_1;model_1/dense_6/MatMul;model_1/dense_6/Relu;model_1/dense_6/BiasAdd f4 [64, 128]
000000 61 c1 f7 bc d3 b7 35 be 83 c4 c6 3d 71 37 31 bd
       -0.030243577 -0.17745905 0.097054504 -0.043265764
000010 58 22 97 3d 53 66 85 3d 0b 93 a7 3d 10 85 40 3e
       0.073795974 0.065136574 0.08182343 0.1880076
000020 0f 16 b0 bd 95 be d5 bc 7f a9 37 3d 30 7f 1b bd
       -0.08597957 -0.026091853 0.04483938 -0.037963092
000030 e2 59 c3 3c be 1e 08 3e 0f c6 62 be 39 01 7f bd
       0.02384657 0.13292977 -0.22145866 -0.062257025
000040 11 cf 2b be 0e 5e 0c 3e 9e 43 f4 3d b2 fe cf 3d
       -0.16778208 0.13707754 0.119269595 0.10156001
000050 7d 8c 10 3e 1f 9b 1d bc 29 4c e0 bd 33 46 cf bd
       0.14116092 -0.009619503 -0.109520264 -0.10120811
000060 23 82 e2 bd 80 d2 24 ba 50 a1 52 be d3 0a ba bc
       -0.11059978 -0.00062874705 -0.20569348 -0.02271024
000070 f8 b0 a4 bd 26 e7 58 bc 7a 78 4f 3e c7 3e 5d 3d
       -0.080415666 -0.013238704 0.20260802 0.054014947
000080 49 04 62 3d 81 c5 23 be 3e b7 76 bd 9f e5 82 bc
       0.055179868 -0.1599331 -0.060233347 -0.015978632
000090 9a ee 5c bd 3f 38 01 3e 46 21 24 3e 7c 1a 97 3d
       -0.053938486 0.12619112 0.16028318 0.07378098
0000a0 93 79 1f bc 6e dc 19 be 62 82 f4 3d 16 19 f9 bd
       -0.009733575 -0.15025494 0.11938931 -0.12162988
0000b0 bb 5e 31 3e ff 20 a4 3d 9b b9 32 be 9b c1 9c bd
       0.17321293 0.08014106 -0.17453615 -0.07654115
0000c0 e2 45 0f 3e 85 51 b2 3c 53 03 88 3d 7a cf 5d be
       0.13991502 0.021767387 0.06641259 -0.21661177
0000d0 2b d9 57 3e ec de 84 3c d5 c1 f9 3d 5e 3e 07 bd
       0.21078937 0.016219579 0.12195174 -0.033018462
0000e0 1d 18 0a be 1e 6c cb 3d 0e 6f f2 bd 20 df dc 3d
       -0.13485761 0.09932731 -0.11837588 0.10784745
0000f0 6a 27 c5 bd 83 09 d1 bd e4 2c ad 3d 7f cc 17 3d
       -0.09626658 -0.10206892 0.08455828 0.037060257
000100 3b db 1c 3e 94 78 89 3d b3 53 1c 3d 23 36 de 3d
       0.15318005 0.067124516 0.03816576 0.108501695
000110 2a be 88 bc 5e 96 c4 3b f0 db 44 3d f9 5f c3 bd
       -0.01669224 0.0059993705 0.04806131 -0.0953979
000120 49 e5 2b bd d9 63 af 3d 18 6e 4c be 61 66 56 3e
       -0.04196671 0.08563966 -0.19963872 0.20937492
000130 2f ce 2d 3c 30 77 20 3e 1e 47 7c 3d 53 5e df bd
       0.01060824 0.15670466 0.06159126 -0.10906663
000140 d8 98 13 be 6c 65 0f 3e 3a 10 ef 3c 53 01 d0 bc
       -0.14413774 0.14003533 0.029182542 -0.025391256
000150 7c 83 47 be 3d 09 e0 3d 91 3d 45 be 96 6e a7 bc
       -0.19483751 0.10939262 -0.19261767 -0.020438474
000160 d8 13 57 3d 51 37 2b 3e 27 20 18 be a7 e3 ee 3d
       0.05250916 0.1672032 -0.14856015 0.11664515
000170 99 50 4b be 2c 07 84 3d a9 16 02 be e3 60 c4 bd
       -0.19854964 0.064466804 -0.12703957 -0.09588792
000180 c6 ff d9 bc 99 07 d2 3d 46 bc 11 3e 48 bf 5b bd
       -0.02661122 0.102553554 0.14231977 -0.053649217
000190 3c 90 0e 3d 8b 24 c2 3c 8d 02 2d be 09 61 42 3e
       0.03480552 0.023699066 -0.16895504 0.18982328
0001a0 b3 9a 48 be 0b 53 7a bd 61 93 bb 3d ab a9 6d 3b
       -0.19590263 -0.061114352 0.0915897 0.003626446
0001b0 0f 6a fe 3d 26 21 63 be c2 8a ab 3b 4a 0f 0d 3e
       0.12422573 -0.22180614 0.005235047 0.13775364
0001c0 00 e1 40 3e 93 de 34 be b4 48 a2 3c 94 a2 d4 bd
       0.1883583 -0.1766303 0.019810058 -0.10382572
0001d0 c9 19 f2 3b d3 05 48 bd 82 5c 0d 3e 1e 0b 88 bd
       0.0073883277 -0.04883368 0.1380482 -0.066427454
0001e0 fe b7 14 3e 6c 43 dd 3d 94 71 8b 3d 77 ba 3c 3e
       0.14523312 0.10803875 0.06808773 0.18430506
0001f0 42 c5 cf bd df c9 31 3e 67 6b c7 bd ae 4e 05 be
       -0.10145046 0.17362164 -0.09737282 -0.13018295
000200 ed 49 75 be 32 91 35 3e f2 6c cf 3d 83 25 30 3e
       -0.23953982 0.17731169 0.101282015 0.1720181
000210 c6 2a 5c 3e cb 44 81 3c 78 8e ea bc 5f cf c7 bc
       0.21500692 0.015779873 -0.028632388 -0.024390874
000220 85 d9 9f bc f1 ac 2c be ac cc 50 3e 5c e6 13 be
       -0.019512901 -0.16862847 0.20390576 -0.14443344
000230 a9 5f ed bd bf c1 09 be 50 9d 17 be 08 90 c2 3d
       -0.11590511 -0.13452815 -0.14806104 0.09500128
000240 c5 76 24 3e 20 6d 16 3e 1f a7 8f 3d ca 9e fa 3b
       0.16060932 0.14690065 0.07014298 0.0076483237
000250 08 8e 04 bd ea d2 44 3d 65 ee ab bc 60 3c 27 be
       -0.032362014 0.048052706 -0.020987699 -0.16331625
000260 f0 94 62 3e e7 1b 61 bc a6 4c ba 3d 2c 8f 25 be
       0.22127128 -0.013739563 0.09096651 -0.16167897
000270 25 80 2e 3e 2c aa 44 be 4f 50 53 be bc 7a 48 3c
       0.17041071 -0.1920554 -0.20636104 0.012236293
000280 fe 7d 5a be df 64 99 bc ac 3e f6 ba e8 54 57 3c
       -0.21337125 -0.018724857 -0.0018786988 0.013142802
000290 3f 38 e7 bd 90 bc 63 3e e6 8b 1f be 9c 95 1f 3d
       -0.11290025 0.222399 -0.15580711 0.038961038
0002a0 08 5a 1e 3e 2d 66 41 3d a1 e1 53 bd 85 43 4e bd
       0.15464032 0.047216583 -0.05172885 -0.05035736
0002b0 60 9f 1b be a4 67 61 bd 18 ff 5e 3e 91 03 1a 3e
       -0.15197515 -0.05503048 0.21776998 0.15040423
0002c0 7f 6f ac bd a8 ed 81 bc 06 44 31 be 2a 7c d4 3d
       -0.08419704 -0.015860394 -0.17311105 0.10375245
0002d0 af 8f 67 3e 76 97 54 3d 99 a4 7d bc 94 dc c5 bd
       0.22613405 0.051902257 -0.015481138 -0.096612126
0002e0 20 e0 13 be 2a dd 32 bc 83 78 05 3d 07 3c d5 bd
       -0.14440966 -0.010916987 0.032585632 -0.1041184
0002f0 df 17 1f be 64 a8 c4 bd cd 0d 70 bd cb bb be 3c
       -0.1553645 -0.096024305 -0.05860691 0.023282906
000300 6a 3f 96 bd cc 1f 47 bd 23 09 0c 3e 41 d7 ed 3d
       -0.07336314 -0.04861431 0.1367536 0.11613322
000310 ae 8e 20 3e 81 fc 1c 3b ec 24 4e 3e 45 cd 67 3b
       0.15679428 0.0023954215 0.20131272 0.0035370153
000320 59 83 ea 3d 52 9e 41 be 7c e0 0e be db c2 00 3c
       0.11450834 -0.1890805 -0.13952821 0.007858957
000330 53 b9 67 bd 4c 70 59 3e d9 a3 cd bd 4b 2a 85 bc
       -0.056573223 0.21234244 -0.10041017 -0.016255518
000340 2a 80 63 3e bf 5d f3 3d ac 58 43 be 5e 38 23 3e
       0.2221686 0.11883115 -0.19076794 0.15939471
000350 8f 6d e5 bd 4c f6 c9 3d 12 6d 4b 3e 51 4a b1 3d
       -0.11202537 0.098614305 0.19865826 0.08656753
000360 07 2e 65 be ea 3c 8d bd eb f8 e6 bd 78 a4 ef bd
       -0.2238084 -0.06896384 -0.11277946 -0.11701292
000370 10 d1 9e 3c 79 91 44 be db 71 a8 bc 6c b4 40 be
       0.019386798 -0.19196118 -0.020562103 -0.18818825
000380 e2 17 bc 3d a1 5b 4a be 8b f7 7c bd b3 4f 66 bd
       0.09184243 -0.19761516 -0.061759513 -0.05622835
000390 09 fa 2c 3d c8 9a bf 3d e1 2c f0 3d 66 ad 37 bd
       0.04223064 0.09355694 0.1172731 -0.0448431
0003a0 1c b2 36 3e ef c7 9e 3d 73 80 3e be ca b0 34 be
       0.17841381 0.07752978 -0.18603687 -0.17645565
0003b0 71 e1 f3 bd ee 9b 8e bd 6d 0d 04 be 8c 24 3c be
       -0.11908234 -0.06963335 -0.12895747 -0.18373317
0003c0 f4 05 90 3d 20 aa c1 3c 63 d0 10 bd d0 1e 5a bd
       0.070323855 0.023640692 -0.035354983 -0.05325204
0003d0 56 ce a2 bd 5c 11 4c 3d 11 e1 24 be 9d f5 e4 bd
       -0.07949512 0.049821243 -0.16101481 -0.111796595
0003e0 d5 7e 3a bc 01 9d f9 bd 23 19 12 3d 14 29 46 be
       -0.011382778 -0.12188149 0.035668503 -0.19351608
0003f0 9b 3f db bd 80 bb 8d bd a4 52 93 bd 00 47 5f bc
       -0.10705491 -0.069205284 -0.07193497 -0.013627768

model_1/batch_normalization_3/batchnorm/sub f4 [64]
000000 a4 8e 78 be 20 22 5f be a7 26 71 be 54 c2 4e be
       -0.24273163 -0.21790361 -0.23549901 -0.20191318
000010 bf 9f 35 be 6b 83 87 be f9 99 7e be f9 f5 95 be
       -0.1773672 -0.2646745 -0.24863423 -0.29289225
000020 5e 38 7f be d2 18 28 be 4c 94 8c be fb 1c 81 be
       -0.24923846 -0.16415718 -0.27456892 -0.25217423
000030 7e eb 4c be 7b 95 4f be c4 e4 76 be f7 83 88 be
       -0.20011708 -0.20271866 -0.24110705 -0.2666318
000040 74 7d 63 be 70 66 65 be 8b bc 68 be 03 bc 3c be
       -0.22215825 -0.22402358 -0.22728173 -0.18431096
000050 7b b4 97 be dd 70 61 be 8c 93 40 be 24 f3 69 be
       -0.29629883 -0.2201571 -0.18806285 -0.22846657
000060 50 77 79 be 9b bc 4f be 03 3e 7f be 9c 9d 2e be
       -0.2436192 -0.20286791 -0.24926 -0.1705231
000070 e2 8a 83 be e4 a9 5e be 19 3b 80 be 8c 79 88 be
       -0.25691897 -0.21744496 -0.25045088 -0.26655233
000080 58 95 30 be 52 6e 61 be e1 72 83 be ec 88 69 be
       -0.1724447 -0.2201474 -0.25673583 -0.22806138
000090 76 42 6d be 9a 78 71 be a0 4d 76 be d0 ec 6d be
       -0.23169884 -0.23581162 -0.24053049 -0.23234868
0000a0 f8 f5 2d be 01 af 69 be 82 2f 8d be 5f d3 62 be
       -0.16988361 -0.22820665 -0.27575308 -0.22150944
0000b0 16 a2 7d be 13 0d 6e be 34 5e 6d be dd 0a 86 be
       -0.24768862 -0.23247175 -0.23180467 -0.26180163
0000c0 1f e4 80 be 69 59 86 be 6c b4 48 be f2 df 4c be
       -0.25174043 -0.2624009 -0.19600075 -0.20007303
0000d0 1a 91 29 be 61 d6 92 be 78 6a 84 be 8d 8e 81 be
       -0.16559258 -0.28679183 -0.2586248 -0.2530407
0000e0 00 ae 69 be 88 3e 5c be c1 77 56 be 49 08 60 be
       -0.22820282 -0.21508229 -0.2094412 -0.2187816
0000f0 c7 3f 66 be bb d0 83 be 1e c1 5d be 8e 63 84 be
       -0.22485267 -0.25745186 -0.216557 -0.25857204

model_1/batch_normalization_3/batchnorm/mul f4 [64]
000000 b7 8e 63 3f 5d 53 86 3f 4f 1c 72 3f a5 9c 85 3f
       0.8888964 1.049419 0.94574445 1.0438429
000010 83 97 8c 3f 5f 35 8f 3f 38 d2 7a 3f b2 b0 89 3f
       1.0983738 1.1188163 0.9797702 1.0757048
000020 f0 37 74 3f 08 ea 7d 3f b9 b5 82 3f 08 0f 8a 3f
       0.95397854 0.9918523 1.0211707 1.0785837
000030 47 53 72 3f dc 5e 8f 3f f2 d4 86 3f dc 89 83 3f
       0.9465832 1.1200824 1.0533736 1.0276446
000040 78 ff 81 3f 64 83 86 3f 8e a2 7e 3f 3e 6e 80 3f
       1.0156088 1.0508847 0.9946679 1.0033643
000050 ff cc 8f 3f df a3 77 3f 82 3d 65 3f af 0e 86 3f
       1.1234435 0.9673442 0.8954698 1.0473231
000060 35 4f 7a 3f 98 3e 7e 3f 30 e5 6b 3f 92 be 87 3f
       0.9777711 0.9931426 0.9214659 1.0605032
000070 71 03 67 3f 54 d4 8c 3f 4e d2 71 3f df 00 69 3f
       0.90239626 1.1002297 0.94461524 0.91016954
000080 57 20 7f 3f 7d 0b 71 3f d1 1f 88 3f 2e a0 6a 3f
       0.9965872 0.94158155 1.063471 0.91650665
000090 d4 71 79 3f fa 51 89 3f 1d 6e 72 3f 53 92 76 3f
       0.9743931 1.0728142 0.9469927 0.96317023
0000a0 70 8a 6a 3f 9e a0 78 3f ec 6c 82 3f 43 26 85 3f
       0.9161749 0.9712008 1.018949 1.0402302
0000b0 11 06 6b 3f 27 33 8d 3f 0d d3 86 3f 57 8d 87 3f
       0.9180613 1.1031235 1.0533158 1.0590008
0000c0 e6 58 83 3f ec fe 86 3f 4f 76 79 3f 9a 30 76 3f
       1.0261505 1.0546546 0.9744615 0.9616791
0000d0 11 94 80 3f 0e bc 76 3f 74 1b 4e 3f 74 58 77 3f
       1.0045186 0.963807 0.8051064 0.96619344
0000e0 75 71 6e 3f ee ad 86 3f 2b 5c 8c 3f e2 de 65 3f
       0.9314187 1.0521829 1.0965627 0.8979322
0000f0 44 2e 86 3f 74 75 5b 3f e8 bc 7c 3f 68 9d 89 3f
       1.0482869 0.85726094 0.9872575 1.0751162

model_1/position_output/BiasAdd/ReadVariableOp f4 [2]
000000 4b 00 b6 bc c3 6b 3b bc
       -0.022216937 -0.011439267

model_1/floor_output/BiasAdd/ReadVariableOp f4 [5]
000000 7a 20 1d 3d 9d 4d 9d bc 32 81 05 bd 10 19 96 bc
       0.03836105 -0.019202048 -0.032593913 -0.018322498
000010 34 43 0f bd
       -0.0349762

model_1/dense_9/BiasAdd/ReadVariableOp f4 [64]
000000 e6 89 ce 3b 0a a8 b8 3c 3f 91 a0 3c 1f 97 8e bc
       0.00630306 0.022541065 0.019600509 -0.017406045
000010 e7 c3 65 3c 5f 9c b6 bc 2e 9d 07 bd 0a de e3 bc
       0.014023758 -0.02229136 -0.033108883 -0.027815837
000020 65 c4 eb bc 3d 86 18 bc 07 88 ab 3b 4f e0 ed bc
       -0.028780172 -0.009309349 0.0052347216 -0.029037623
000030 b0 73 76 bc c5 88 e3 bc c6 95 1d bc 96 bf dd bc
       -0.0150422305 -0.027775178 -0.009618228 -0.027068894
000040 65 65 f0 bc 3e 79 a8 3b 76 10 b8 bc f7 7b 1a bc
       -0.029345224 0.0051414063 -0.022468787 -0.00942897
000050 ca 72 d7 bc c5 6c f4 bc 5d a3 d7 bc ed b2 ea bc
       -0.026299853 -0.029837022 -0.026323015 -0.028649772
000060 ee a9 f3 bc ac 1a d4 bc 53 40 5b bc be 67 3f bc
       -0.029744115 -0.025891624 -0.013382035 -0.011682449
000070 f2 dc a1 bb f5 69 ee bc fc f9 ce bc 12 08 1e 3c
       -0.004939669 -0.029103259 -0.025265686 0.009645479
000080 66 0b fd bc e9 bc 76 3c 2b d9 02 3b cf 0f c7 bc
       -0.030889224 0.015059688 0.0019965868 -0.02429953
000090 b8 55 c4 bc de 64 93 3b 15 ac b3 bc 34 b3 72 3c
       -0.023966655 0.0044981083 -0.021932641 0.014813233
0000a0 fc ea 18 3c 0d 0b d4 3a 99 22 56 3c 16 01 c9 bc
       0.009333368 0.001617761 0.013069772 -0.02453665
0000b0 41 82 a0 3b ba b5 d1 bc d5 93 a3 3c 13 94 45 3c
       0.00489834 -0.02559935 0.019967953 0.012059229
0000c0 4b bc a5 bc 00 2e 86 3c df b2 5f 3c e8 dc c2 bc
       -0.020231387 0.016379356 0.013653486 -0.023786977
0000d0 51 b8 62 3c e3 b5 9e 3c b8 bb c8 bc 50 5c 9b bc
       0.01383789 0.01937384 -0.024503574 -0.018964916
0000e0 8b c6 dc bc d7 f7 0a 3b ca 1d 03 3c 75 f5 7d bb
       -0.026950141 0.0021204853 0.008002708 -0.003875104
0000f0 a2 a8 c6 bc 32 7c 2c 3a 85 2f 9d bc 99 49 ba bc
       -0.024250332 0.0006579786 -0.019187698 -0.022740172

model_1/dense_8/BiasAdd/ReadVariableOp f4 [64]
000000 a5 43 1e 3d a1 67 18 3d 5a 79 0a bd 41 69 99 3c
       0.03863873 0.037208203 -0.033807136 0.018726947
000010 e8 42 00 3d 64 21 13 3d 73 76 11 bd 38 57 04 3d
       0.031313807 0.035920516 -0.035513353 0.03230974
000020 c6 40 95 bc bd 27 0a 3d 5b 50 24 3d 20 75 90 bc
       -0.018219363 0.033729304 0.040115695 -0.017633975
000030 e8 05 9d bc b4 37 24 bc d7 86 fc bc dc 46 dd bc
       -0.019167855 -0.010023046 -0.030826015 -0.027011327
000040 42 16 0b bd 6d 50 25 3d 5b df ff bc 77 b3 11 3d
       -0.033956774 0.040359903 -0.031234434 0.03557154
000050 25 52 fa bc 36 09 00 bd b7 fb 2d 3d d8 67 94 3c
       -0.030556748 -0.031258784 0.042476382 0.018115923
000060 39 a7 12 3d 8f 58 03 bd 95 d2 16 3d e1 6b 20 3d
       0.035804007 -0.032066878 0.03682192 0.03916538
000070 e1 26 e0 3c 94 04 d7 bc 2d f9 eb 3c 65 6a cf bc
       0.027362289 -0.0262473 0.02880534 -0.025319288
000080 04 db 01 bd b6 d4 83 bc 34 b6 05 3d 01 ad 00 bd
       -0.03170301 -0.01609264 0.032644466 -0.03141499
000090 2b e0 f1 bc c0 de e9 3c 17 38 14 3d 73 f3 fb bc
       -0.029525837 0.028548598 0.036186304 -0.030755734
0000a0 d7 2b 1d 3d 9b 63 15 3d 35 86 c2 3c 86 b8 f4 3c
       0.038371887 0.036471944 0.023745636 0.029873144
0000b0 3c f6 02 bd 74 e5 0f bd 17 5d 0d 3c 02 9d 04 bd
       -0.03197311 -0.035130933 0.008628151 -0.032376297
0000c0 b2 7e 0b bd 27 2e e5 bc 4d cd 09 3d c2 ae ce bc
       -0.034056373 -0.027976109 0.033643056 -0.025229815
0000d0 89 ae 31 bc 67 33 14 3d f5 6e 23 3d 57 ba f0 3c
       -0.010844835 0.036181834 0.03990074 0.029385729
0000e0 9b df fd bc 2d 75 1f 3d 4d 40 06 bd a7 b7 29 3d
       -0.030990412 0.038930107 -0.032776166 0.04143491
0000f0 7b a4 3a 3d 7c 13 1f 3d 19 3e 99 3b 00 ab f4 3b
       0.045567017 0.03883694 0.004676592 0.007466674

model_1/dense_7/BiasAdd/ReadVariableOp f4 [64]
000000 8f 26 48 bb e3 22 cb bc 68 a6 9f bc 39 9c 0b 3d
       -0.003054056 -0.024796909 -0.019488528 0.034084532
000010 cb 6b 2e bc a7 44 a7 bb 21 c5 7b bc 98 25 05 bc
       -0.010645817 -0.0051046195 -0.015366823 -0.008126639
000020 68 8e cf 3c 9f df f7 3c 07 b4 b1 3c 4d 6a b7 bc
       0.02533646 0.030257998 0.021692289 -0.022389555
000030 40 d9 2f bc a3 73 b6 bc 80 13 05 3c 7a 75 87 bc
       -0.010732949 -0.022271937 0.008122325 -0.01653551
000040 54 20 a3 bb 1f 53 d2 3c 2c 6c bb 3c 6d 32 3b bc
       -0.004978219 0.0256744 0.022878729 -0.011425597
000050 8f 1d c0 bc 95 ae 12 bc da 89 01 3d c3 ce 49 3b
       -0.023451595 -0.008952756 0.031625606 0.0030793406
000060 ba b0 ac bb 61 7c 94 bc 30 e5 95 3c ad 39 df 3c
       -0.005270091 -0.018125715 0.018297762 0.027249182
000070 ba 33 fa 3c 78 fd 5a 3b 1b 3a f2 bb fc 90 fb 3a
       0.030542243 0.003341524 -0.0073921806 0.0019192989
000080 4f d1 0f 3d 61 62 f2 3c e0 5d f2 bb af da 14 3d
       0.03511172 0.029587926 -0.0073964447 0.036341365
000090 2e 29 ef 3c e4 79 c1 bc a3 31 f7 bc 94 6a 2f bc
       0.02919444 -0.023617692 -0.030175036 -0.010706563
0000a0 46 01 c7 bb 10 38 e2 3c 55 ac ee 3c 0b 97 fc 3c
       -0.00607315 0.027614623 0.029134909 0.030833742
0000b0 53 b1 37 bb 31 01 05 3c 83 a4 d8 3c bc c9 70 bc
       -0.0028029277 0.00811796 0.026445633 -0.014696535
0000c0 ee 80 d9 3c 22 ae bd bc 1b 37 ce 3c 39 7d 0c bc
       0.026550736 -0.023154322 0.02517276 -0.008574777
0000d0 3c 24 d5 3c ed ca 1b 3d 46 9f 8a bc aa 68 c5 3c
       0.026018254 0.038035322 -0.01692165 0.02409776
0000e0 07 aa fc 3c ef 3a f8 3c bb 67 91 3c d4 25 da bc
       0.030842794 0.03030154 0.017749658 -0.026629366
0000f0 69 6a 8d bc 9b 36 6e ba 92 b1 b1 bc 3c 95 e4 39
       -0.017262654 -0.00090871163 -0.021691117 0.00043598737

model_1/dense_5/BiasAdd/ReadVariableOp f4 [128]
000000 3c 1e b5 3c 2d cd ab 3b 07 af e6 bb 17 8a 82 3b
       0.022109143 0.0052429647 -0.007039908 0.0039837467
000010 14 ad a8 3a 9f 6a 08 bc e3 c5 fb 3b c5 cb 1e ba
       0.0012868964 -0.008326202 0.007683502 -0.00060575857
000020 4d d2 c6 bc ec 9c 97 3c 0f d4 b7 3c ff ff 86 3c
       -0.024270201 0.018507443 0.022439985 0.01647949
000030 3f 0b 9a 3b 2f df 01 bc 85 e5 a5 3c 66 ef 8e 3c
       0.0047010477 -0.007926746 0.020251045 0.017448138
000040 f1 a5 3f bc fa 83 27 3c 43 24 1e 3c 9c 6a be 3b
       -0.011697278 0.010224337 0.0096522 0.0058110487
000050 c2 8f 3f 3c b3 bd 9e 3a c6 b8 51 bb 62 1a 5a bc
       0.011691989 0.0012110978 -0.0032001003 -0.013311954
000060 fe 43 26 bc 54 8c cf bb a8 14 8a 3b 30 4b 58 bc
       -0.010148047 -0.006333867 0.004213888 -0.01320152
000070 e5 b6 e0 3c 11 33 a1 3c b0 b3 ed 3c 6c a9 25 bb
       0.02743096 0.01967767 0.029016346 -0.0025277985
000080 bf 16 52 3c 39 9e 7b 3c f9 30 f7 3a e4 25 22 3c
       0.012822806 0.015357547 0.00188592 0.009896729
000090 6c 61 29 3c 21 63 59 bb be e4 91 bc f9 b5 01 3c
       0.010338169 -0.0033170658 -0.017809268 0.007916921
0000a0 51 d9 b7 3b ed 31 b9 3c e7 f0 59 3b a6 88 44 3c
       0.005610623 0.022606814 0.0033255161 0.01199547
0000b0 e2 4d a7 3c ff b2 2d bc a5 81 0c 3c 20 8c 86 bc
       0.02042288 -0.010601758 0.008575832 -0.016424239
0000c0 4c 58 37 bc cb 40 f1 3a fa 5f 91 3a f3 5b 10 3b
       -0.011190485 0.0018406151 0.0011091225 0.0022027462
0000d0 17 74 3f bc bf 4d 1b 3c cf 11 12 3c 84 6e bc 3c
       -0.011685393 0.009478985 0.008915379 0.023001917
0000e0 d2 25 54 bb 67 56 40 bc cc af 38 bc 42 30 a4 bb
       -0.0032371175 -0.01173935 -0.011272382 -0.0050106356
0000f0 ec ed bb bb 7b 60 86 ba c8 f9 a4 3c d5 44 52 bc
       -0.0057351496 -0.0010252142 0.020138636 -0.012833794
000100 46 96 9f 3b df b9 2c 3c 64 86 06 3b ab 5b a5 bb
       0.004870209 0.010542362 0.002052688 -0.005046328
000110 ad 22 79 bb b3 4f fb bb 4e a8 21 bb 9a f1 81 3c
       -0.0038015053 -0.007669413 -0.0024666968 0.015862275
000120 9f 63 82 bc 6e b5 0f bc c6 a1 f2 3b 55 7e 20 3b
       -0.015916644 -0.008771284 0.007404539 0.0024489362
000130 b7 f8 c9 bb 25 4f 98 3c b4 f7 12 3c f4 4d d5 3b
       -0.0061636823 0.018592427 0.00897019 0.006509537
000140 d1 0b bb 3a 62 56 b4 bb 36 50 c3 ba f9 97 ef bb
       0.0014270489 -0.0055034617 -0.0014901224 -0.0073118177
000150 1b 7d d3 3b b3 b4 86 b9 74 72 26 3c 81 29 43 bc
       0.0064541227 -0.00025693103 0.010159124 -0.011911751
000160 be 49 ae bb 65 b6 a6 3b 4e 27 2f bc 07 e3 ca bb
       -0.0053188493 0.005087661 -0.010690523 -0.0061916145
000170 35 56 0a bc 6b a8 40 3c 61 41 34 3a 16 01 de 3c
       -0.008443405 0.011758904 0.00068761973 0.027100127
000180 8a 6e 10 bc fa a4 aa 3c 61 86 a2 3a d9 dc 16 3d
       -0.008815417 0.02083062 0.0012399667 0.03683171
000190 ab 8d 64 3b ab 67 3d 3a b7 e0 d5 3c 29 e0 c3 3a
       0.003487448 0.00072252256 0.026108129 0.0014944124
0001a0 d2 0f da 3b 23 c5 ce bb 2e 44 84 bb 6a 1b ba bc
       0.006654718 -0.0063101216 -0.004036448 -0.02271815
0001b0 3f 52 01 bc e0 68 80 3c 89 dd 02 3c 7c 23 44 3c
       -0.007893144 0.015675008 0.007987388 0.011971351
0001c0 2c 37 0c bc df b1 04 3c a3 b8 64 ba d9 69 a1 3c
       -0.008558076 0.008099048 -0.0008725023 0.019703792
0001d0 01 f5 22 3c 34 e5 c6 bb f1 92 6e bc 68 3c d1 bb
       0.009946109 -0.0060698036 -0.014561401 -0.006385375
0001e0 ae b4 74 3c 16 2d 39 3b cd 68 66 3c 80 b5 3e bc
       0.0149356555 0.0028255633 0.014063072 -0.011639953
0001f0 a6 ff 3a 3c a5 06 b4 3b 05 ee 9d 3b 66 c4 9e bb
       0.01141349 0.005493956 0.004819634 -0.00484519

model_1/building_output/BiasAdd/ReadVariableOp f4 [3]
000000 6a b0 e0 3c c8 61 e1 bc 6a 6f 9c bc
       0.02742787 -0.027512446 -0.019096095

model_1/dense_5/MatMul f4 [128, 385]
000000 03 47 2a bd 95 39 bb 3d 90 87 36 ba 45 f5 c1 39
       -0.04157163 0.09141842 -0.00069629494 0.0003699457
000010 a7 c3 e4 3c bf 82 5f 39 a3 ea 81 3d 9e 32 23 bd
       0.027925326 0.00021315644 0.063435815 -0.039843194
000020 ad ce 91 bd 99 46 6e bd 21 ec dc 3c 07 20 50 3d
       -0.071194984 -0.058172796 0.026968064 0.050811794
000030 1b 95 ae 3d b9 02 68 3d 23 d6 ea 3c b3 5e 79 3c
       0.08524533 0.05664322 0.028666561 0.015220332
000040 50 cf 07 bc 9c 1c 4a 3c cc 11 c9 3c a5 22 33 3d
       -0.008289173 0.012335923 0.024544619 0.04373421
000050 32 c4 b3 bd 94 08 45 bd 3c ac 74 bd 11 c9 d1 3c
       -0.08777656 -0.048103884 -0.059734568 0.025608571
000060 4e 5a 70 bd 47 29 b1 bd 82 e7 3b 3d d9 ae 41 3d
       -0.05867987 -0.08650451 0.04587508 0.04728589
000070 d3 d9 9a bd 28 4e 8b bd 1c df 76 3d 0b 12 61 bd
       -0.07561078 -0.068020165 0.060271367 -0.054948848
000080 ee 0f 03 3d cb 6e ed bc 27 9a 99 bc 12 ed 26 3c
       0.031997614 -0.028983494 -0.018750263 0.010188358
000090 c9 98 b1 bd 8d a3 b8 ba 1e 2a 97 3d c9 82 22 3d
       -0.086717196 -0.0014086828 0.0738108 0.039675508
0000a0 c9 e1 ac 3d 2e 50 ff 3c 11 48 d0 bd 72 e2 c8 3b
       0.084415026 0.031166162 -0.101699956 0.00613051
0000b0 0f 2c 1d bd 18 cd 4a bd 85 93 31 bd b8 0d 52 bd
       -0.038372096 -0.049512 -0.043353576 -0.051282614
0000c0 a0 69 aa bd b1 0c 82 3d 42 4e cd bd 68 5f c1 bc
       -0.083209276 0.06350077 -0.10024692 -0.023605064
0000d0 2b 45 8a bc 71 d9 40 bd d3 40 b0 3d ea 8f 95 3d
       -0.016878685 -0.04708237 0.08606114 0.0730284
0000e0 0f 39 cc 3d 40 fc 50 3d 5f af 8a bd 17 09 45 39
       0.099718206 0.051021814 -0.06771731 0.0001879077
0000f0 b9 bb be 3d a5 59 d5 3d cc bf 53 bc b1 bc ba bd
       0.09313149 0.10417489 -0.012924146 -0.09118021
000100 16 89 84 3d 67 3c ae bd 6d 2a ca bd 0f 08 d6 bd
       0.064714596 -0.085076146 -0.09871373 -0.10450756
000110 13 cf 9e 3c 77 1b 90 3d 03 05 af bb 20 ff 28 bd
       0.01938585 0.070364885 -0.0053411736 -0.04125893
000120 14 3e c3 3b 25 e9 d0 3d 58 b3 60 bd 06 ce 2e 3d
       0.005958328 0.10200719 -0.054858536 0.042676948
000130 5f 83 e9 3c 90 fa cc bb 66 36 2f bd 97 fe 68 bb
       0.028505025 -0.0062554553 -0.042776488 -0.0035552138
000140 20 0c 94 3d 80 1f 16 bb b0 59 99 bd 73 61 1f 3d
       0.07228875 -0.002290696 -0.0748781 0.038911294
000150 78 7b 30 bd be b6 b9 bd 8c 8f 8f bb 12 0b 2c bd
       -0.0430865 -0.090680584 -0.004381126 -0.042002745
000160 a0 d5 a1 3b d9 0d 0f 3c 0e a1 78 bd 9e d9 4e 3d
       0.004938796 0.008731329 -0.06070047 0.050500505
000170 12 4e c0 3d df 52 42 bd 20 14 88 3d 36 cc 09 3c
       0.09389891 -0.047442313 0.066444635 0.008410504
000180 3f c7 ff 3a 1b df 9e bc 07 fd 0a 3d ce 7e b5 ba
       0.0019514336 -0.019393494 0.033932712 -0.0013846995
000190 81 54 23 3d ae f4 c2 ba d8 b1 0e 3d eb 16 9d 3d
       0.03987551 -0.0014873946 0.034837574 0.07670387
0001a0 16 b8 7a bc b4 fb ad bc 60 45 32 3d 03 dd 9d bc
       -0.015302679 -0.021238185 0.043523192 -0.019270426
0001b0 45 b9 4c bd a1 c0 db 3c fa 6d c1 3d 3b 88 d8 3d
       -0.049981374 0.026825251 0.094448045 0.10572859
0001c0 3e aa a2 3d ce 27 3c bd 38 55 3f bd 81 48 7d bd
       0.07942627 -0.0459364 -0.04671213 -0.061836723
0001d0 3d 61 8f bd e8 d1 23 3d 8c 05 f2 b9 10 ea 34 bc
       -0.070009686 0.039995104 -0.0004616197 -0.011042133
0001e0 23 57 a1 3d c9 5a d8 3d 41 e7 9e bc 63 16 d4 bd
       0.07877948 0.10564191 -0.01939738 -0.103558324
0001f0 8a 73 bc 3d 15 5f 31 3d 89 c9 ed 3c 0e e9 f3 3d
       0.09201725 0.043303568 0.029026764 0.11909686
000200 8f bd e5 3c 78 61 52 3c 31 3b 0c 3d ab 2c a2 bd
       0.02804449 0.012840621 0.034236137 -0.07918676
000210 2e 8e a2 bb d9 00 3b bd ab 9c 0f bc 5c 0d a4 bd
       -0.004960797 -0.045655105 -0.00876538 -0.080103606
000220 51 36 8e 3d 3b 4e b5 bd 1d 21 7a 3d 4a 75 4d 3d
       0.06943954 -0.08852812 0.061066736 0.050160684
000230 cc db 9a 3d 93 b3 b0 3a 97 aa 20 3d 20 09 82 bd
       0.07561454 0.0013481252 0.039225187 -0.06349397
000240 5f bf 02 3c 36 b0 0d bd 5a f1 b9 3d ae 55 01 bb
       0.007980197 -0.034591876 0.09079237 -0.0019734907
000250 d6 0d ae bd 71 08 9b 3c ac 44 0c bc 14 bf a8 bd
       -0.08498733 0.018924924 -0.0085612945 -0.0823957
000260 36 62 56 3d 65 d1 ea 3c 0e b9 b2 bd a2 51 9a bd
       0.052339755 0.0286643 -0.08726703 -0.075351015
000270 23 5c b2 3d b8 94 74 bd e6 a5 22 3c 48 dd ea 3a
       0.0870898 -0.05971214 0.009927249 0.001791873
000280 e7 02 3e bd de c5 88 3c 33 e2 fd 3c a7 1a ec bd
       -0.046389487 0.016695913 0.03099165 -0.11528521
000290 e9 04 80 bd ea 1f 8b 3d f9 1f 93 bd 99 09 c6 bd
       -0.062509365 0.067931965 -0.07183833 -0.09669799
0002a0 08 77 9c bc 75 2a 9f 3d c2 c7 ce bd 8d 8b 13 3c
       -0.019099727 0.0777177 -0.100966945 0.0090054395
0002b0 4c 04 01 bc 02 4c 83 bd 65 f4 e3 bc 12 06 f6 b8
       -0.00787456 -0.06410982 -0.027826497 -0.00011731325
0002c0 5c 05 6f 3d bd 5e 57 3c ae b4 d4 bc e3 07 08 3d
       0.05835472 0.013145146 -0.025965061 0.033210646
0002d0 dd 8c e5 bd f4 56 1d bc 77 17 05 3d f0 5f a1 bb
       -0.11208508 -0.009603251 0.03249308 -0.0049247667
0002e0 24 e8 cd 3a a2 c3 04 bd dd d0 c8 bd 58 b8 69 3d
       0.0015709442 -0.032413132 -0.098054625 0.05706057
0002f0 6e 0c e5 bd 34 30 a4 3d bb db 2a 3d f8 67 c4 bd
       -0.111840114 0.080170065 0.041713458 -0.09590143
000300 ac e0 80 3d ec 9d 54 bd 4d 3b 0e ba c3 bd 6d bd
       0.06292853 -0.05190842 -0.00054257066 -0.0580423
000310 d3 92 61 bd 83 2b cf 3c 31 05 8f 3d 2d 0f 16 3c
       -0.055071663 0.025289303 0.06983412 0.009158892
000320 5c 8d 3c bd 7c 1f 8a 3d 6e 83 c8 3d 00 f6 91 3c
       -0.04603325 0.067442864 0.09790693 0.017817497
000330 06 03 07 bd 99 ba b5 b9 e9 54 ff 3c 1c d5 84 bd
       -0.032961868 -0.00034662036 0.031168418 -0.0648596
000340 55 a4 e6 3d e5 2b 85 bd 56 50 e1 3d 89 f3 a3 3b
       0.112618126 -0.06502513 0.11001651 0.005003397
000350 52 14 c3 bd b2 84 45 3d c2 dd f8 3d d6 41 45 bc
       -0.0952536 0.04822225 0.12151672 -0.012039622
000360 52 1f 94 bc 23 5b 87 3d 8c 88 d1 bb e1 b4 4d bc
       -0.018081341 0.0660918 -0.0063944515 -0.012555332
000370 99 eb 46 bd c1 63 80 3d 92 76 0b bd 25 c4 c8 3d
       -0.048564527 0.062690265 -0.034048624 0.098030366
000380 04 bc 95 bc 2c 9f 69 3d 1d 4b 53 3c 53 f0 35 3d
       -0.01827813 0.057036564 0.012896326 0.044418644
000390 cb 75 9c bd a4 a0 97 3d 6d d9 39 3d 38 24 4d 3d
       -0.07639655 0.07403687 0.04537337 0.05008337
0003a0 92 3a 74 3d 6b d0 3e 3d a0 ae fb bc 5c b7 f1 3d
       0.05962617 0.04658548 -0.030722916 0.11802551
0003b0 f9 ad 78 3d 3b 10 8c 3d 70 84 b1 3d 84 53 89 3d
       0.06071279 0.06839033 0.086678386 0.067053825
0003c0 d1 63 a3 3b fb 12 13 bd 5f ac ad bd 57 3f ee 3d
       0.0049862643 -0.035906773 -0.08480143 0.11633175
0003d0 40 95 8b bd b3 25 85 3c e2 9f 77 3d e6 0f 24 3d
       -0.068155766 0.016253328 0.06045521 0.040054224
0003e0 ba 0d ab bc 79 cc b3 3d e6 7e 01 bd 4d 4c 8c bd
       -0.020880569 0.087792344 -0.03161516 -0.06850491
0003f0 28 13 67 3b 59 aa b2 3d 20 0c ae 3d 7a 60 9b 3d
       0.003525922 0.087238975 0.084984064 0.07586761

model_1/attention_layer_1/MatMul f4 [64, 64]
000000 9c d4 7b 3d ff 8a 19 3e 24 99 4b 3d 32 1e e5 3d
       0.061482057 0.14994429 0.049706593 0.111874
000010 46 7a af 3d be 61 ab bd a0 33 4f bd 94 58 09 3d
       0.08568244 -0.08368252 -0.050586343 0.03353174
000020 93 c5 30 be 12 92 bf bd ea 39 f1 bd 40 12 77 bb
       -0.17262869 -0.093540326 -0.11778624 -0.0037700087
000030 d0 d7 ea bc ea 90 a1 bd 0c 70 5c 3d f4 d3 4d 3d
       -0.02866736 -0.07888968 0.053817794 0.050250962
000040 14 b0 16 3d c1 c3 34 3e c0 7c 65 bc e9 79 5a be
       0.036789015 0.17652799 -0.0140067935 -0.21335568
000050 28 a3 97 3c f7 33 0a be d6 7e fc 3d 00 7e 86 bd
       0.018510416 -0.13496386 0.123288795 -0.06567001
000060 fa 37 e6 bd 0d 7f 46 3e ac 4d 38 be 68 c6 fc bc
       -0.112411454 0.19384404 -0.1799838 -0.030856326
000070 57 bf 1c 3e e4 41 34 bd c5 c1 5c 3e a5 22 31 be
       0.15307365 -0.04400815 0.21558292 -0.17298372
000080 c7 37 36 3e 90 e1 58 bc d6 99 81 bd 52 2e 04 be
       0.17794715 -0.013237372 -0.0632817 -0.12908295
000090 0d 7c 03 3e 08 12 b7 bc 83 63 01 3e a4 23 18 3d
       0.1284029 -0.022347465 0.12635617 0.037143365
0000a0 13 b6 53 3e 4d 0c 1e 3e c8 7e bb bd b6 eb 43 be
       0.20674925 0.1543438 -0.09155041 -0.19132885
0000b0 6d 53 0c 3e 59 5c d3 bd dc 64 49 be 7c 54 86 bd
       0.137037 -0.10320348 -0.19667381 -0.06559083
0000c0 1c f8 44 3d 6e 5a e3 3d 4a 5a 5b be b6 18 82 3d
       0.048088178 0.111012325 -0.21421161 0.063523695
0000d0 5c 43 7c 3d cf 5b 0e 3e 50 fe 28 3c a7 46 50 be
       0.061587676 0.1390221 0.010314539 -0.20339452
0000e0 09 01 17 3e b4 23 35 3d 51 99 36 be c1 4e 4f 3e
       0.14746489 0.044223502 -0.17831923 0.20244886
0000f0 c8 ac 6a bd 3e bd c8 3d 00 33 20 be 77 d7 5a be
       -0.057293683 0.0980172 -0.15644455 -0.21371256
000100 34 e8 64 3d bd b0 d5 bd 8b e4 3e 3e ca 99 19 be
       0.05588551 -0.10434101 0.1864187 -0.15000072
000110 fb f9 4f 3e 60 51 e8 3b ce 50 1d be 30 cc 26 bd
       0.20310204 0.007089779 -0.15362856 -0.040722072
000120 24 60 22 3d 68 c0 dc bd e7 7e 07 3e 10 3f 3e be
       0.039642468 -0.10778886 0.13232003 -0.18578744
000130 4e 79 cd 3d 48 57 5a bd 16 96 c5 3d 43 0b 46 3e
       0.10032903 -0.053305894 0.09647767 0.19340234
000140 63 36 50 be 9c db 3e be 94 09 e1 bd 25 30 0f 3e
       -0.20333247 -0.18638462 -0.10988155 0.1398321
000150 f7 a0 24 3e d8 7a bd bc 16 b9 c1 3d 77 53 55 3e
       0.16077028 -0.023129866 0.094591305 0.2083262
000160 20 82 ef 3b 80 d3 b6 bd 63 05 14 3e 5d c7 48 be
       0.0073092133 -0.08927059 0.1445518 -0.19607301
000170 bb 09 df bd 8f f6 21 3e 49 77 1a 3e 02 86 90 3d
       -0.10890528 0.15816711 0.15084566 0.0705681
000180 44 db 4f be cb 6d c4 bd 18 c2 b9 3c 40 52 17 be
       -0.20298487 -0.09591254 0.022675559 -0.1477747
000190 e8 78 10 bd 04 dc 60 3d 08 72 69 bd 38 04 a7 3c
       -0.035271555 0.054897323 -0.056993514 0.020387754
0001a0 e5 6b 32 3e 3c 33 dd bd 40 27 b2 bd 00 cc 2a bb
       0.17423971 -0.10800788 -0.086988926 -0.0026061535
0001b0 3c c4 7a 3d 0b 42 27 3e 94 be 4d 3d c2 16 a4 3d
       0.0612223 0.16333787 0.050230578 0.08012153
0001c0 c6 97 8c bd c0 f4 73 3c fa 5c 19 be da e5 af 3d
       -0.06864886 0.014889896 -0.14976874 0.085887626
0001d0 cf 75 43 3e b6 7f 3a be 00 fd f6 bb e4 72 01 bd
       0.19087909 -0.1821278 -0.007537484 -0.03160371
0001e0 1e 37 b8 bd 48 b4 ba bc e0 65 d4 bb 0a 82 b3 3d
       -0.08994888 -0.022791043 -0.006481871 0.08765037
0001f0 be 02 41 be 1e de 9c 3d 4d 52 da bd a4 c1 45 be
       -0.18848702 0.07659553 -0.10660229 -0.1931215
000200 7d 17 25 be 88 de ab 3c ae 98 c1 3d 3b db 07 3e
       -0.16122241 0.020980135 0.094529495 0.13267224
000210 d2 c9 a9 3d bc c3 45 bd 30 87 26 bd 51 f2 49 3e
       0.08290447 -0.04828237 -0.04065627 0.19721343
000220 9a d8 9b 3d 88 ba 4c be 61 ca 3f 3e 79 63 3d 3e
       0.07609673 -0.19993031 0.18729545 0.18494977
000230 44 8a 43 bd 72 34 93 3d 63 9d dc bd ed c3 52 3e
       -0.047739282 0.071877375 -0.10772207 0.20582552
000240 5e 1c ee 3d 14 34 41 be 28 8c 6e bd 1f b4 ec bd
       0.11626504 -0.18867522 -0.058239132 -0.11557793
000250 98 7e 52 bd 50 8c 27 3c b5 50 3c 3e a0 37 f8 3c
       -0.05139026 0.010226324 0.18390162 0.030299962
000260 8b b0 25 3e 31 d3 5a 3e 84 7e 62 3d fc 19 95 bd
       0.16180627 0.21369626 0.055296436 -0.07280347
000270 a8 c1 21 bd 14 7e 05 be 70 b1 1f bd 42 5b 8c bd
       -0.039491326 -0.13036376 -0.038987577 -0.068533435
000280 11 c2 4e 3e e0 76 f3 bc ea fc f3 3d 20 2c dc bd
       0.20191218 -0.02971977 0.11913474 -0.10750604
000290 60 6d 9e bc ec 9f f7 bd 7a 37 ea 3d df 9f 25 be
       -0.019339263 -0.120910496 0.114363626 -0.16174267
0002a0 d2 70 ec 3d 3a 2d a2 3d dd 51 32 3e e0 33 a0 bd
       0.11544956 0.079187825 0.17414041 -0.07822394
0002b0 25 79 15 3e b4 fe 38 bd e8 ae 93 bd 20 6d 82 bb
       0.14596994 -0.04516478 -0.07211095 -0.003980294
0002c0 f7 0e 13 3e 2f 67 02 3e 43 2d 35 3e f9 b8 f8 bd
       0.14361177 0.12734674 0.17693047 -0.12144656
0002d0 cc c7 f9 bd 4e cc f4 bd 2a 09 8d bd 0d 41 03 3e
       -0.12196311 -0.119530305 -0.068865135 0.12817784
0002e0 1a a1 86 bd 88 22 a8 bc 6e 48 9b bd a8 6e c6 bc
       -0.065736964 -0.020524278 -0.07582174 -0.024222687
0002f0 86 5a 99 3d 7c 3b 52 be 78 f9 93 bd eb 1e 01 be
       0.07487969 -0.20530504 -0.07225317 -0.1260945
000300 f0 6c 9f bd d0 16 c8 3c 00 3a f8 39 21 51 2a 3e
       -0.0778445 0.02442494 0.0004734546 0.1663251
000310 cc 08 77 3d 35 94 18 3e 8d a9 5c be 51 c2 5a be
       0.060311124 0.14900286 -0.21549053 -0.21363188
000320 70 ff 09 be 61 7c 18 3e e9 51 5a 3e 96 bc e9 3d
       -0.13476348 0.14891197 0.21320309 0.11412923
000330 20 54 91 bd f3 d6 09 be 53 3d 16 3e 64 b3 25 bd
       -0.07096124 -0.13460903 0.14671831 -0.040454283
000340 70 bf 3a 3c e7 0b 20 3e 91 12 57 3e d0 35 73 bd
       0.011398181 0.1562954 0.21003176 -0.05937749
000350 6a 1f 83 3d d8 a8 08 be 56 0d aa bd 01 5e 1b 3e
       0.06402476 -0.13345659 -0.08303325 0.15172578
000360 39 d2 2f 3e 88 e9 92 bc 27 de d8 bd 8e 84 b4 3d
       0.17170037 -0.017933622 -0.10589247 0.08814345
000370 55 28 d3 bd c9 2f 48 3e ec c7 15 be 3c 60 21 3d
       -0.10310427 0.19549479 -0.14627045 0.039398417
000380 38 21 e1 3c be e7 b4 3d 04 a9 ea bd 42 73 10 be
       0.02748166 0.08833264 -0.114580184 -0.14106467
000390 c0 69 21 be aa a4 cb 3d c2 44 9d 3d da 1e f5 3d
       -0.15762997 0.099435166 0.0767913 0.11968775
0003a0 88 f6 b2 bd bf bd 27 3e 4a 40 35 be 88 aa fa 3c
       -0.08738428 0.16380976 -0.17700306 0.030598894
0003b0 35 0d 1b 3e b0 07 92 bd 2a b9 de 3d 20 a9 d1 3c
       0.15141757 -0.071303725 0.10875161 0.02559334
0003c0 59 15 49 be b0 b4 62 bd 78 b2 c2 bc ec 3d 19 be
       -0.1963705 -0.0553481 -0.023766741 -0.14965028
0003d0 30 27 bd bd a6 bf e6 3d 2a 11 27 be bc c2 67 3d
       -0.0923599 0.11267023 -0.16315141 0.056582198
0003e0 f8 1b 18 bd 80 c0 09 bb b0 f3 5d bc e2 bc b9 bd
       -0.037136048 -0.002101928 -0.013546869 -0.0906923
0003f0 42 64 aa 3d 40 28 27 3c f3 50 48 3e d9 38 1e be
       0.08319904 0.010202467 0.1956213 -0.15451373

model_1/attention_layer_1/MatMul_1 f4 [1, 64]
000000 64 af 83 3d 78 9b 51 be d4 b4 57 3e 10 d0 0a bd
       0.064299375 -0.20469463 0.21065074 -0.03388983
000010 60 f7 66 3d b4 04 ca 3d ec 29 72 3e 06 e5 98 3e
       0.05638826 0.09864178 0.23648804 0.2986223
000020 6e e0 fe bd 00 6c 64 3b 2c 3d 86 bd 4d 72 0b be
       -0.1244515 0.0034854412 -0.06554636 -0.13617821
000030 62 8c 80 bd 4c 80 52 3e 81 fd 9a be 80 05 cb 3b
       -0.06276776 0.20556754 -0.30271533 0.006195724
000040 a8 35 30 be de 3a 3b 3e cc b6 f8 bd 2b 0c 98 be
       -0.17207968 0.18284175 -0.12144241 -0.29696783
000050 bc 01 f1 3d a8 17 63 3e 00 b8 b8 39 04 42 c3 bd
       0.11767909 0.22176993 0.00035232306 -0.09534076
000060 42 01 c7 bd db f0 96 be 04 1b 98 bd e4 b9 e8 3d
       -0.09717037 -0.29480633 -0.07427028 0.11363581
000070 d0 0d 13 3d 6c c0 76 3e 3c 4f 63 3e d8 3f da bd
       0.035901845 0.2409684 0.22198194 -0.106567085
000080 6e 3e 02 3e 00 f4 53 3a e0 60 22 bc e0 f3 5a be
       0.12719128 0.000808537 -0.009910792 -0.21382093
000090 b4 4b ef bd 52 36 98 3e 98 b2 b6 bd 1c d7 74 3e
       -0.11684361 0.29728943 -0.08920783 0.23910183
0000a0 e0 87 5a 3c f4 63 9a 3d 0c df b8 bd 2c 3a eb 3d
       0.013338059 0.07538596 -0.09026918 0.11485705
0000b0 d8 c7 79 3e 6c 88 7a 3e 84 70 5b be e0 2f 8e 3e
       0.2439264 0.24466103 -0.2142964 0.277709
0000c0 a6 cf 12 3e 10 ee a2 3d b4 e9 6b 3e d0 92 8c 3e
       0.14337024 0.07955563 0.2303837 0.2745576
0000d0 8c 3d 93 be 90 76 af bc a0 d8 72 bd f8 4a c2 bd
       -0.28757894 -0.02141884 -0.05928862 -0.094869554
0000e0 ac 07 49 be 70 e0 c6 3d 4a 1c 41 3e a0 62 df 3d
       -0.19631833 0.09710777 0.18858448 0.10907483
0000f0 b8 7c 3d bd 8e 41 5d be 9c cb c2 3d 24 f9 4a be
       -0.04626152 -0.21607038 0.09511492 -0.19821602

model_1/dense_7/MatMul f4 [64, 64]
000000 7c 18 6b 3e a3 e9 8e 3d b6 70 b3 bd 2f 0f 1d be
       0.22958559 0.069781564 -0.08761732 -0.15337823
000010 93 9d 09 3e a0 4f 28 be e9 df 5a 3d 91 35 5b be
       0.13439016 -0.16436625 0.053436194 -0.21407153
000020 b6 1d c5 3c f8 a5 61 3e df 68 4b 3e 72 b0 06 3e
       0.024062019 0.22035968 0.19864224 0.13153246
000030 b7 40 77 3d 97 63 34 bd 09 ca e1 bd bf da 22 be
       0.06036445 -0.04404029 -0.11024863 -0.15903758
000040 8e 86 bb 3d 8c 96 ac 3d f0 c1 44 bc 9d 3b b7 3d
       0.09156524 0.08427152 -0.012009129 0.08946917
000050 50 b3 8d bd 50 6e 07 be 22 db 39 be 64 19 2a 3e
       -0.06918967 -0.13225675 -0.18149999 0.16611248
000060 72 6c 5d 3d 74 16 01 3d 2b 15 5f bd ca cc db 3c
       0.0540585 0.031515554 -0.054463547 0.02683105
000070 36 db e9 3d 5c fe 78 bc 3d 83 d5 bd d8 e8 e0 3d
       0.11418764 -0.015197363 -0.10425422 0.109819114
000080 f0 de 34 3e 30 72 5f 3d 50 aa a4 3d a9 86 c8 3d
       0.17663169 0.054552257 0.08040297 0.097913094
000090 71 b9 d4 3d 02 c9 45 be 52 4d 43 be 41 91 21 bd
       0.10386933 -0.1931496 -0.19072464 -0.039445166
0000a0 4c cb 25 3d 09 f2 24 3e 69 57 41 be 6e 6a ff 3d
       0.040477082 0.16107954 -0.18881 0.12471472
0000b0 b5 1c 2c 3d c3 7b 3f be e5 bb e5 bd 57 b3 40 be
       0.042019565 -0.18699555 -0.11217479 -0.18818413
0000c0 63 31 70 3c 23 75 d2 bd c7 07 ca 3d d2 0c 7d 3c
       0.014660212 -0.10276248 0.09864765 0.015444951
0000d0 a6 d2 23 3e 1a c2 b6 bb ff d1 d0 3d 69 41 51 bd
       0.15998325 -0.005577338 0.101963036 -0.05108777
0000e0 d4 d8 25 3e 76 fa a6 3d 6a 24 fa 3b 6d 1d 24 3e
       0.16195995 0.081532404 0.0076337354 0.1602685
0000f0 45 5c d3 bc d4 4d 3b 3e fa f7 3d 3e 5c 26 51 3e
       -0.025800833 0.18291408 0.18551627 0.20424789
000100 3f dc 2c 3e 60 b0 c8 bc 4e 16 2a be 00 8e d3 3d
       0.16880892 -0.024498165 -0.16610071 0.10329819
000110 1e 99 4d bd 52 d2 33 bd b7 c7 68 3d be 31 60 bc
       -0.050194852 -0.04390175 0.056831088 -0.013683734
000120 db b9 fa bd ac 14 e2 3c 51 a3 f0 3d 6e aa ee 3c
       -0.1224248 0.027597748 0.117499 0.029134002
000130 ab a4 fb 3d db 62 65 3e 13 8b 18 3e 94 35 30 3e
       0.12287267 0.22400992 0.14896803 0.17207938
000140 9d 05 0b be fe 3c cf 3d fd 27 d1 3a 93 bb 66 3e
       -0.1357636 0.10119055 0.0015957352 0.22532491
000150 9a f5 99 3d 82 83 bf 3c 01 92 6f bd 0e 80 14 3b
       0.07517548 0.023378137 -0.05848885 0.0022659334
000160 33 02 55 bd 61 e2 64 bd 38 ad b2 bd 25 2a 0a bd
       -0.05200405 -0.055879954 -0.08724445 -0.0337316
000170 a7 c4 10 be c8 c7 ee bd 32 0e 24 be b9 e4 41 3e
       -0.14137517 -0.11659199 -0.1602104 0.18934907
000180 41 53 0e 3e 70 bd 2b 3e b7 20 67 3d c9 f0 69 3c
       0.13898946 0.16771483 0.056427684 0.014278599
000190 12 ae 4e 3e 42 ad c1 bd 6d 04 07 be 7d 3c 08 be
       0.2018359 -0.094568744 -0.13185282 -0.13304324
0001a0 ed f8 88 bd fe 98 16 bd 57 b3 85 bd 24 59 43 be
       -0.06688104 -0.036767 -0.06528347 -0.19076973
0001b0 86 79 89 bd c2 3c 52 be a8 69 13 be 5a b3 e0 3d
       -0.06712632 -0.2053099 -0.14395773 0.109717086
0001c0 cc c5 83 3d f3 11 6c 3d a1 0e 30 be e3 76 e3 bd
       0.06434211 0.057634305 -0.1719308 -0.1110666
0001d0 cb ef 24 be bc 49 c9 bd 57 c5 46 bd 1a 71 8f 3d
       -0.16107099 -0.09828517 -0.04852804 0.07003994
0001e0 36 6a 16 be cb 55 47 3e 93 e7 61 3e a3 90 4d 3d
       -0.14688954 0.19466321 0.22060995 0.050186764
0001f0 15 ae e9 3d 01 de ae 3c d0 93 d2 bc 59 55 c8 bd
       0.11410157 0.021346094 -0.025705248 -0.09781904
000200 11 94 af 3d cb 3b 80 bc e0 84 d8 bd bd c2 bf bd
       0.08573163 -0.015653512 -0.10572219 -0.09363315
000210 1f 69 41 be 2d b5 24 be 7e 92 e1 3d 4d 9c 25 be
       -0.18887757 -0.16084738 0.11014269 -0.16172905
000220 ba 25 cd bd c8 e7 b4 bc 27 bf 0b 3e 05 82 cc 3d
       -0.100169614 -0.022083178 0.13647138 0.09985737
000230 ff 68 bf 3d af 03 77 3d f2 1a 07 3d 21 dd 25 3d
       0.09346198 0.060306247 0.03298468 0.040494088
000240 dd ea a0 bd ec 3c 5b 3d 38 90 3a 3e 96 69 e3 3c
       -0.078572966 0.053524897 0.18219078 0.027760308
000250 22 36 3b 3d 83 50 e1 3d 03 83 3b 3d bb f4 c8 bd
       0.045705922 0.110016845 0.04577924 -0.09812304
000260 e5 d1 c2 3d 41 f9 22 be 6e 31 81 bb b3 86 b2 bd
       0.095126905 -0.15915395 -0.00394266 -0.08717098
000270 15 de 5c bb 7c b7 b7 bd 36 43 a9 3c b4 96 ea bd
       -0.0033701707 -0.08970544 0.020661931 -0.114545256
000280 a6 10 29 3e 34 f7 f8 bd ff b4 20 be 9e 28 d4 3d
       0.16510257 -0.12156525 -0.15694045 0.103593096
000290 46 c0 2a 3e ea 36 c1 bc db 8d 40 3e 70 72 4c bd
       0.16674909 -0.023585755 0.18804114 -0.049913824
0002a0 24 b5 39 be 17 aa c2 bd 1a 04 6f bd f1 4f 3d 3e
       -0.18135506 -0.09505098 -0.05835352 0.18487526
0002b0 10 97 1a be bc 9e 0f 3e 18 5d 3c be e7 aa c4 3d
       -0.15096688 0.14025396 -0.18394887 0.096029095
0002c0 86 5d 8a bd 06 6c 39 be df 58 61 3e e5 c1 19 be
       -0.067561194 -0.18107614 0.22006558 -0.15015371
0002d0 c7 8d 4a 3e 50 d4 36 3e 6d 2b e1 3c 44 3f 4c 3e
       0.19780646 0.17854428 0.027486527 0.19946009
0002e0 4e e0 2d 3e 7d f0 40 3e 04 ff 66 3e d9 f0 5b 3d
       0.16980097 0.18841739 0.22558218 0.053696487
0002f0 80 69 78 3d 9a 1e 90 3d ce b4 e7 3d c2 ab f2 3d
       0.060647488 0.07037087 0.11313783 0.118491665
000300 e2 f8 7e 3d 61 80 b7 3c 36 cb 1c 3e 04 ec 61 bd
       0.062249072 0.022400083 0.15311894 -0.055156723
000310 f2 e8 e9 bd 97 9f 49 bd 40 79 c6 bd db b3 40 be
       -0.11421384 -0.049224462 -0.09691095 -0.1881861
000320 ed 88 f7 3d 63 fc 35 3d df 16 55 3d b1 13 53 3e
       0.120866634 0.044430148 0.052023765 0.2061298
000330 0e 3d 59 be bf 79 56 bd e1 ef 14 3c ee fe 1b bd
       -0.21214697 -0.0523622 0.009090395 -0.038084917
000340 d3 ad ce bd 08 a5 11 bc 6e ba 10 3e 47 c7 ad 3d
       -0.10091748 -0.008889444 0.14133617 0.08485275
000350 71 15 21 3e 28 c0 fe 3d fd bd 25 3e 41 74 36 be
       0.15730835 0.12438995 0.16185756 -0.17817785
000360 f0 78 32 3e b1 81 bd 3c 92 f1 39 be 0b 85 1e be
       0.17428946 0.02313313 -0.18158558 -0.1548044
000370 66 af 1c bd fe 3a 10 be 77 9c 16 3d 5f da 57 bd
       -0.03825321 -0.14085004 0.03677031 -0.05269849
000380 5d 81 2a 3e 89 1c 6b be 4b 56 a7 3d 01 9d e4 bd
       0.1665091 -0.22960104 0.08170756 -0.111627586
000390 33 83 32 be b7 be 35 bd 4b e4 0a 3c aa d9 17 3c
       -0.17432861 -0.044371333 0.008477281 0.009268204
0003a0 e7 06 03 3e be 58 aa 3d a3 45 a5 bd 33 6f 02 3e
       0.12795602 0.083177075 -0.08069923 0.12737732
0003b0 21 e7 df bd 2e 9d 9b 3d 8b b7 c7 bd df 62 2a bd
       -0.10932756 0.07598339 -0.09751805 -0.041598197
0003c0 13 ef eb 3d 2e 5e 25 3e ce 27 12 3e 20 80 c4 bd
       0.11520209 0.16149208 0.14272997 -0.095947504
0003d0 52 9a 0f be 86 dc d8 bd 78 6d 5b be 89 3f 47 3e
       -0.14023712 -0.105889365 -0.21428478 0.1945783
0003e0 23 5c 93 bd 03 ea 26 be f3 7a ac 3d 63 69 32 be
       -0.07195308 -0.16300206 0.08421888 -0.17423014
0003f0 9e a0 6f bd 71 fa 73 be 2f 9d 79 bd 18 fa 39 bd
       -0.058502786 -0.23826005 -0.060940918 -0.045404524

model_1/building_output/MatMul f4 [3, 64]
000000 4f ea 91 be 93 d6 51 be ea 5a 72 be 51 92 50 3e
       -0.28499076 -0.2049201 -0.23667493 0.20368315
000010 b0 de a7 bc 71 9a 91 be 93 75 f9 3d d7 3d 80 3c
       -0.020491928 -0.28438142 0.12180629 0.015654488
000020 46 3f 50 3e 31 de be 3d 93 a7 77 3e 47 76 b0 bd
       0.20336637 0.093197234 0.24185018 -0.086163096
000030 3b 52 71 be d2 34 94 bc c0 62 f2 ba d3 64 70 be
       -0.23566525 -0.018091593 -0.0018492565 -0.23475961
000040 b9 50 92 bd 98 96 8a 3e f5 7b 56 3e 39 da 03 be
       -0.07144303 0.2706802 0.20945723 -0.12876214
000050 77 e6 59 be 45 e3 83 be 45 f1 66 3e 1e 59 a3 3d
       -0.21279322 -0.2575933 0.22552975 0.07975982
000060 26 5c d8 bd a3 ec 49 3c ee 8e a9 3d 4b 01 58 3d
       -0.10564451 0.012324485 0.08279215 0.052735608
000070 9e c2 84 bd f0 51 89 bd 5d db 71 3c e5 85 cd bd
       -0.06482433 -0.067050815 0.014761773 -0.10035304
000080 fe 48 9a 3e 97 55 3f 3e 31 9a 7f bd ff 98 60 3e
       0.30133814 0.18684994 -0.062402908 0.21933363
000090 2c 93 77 3e 67 93 11 be a1 a5 70 be 83 a4 0e be
       0.24177235 -0.14216386 -0.23500682 -0.13929944
0000a0 f0 9c 4a be 0a cf 37 3e 67 a6 e5 3d 31 64 9d 3e
       -0.1978643 0.17950073 0.11213379 0.30740502
0000b0 07 84 d2 bc 54 a3 0c 3e 42 40 4a be d8 1e 20 be
       -0.025697721 0.1373418 -0.19751075 -0.15636766
0000c0 7f f5 26 3e 6b f1 38 be ab b6 59 3e 8e 79 3f bd
       0.16304587 -0.18060844 0.21261089 -0.046746783
0000d0 62 e5 06 be 73 27 90 3e 80 56 46 3d de b4 7a 3e
       -0.1317344 0.28155097 0.048422337 0.24483058
0000e0 58 dc 8d 3e e9 9d ec 3d 8f af 90 3e 0b 30 8b 3b
       0.2770717 0.115535565 0.2825894 0.0042476705
0000f0 c1 78 92 be 5c 56 42 be ae 65 87 be 8a 6e 13 3e
       -0.28607753 -0.18978256 -0.26444763 0.14397636
000100 1d eb 81 3e c2 ee e7 bd 77 e6 3d be d6 6a 82 3e
       0.2537469 -0.11324836 -0.18544947 0.25472134
000110 70 77 47 3e 09 46 7a be a0 38 ee b8 3c f7 7d be
       0.19479156 -0.24440779 -0.000113592716 -0.24801344
000120 f5 19 4e 3d 61 5f f4 bd d8 06 f7 3d c8 65 82 3e
       0.050317723 -0.119322546 0.12061852 0.25468278
000130 54 c4 d7 3d 32 10 d1 3d 77 3d 09 bc cf 20 79 be
       0.105354935 0.10208167 -0.008376471 -0.24328922
000140 83 b1 5e 3d 65 d0 93 be f2 17 18 be 06 53 05 3e
       0.054368507 -0.2886993 -0.14852884 0.13019952
000150 c4 d3 70 3c 05 e8 8c be 69 07 ac bd 53 f9 3d 3e
       0.014698926 -0.27520767 -0.08399851 0.18552141
000160 67 ba ec 3d 68 eb a5 bc 4f a4 0a be 8b e2 90 be
       0.11558991 -0.020253852 -0.13539241 -0.2829784
000170 2d bd 6f be 2d 21 42 3e 16 7c d8 bd 80 c1 d3 3d
       -0.23412009 0.18957968 -0.105705425 0.103396416
000180 a0 45 f9 3c df 0a 33 bd 86 72 4f 3d 2f 7a 0d 3e
       0.030428708 -0.04371154 0.050646327 0.1381614
000190 e5 90 98 bd 14 8b 83 3e 1d 82 2a 3e 9b 1e 2c 3e
       -0.074495114 0.25692046 0.16651197 0.1680855
0001a0 30 4e 80 be ea 8f 4a be 5f c7 43 be 2f f0 85 be
       -0.25059652 -0.19781461 -0.19119023 -0.26159808
0001b0 68 41 2d 3e 2f a0 48 3e 71 8e a0 be f8 90 8f 3e
       0.16919482 0.19592355 -0.31358674 0.2804029
0001c0 ab e7 22 be db d4 49 3c 66 3c 78 3e 45 34 90 3d
       -0.15908687 0.012318815 0.2424179 0.070412196
0001d0 dd f2 fc bd 9e 18 8e 3e cf e5 84 3d f1 c0 83 be
       -0.1235101 0.27753156 0.06489145 -0.2573314
0001e0 45 47 24 bd bf a9 03 3d 40 e6 07 be 11 ae 3a 3e
       -0.04010703 0.032144304 -0.13271427 0.18230464
0001f0 4b c1 68 3e 2e 46 21 3e cb 98 33 be b2 fa e6 3d
       0.22729985 0.15749428 -0.17538755 0.11278285
000200 19 21 41 3e 75 67 0a be 1a 11 62 3e 60 a3 87 be
       0.18860282 -0.13516028 0.22076836 -0.26491833
000210 d5 57 02 3e 2c 6b 0f be 83 49 83 3e 7c 37 d0 3d
       0.12728818 -0.14005727 0.25642022 0.10166833
000220 c4 a5 e0 3d cb d2 0a 3e 34 6c af 3d aa 8f 90 3d
       0.10969117 0.13556974 0.0856556 0.07058652
000230 be 20 cc bd fd 1c 48 3d 98 9a 2e be bc 39 dd 3d
       -0.099671826 0.04885577 -0.1705116 0.108020276
000240 53 9a 21 3e 29 5c a5 bd ba e6 f1 bc f4 19 41 3e
       0.15781526 -0.08074219 -0.029528964 0.18857557
000250 5c 6a 09 3e f9 f8 fd 3d 38 d4 35 3e 8f 48 68 be
       0.13419479 0.124010034 0.17756736 -0.22683929
000260 73 67 6a bd 07 a9 20 3e 94 5f 74 3d 28 2a 12 3e
       -0.057227563 0.15689479 0.059661463 0.14273894
000270 70 bc f1 bc c8 d7 32 3d cf 1f 5a 3e 66 bf 9b be
       -0.0295088 0.043662816 0.21301197 -0.30419463
000280 15 79 39 3e 7b 99 9a 3e 13 d1 3b be cd 96 39 bd
       0.18112595 0.3019522 -0.18341474 -0.04530983
000290 3e 4e ec bd 1c df 2e 3e 0e cb fa bd ed bb 88 be
       -0.11538361 0.17077297 -0.12245761 -0.26705876
0002a0 7a 15 71 3e a9 ba 96 3e b0 52 be bc 78 60 e3 3d
       0.23543349 0.29439285 -0.023232788 0.11102384
0002b0 e9 0d 5e 3e 7f 89 4c 3d e1 77 96 be 4a 02 98 be
       0.21684994 0.049935814 -0.29388335 -0.29689246
0002c0 05 25 a5 bd 70 a5 0e be 32 31 6a 3c 55 44 12 be
       -0.080637015 -0.13930297 0.014293956 -0.14283879
0002d0 93 f9 1d 3d 98 5e 2a be e7 86 c3 3d 5e 37 f8 bc
       0.03856809 -0.16637647 0.09547215 -0.030299839
0002e0 07 9c 4e be b9 f1 cc 3d c4 09 2d 3d 53 38 45 bd
       -0.20176707 0.100070424 0.04224564 -0.048149418
0002f0 3b 6c 48 be 92 3d a2 be eb 90 26 3e 04 7c 58 be
       -0.19572537 -0.316876 0.1626622 -0.21141058
