250630/models/mlp.tflite (tflite, 288296 bytes, 16 tensors)

model/dense_1/MatMul;model/dense_1/Relu;model/dense_1/BiasAdd f4 [64]
00000000: 8e6a 47be 27b5 76be 992d 82bd 48d1 a3be
00000010: 651f 96be 05e5 b8bd c4ca a2bd 04b6 37be
00000020: ef06 0e3e 2236 183d ca38 9fbb 20fd 1cbe
00000030: ad19 283e 93a6 1bbe 0617 e43d d43c 23bd
00000040: de86 e8be 0fc9 563e e77d cd3d 7aef 27be
00000050: afb3 973e 1ca3 093c 143e a43d 22d3 913e
00000060: 639c 953e 178f 363b c7f8 193e f5cb 5f3e
00000070: f5cf 9c3e 1b0e 253e bcd3 a6bd b032 2fbd
00000080: 788d f63e b402 723e 7fda 88be fe44 d33e
00000090: 9711 9ebe ddc2 a83c 8156 853d 0df4 b8be
000000a0: 5321 34be e65b 80be 0e59 e03c 71fc eebe
000000b0: aa88 3a3e 4373 29be 52e7 56be 9928 8fbe
000000c0: 4cc6 3a3c 6ed9 5ebd 87ee 34be c145 c83c
000000d0: ba0c 483e 812d dcbd 5768 37be 52bb 07bd
000000e0: 73c8 0fbd 99f1 3a3d 96d0 7cbd 712c 8f3e
000000f0: 307a d63d 1e3a 173e 10ff 983d 9dc1 0e3e
-0.19474241 -0.24092542 -0.06356353 -0.31995606 -0.29320827 -0.09028057 -0.07948831 -0.17940527
0.13869832 0.037161 -0.0048590647 -0.15330935 0.16416045 -0.15200262 0.11137204 -0.039852932
-0.45415395 0.20975135 0.100337796 -0.16399947 0.29629275 0.008400705 0.08019653 0.28481394
0.29220876 0.0027856284 0.15036307 0.21855147 0.3062741 0.16118662 -0.08145854 -0.04277295
0.48154807 0.23633844 -0.267292 0.41263574 -0.30872795 0.02060073 0.0651064 -0.36123696
-0.17590837 -0.25070113 0.027386215 -0.46676973 0.18216196 -0.16547875 -0.20986679 -0.2796066
0.011399817 -0.054406576 -0.17669116 0.024447324 0.19536105 -0.10750867 -0.17910896 -0.033137627
-0.035103273 0.04564056 -0.06172236 0.27963594 0.10472524 0.14768264 0.07470524 0.13941045

model/batch_normalization/batchnorm/mul_1;model/batch_normalization/batchnorm/add_1;model/dense_1/MatMul;model/dense_1/Relu;model/dense_1/BiasAdd f4 [64, 128]
00000000: 5182 883d 9cc7 593e 782c 123d adc2 933b
00000010: 3907 213e 2179 413e a0d0 3e3e 8cf3 c33d
00000020: e31f c4bd 9d8c bbbd a5d8 c63d 2988 a1bc
00000030: fb97 113e 817a 573c 829f ce3d 23d7 87bd
00000040: b9c3 073e 8ffc 0b3e 5ac9 04be 5abb 76bd
00000050: b54b 383e 3813 03bc c324 a23d b5cd f5bd
00000060: 0c27 723d c6c0 553e 8b0c 993a c925 90bd
00000070: 8a22 d73d febb 4cbc b816 45be e14d 9abd
00000080: 4d89 80bc 0f36 cc3c afc2 1ebe fe8d 963d
00000090: ae6b bd3d 5163 423e e589 9d3d f6c6 bf3d
000000a0: be2a f43d a275 9f3d 741a 2d3e 3d4b 46bd
000000b0: db92 3b3e b983 0ebe ee40 683d fded d5bd
000000c0: a405 7cbd 5ddb 54bd f670 9d3d 000e 2fbd
000000d0: 5128 11be ac77 fbbd cd2f 473e e035 26be
000000e0: 91d7 473e d08a 06be 5dd3 053e b325 efbd
000000f0: 676f 093e bdee f2bc 44ed 423e f270 623e
00000100: 2b95 4a3d 67ee ab3d 0ece 133e 3966 54be
00000110: f482 2abe a25d f93d 4e0f 3ebe 1afb 85bd
00000120: 6b08 b43d d15e 42be 1410 45be 6b66 26be
00000130: 4d50 80bd 6eba 2b3d fcd7 42be 5d0e ce3c
00000140: 09c1 10be 7860 9c3d 372c 2f3e 12d2 d13c
00000150: dfc9 803d 772a 44bd 2427 0ebe 0a3a ee3d
00000160: a5f5 2a3e b5a5 cbbd 320e ca3b c7f6 4dbe
00000170: 390c 60bd d40c 2e3d a0ac 073d 644b 013e
00000180: 207a 97bc 0044 163e 05d8 c33d 294d 503c
00000190: fab4 193e c7ed 24be a72f 16be 0d0d 813d
000001a0: ba94 0a3d e2cf 423e 75d1 31bd 310c dcbc
000001b0: 5957 183d bd18 4f3e bb0f 16be 4a5a b8bd
000001c0: 4360 e3bd 2789 9d3d 4be5 0abe 55ed 413e
000001d0: a962 e53d 58b6 b6bd b922 b7bd 5d9b 4a3e
000001e0: 8de2 f5bd f6a5 3ebe e86c 3dbc 4514 e73d
000001f0: 95db 793d 0869 1bbe 985c 8bbd f475 47bd
00000200: f704 b03c 3a42 d93d 4f84 983d 4003 f8bd
00000210: afac 103d a52c c63d 2fd9 09be b713 50be
00000220: e9e5 a3bb dae2 083d c4c3 0bbe 121f 27be
00000230: 5d17 f33d 9f1a b13d b093 05be a9e7 e23d
00000240: fb5f 7d3c 241e bdbd f799 1f3e ec23 293c
00000250: ebb6 b3bd bc32 b93d 9cbb d83a 5338 a43d
00000260: c478 323e 0795 fdbd e2bb 19bd ffa0 97bd
00000270: 9b04 403e 5711 3f3e c820 233d 88e6 0dbe
00000280: 1f1d 07be aa8c 403d 22fa 24be 1ebf eebd
00000290: b034 0dbe adc4 633e 67e3 ef3d 028c 43bd
000002a0: df70 30be 97c5 433e 4269 c5bb b74f fa3d
000002b0: 9345 3c3e 1396 f23d fa31 44be b516 0a3e
000002c0: 93d2 43be c43f ae3d 6ed6 103e 4293 33be
000002d0: 0313 2e3e 0a6f b5bd e577 10be 6ca9 1abd
000002e0: ea18 1b3d b3ce 363e ea73 78bd b2e2 0e3e
000002f0: b45e 14be 0c0b 173e 82ea 073e a3a0 bbbc
00000300: e57e 723d b123 303e e270 2e3e 0f83 2abe
00000310: b9aa e23c 819b 00be 1b4a 553d d608 423e
00000320: 8409 c93c 750f 7d3d 4139 033e 279f efbc
00000330: 33e7 37be 19f0 ff3d e9a4 0a3e 2c2b d7bc
00000340: 532c 1ebe 6396 25be 9ac0 2ebd f02c ba3d
00000350: 29b6 183c d5a3 be3d 5ad2 fdbd 6585 4abe
00000360: 9c03 423d 2bc8 3abd 9a10 44be 3ed5 19be
00000370: 2cc1 9bbc f27c ce3d b823 0c3e d9d1 c9bd
00000380: 170c 2d3e d680 163e 0c20 033e f29b 373e
00000390: 9518 1a3e ef21 84bd 1f2a 8b3d 9c0b ec3d
000003a0: efcf 8d3d 836e e2bd 098d 2cbe 9ffd 383e
000003b0: 68ba f8bd ee72 71bc 50cd f43c 72a8 e5bc
000003c0: 38a7 debd 7bc1 e2bc 972b 023d b917 c4bd
000003d0: 4c94 013e 9dda 53bd 86fa a93c 6d3a abbd
000003e0: 34aa 7b3d 18ed adbd ce4c da3d 502c d5bc
000003f0: f871 1ebd 94ec 683b 1ff1 aa3d cbee 05be
0.06665481 0.21267551 0.03568694 0.004509291 0.15725411 0.18893863 0.18634272 0.09567937
-0.095763944 -0.09157679 0.097092904 -0.019718247 0.14218132 0.013151766 0.100890175 -0.06632831
0.13258256 0.13670562 -0.12967435 -0.060237266 0.1799763 -0.008000188 0.07917168 -0.12002126
0.05911927 0.20874318 0.0011676712 -0.07038457 0.10504635 -0.012495993 -0.19246948 -0.075343855
-0.01569047 0.02492812 -0.15503953 0.073513016 0.09249054 0.18983199 0.07692317 0.09364121
0.11922215 0.077861086 0.16904622 -0.048411597 0.1831774 -0.13917436 0.056702547 -0.10445783
-0.061528817 -0.051967014 0.07687561 -0.04273796 -0.14175536 -0.12278685 0.19451828 -0.16231489
0.19515826 -0.1313889 0.1306891 -0.116771124 0.13421403 -0.029654855 0.19035822 0.22113398
0.049458664 0.08395081 0.14434072 -0.2074212 -0.16651517 0.12176062 -0.18560526 -0.065420344
0.08790668 -0.18981482 -0.19244415 -0.16250007 -0.06265316 0.04192584 -0.19027704 0.025153333
-0.14136137 0.076355875 0.1710671 0.025612865 0.06288504 -0.04789206 -0.13882118 0.11632164
0.16695268 -0.099437155 0.006166243 -0.2011367 -0.054699156 0.042492703 0.033123612 0.12626415
-0.01849085 0.14674377 0.09562687 0.012713709 0.15010443 -0.1610633 -0.14666615 0.06301317
0.033833243 0.19024613 -0.043412644 -0.026861282 0.037192676 0.2022428 -0.14654438 -0.09001596
-0.11102345 0.07692175 -0.13564031 0.18938191 0.112004586 -0.08921498 -0.0894217 0.19785829
-0.12006102 -0.18617997 -0.01156161 0.11283163 0.061000425 -0.15176785 -0.0680477 -0.048696473
0.021486742 0.10608335 0.07447111 -0.12109995 0.035320934 0.09676484 -0.13461755 -0.2032002
-0.0050017727 0.033419468 -0.13648897 -0.16320446 0.118696906 0.08647656 -0.1304462 0.11079342
0.015464778 -0.092342645 0.15586077 0.010323506 -0.08775123 0.0904288 0.0016535404 0.080185555
0.17428881 -0.1238194 -0.037532695 -0.074037544 0.18751757 0.18658958 0.039826185 -0.13857472
-0.13194703 0.047009148 -0.16111043 -0.116575465 -0.1378963 0.22242995 0.117132954 -0.047740944
-0.17230557 0.19118343 -0.0060245106 0.12222236 0.18385915 0.11845031 -0.1915969 0.13485225
-0.19123296 0.08508256 0.14144298 -0.17536643 0.1699944 -0.0885907 -0.14108236 -0.03775923
0.037865557 0.17852287 -0.06065742 0.13953665 -0.14489251 0.14750308 0.13273051 -0.022903746
0.059203047 0.17201115 0.17035249 -0.16651557 0.027669298 -0.1255932 0.052072626 0.18948683
0.02454067 0.06178232 0.1281481 -0.029250694 -0.17959289 0.12496967 0.1353947 -0.026265703
-0.15446596 -0.16170649 -0.042664148 0.090906024 0.009320774 0.09308592 -0.12393637 -0.19777448
0.047366723 -0.04560105 -0.19146958 -0.15022752 -0.01901301 0.10082425 0.136855 -0.098544784
0.16899143 0.14697585 0.12805194 0.17930582 0.1504844 -0.06451785 0.06795143 0.11525652
0.06924426 -0.11056235 -0.16850676 0.18065499 -0.12144929 -0.014736874 0.029883057 -0.028034423
-0.10871738 -0.02768015 0.03177985 -0.09574837 0.12654227 -0.051722158 0.020749342 -0.08360753
0.061441615 -0.08492488 0.106591806 -0.026022106 -0.038682908 0.0035541402 0.083467714 -0.13079374

model/dense_2/MatMul;model/dense_2/Relu;model/dense_2/BiasAdd f4 [64]
00000000: c683 ea3b ac99 2a3f bfeb 4c3e 6fc9 2a3e
00000010: 1e0a b5be f018 65bd 5d00 4dbe 63d7 b23d
00000020: ba73 62bd c006 1e3f 16e7 71bd 6b04 c4be
00000030: 7df2 9fbd 527c 03be d403 9cbc 66cd 7cbe
00000040: e9b3 653e 2008 f33c 3d53 a73d b254 43be
00000050: d8e7 bbbc 2dc0 1dbe c6b8 c5be 3586 1abc
00000060: 57e9 68be 38ea 923e b381 e93e 8f6a c1bd
00000070: 1ea1 2abd d5ec 8f3d 4224 3d3e 67e6 283e
00000080: 79ef e0bc e80d 4abe fc62 6dbe 0847 e4be
00000090: 45c1 60be 61fa bd3c f401 c4bd ce97 1fbf
000000a0: ede6 fd3e 3677 083e 8c7e 4e3e 1107 0b3e
000000b0: 7467 5d3e 884b 2b3e 260e 053f afdc e53e
000000c0: 9c90 52bb ab1c d23d 7a50 94be 091f 52be
000000d0: 396a 083f fb18 913e 2d17 8fbd 4334 2dbe
000000e0: 36e9 a3be e27c 073e 279f bdbc b0ed 01be
000000f0: aae6 963e 4869 e53d 4fab 083e 3a2c d1be
0.007156822 0.66640735 0.20011805 0.16678403 -0.3535928 -0.055931985 -0.2001967 0.08732488
-0.055286147 0.6172905 -0.05905827 -0.3828462 -0.07809923 -0.12840393 -0.019044794 -0.24687728
0.22431912 0.02966696 0.08170173 -0.19075277 -0.0229377 -0.1540534 -0.38617533 -0.0094314115
-0.22745262 0.2869432 0.45606765 -0.094441526 -0.04165756 0.07027594 0.18470863 0.16494142
-0.02745794 -0.19731867 -0.23182291 -0.44585443 -0.21948726 0.023190679 -0.09570685 -0.6234101
0.49590245 0.13326725 0.20165461 0.13576914 0.21621495 0.16728032 0.51974714 0.4489493
-0.003212965 0.10259374 -0.2896765 -0.20519651 0.5328708 0.2833937 -0.06986842 -0.16914468
-0.32013863 0.13231233 -0.023147179 -0.12688327 0.29472858 0.112017214 0.13346599 -0.40854055

model/batch_normalization_1/batchnorm/mul_1;model/batch_normalization_1/batchnorm/add_1;model/dense_2/MatMul;model/dense_2/Relu;model/dense_2/BiasAdd f4 [64, 64]
00000000: dd5b b8bd 04cc 933d 0260 663e 074b af3c
00000010: c2da da3d 022f 85bd 5ca9 563e e110 4a3e
00000020: 8f7a 37be 437a cbbd c205 2b3d 1f3c dfbd
00000030: cede 693d 4a13 143e 3fb7 98bd ab47 a23d
00000040: c8eb f93d 7f2b ae3d 948f 2dbe 964f fbbd
00000050: 3127 84bd f135 d03d d5c3 2dbe dc9c 4fbd
00000060: e6c9 03be 3b2d 21be 0d65 58be d1a4 f63d
00000070: ed57 313e e736 4f3d 58dc 19be 87b5 593d
00000080: 726d c5bd 5906 1abd 7cd7 0f3e ca0f 01bd
00000090: d3bb 393e dbe4 5ebe d2a6 03be 45a5 6dbc
000000a0: f7da 623e c128 d63d 0aee 4abc 3e7b 4e3d
000000b0: e0bb 90bd 8bf2 a3bd 7948 6a3d 978f cf3c
000000c0: 7d17 d33d 541b 3abe cc8f e13d 792c 24be
000000d0: 2d40 cf3d c4a4 a33c b0e2 5fbd 2caf ca3d
000000e0: d41b 47be 8e3a 38be 7ae6 093e cbcb 64be
000000f0: ae76 c7bd a03a b8bd f8e3 963d f496 aa3d
00000100: b3ea 563c caab ae3d 281b 5ebe 463c f8bd
00000110: e8ed 6d3d bf06 55be 219a 5d3d a83a 383e
00000120: 4ddc 293d 7596 1cbe bc0f 55be a419 6fbc
00000130: 9b7d 7d3d 07ce f6bc 8e06 bebd 9b50 b2bd
00000140: 9c78 18be dcc7 09be 24c2 e1bc c9d4 063e
00000150: 06ca 29bd a450 7bbd cbc5 693d 43a1 353d
00000160: 0b2a 723e eb0f 7cbe 64c1 b0bd 972e 7dbe
00000170: 9a51 cabd 28be 003d 6bd8 c7bd d8d8 423b
00000180: 33dc 83bd 1340 c0bc 9167 05be 76d5 d73d
00000190: 0a29 59bd b14f 38be 14e4 78be bd4f 9dbd
000001a0: f73d c13d 2758 72be 42ae ebbd 706f 3bbe
000001b0: 1e6e ce3d 294d ff3a 3548 03bd 568c 883d
000001c0: f2b3 673d 8926 55be a773 853c c3a2 163e
000001d0: 53fc 49be 5e18 3ebe 654c 0abe d169 003e
000001e0: 282a 73be c872 36be c050 41bd 3758 ec3d
000001f0: 29da 1d3e 90cf 133e 4f06 8f3c 246a ddbd
00000200: 013d acbd 0e73 28be c44e 223e 18f8 813d
00000210: d905 9abd 70dd 4cbe f367 093e 741a 2a3c
00000220: de5a 24bd 48cc d93d 0c12 4dbe 301c 0b3e
00000230: 2c4f 0a3d 434e 303d bbe3 e23c 0f99 ebbc
00000240: 9249 d7bd c4ce 62be 3f1c 2c3e e0f5 11be
00000250: 245b a8bc 159a 233e e555 b03c f850 5fbd
00000260: 3771 f13d efc2 273d c399 ccbd 8568 2d3e
00000270: 827c 3ebe ef89 dbbc afb8 25be 31d7 94bc
00000280: 25d6 943d 9500 693d ae8b 31bd a3ef 10be
00000290: 7767 84bd d71c 323e 234e afbd fcc9 8b3d
000002a0: 2ed1 e7bb 8b15 23be 4166 fe3d c8da 5ebc
000002b0: 4e5b f93d bf82 b6bd 1764 6dbc 45d4 02bd
000002c0: b782 efbd e601 913d 77d5 39be 36ab 14be
000002d0: 0038 6f3e cdfa 273d 1f9f ba3c bc18 b93d
000002e0: 5bb4 8bbc 9e88 6fbe 4d63 d73d c61a 62be
000002f0: 33d3 1fbe a1a1 51bc 1102 583d 3537 d4bc
00000300: 92a5 cfbd eee9 383e a30d 99bd f59a 173e
00000310: c56b 183e 74bb 5ebe bd59 0fbe 4974 e03c
00000320: e18f 24be 7038 923d 6a0b 043e 9d32 a43d
00000330: ebb1 f2bd c806 343c ac77 943c 6005 113e
00000340: e5c6 f2bd 8048 08be 2249 0fbe 862e f03d
00000350: a1d7 013e c0de 0b39 539d 26bd 5dcb 3e3e
00000360: 42f3 58bd b2ee 883d 19b8 ae3d ea4f f3bd
00000370: 4479 48be 8d15 4e3e 0ddb 5a3e 153a b03d
00000380: 2258 253e b50e eabd 9778 d5bb 29f3 68be
00000390: bd84 313d 0814 b23b 92aa 6d3b bdea acbd
000003a0: 97db e73d 8d20 89b9 14f8 9bbc 9e41 b13c
000003b0: 1d2b fabd 4799 22be 167a 2bbe 1045 743d
000003c0: a37b 4ebe 746c 20be 3320 183e 24df 233d
000003d0: 48ed 45bb d9a5 11be 2994 9a3c 3750 41be
000003e0: b56b 553d dd66 0a3e c280 f3bd 578a 3bbe
000003f0: 164d dcbd e35f bdbb d2db 283e 004c 97bd
-0.090018965 0.07216647 0.22497562 0.02139808 0.10686256 -0.06503107 0.20963043 0.19733001
-0.17917846 -0.09935429 0.041753538 -0.10900139 0.05709725 0.14460483 -0.074568264 0.07923826
0.12203175 0.0850439 -0.16949302 -0.12271039 -0.06452788 0.101665385 -0.16969235 -0.050686702
-0.12869987 -0.1573991 -0.21132298 0.12043155 0.17318697 0.05058947 -0.1502546 0.053151634
-0.09640016 -0.03760371 0.14047045 -0.0315092 0.18138056 -0.21766989 -0.12856606 -0.014504735
0.22153841 0.10456992 -0.0123858545 0.0504105 -0.07067084 -0.08005246 0.05719802 0.025337024
0.103072144 -0.18174487 0.11013755 -0.1603259 0.101196624 0.019976027 -0.054659545 0.09896693
-0.1944421 -0.17991087 0.13466826 -0.22343366 -0.09739433 -0.08995557 0.073677 0.08329573
0.01311748 0.0852886 -0.21690047 -0.12120871 0.058088213 -0.20803355 0.054102067 0.17991126
0.04146986 -0.1529177 -0.20806783 -0.014593516 0.061887365 -0.030127538 -0.09278594 -0.087067805
-0.14889759 -0.13455147 -0.027558394 0.13167109 -0.04145243 -0.0613562 0.057073396 0.044343244
0.2364885 -0.24615447 -0.08630636 -0.24724804 -0.098788455 0.031431347 -0.09758075 0.00297313
-0.06438484 -0.023468053 -0.13027789 0.10538761 -0.053017654 -0.1799915 -0.24305755 -0.076812245
0.09435647 -0.2366644 -0.115078464 -0.18304229 0.10079597 0.0019477952 -0.032051284 0.06667392
0.056568094 -0.20815481 0.016290499 0.14710526 -0.1972516 -0.18563983 -0.13505705 0.12540366
-0.2374655 -0.17817223 -0.04719615 0.11540263 0.15415253 0.14434648 0.017459063 -0.1081126
-0.08410073 -0.1645014 0.15850359 0.06346148 -0.075206466 -0.20006347 0.1341856 0.0103822835
-0.04012572 0.10634667 -0.20026416 0.13584971 0.03376691 0.043043386 0.027696481 -0.028759507
-0.10512079 -0.22149187 0.1680765 -0.1425395 -0.020551272 0.15976746 0.021525333 -0.054520577
0.11789172 0.040957388 -0.09990265 0.16934402 -0.18602183 -0.02679917 -0.16183732 -0.018169018
0.07267407 0.05688532 -0.0433461 -0.14153914 -0.06465047 0.17393814 -0.08559825 0.06825635
-0.0070744967 -0.15926187 0.12421847 -0.013601966 0.12175618 -0.089116566 -0.014489195 -0.031940717
-0.11694854 0.0708044 -0.18147837 -0.14518437 0.23361206 0.041010667 0.022780953 0.09037921
-0.017053774 -0.23391959 0.10516987 -0.22080526 -0.1560791 -0.012794883 0.052736346 -0.025905231
-0.10139002 0.18057987 -0.07473304 0.14805205 0.14884861 -0.21751195 -0.13999076 0.0273992
-0.1607051 0.07139671 0.12894979 0.08017466 -0.118503414 0.010987945 0.01812347 0.14162207
-0.11854342 -0.13308907 -0.13992742 0.11727624 0.12679912 0.00013339054 -0.04067738 0.18632264
-0.052966364 0.066861525 0.085312076 -0.11880477 -0.19577509 0.20125408 0.21372624 0.08604828
0.16146901 -0.114285864 -0.0065146196 -0.22749008 0.04333948 0.005434517 0.0036264998 -0.0844321
0.1132118 -0.00026154928 -0.019039191 0.021637734 -0.122152545 -0.15878783 -0.16745791 0.059636176
-0.20164351 -0.15666372 0.14856033 0.040007725 -0.0030201245 -0.14223422 0.018869476 -0.18878256
0.05210467 0.13515802 -0.11889793 -0.18314491 -0.107568905 -0.005779253 0.16490105 -0.07387543

model/dense_3/MatMul;model/dense_3/Relu;model/dense_3/BiasAdd f4 [64]
00000000: 6c00 a03e a6cd 033e ac48 53be e00f 64be
00000010: ef74 66be c50c 0fbd 25ea 153d 3aeb d3bd
00000020: 10b4 0ebd 4075 593d f52f 17be 6828 d93d
00000030: 1e17 c93e 48ce 0ebe 8e3b 7f3e 1c93 bebd
00000040: 778a fabd 27ba 91bd 299b 3c3e 6a10 613e
00000050: 6629 f7bd 80d8 1e38 3e1b 283e 970f 55bd
00000060: df76 8cbe e0d2 0bbf 2f16 b93a 6410 56be
00000070: ec8f 273e 64e7 e83e eefa a4bc 99de 98bd
00000080: 7c88 a03e 2f79 293c b1b0 d1bd e1d6 3a3e
00000090: e31a 07bf c9dc 033e 2919 09bd 13c8 b0be
000000a0: afc7 6bbe 15f2 d9bc 30f1 61be 36c4 2b3e
000000b0: 0ba6 753e 1dd4 023f a762 3a3e 4fe5 d2bd
000000c0: c9a1 79be a161 493f 5673 3dbe 586b 4abe
000000d0: 3e72 fc3d 1d6a 38bc 6c07 743e 6170 0f3e
000000e0: 9adf c13e 51c9 643e 93ca bcbe 0e99 7cbe
000000f0: 8ec6 253c a521 8cbd d227 dd3c 08b8 e4be
0.31250322 0.12871417 -0.20633191 -0.22271681 -0.22505544 -0.034924287 0.03660025 -0.103476
-0.03483969 0.053090334 -0.14764388 0.1060341 0.3927545 -0.13945878 0.24925062 -0.09305403
-0.12233441 -0.07115584 0.18418564 0.21978918 -0.12068443 3.7871767e-05 0.16416642 -0.05201682
-0.2743444 -0.54618645 0.0014120991 -0.2090469 0.16363496 0.45489037 -0.020139184 -0.07464332
0.3135413 0.010343834 -0.10238779 0.18246032 -0.527754 0.12877192 -0.03347126 -0.34527645
-0.23025392 -0.026604692 -0.22064662 0.16774067 0.23989122 0.5110491 0.18201695 -0.102976434
-0.24378122 0.78664595 -0.18501028 -0.19767511 0.123264775 -0.011255768 0.23830956 0.14007713
0.37865907 0.22342421 -0.36873302 -0.2466776 0.01011814 -0.06842355 0.026996527 -0.44671655

model/batch_normalization_1/batchnorm/mul_1;model/batch_normalization_1/batchnorm/add_1;model/dense_3/MatMul;model/dense_3/Relu;model/dense_3/BiasAdd f4 [64, 64]
00000000: 4a4a 00bd 13e0 543d b3ba 293e b23b a23d
00000010: 8436 ecbd 03dd 49be 39cf 97bd ee39 40be
00000020: 1dbd 57be 6e21 bd3d 22c2 253d 5c1c 4b3e
00000030: f115 fdba 54f1 9e3d b8a9 94bd 4030 ebbd
00000040: 1f64 1cbc 5281 68be 4587 373e b857 b9bd
00000050: 90c5 25bd efac 3dbc 5990 fa3d bffb a13c
00000060: 06c5 733d 20f3 023e c41e 0b3e 6a7b 25be
00000070: c9ca bd3d 8964 89bd ede0 67be cce8 0abe
00000080: 2382 0dbe b47e 7e3d 4b32 bcbd 5b18 1e3e
00000090: 8c2e a43d a4bb c1bd 81ff 50be f649 323e
000000a0: 8ab7 213e 62e1 01be 97f0 39bb 54cb 103b
000000b0: e384 da3d 719a 18bd ef53 d3bc c4ae 3bbe
000000c0: ee41 393e 4cae e93d 941e 25be 57e2 5c3d
000000d0: a1eb 7cbe d2e6 14be 6022 1f3d 69c6 97bd
000000e0: a6f3 a73d eea2 28be 0042 823d 5808 6cbe
000000f0: 7fb8 9e3d 4bcc 0a3e 5290 77bd aa4c 26be
00000100: d5de 943d d7e8 ebbd cecd 0a3d fc69 e73d
00000110: e872 0b3e 74f0 2fbe af57 063e 0fb2 643e
00000120: 3bd5 75be 6591 1fbe fb5e 57bc b497 d2bd
00000130: 5731 a8bd 585a 1abd dc4a 203d a5ed 133d
00000140: 9517 43bd 9ae5 51be f049 523d 281d 65bd
00000150: a3f9 653e 384f e53d 39c8 15be 3a26 183e
00000160: 100b 363e 3d5c d7bd 8a6a d73d 3f1e 97bd
00000170: d138 173d 0343 173e c0a3 2b3e 4a56 a2bd
00000180: 8163 69be 40a4 383e cd5c 1b3e 188a 703d
00000190: 8485 55bd 1942 91bd 2789 103e 89ae 0fbd
000001a0: 601a 2dba 8a32 4bbe 56a8 3fbd ca7a 4cbe
000001b0: aee2 5ebe de2e 1dbd 198c 55bd 700e 22bd
000001c0: 5377 6bbe 0154 5b3e 2494 583e 5066 0cbe
000001d0: 4542 47be 85e2 3d3e c113 22be ee3a e2bd
000001e0: dff1 d33d da35 1f3d b8ee eebd 711f 6bbc
000001f0: 07bf babc b9f0 083e d8fa b43d 6d5b 11bd
00000200: 0af1 373e 63af 22be aaf5 e73c 5271 463d
00000210: 86ba 78bc 9b58 763d ebde cd3d 781b 283c
00000220: ca41 423e 0344 c03c a144 eb3d 46b0 76bd
00000230: 5f01 a7bd 9bbb d93c 5c8b a53c 1104 8d3c
00000240: 0f82 1dbe 2b5b aebd d4c0 8ebd 7b81 88bd
00000250: 35dd 45be 4010 8e3c 1b8e 0f3e fb66 f6bd
00000260: 2921 943c 8e5b 853c dfb1 61bd 2be7 cabd
00000270: 0a37 1dbd bac1 58be 7467 513e 046a 9c3d
00000280: ff24 a23b 60f5 2c3e c984 083e 1a16 c2bc
00000290: d126 783d 25d3 5c3e 7d4f bcbd 4c97 183e
000002a0: a6d6 2fbd 8bed 4abe 8df5 be3d 2b4d f7bc
000002b0: 2883 fb3d bd01 4bbe 7a4c fabd 3d98 dfbd
000002c0: 51dd abbd 7124 233e e312 833d 7a05 38be
000002d0: 4753 ba3d 3c4e 0a3e 1302 333e fe47 973d
000002e0: 5232 9d3d 7fee f23b c511 a13d e843 1ebd
000002f0: 1f85 3a3e 404f acbd a09c f7bc 7a00 653e
00000300: 70bf a0bd 42af 0d3e f6fc ce3d da67 813c
00000310: 70a8 443b c542 f33d 5a80 bdbd 4d13 f3bd
00000320: c26f 2ebe 9a2d 303e 8953 863c 4926 ecbb
00000330: edf4 3fbd e4ca 2ebe 61ca 703e 6258 ba3d
00000340: b89d ffbc 5489 2d3e 3738 f23d c08d dbbd
00000350: 224b 49be 9b0c a23c 1ca3 223e 04db 333e
00000360: daaf 353e 3991 d93d 78df abbc deec 8cbd
00000370: b445 893d 431f 283e aa5b 043e 3d35 5b3a
00000380: ffe4 8ebd a18a 31bd 3c8e 843d 8d66 953d
00000390: 1445 4f3e 626a 53be bdca c53d b569 503e
000003a0: 8782 1d3e 86e1 a7bb ebda 2abe dff6 2d3c
000003b0: a241 abbc b6ca d2bd 62cb db3d f65b e43d
000003c0: 203c 3ebe a80a 673d 52fb 23be 5c8a 24be
000003d0: 0c0b 04bd 6006 8cbd 1279 a9bd adbb 1fbd
000003e0: 456b 3b3d 1876 f83d d992 e6bd f513 49bd
000003f0: 4726 353b a614 febc 5cf9 ab3d 643f e9bd
-0.031320848 0.051971506 0.16575126 0.07921542 -0.115338355 -0.19713216 -0.074125715 -0.18772098
-0.21068235 0.09234892 0.040468343 0.19835037 -0.0019308907 0.077608734 -0.07258934 -0.11483812
-0.009545355 -0.22705582 0.17922695 -0.09049934 -0.040471613 -0.011576875 0.122345634 0.019773362
0.059514068 0.12788057 0.13585955 -0.1616036 0.09267194 -0.06708629 -0.22644396 -0.13565367
-0.13819174 0.062132552 -0.0918928 0.15438978 0.080166906 -0.09459618 -0.20409967 0.17411026
0.15792671 -0.12683633 -0.0028372162 0.002209385 0.106698774 -0.03725666 -0.025796859 -0.18328387
0.18091556 0.114101976 -0.16124946 0.053926792 -0.2469926 -0.14541176 0.038851142 -0.074108906
0.08200769 -0.16468403 0.06360245 -0.23050058 0.077500336 0.13554494 -0.06044037 -0.16240183
0.07269064 -0.1151902 0.033887677 0.11299512 0.13618052 -0.1718157 0.13119386 0.22333549
-0.24007122 -0.15582807 -0.013145204 -0.10282841 -0.08212536 -0.037683815 0.03913389 0.036115307
-0.04762991 -0.20497742 0.051340044 -0.05593601 0.2245851 0.111967504 -0.1462716 0.14858332
0.17777658 -0.1051564 0.105183676 -0.07378816 0.03691942 0.14771657 0.16761684 -0.079266146
-0.22791864 0.18031406 0.1517212 0.058725446 -0.052129284 -0.07092685 0.1411482 -0.03507856
-0.00066033565 -0.19843498 -0.046791397 -0.19968715 -0.21766159 -0.038374774 -0.05213556 -0.03956455
-0.22994737 0.21418764 0.21150261 -0.13710904 -0.19458874 0.18543442 -0.15827848 -0.11046396
0.103488676 0.038869716 -0.11666626 -0.014350758 -0.022796167 0.13373078 0.08836907 -0.03548758
0.17963043 -0.15887217 0.028315384 0.048447914 -0.015181189 0.060143095 0.10052284 0.010260455
0.18970409 0.02346993 0.11487699 -0.0602267 -0.081545584 0.026578715 0.020208053 0.017213853
-0.15381645 -0.08513483 -0.06970373 -0.066653214 -0.19322665 0.017341733 0.14019053 -0.12031361
0.018082218 0.016279008 -0.05510127 -0.09907373 -0.038382567 -0.21167651 0.2044962 0.076374084
0.004948258 0.16890478 0.13331904 -0.02369218 0.060583893 0.2156492 -0.09194849 0.14901465
-0.042929314 -0.19817178 0.09324179 -0.030188164 0.122808754 -0.19824882 -0.12221618 -0.10917709
-0.08391822 0.1593187 0.06400087 -0.17970839 0.09097915 0.13506407 0.1748126 0.07386778
0.076756135 0.007413685 0.078647174 -0.03863898 0.18214844 -0.08413553 -0.030226052 0.22363463
-0.07849014 0.13836387 0.10106842 0.01579659 0.0030007623 0.1187797 -0.09252997 -0.11868916
-0.1703482 0.17204896 0.016397255 -0.0072067124 -0.04686444 -0.17069584 0.23514701 0.09098889
-0.031203136 0.16946918 0.118271284 -0.10720396 -0.19657567 0.019781401 0.15882534 0.17564017
0.17742863 0.10623402 -0.020980582 -0.06881116 0.06702748 0.16418175 0.12925592 0.000836212
-0.06977271 -0.043345097 0.064724416 0.07294951 0.20241195 -0.2064605 0.0965781 0.20352824
0.15381823 -0.00512332 -0.16685073 0.010617941 -0.02090532 -0.1029257 0.107321516 0.11150353
-0.18577623 0.056406647 -0.1601384 -0.16068405 -0.032237098 -0.068371534 -0.082750455 -0.03899734
0.045756597 0.121318996 -0.11258478 -0.049091298 0.0027641223 -0.031015705 0.08397171 -0.11389044

model/dense_4/MatMul;model/dense_4/Relu;model/dense_4/BiasAdd f4 [64]
00000000: c6bb 47bd e707 07be c863 913c fa2d b43e
00000010: cc7d ed3e 3a85 cebd 17ad 3e3c 89a3 803d
00000020: 239a f4be c2f3 e13d 0e97 09be c60c f93e
00000030: e311 33be a27f fcbd ae8f a3bc 72dd a83d
00000040: d349 d8be 05a3 ba3d 8840 94bd 5918 01bc
00000050: f0c2 073f 908c e3be 5092 433c 35e5 cb3d
00000060: aa02 953d 1b34 a63e 67d6 813c 2a67 b93e
00000070: 900d c6bd 0702 18bd 7a82 93be 6da0 023f
00000080: b243 d43d 17aa afbe f3ce a43d 11f1 ea3c
00000090: 111c 803e e5a2 723e d289 6a3b e748 57be
000000a0: 7754 85bd 6de0 bbbe ddd6 c7be 7fbe 36bc
000000b0: c289 32bd 6893 55be a900 923a 82e2 ec3e
000000c0: 94e9 8abe d807 be3b 95b7 623e 67b4 67be
000000d0: 656c e1bd a31f 28be e2bd fe3d a4f6 b2bd
000000e0: 994c 933e 3ff4 a1bd 9767 81be 0f20 ec3d
000000f0: 3866 77be 2cc0 893d b359 193f 6789 ebbe
-0.04876306 -0.13186608 0.017747775 0.35191327 0.46385038 -0.10084005 0.0116379475 0.06281192
-0.47773847 0.11032821 -0.13436529 0.48642558 -0.17487292 -0.123290315 -0.019965973 0.08245362
-0.42243823 0.09113125 -0.07238871 -0.00787934 0.53031826 -0.44443178 0.011936739 0.09955827
0.07275899 0.32461628 0.015849305 0.3621152 -0.096705556 -0.03711131 -0.28810483 0.5102604
0.10364474 -0.34309456 0.08047285 0.028679403 0.25021413 0.23694952 0.0035787714 -0.21023904
-0.06510251 -0.3669466 -0.39031115 -0.011153816 -0.043588407 -0.20857012 0.0011139113 0.46266562
-0.2713133 0.005799275 0.22140343 -0.22627412 -0.11007003 -0.16418318 0.12438561 -0.08738449
0.28769377 -0.07907914 -0.25274345 0.11529552 -0.24160087 0.06726107 0.59902495 -0.46003267

model/batch_normalization_1/batchnorm/mul_1;model/batch_normalization_1/batchnorm/add_1;model/dense_4/MatMul;model/dense_4/Relu;model/dense_4/BiasAdd f4 [64, 64]
00000000: 8239 3e3e 9554 dfbd de2a 2bbe 3865 333e
00000010: 9c43 f13d fdb6 84bc 1c46 943d 7c73 083d
00000020: 670d da3c 7c9a 8b38 767a 243e 23f2 af3d
00000030: 0737 59be 9006 173d ef6a 253d dc46 873c
00000040: effd 333e d8ea 813d af4b 073e 6d59 bcbd
00000050: 8314 30bc 7fb1 e03d d302 0f3d 40ee d5bd
00000060: 5b24 37be 045c 3c3e db74 06be a4b0 2b3e
00000070: fd26 9abd 8d3a 003e 6223 2d3e 8b73 3dbe
00000080: 4116 563e c32a 97bd 9c9b 46be e9e2 c8bb
00000090: f71b 203d 6fac e9bd 2dee 0bbe 46b0 0d3e
000000a0: 0da9 0d3e 8642 3c3d f50e 063d b533 b33d
000000b0: 38d1 f5bd e23c f83d 6175 193d f263 13be
000000c0: bd19 55be c3c5 66bd 5eb3 4fbe 1698 12bd
000000d0: da4a ccbd 6aaf 343e 3995 28be efce 49be
000000e0: 4da0 d93d fadb 0bbe 2a0a 0fbe 1004 443d
000000f0: 3050 af3d 0987 1fbe fdbb dabd 181a eb3d
00000100: fb06 a8bd 1a1c 003e 79e5 013e 8222 cdbd
00000110: 6970 313e 961b f43d 86a2 0cbd a611 503c
00000120: 8e1b 11bd 2df5 07be 0f2b 9e3c 872c 51be
00000130: 1a2e 163d 2ef2 e83d 86e5 efbd 385e 5abd
00000140: 5ad9 ec3d 4bdb 26bc 01ef 4fbe 948e ddbd
00000150: eb32 773c 95a9 cb3d caab 473e ccbe ad3d
00000160: 1e8d 03be 121a 35bc 2ef8 353d c48e 3dbe
00000170: ba7b bc3c f1c5 ed3d 2345 07be 8312 3a3e
00000180: a220 3c3e e0a8 4e3c 93a5 adbd 00e5 bebb
00000190: e84e b33c 5ad8 6a3e ba8f 703e 78fd ec3d
000001a0: 4f0e 9ebc 5fef 1a3d d1c2 813d 8da7 93bd
000001b0: 3e62 953d ba5f fdbd 4daa 9d3d 32da 8d3b
000001c0: 5f51 023d c4b3 1cbe 6986 343d f77e 0cbe
000001d0: c0b2 25be 8be8 3b3d 89dc 083d fdef 783c
000001e0: d927 2fbe b599 1ebe 607d 33be 040c 573e
000001f0: 4d4b 08be 474c 2c3e 10c1 62bd 923f 36be
00000200: 0329 a33c 154d 2e3e 72c9 d5bd 0447 eabd
00000210: 69ce 47be 0ec4 323e 35f1 f83d e7d3 54be
00000220: 869f 32bd 574f f53d 8f54 b33d 5d8c a1bd
00000230: 48e2 0a3d 2161 edbd 2718 d53c 4469 efbc
00000240: 38b3 f3bd 0e52 043e bed1 1cbe 849e 22be
00000250: 8506 27be 3dc2 243e c6d8 f3bc b625 353d
00000260: f2e0 c33c 16d9 04be dded 41be e53d 753d
00000270: 1a44 9e3d b118 663e 8cad f0bd 8a73 8dbd
00000280: a663 89bc 7407 47be 7df0 8ebd c31e bcbd
00000290: 12cf e43d c20a 33be c4aa d0bd 6914 f53d
000002a0: 9456 09be b06d e53d f971 7f3c d431 9dbd
000002b0: 2fb4 e6bc 6eef 1c3e c044 8d3d 2e87 033e
000002c0: 1091 df3d 473c 93bc 3a0a cbbd 1cec 41bd
000002d0: d3b1 06be 7813 ddbc 69a9 aa3d ba5c 4abe
000002e0: 551b a5bc a23d f33d f3fd 383b 266c 093e
000002f0: 056f 443e a122 22be 7d2a 2e3e e6cc 043e
00000300: c0b0 f7bd 253a a73d a947 41be 0e7b 3abd
00000310: de5c 253e 2cbf c5bd e850 823d 20a5 12be
00000320: 2926 b5bd 8297 1dbb c058 3dbe cfcf c1bd
00000330: b897 a3bd 1ac1 2abe 8130 0cbe b8d2 11be
00000340: f7d7 fa3b a5ad 6bbd b7c0 8fbd f34b 55be
00000350: 3f32 59be 0009 9c3d f761 743c c99a f03c
00000360: 9bd3 363e e407 9c3d 80f1 443e ed15 1c3e
00000370: ab8d e13d 1301 32bd ef3e 95bd 52e1 bbbc
00000380: 4269 763c e4df 283e bc33 6cbd d74f 583c
00000390: 5558 663d 14bf 5cbd 700f 9bbd fd62 00be
000003a0: 1f04 eebd caf7 24be eb64 34be d496 033d
000003b0: 5156 4b3e 0edc 8a3d bee7 6bbd f128 02be
000003c0: b8f8 bdbd 9973 b1bd 5561 e0bd d0fe 4fbd
000003d0: 06f7 6bbe 95de 36be e016 f43d 187b 353d
000003e0: aff9 673d 33b3 f73d 49fc ca3c 28f6 45bc
000003f0: 030d 403e 58b4 ea3c 833d babd 836f 53be
0.18576625 -0.109048046 -0.16715571 0.1751908 0.117804736 -0.016200537 0.07239935 0.03331326
0.026617719 6.6568115e-05 0.1606234 0.08591106 -0.21212398 0.036871493 0.040385183 0.01651328
0.17577337 0.06343621 0.13212465 -0.09196744 -0.010747078 0.10971355 0.034914803 -0.10445833
-0.17884962 0.18394476 -0.13130514 0.16766602 -0.07526968 0.12522335 0.16908029 -0.18501107
0.20906927 -0.07381203 -0.19395298 -0.0061305654 0.03908917 -0.11409842 -0.13665076 0.13836774
0.13834019 0.04596188 0.032729108 0.08750097 -0.12002796 0.121209875 0.037465457 -0.14393595
-0.208106 -0.056340944 -0.20283267 -0.03578957 -0.09975214 0.1764504 -0.16463174 -0.19707845
0.10626278 -0.13658133 -0.13968721 0.047855437 0.085602164 -0.15578856 -0.10680387 0.11479586
-0.082044564 0.1251072 0.12685193 -0.100163475 0.17328037 0.11919324 -0.034334682 0.01269952
-0.03542667 -0.13277121 0.019307641 -0.20427142 0.03666506 0.11374317 -0.117137 -0.05331251
0.11564894 -0.010184119 -0.20306017 -0.1081821 0.015087823 0.099444546 0.19499126 0.08483657
-0.128468 -0.011053579 0.044426136 -0.18511492 0.023008216 0.1161002 -0.13209967 0.18171124
0.18371823 0.012613505 -0.084788464 -0.005825639 0.021888211 0.22934094 0.23492327 0.11571783
-0.019293932 0.03782594 0.063359864 -0.07209692 0.07294129 -0.12371774 0.07698498 0.0043289894
0.031815883 -0.1530295 0.044073496 -0.13720308 -0.16181469 0.045876067 0.033413444 0.015193936
-0.17105044 -0.15488322 -0.17528296 0.21000677 -0.13309975 0.16825972 -0.0553599 -0.17797688
0.019917017 0.17021592 -0.10438813 -0.114393264 -0.19512333 0.17457601 0.121553816 -0.2078396
-0.043609165 0.119780235 0.08756363 -0.078881 0.033907205 -0.115907915 0.026012493 -0.029225
-0.11899418 0.12921926 -0.15314385 -0.15880781 -0.16311081 0.16089721 -0.029766452 0.044225417
0.023910973 -0.12973437 -0.18938394 0.05987348 0.07727833 0.22470357 -0.117518514 -0.06906803
-0.016771149 -0.19436437 -0.06979463 -0.09185555 0.11172308 -0.17484573 -0.10188821 0.119667836
-0.13411933 0.11202562 0.015591138 -0.076755196 -0.02816209 0.1532571 0.06897879 0.12844536
0.1091634 -0.017973078 -0.0991406 -0.047344312 -0.13153772 -0.026986822 0.08333094 -0.19761935
-0.020154634 0.1187699 0.0028227537 0.13420162 0.19182976 -0.15833522 0.17008395 0.12968788
-0.12094259 0.08165387 -0.18874992 -0.04552751 0.16148707 -0.09655604 0.06363088 -0.14320803
-0.08845169 -0.0024046605 -0.18490887 -0.094634645 -0.079879224 -0.16675225 -0.13690378 -0.14240539
0.0076551395 -0.057538647 -0.07019179 -0.20829754 -0.21210574 0.07618904 0.014915935 0.029370682
0.17854159 0.076186925 0.1923275 0.15242739 0.11013349 -0.043458056 -0.07287394 -0.02293459
0.015039744 0.16491657 -0.057666525 0.013202629 0.056236584 -0.053893164 -0.07571304 -0.12537761
-0.1162188 -0.16110149 -0.17616622 0.032126263 0.19857146 0.06780253 -0.057594053 -0.1271093
-0.09275955 -0.08664627 -0.109560646 -0.050780118 -0.2304345 -0.17858346 0.119184256 0.044306844
0.0566346 0.120947264 0.024778502 -0.012082614 0.18754964 0.028650448 -0.09093764 -0.20648007

model/position_output/BiasAdd/ReadVariableOp f4 [2]
00000000: 3296 b8bc 030e 0e3d
-0.022532556 0.03468133

model/floor_output/BiasAdd/ReadVariableOp f4 [5]
00000000: ebe2 2f3d 9ae0 0dbd b59f 7ebc 894c b4bc
00000010: a8e3 28bd
0.042941015 -0.034638025 -0.015541007 -0.022009151 -0.041232735

model/dense/BiasAdd/ReadVariableOp f4 [128]
00000000: 4ecb c33b 167a beb8 b5be 97bc c5f7 b73b
00000010: e6c4 28bc 3d0e 083c 64df e9bb bc48 7b3c
00000020: f027 75bb 4f72 623c 1343 f2ba 69cf 3e3b
00000030: 324b 6cbb a2ec ccbb 978f a93b 4d02 1b3c
00000040: c7c7 d3bb 9bcc 13bc 18b8 0cbc bbb0 9e3c
00000050: ad50 f4bb 0fc0 263c 8ff2 e33b 6a54 033b
00000060: 2dc8 55bc bdb1 1bbc a8f3 b33b f8fe 413c
00000070: 4e95 853c 086b c6bb f343 723b d9cf d33c
00000080: 81e5 483b 6d41 5fba 3b85 df3b e6a5 98bb
00000090: 767e 19bc ced9 073c 1564 eabb 17d7 123b
000000a0: db5d 853c 3889 dcbb 5e15 6b3c 126e 8c3b
000000b0: eb37 733b 5986 b93b 86d6 793c 2d08 a13c
000000c0: 167c 453c 40e1 70bb 0400 c8b8 49fe 923c
000000d0: 887e 363a a925 053c 4e27 983b 29e1 233c
000000e0: 76d8 84bb febf 11bb fe08 a83c 22a0 d83b
000000f0: 8a79 4f3b 71f1 b9bb 8c7b 7bbc 546f e33a
00000100: 8b77 d1bb fc15 b43c d35e a03b 8375 68bc
00000110: 4083 f03b 9e18 a23b 4620 483a 2c0c 943c
00000120: 918a a93c b62f 84ba fdce 36bc 7da5 6f3c
00000130: 5a92 d83b dfaa fa3b a636 e038 7b18 373c
00000140: 08af 4e3c 21f0 39bc bcd9 8fbc 1a12 c03c
00000150: 95e8 193c 26c2 e3bc 9d34 363c 26f6 1cbb
00000160: 3969 813c e7cb 913c 8715 463b 0c66 2dbc
00000170: b6fb 583a f7ae b33c c5e3 2d3c 0cca 8a3c
00000180: b615 77b9 b4b7 67bb d32e 8a3c 822d bc3b
00000190: ad2d 253b 1ad3 e73c 0ec3 ab3c efc3 fcba
000001a0: b29d 11bc 88c1 8a3b 0af2 043c b1c0 de3c
000001b0: 977d 5dbc 3872 f9b9 9077 e9bb d6c5 8d3a
000001c0: 0a21 a63c 138d a63b 4475 e0bb c34c e0bc
000001d0: 376a bfbb 93a6 57bc 1cfc 053d c589 953c
000001e0: e556 5b3b 2ce1 54bc ac05 133b 6128 ca3b
000001f0: 31cb e33c 4672 9abb 4555 1abb da9f 11bc
0.0059751635 -9.082646e-05 -0.018523553 0.005614253 -0.0103008505 0.008304176 -0.007137226 0.015337165
-0.0037407838 0.013821199 -0.0018483124 0.0029115325 -0.0036055562 -0.0062537948 0.005174588 0.009460998
-0.0064630243 -0.00902095 -0.008588813 0.019371381 -0.0074559064 0.010177626 0.0069564055 0.0020039328
-0.013048214 -0.009502825 0.0054916926 0.011840574 0.016306546 -0.0060552396 0.003696677 0.025855945
0.0030654373 -0.0008516524 0.006821302 -0.0046584485 -0.00936853 0.008291675 -0.007153044 0.0022406036
0.016280105 -0.006730225 0.014348356 0.0042855823 0.0037112187 0.0056617674 0.0152489 0.019657219
0.01205351 -0.0036755353 -9.536746e-05 0.017943518 0.00069616036 0.008126655 0.0046433574 0.010002413
-0.0040541245 -0.002223968 0.0205121 0.006610886 0.0031658136 -0.005674534 -0.01534928 0.0017351904
-0.0063924245 0.02198314 0.0048941164 -0.014188173 0.007339865 0.0049467823 0.00076342036 0.01807221
0.020695956 -0.001008502 -0.011157748 0.014626858 0.0066092433 0.007649764 0.000106913314 0.01117527
0.012614973 -0.011348755 -0.017559879 0.023446131 0.009393831 -0.027802538 0.011120942 -0.0023950427
0.015797244 0.017797424 0.0030225234 -0.010583412 0.0008277254 0.021934016 0.0106133865 0.016942047
-0.00023563844 -0.0035357298 0.01686803 0.0057427296 0.0025204227 0.028298903 0.020967033 -0.0019284467
-0.008887695 0.0042344965 0.008114347 0.027191492 -0.0135187125 -0.0004757808 -0.0071248487 0.0010816406
0.020279426 0.0050827353 -0.0068499167 -0.027380353 -0.005841519 -0.013162273 0.032711133 0.01825417
0.0033468541 -0.012993138 0.00224338 0.0061693643 0.02780685 -0.0047133295 -0.002354936 -0.008888209

model/building_output/BiasAdd/ReadVariableOp f4 [3]
00000000: 7736 e63c dd83 b5bc 2bb5 c1bc
0.028102143 -0.022157604 -0.023645958

model/dense/MatMul f4 [128, 385]
00000000: e379 2cbd 59e9 87bb c985 be3d 6782 633d
00000010: 57af c6bd e826 633d 602a b53d eb5f a2bd
00000020: f3bf 2c3d 98fb 043c faa4 b6bd 6c7f 9d3d
00000030: ff5d d7bc e21c 5e3d 20e4 f73c 7af1 c63d
00000040: 46ad aebd c62c 8a3d ca92 cc3d 1c97 2b3d
00000050: 8dd4 5f3d f73b 833c da5e 6f3c 6a30 8ebd
00000060: dbfc 513d 39b1 b23d 39a8 5c3d b920 193c
00000070: dc54 d1bd b599 b1bd b417 6d3b 6abd 6ebc
00000080: 9570 783b e3b8 8abd 72bb a1bd 766f 0d3d
00000090: f091 503c 4e51 293c 85fc 0b3d 41b2 42bd
000000a0: 5739 69bd a35b ef3d c65e 7cbd 506f 413d
000000b0: 81c0 0b3c 8a05 f73c 9c0d 493d 67ab 93bd
000000c0: 7bd0 d5bc 119e c8bd 03d0 2f3b 87bb e3bc
000000d0: 1002 5fbd 8aa4 47bd baf3 12bb 3968 43bc
000000e0: c50e 5abc 17c2 95bd 5034 99bc b2b4 8d3d
000000f0: ffb5 343d 824a f03c c6d8 333c a610 f5bc
00000100: 415c 8c3c b808 943d 26aa e5bd 55e8 24bd
00000110: 819c 84bc 3d55 cbbd 313b 82bd d4b9 e8bc
00000120: 3b6e a0bd d6ae d4bc 7728 65bc a0a1 adbc
00000130: f2ab 303d 70f7 83b8 a536 48b9 7be3 e83c
00000140: 215b efbc 06e8 c33c 1122 76bd 2f6d d03d
00000150: b92e cc3d c8c1 4b3c 8e83 83bc 7aa9 8bba
00000160: 2ac3 893d 95ec ab3d 52a2 13bd c1ff 4dbc
00000170: 8a9f 98bd 95eb 9b3d 76cb 5c3c a311 0c3a
00000180: 1b43 923d edc0 833d 6e09 fa3c 0e1f 923d
00000190: f4c1 a83c 0863 703d a821 c7bc c60a 82bd
000001a0: 6291 ef3c 2842 a4bd 9059 2bbd e0eb 3e3c
000001b0: 89fd 2bbc b733 08bd 0eab e13c abad e1bd
000001c0: b0a7 debd f001 34bd 005d b5bd a114 80bd
000001d0: 8323 d43d 21c4 693b 602a 633d c90f 113c
000001e0: acce a8bd 7385 ab3d 0483 093c 51d1 723d
000001f0: f538 6e3d 1e5d 5c3b 5543 6abd 6005 733d
00000200: 125c 8d3d 88a2 993d e7c2 213d a4d5 81bd
00000210: 431d 823d 47da 0a3d 9be5 013e ecdf 9c3d
00000220: 246d 863d 010a c23d 86b6 b1bb 2d22 7c3c
00000230: cc50 ccbd ac3c 97bd 1a45 88bd 0622 8dbb
00000240: c4e7 c1bb b81a edbc 613d 8c3d f2c1 723d
00000250: 61a8 d83b ecda 833c 730e 1fbd 5db1 c8bc
00000260: 61f6 a0bd 0efa 0bbc 7503 07ba 6b73 2c3d
00000270: 05f7 b5bd a787 e2bc 5d23 973d 1192 f93c
00000280: afc3 0cbd 53dc 26bd a222 063d 2db6 e7bd
00000290: 72d8 c9bc 3fd3 6d3d 3db2 e73c 6f97 bfbc
000002a0: 63f2 b73c 3c29 963d a2c5 ad3d cc97 513c
000002b0: b424 04bb 4708 08bd dfce 5c3d e894 3bb9
000002c0: 1764 953d 1594 083c 5c18 23bb 69a6 25bd
000002d0: d85a 803c c019 a03c 0195 d5bd 2e8a 213d
000002e0: 62c2 3eb9 87af a2bd 96a0 fcbc e078 1a3d
000002f0: 7d71 a43b c611 50bd b163 c43b 5aca a3bd
00000300: e489 2439 33c4 2f3d 97bd 523c 5835 ae37
00000310: f58c 5cbd 59d3 77bd 22c1 dcbd 3c13 18bd
00000320: e813 143c 5427 733d 59be 6cbd ec90 9cbd
00000330: 131b e03d 5635 913c 3d6e bd3d 1665 b33c
00000340: 876f b03b fe8d 823c c57d 1a3d 1c3a b23d
00000350: ebcb 6a3d 0f94 ac3d 2f1a 3ebc a238 d03d
00000360: a8bd 17bc 8dc7 b7bd 3bb7 bfbb edf1 8b3d
00000370: c53a be3d 92f6 bbbd da90 dabd 1034 6ebd
00000380: 8cf5 e33c cbd1 dc3d 37b4 bdbd 5339 a53c
00000390: 2987 ad3c a89d 00bd 992b 2e3d c7ae 20bd
000003a0: d76e 3fbd 0adc 04bd 8dfd cebd 5e1b f13d
000003b0: 0cd4 e53d b6a4 debd 7ecd 0abd 54e2 933d
000003c0: e1ee edba 4fd6 0f3d 0f78 513d b06e 05bc
000003d0: 91f7 4cbd 77d1 cf3d cda1 aa3d b5d4 1abd
000003e0: 6d9f b03d 0acf f0bc 4be0 a33c 189a b73b
000003f0: ecf7 a53d 4894 433d 177f 153d 2a5e bebc
-0.042108428 -0.0041476903 0.09302861 0.055544283 -0.09701412 0.055457026 0.08845973 -0.07928451
0.042175245 0.008116625 -0.089181855 0.076903194 -0.026289938 0.054226764 0.030260146 0.09714027
-0.08529143 0.06746821 0.09988935 0.041892156 0.054646064 0.016019804 0.014610017 -0.06942828
0.051266532 0.08725209 0.053871367 0.009346181 -0.10221264 -0.086718954 0.0036177458 -0.014571527
0.00379089 -0.067735456 -0.078970805 0.034530126 0.012730107 0.010334326 0.03417637 -0.047533277
-0.05693945 0.116874 -0.06161382 0.047225296 0.008529783 0.030154008 0.049085245 -0.07210427
-0.026100388 -0.09795774 0.0026826866 -0.027799381 -0.054445326 -0.0487409 -0.0022423104 -0.011926704
-0.013309185 -0.0731241 -0.018701702 0.069192305 0.044118878 0.029332403 0.010976976 -0.029915165
0.017133834 0.072282255 -0.11214094 -0.04026063 -0.016187908 -0.09928367 -0.06358946 -0.028408922
-0.07833525 -0.025962275 -0.013986698 -0.021195233 0.04313273 -6.2926556e-05 -0.00019093843 0.028428784
-0.029218258 0.023914348 -0.060091082 0.10177075 0.09969849 0.012436338 -0.016053941 -0.0010655366
0.06726678 0.08394734 -0.036043473 -0.0125731835 -0.07452305 0.07613293 0.013476243 0.0005343204
0.071417056 0.06433282 0.030522075 0.071348295 0.020600297 0.058688194 -0.02430804 -0.06349711
0.029244129 -0.08020431 -0.04183346 0.011652917 -0.010497459 -0.033252444 0.027547386 -0.11019453
-0.108718276 -0.04394716 -0.08855629 -0.06253935 0.10358336 0.003566988 0.055460334 0.008853861
-0.082425445 0.08375063 0.008393053 0.05928165 0.058159787 0.0033624838 -0.05719312 0.059331298
0.06902327 0.075017035 0.039492514 -0.06339577 0.063532375 0.03389957 0.12685244 0.07659897
0.06563786 0.09474564 -0.00542337 0.0153890075 -0.09976348 -0.07384619 -0.06653805 -0.0043070344
-0.005917521 -0.028943405 0.068476446 0.059266992 0.006611869 0.016095601 -0.03883214 -0.024498636
-0.07859493 -0.008543504 -0.00051503564 0.04210226 -0.08885006 -0.027652575 0.07379792 0.030465158
-0.034366306 -0.04073746 0.032747872 -0.11314044 -0.024639342 0.058062788 0.028283233 -0.023387639
0.022454446 0.073320836 0.08484961 0.012792539 -0.0020163478 -0.03321102 0.053908225 -0.00017889182
0.07294481 0.008336087 -0.0024886345 -0.040441904 0.015668318 0.019543529 -0.10428811 0.03943842
-0.00018192225 -0.079436354 -0.030838292 0.03771293 0.0050184117 -0.0507982 0.0059933295 -0.0799758
0.00015691627 0.04291172 0.012862585 2.0767257e-05 -0.053845365 -0.06050429 -0.10779025 -0.03712772
0.009037949 0.059363678 -0.057798717 -0.07644829 0.10942664 0.017725628 0.09249542 0.021898787
0.005384389 0.015936848 0.0377176 0.0870249 0.057323378 0.084266774 -0.011602922 0.10167052
-0.009261526 -0.08973608 -0.0058507 0.06833253 0.09288553 -0.09177889 -0.106721595 -0.05815512
0.027827047 0.10782202 -0.09262889 0.020168936 0.021182613 -0.031400353 0.042522047 -0.03922918
-0.046736564 -0.032436408 -0.10106955 0.11772798 0.11222085 -0.1087126 -0.03388738 0.07220903
-0.0018152857 0.03511649 0.051139887 -0.008144066 -0.050040785 0.10147374 0.08331642 -0.03780051
0.08624158 -0.029395599 0.020004412 0.005603086 0.08103928 0.047748834 0.036498155 -0.02323826

model/building_output/MatMul f4 [3, 64]
00000000: c5e8 1bbe 3564 a83e bc22 11be 160b ba3c
00000010: 6ea4 6bbe 0fb9 e0bd b19b 7dbe 3e85 7dbe
00000020: 1278 723e 61d2 833d 24b2 c13d e842 b93c
00000030: 012f 8bbe 5bad 76be 7ac5 dc3d 190d 83be
00000040: 42ea b73d 937f b2bc 75a8 39be 9653 6bbe
00000050: 27c2 173e 6430 363e 4353 a23b f99b e3bd
00000060: 1884 29bc da6c 09be 2ac7 9f3e 38a4 32be
00000070: 69fa 52be b8a3 183e 838e 3cbd 5a6f 773d
00000080: 8cfa 893d eeed 73bc 953c e4bd 051e 88be
00000090: 7326 91be f52c 89bd 45dd 613e 47e2 e03d
000000a0: 5f40 ba3d 42f7 553e 1584 313e 71b3 24bd
000000b0: 822d 0b3e b186 7b3e 9739 963e e5cf 8fba
000000c0: cfc8 c9bd 2385 95bd 6fad 42be 9278 35bd
000000d0: 8fb7 02be c873 b43c bad8 a33a 9752 49bb
000000e0: bd7d 88be bb6b 533d 9284 083e 83ca 98be
000000f0: 256f 843e dab4 bbbc fb3f 273d 162b 6f3e
00000100: 422d bdbd e3ea 833c 1bba 5c3e 9773 62be
00000110: 84f2 31be fcfc c1bd 5d2b cabd 360f 1b3e
00000120: d47c fcbd 52c1 063e c4a4 4d3e d4b8 903e
00000130: 8503 8bbe 6b3b ee3d b948 09be 06c6 6c3e
00000140: b1d6 8e3e c8f4 f7bc c193 2fbe d207 0d3c
00000150: 043b 2c3e 4889 ca3d ae94 56be 46df 0dbe
00000160: 30fc 7bbe 7d0e cabd f6cc 8b3e 21dd 833e
00000170: 337b 103e 1891 7cbe 460f 8dbe 5dae 3cbe
00000180: c31d 71bd d290 96be a58f 1cbe 4b16 8c3e
00000190: a694 fa3d 8c43 ec3c a4e2 0d3e b896 70be
000001a0: 7149 ffbd 305c 863e 5426 0f3d f724 9fbe
000001b0: 9aaf 753e 81a2 8bbe 2871 79be ab8a c33d
000001c0: 4900 6fbe 6330 4c3e 3b85 363c ef91 943e
000001d0: 500d 6bbe 53dd e8bd 357d 173e b988 00be
000001e0: a09c 13bd d628 9cbe 1739 41bd 3d92 063e
000001f0: a331 563e 38b0 a2be 8d7a 043e fff9 563e
00000200: 2ba8 fb3d d4d5 18bc 4466 90be 0680 8abe
00000210: 75c0 103d 45e7 d73d 754c 883e 8fa5 e43d
00000220: 40a6 ba3d 859d 98be 5ff3 09be 2345 993e
00000230: 752e 8b3e d3eb 803d 827f 9c3e 2ff4 c9bd
00000240: 20fe 3c3d 8d20 55be 9474 6abe c93e 28bc
00000250: 8a25 1c3e 7f62 58be 4595 56be 1267 813e
00000260: ab98 68bd 2e3f 563b b5c2 2f3e 8a9b 53be
00000270: 8bc6 80be 0ef7 753d ea1e 57be 498a 3abe
00000280: 3a6b 5abe 0d85 753e 3d6c 9d3e d7b2 2a3d
00000290: fb14 15be 0b0a 60be e2aa 41bd 11c3 ed3d
000002a0: 78c7 b8bd 61a1 5bbe 1f72 a3bd 799c 0bbd
000002b0: e721 b1bd cfd0 3bbe 699f 80be 3bdf 9bbd
000002c0: e228 903e 481e e03c 4ce3 913a db86 28bd
000002d0: 9dc4 1cbe b390 c0bd 3fc4 7a3e e0e2 9a3d
000002e0: 2206 d93d 4d40 ca3d fc8e 813e 52e5 933d
000002f0: 1448 b8bd 1df1 edbd 1592 2fbe 848a bc3d
-0.15225513 0.32888952 -0.14173406 0.022710364 -0.23011944 -0.10972797 -0.24766423 -0.24757859
0.23678616 0.06436611 0.09457806 0.022614911 -0.271843 -0.24089567 0.10779853 -0.2559593
0.08980228 -0.021789348 -0.18130668 -0.22981104 0.14820157 0.17791897 0.004953773 -0.11113734
-0.010346435 -0.1342043 0.31206638 -0.17445457 -0.20603336 0.14906204 -0.046034347 0.060408928
0.06737241 -0.01488827 -0.111443676 -0.26585403 -0.28349647 -0.06698028 0.22057064 0.10980659
0.09094309 0.20895103 0.17335542 -0.04021019 0.13591579 0.245631 0.29340813 -0.0010971992
-0.09852754 -0.073007844 -0.19011472 -0.044304438 -0.12765335 0.022027865 0.0012500503 -0.0030719393
-0.2665843 0.05161641 0.13331822 -0.29842004 0.25866047 -0.022913385 0.0408325 0.2335628
-0.09237148 0.016103214 0.21555369 -0.22114407 -0.17377669 -0.09472081 -0.09871552 0.15142521
-0.123284966 0.13159683 0.20082384 0.28266013 -0.27151123 0.11632427 -0.13406648 0.23122415
0.27898172 -0.030268088 -0.17146207 0.008607822 0.16819388 0.098894656 -0.20955154 -0.13854703
-0.2460792 -0.09866045 0.2730481 0.25754645 0.14109497 -0.24664724 -0.27550715 -0.1842589
-0.058866274 -0.29407364 -0.15289171 0.27360758 0.12235384 0.028840803 0.13855988 -0.23494995
-0.1246518 0.26242208 0.034948662 -0.3108289 0.23992768 -0.27272418 -0.24359572 0.09547933
-0.23339953 0.19940333 0.011140163 0.29017588 -0.22954297 -0.11370339 0.14793856 -0.12552156
-0.03603804 -0.30499905 -0.047173586 0.13141723 0.20917372 -0.3177507 0.12937374 0.20993803
0.12287935 -0.009328324 -0.28203022 -0.270508 0.03533979 0.10542158 0.26620832 0.1116439
0.09113741 -0.29807678 -0.13471745 0.2993556 0.2718388 0.0629498 0.3056603 -0.098610274
0.04614079 -0.20813198 -0.22896034 -0.010268875 0.15248695 -0.21131323 -0.2095538 0.2527395
-0.05678622 0.0032691467 0.17164119 -0.20664802 -0.25151476 0.060050063 -0.21007887 -0.18216814
-0.21329966 0.23976536 0.30746642 0.04167446 -0.14558785 -0.21878831 -0.047282107 0.116094716
-0.09022421 -0.2144828 -0.07980751 -0.03408477 -0.086490445 -0.18341373 -0.2512162 -0.07610937
0.2815619 0.02735819 0.0011130362 -0.041144233 -0.15309377 -0.09402599 0.24488924 0.07562804
0.10596873 0.09875546 0.253044 0.07221474 -0.08998123 -0.11618254 -0.1714557 0.09206107
