250630/models/mlp.tflite (tflite, 288296 bytes, 16 tensors)

model/dense_1/MatMul;model/dense_1/Relu;model/dense_1/BiasAdd f4 [64]
-0.60341746 0.29718864 -0.09525186 -0.09393814 0.13171941 0.17367782 -0.13934457 0.5030163
-0.11170654 -0.15178421 -0.04096861 -0.10014729 -0.2388319 0.33320218 -0.29756925 -0.053040106
-0.059677333 -0.01915939 -0.073696844 0.08134325 0.09763387 0.23145752 -0.15757787 0.078974
-0.07691214 0.0046813376 -0.48853782 0.12525699 -0.009189508 0.16562085 0.15860574 -0.10740476
0.42580312 -0.0020878166 -0.24992424 -0.39938807 -0.07001798 -0.2157794 0.08048193 -0.30100346
-0.030171957 -0.042719256 -0.18013655 0.376654 -0.062257916 0.05938292 0.121916 0.1776639
0.046479076 0.43316314 -0.2925513 -0.2853221 0.029752214 -0.07843351 0.21717688 -0.042335063
0.08626428 -0.3212136 0.0606812 0.32062924 0.44384998 0.13433519 -0.15954135 -0.18720025
00000000: 9179 1abf 1c29 983e 6813 c3bd a462 c0bd
00000010: 74e1 063e 99d8 313e 58b0 0ebe adc5 003f
00000020: 66c6 e4bd 526d 1bbe b4ce 27bd 061a cdbd
00000030: 5990 74be 7a99 aa3e ff5a 98be 9540 59bd
00000040: 3870 74bd 27f4 9cbc 5fee 96bd 4a97 a63d
00000050: 44f4 c73d 3303 6d3e 185c 21be 1fbd a13d
00000060: 1d84 9dbd e865 993b a121 fabe 5e43 003e
00000070: 978f 16bc 8398 293e 8b69 223e 07f7 dbbd
00000080: de02 da3e c0d3 08bb 24ec 7fbe 987c ccbe
00000090: 9665 8fbd 46f5 5cbe b6d3 a43d 201d 9abe
000000a0: 2e2b f7bc 63fa 2ebd b775 38be cbd8 c03e
000000b0: 2802 7fbd 813b 733d 19af f93d 87ed 353e
000000c0: d860 3e3d 8fc7 dd3e 49c9 95be bd15 92be
000000d0: eaba f33c c0a1 a0bd 9e63 5e3e 8867 2dbd
000000e0: 54ab b03d 1c76 a4be da8c 783d 8429 a43e
000000f0: 4e40 e33e 2a8f 093e cf5e 23be 6cb1 3fbe

model/batch_normalization/batchnorm/mul_1;model/batch_normalization/batchnorm/add_1;model/dense_1/MatMul;model/dense_1/Relu;model/dense_1/BiasAdd f4 [64, 128]
-0.073341556 -0.2103055 -0.015055396 0.12005233 -0.07645505 0.12673 0.028006187 0.13859925
-0.13845064 0.115227394 0.008817042 0.13402492 -0.08367173 0.12192554 0.032606043 -0.048672333
-0.005943385 0.1625899 -0.15476991 0.04500643 0.1621982 0.16275145 -0.04262688 0.0127981175
0.21002665 0.065077044 0.13536991 0.09691276 0.062901534 0.08210348 0.13642046 0.0010448855
-0.034838293 0.08529247 -0.0856585 -0.16733749 0.21426015 0.12110362 -0.040045112 -0.020044237
0.17901789 0.044831034 0.14237708 -0.14890319 -0.1183135 0.08401816 0.20209865 0.12281866
0.09513668 0.1977611 -0.07094645 0.10962189 0.022600524 0.12519084 0.13234499 0.10223274
0.13123079 0.14634775 -0.0016441103 0.17255534 -0.111840054 -0.18682335 0.06449002 -0.2029272
-0.047210533 0.16131614 0.041952055 -0.17547718 0.154446 -0.012359025 0.1369643 0.13723923
0.031885736 -0.092963986 0.11185572 0.17864972 -0.19577217 -0.017510168 0.18746199 0.16668716
-0.12874232 -0.20212 -0.14746857 -0.13553081 -0.014538236 0.08664129 0.1063169 0.1474996
0.1682152 0.16877547 0.018104214 0.12716125 -0.1715516 0.018224059 0.071510844 0.18893954
0.056967508 -0.13612227 -0.02258674 0.14211035 0.21159342 -0.18237112 -0.06936453 -0.013973916
0.048707888 -0.039591756 -0.013208699 0.024802724 0.03590971 0.0011322118 -0.15147425 -0.017946547
-0.18912755 0.105519146 0.016888034 0.087669864 -0.045254253 0.12758435 0.113430515 -0.08285476
0.21961659 -0.07051497 -0.07339321 -0.092599705 0.14512916 -0.174119 -0.1698053 -0.09950342
0.023245797 -0.13808256 -0.1845841 0.1922491 -0.002897371 0.071414426 -0.029960435 -0.07230756
-0.1421566 0.1338783 -0.15394463 -0.079374686 0.21739413 -0.18685119 0.10363326 -0.18147711
0.16832565 -0.11109733 -0.005198118 -0.16153517 0.16714929 -0.17491785 0.122582205 -0.1162472
-0.13242742 -0.1631878 0.035619162 0.013404328 0.07914187 0.094425045 -0.08988074 -0.021036074
-0.102151215 -0.13531396 -0.018518232 0.032132406 0.0016124949 0.025599878 -0.1282488 -0.10490894
-0.18047385 -0.12988901 -0.023900706 0.15556923 -0.11846371 -0.033908434 -0.1972427 0.10684463
-0.11092951 -0.11202933 0.030649709 -0.09415181 -0.17021419 -0.105467945 0.08553708 -0.06503143
-0.09404944 -0.15561022 0.08395223 -0.007836986 -0.20331144 -0.19639541 -0.01477668 0.08324037
-0.17609252 -0.12283873 0.021598546 0.21215257 -0.059324518 -0.13502926 -0.026579518 0.038526915
-0.11086501 0.13002479 0.0240865 -0.08868236 0.15040208 0.07205112 -0.06709529 -0.15656269
-0.09698898 0.10475778 0.16466068 -0.20427915 0.19573115 -0.1986811 0.10834102 -0.0027045193
0.033813436 0.0841495 0.07942832 -0.006396344 0.063942924 0.16946661 0.04938442 0.052430272
-0.14327475 0.13722429 0.06489125 0.07674994 0.0762884 0.06938533 0.1837913 -0.10226641
-0.12981486 -0.021411343 0.16046679 0.11458468 0.029199814 -0.19704452 -0.121822335 0.11905642
-0.21052703 0.1422361 -0.09106756 0.16925086 -0.057399612 -0.21821341 0.15023257 0.18072613
-0.025783855 0.003946625 0.13405631 0.0100611895 -0.021012517 0.1539862 -0.0128938565 -0.077535
00000000: 1934 96bd 535a 57be e8aa 76bc ffdd f53d
00000010: 7794 9cbd 82c5 013e 3b6d e53c f6ec 0d3e
00000020: 01c6 0dbe 57fc eb3d 5b75 103c d43d 093e
00000030: 155c abbd 19b4 f93d ea8d 053d a45c 47bd
00000040: bac0 c2bb f77d 263e 017c 1ebe aa58 383d
00000050: 4917 263e 51a8 263e 8699 2ebd 32af 513c
00000060: 3a11 573e 1d47 853d 699e 0a3e 327a c63d
00000070: 85d2 803d df25 a83d ceb1 0b3e 8af4 883a
00000080: 99b2 0ebd d2ad ae3d b96d afbd 855a 2bbe
00000090: 0367 5b3e 2d05 f83d 5806 24bd d033 a4bc
000000a0: 7750 373e bfa0 373d 4ccb 113e 147a 18be
000000b0: 594e f2bd b711 ac3d f3f2 4e3e 5a88 fb3d
000000c0: 05d7 c23d e381 4a3e 5f4c 91bd 7181 e03d
000000d0: bc24 b93c 0732 003e 7285 073e 665f d13d
000000e0: 5d61 063e 2fdc 153e 307f d7ba 59b2 303e
000000f0: 660c e5bd 9f4e 3fbe 5813 843d 26cc 4fbe
00000100: d55f 41bd 0f30 253e ebd5 2b3d 4ab0 33be
00000110: 1827 1e3e 827d 4abc 5f40 0c3e 7188 0c3e
00000120: 9e9a 023d e763 bebd 9d14 e53d f4ef 363e
00000130: 8078 48be 7c71 8fbc 09f6 3f3e 0ab0 2a3e
00000140: 07d5 03be 8cf8 4ebe 0002 17be 97c8 0abe
00000150: c831 6ebc fd70 b13d adbc d93d 230a 173e
00000160: 9b40 2c3e 7ad3 2c3e 4a4f 943c 8f36 023e
00000170: 39ab 2fbe 9f4a 953c 4774 923d 5e79 413e
00000180: c356 693d a363 0bbe d407 b9bc 6085 113e
00000190: f2ab 583e 7fbf 3abe fe0e 8ebd daf2 64bc
000001a0: ec81 473d f72a 22bd 4d69 58bc 152f cb3c
000001b0: 0f16 133d b966 943a 111c 1bbe a304 93bc
000001c0: a7aa 41be 6c1a d83d c658 8a3c 428c b33d
000001d0: 865c 39bd 79a5 023e 424e e83d c2af a9bd
000001e0: 2ce3 603e 276a 90bd 2e4f 96bd eaa4 bdbd
000001f0: bd9c 143e 404c 32be 71e1 2dbe 73c8 cbbd
00000200: f86d be3c 8465 0dbe 9d03 3dbe f3dc 443e
00000210: d2e1 3dbb ba41 923d 966f f5bc fc15 94bd
00000220: 8091 11be 6517 093e a9a3 1dbe 328f a2bd
00000230: 919c 5e3e eb55 3fbe ad3d d43d 23d5 39be
00000240: 8f5d 2c3e ff86 e3bd f954 aabb 7a69 25be
00000250: 2f29 2b3e aa1d 33be 610c fb3d 0313 eebd
00000260: 0e9b 07be b41a 27be 66e5 113d d49d 5b3c
00000270: 2215 a23d eb61 c13d 6513 b8bd d853 acbc
00000280: a834 d1bd be8f 0abe 8cb3 97bc 459d 033d
00000290: 5a5a d33a d6b6 d13c a753 03be 80da d6bd
000002a0: 23ce 38be a001 05be 6acb c3bc 8a4d 1f3e
000002b0: 1a9d f2bd 92e3 0abd fef9 49be 5bd1 da3d
000002c0: 032f e3bd a26f e5bd 1915 fb3c aad2 c0bd
000002d0: a14c 2ebe 94ff d7bd 112e af3d 332f 85bd
000002e0: fe9c c0bd 4958 1fbe 26ef ab3d b466 00bc
000002f0: e030 50be e11b 49be e319 72bc ed79 aa3d
00000300: 9951 34be df92 fbbd 6fef b03c 863e 593e
00000310: 44fe 72bd 1c45 0abe 4abd d9bc 66ce 1d3d
00000320: 320d e3bd 3825 053e 0d51 c53c 199f b5bd
00000330: 0103 1a3e 8a8f 933d 4169 89bd f851 20be
00000340: 29a2 c6bd 3f8b d63d cf9c 283e 8e2e 51be
00000350: bf6d 483e 0f73 4bbe e6e1 dd3d 4e3e 31bb
00000360: f57f 0a3d 9356 ac3d 51ab a23d 6c98 d1bb
00000370: 82f4 823d a888 2d3e 5147 4a3d 20c1 563d
00000380: 9eb6 12be 8684 0c3e b4e5 843d 132f 9d3d
00000390: 183d 9c3d e519 8e3d c933 3c3e 0d71 d1bd
000003a0: 30ee 04be d766 afbc 6851 243e 5fab ea3d
000003b0: 7334 ef3c 0ac6 49be fd7d f9bd dad3 f33d
000003c0: 6694 57be 57a6 113e a181 babd 1950 2d3e
000003d0: db1b 6bbd 5673 5fbe 91d6 193e 4510 393e
000003e0: aa38 d3bc b152 813b 0f46 093e b0d7 243c
000003f0: 7122 acbc 8fae 1d3e c140 53bc acca 9ebd

model/dense_2/MatMul;model/dense_2/Relu;model/dense_2/BiasAdd f4 [64]
-0.49852017 -0.3180562 -0.34969255 -0.074451335 -0.0645312 -0.33880258 -0.0806006 -0.3794778
0.023302818 -0.38220987 -0.40528867 -0.042527843 -0.38744795 -0.5032996 -0.2026625 0.2841248
-0.4627917 0.25067806 0.2311143 -0.21532272 -0.33742508 -0.19167027 -0.11246679 0.8006354
0.17860575 -0.21670736 -0.044463515 -0.29291704 -0.06900099 -0.12935722 -0.44109976 -0.54649335
-0.37388137 -0.19283704 -0.104030944 0.2472244 -0.20211086 -0.061788164 0.56965214 0.27807114
0.23345448 0.19487052 -0.052558884 0.025933625 0.07828753 -0.10220143 -0.31449723 0.3222189
0.14250284 -0.08306317 -0.19310352 0.52490246 -0.017720472 -0.20742872 -0.40642506 0.43022954
-0.40502134 0.071418405 0.13806951 0.10523735 0.08678956 -0.17448877 0.6776824 0.04293934
00000000: 093e ffbe 43d8 a2be e70a b3be f179 98bd
00000010: ef28 84bd 8877 adbe ed11 a5bd ea4a c2be
00000020: 8de5 be3c 03b1 c3be ff81 cfbe ad31 2ebd
00000030: 945f c6be 3ed8 00bf c286 4fbe ce78 913e
00000040: 09f3 ecbe e058 803e 3aa9 6c3e 8f7d 5cbe
00000050: fbc2 acbe 3645 44be fd54 e6bd 71f6 4c3f
00000060: 6de4 363e 89e8 5dbe 601f 36bd 39f9 95be
00000070: 6450 8dbd 3876 04be d4d7 e1be fde6 0bbf
00000080: 616d bfbe 1377 45be 2d0e d5bd 6528 7d3e
00000090: 26f6 4ebe 9615 7dbd b9d4 113f 575f 8e3e
000000a0: b10e 6f3e 238c 473e fc47 57bd c172 d43c
000000b0: 3655 a03d fc4e d1bd c805 a1be e0f9 a43e
000000c0: 44ec 113e 061d aabd eebc 45be 0260 063f
000000d0: 862a 91bc 3268 54be f216 d0be 0c47 dc3e
000000e0: f55e cfbe d043 923d 1862 0d3e ae86 d73d
000000f0: babe b13d 2fad 32be 987c 2d3f 29e1 2f3d

model/batch_normalization_1/batchnorm/mul_1;model/batch_normalization_1/batchnorm/add_1;model/dense_2/MatMul;model/dense_2/Relu;model/dense_2/BiasAdd f4 [64, 64]
-0.014533783 0.09640559 0.23055941 0.10323524 -0.18371566 0.16794327 -0.026416974 0.192533
0.027515844 0.15576318 -0.15082671 -0.107742056 0.099688165 0.07747449 -0.1981737 -0.025092445
-0.12779798 -0.11832226 0.054517884 0.22951989 0.15119396 0.009858882 0.17981918 0.083889164
0.11661437 0.13582022 0.14730427 -0.0824554 0.1757314 -0.1456181 -0.04154526 -0.06377955
0.13770935 0.0767509 -0.0026912559 0.15948461 -0.07989742 0.015844412 0.16093232 0.09706506
-0.10309233 0.16395524 0.1380594 -0.109435156 0.07429652 -0.1582148 0.10208949 -0.15264475
0.112223394 -0.047099542 -0.09689654 -0.0902377 0.18329312 -0.013476908 0.2168937 -0.07531302
-0.12971242 0.12478236 -0.086052515 0.23023343 -0.051506273 0.13973507 -0.08932633 -0.15123868
0.15109333 0.037170637 -0.12411615 0.12739037 0.08291024 0.016261904 -0.07428216 0.0020385014
0.20355548 -0.13021003 0.1342493 -0.15633528 -0.115035996 -0.029995983 -0.011189957 0.028200934
0.061287776 0.17647655 0.22456613 0.12061281 -0.10614311 -0.11198297 0.07487147 0.15122454
-0.17702958 -0.17712872 0.043757472 -0.040267825 0.12461832 0.100877985 -0.052291777 0.15245038
-0.100937776 0.008336463 -0.06489539 0.10099651 0.10741036 0.19864297 -0.19711238 0.108581275
0.0474169 0.19291145 -0.00465072 0.15127857 0.15414253 -0.07361278 0.0024755846 0.18442589
0.03493919 0.11433737 -0.038659748 0.011518999 -0.17528357 0.021972759 0.19170254 -0.15173723
-0.054041177 -0.07592929 0.06485072 -0.11417413 -0.17202947 0.20327927 -0.06532418 -0.12999529
0.017390493 0.06497865 0.020711565 0.22555323 0.12921241 -0.071478225 0.14203994 -0.17034303
-0.07330214 0.09318029 -0.1084609 0.217979 0.19076858 -0.107648484 -0.059952237 -0.121538684
-0.012149516 -0.10252562 0.08371873 0.08738707 -0.10489571 0.23108788 0.19174623 -0.09949876
-0.09472541 -0.095834844 0.18752016 0.006977585 0.118485875 0.20042737 0.0027949482 -0.05316461
-0.19531217 -0.022611983 0.08680276 -0.12650852 -0.22493894 0.12132405 0.17753662 0.14054023
0.1624699 0.018351836 0.18108973 0.03656234 0.06955049 -0.04787709 -0.13736185 0.1286126
0.19655873 -0.03707772 0.12465616 -0.022945339 -0.1380653 -0.05719485 0.124612786 0.20201428
-0.1498147 0.12775122 0.12310845 -0.15954787 0.011286904 -0.043302998 -0.14961529 -0.18779175
-0.013822298 -0.21363617 0.076064855 0.13456282 -0.15562485 0.0131376255 0.015535921 -0.015287157
-0.07122954 0.16796614 -0.05873351 0.020046318 -0.08765653 0.19299483 0.040296733 0.23103923
0.12925088 -0.21842021 0.2003978 -0.056108654 -0.04930125 0.05852721 0.094014965 -0.10044914
-0.17853475 0.06508997 0.015907623 0.050593022 -0.09467074 0.12474292 0.19402029 -0.20549819
0.13654247 -0.20348081 -0.04395976 -0.119440615 -0.1429947 0.11392721 -0.052519646 5.0232222e-05
0.09418574 -0.054163136 -0.14249636 0.104143165 -0.1107874 0.09370993 0.18516001 -0.14918566
-0.05715752 -0.039191578 -0.14949946 -0.0022283862 -0.08591392 0.21619351 0.19436574 0.0031611954
0.18721966 -0.022920864 -0.02962039 -0.23521936 0.12894915 0.02788762 -0.021123864 0.2275224
00000000: 1b1f 6ebc 4b70 c53d c417 6c3e ff6c d33d
00000010: f51f 3cbe 52f9 2b3e 6968 d8bc 5f27 453e
00000020: e868 e13c 6280 1f3e 5172 1abe dea7 dcbd
00000030: 4f29 cc3d f2aa 9e3d 0cee 4abe ac8e cdbc
00000040: 79dd 02be f152 f2bd 254e 5f3d 4307 6b3e
00000050: 97d2 1a3e 2687 213c 8522 383e 15ce ab3d
00000060: 84d3 ee3d 7514 0b3e eed6 163e 60de a8bd
00000070: eff2 333e e91c 15be 5d2b 2abd da9e 82bd
00000080: ae03 0d3e 932f 9d3d c85f 30bb ef4f 233e
00000090: 42a1 a3bd 24cc 813c 71cb 243e 0cca c63d
000000a0: 1222 d3bd e2e3 273e 715f 0d3e 8a1f e0bd
000000b0: c628 983d 0f03 22be 4b14 d13d e84e 1cbe
000000c0: 61d5 e53d 73eb 40bd b171 c6bd 8bce b8bd
000000d0: 31b1 3b3e 40ce 5cbc 6219 5e3e b63d 9abd
000000e0: 55d3 04be e58d ff3d 4d3c b0bd 50c2 6b3e
000000f0: 3ef8 52bd b616 0f3e b9f0 b6bd 50de 1abe
00000100: 36b8 1a3e 3d40 183d 9c30 febd 9f72 023e
00000110: d8cc a93d af37 853c 3f21 98bd 6198 053b
00000120: d970 503e c755 05be a678 093e 5b16 20be
00000130: fe97 ebbd 23ba f5bc 1556 37bc a505 e73c
00000140: e408 7b3d 45b6 343e aaf4 653e d903 f73d
00000150: 8f61 d9bd 5457 e5bd 3756 993d 9bda 1a3e
00000160: 3e47 35be 3b61 35be 093b 333d e0ef 24bd
00000170: e437 ff3d 1e99 ce3d e72f 56bd f41b 1c3e
00000180: 77b8 cebd a995 083c e0e7 84bd 42d7 ce3d
00000190: f6f9 db3d 1069 4b3e d4d7 49be dc5f de3d
000001a0: 3938 423d 948a 453e 1165 98bb c5e8 1a3e
000001b0: 8ad7 1d3e 4cc2 96bd 6b3d 223b 24da 3c3e
000001c0: 651c 0f3d b629 ea3d af59 1ebd 2fba 3c3c
000001d0: 897d 33be 3700 b43c ac4d 443e 0161 1bbe
000001e0: 485a 5dbd d180 9bbd 74d0 843d 20d4 e9bd
000001f0: 7e28 30be 7128 503e afc8 85bd 7c1d 05be
00000200: 8276 8e3c 8713 853d 4dab a93c 6df7 663e
00000210: 4250 043e 2d63 92bd eb72 113e 676e 2ebe
00000220: 6f1f 96bd 4fd5 be3d c020 debd e335 5f3e
00000230: d758 433e cf76 dcbd 7a90 75bd 46e9 f8bd
00000240: c30e 47bc f4f8 d1bd ba74 ab3d fef7 b23d
00000250: 90d3 d6bd 4da2 6c3e 2059 443e 02c6 cbbd
00000260: 65ff c1bd 0f45 c4bd 4905 403e 3aa4 e43b
00000270: b9a8 f23d d53c 4d3e 732b 373b 22c3 59bd
00000280: eaff 47be c43c b9bc a5c5 b13d 738b 01be
00000290: 6556 66be be78 f83d 29cc 353e c7e9 0f3e
000002a0: 825e 263e 9756 963c 966f 393e 64c2 153d
000002b0: 7d70 8e3d c41a 44bd 96a8 0cbe 05b3 033e
000002c0: b146 493e cfde 17bd bb4b ff3d ddf7 bbbc
000002d0: fd60 0dbe 2645 6abd fd34 ff3d d5dc 4e3e
000002e0: 0669 19be 37d1 023e 4820 fc3d 8460 23be
000002f0: b5ec 383c 7c5e 31bd c034 19be 7b4c 40be
00000300: eb76 62bc 71c3 5abe e4c7 9b3d d6ca 093e
00000310: 1f5c 1fbe 323f 573c 608a 7e3c fc76 7abc
00000320: cbe0 91bd 51ff 2b3e 8d92 70bd 2d38 a43c
00000330: 4485 b3bd 70a0 453e 300e 253d 8c95 6c3e
00000340: 585a 043e 8ca9 5fbe 1535 4d3e 30d2 65bd
00000350: 1cf0 49bd 3aba 6f3d eb8a c03d 47b8 cdbd
00000360: d0d1 36be e44d 853d b450 823c a13a 4f3d
00000370: bce2 c1bd 3779 ff3d 41ad 463e 1e6e 52be
00000380: cad1 0b3e 465d 50be 260f 34bd 489d f4bd
00000390: 346d 12be ab52 e93d d71e 57bd 70b0 5238
000003a0: 74e4 c03d 2ada 5dbd 91ea 11be 0349 d53d
000003b0: 81e4 e2bd feea bf3d 969a 3d3e 20c4 18be
000003c0: 011e 6abd 5987 20bd 6316 19be 1e0a 12bb
000003d0: a3f3 afbd d561 5d3e d007 473e 0f2c 4f3b
000003e0: 83b6 3f3e 89c4 bbbc 76a6 f2bc 58dd 70be
000003f0: 3f0b 043e 9474 e43c f40b adbc a2fb 683e

model/dense_3/MatMul;model/dense_3/Relu;model/dense_3/BiasAdd f4 [64]
0.40288806 0.30142167 -0.046392154 -0.33203265 0.10054064 0.39004758 -0.123478144 -0.23153464
-0.10531685 -0.44962218 0.24613975 0.00043497368 -0.05994678 0.051306073 -0.3329835 -0.08168302
0.21891145 -0.24584289 0.43633035 0.08650635 -0.18213998 -0.0040056715 0.40481368 0.2153526
0.42931867 -0.103862606 0.31080094 0.2966907 0.17598121 0.008479237 0.43570367 -0.17644629
0.18588302 -0.108737715 0.23417339 -0.41543642 -0.1952277 0.042886924 0.17290278 0.11326535
-0.11824678 0.2746796 -0.17641586 -0.17208259 -0.04974365 -0.08439383 0.20887242 -0.26014584
0.6216881 0.08769101 0.00535264 -0.5210586 0.10785646 -0.35533318 0.07823104 0.099287756
0.23737773 0.14658734 0.09632772 -0.06508199 -0.20184596 0.002934311 -0.39527082 0.44561127
00000000: 5847 ce3e f153 9a3e b305 3ebd 2f00 aabe
00000010: 40e8 cd3d 51b4 c73e 1ce2 fcbd 6b17 6dbe
00000020: 5cb0 d7bd e134 e6be 0f0c 7c3e 2e0d e439
00000030: c18a 75bd 5126 523d d07c aabe 6d49 a7bd
00000040: 532a 603e 3dbe 7bbe b166 df3e 3e2a b13d
00000050: e782 3abe 0242 83bb bd43 cf3e 6485 5c3e
00000060: a8cf db3e ebb5 d4bd 4d21 9f3e d8e7 973e
00000070: 6b34 343e 7fec 0a3c 8d14 df3e 56ae 34be
00000080: 1e58 3e3e e1b1 debd 26cb 6f3e 15b4 d4be
00000090: c5e9 47be 33aa 2f3d 6d0d 313e aaf7 e73d
000000a0: 5e2b f2bd cea2 8c3e 5ca6 34be 6b36 30be
000000b0: ffbf 4bbd acd6 acbd a7e2 553e d631 85be
000000c0: f426 1f3f 5897 b33d 3365 af3b 1964 05bf
000000d0: d9e3 dc3d 3bee b5be 9837 a03d 6157 cb3d
000000e0: 2613 733e fe1a 163e 7847 c53d b549 85bd
000000f0: b5b0 4ebe 924d 403b f060 cabe 2927 e43e

model/batch_normalization_1/batchnorm/mul_1;model/batch_normalization_1/batchnorm/add_1;model/dense_3/MatMul;model/dense_3/Relu;model/dense_3/BiasAdd f4 [64, 64]
-0.03496534 0.0058054426 0.15080126 -0.035851184 0.20383093 0.036120467 -0.108729094 -0.16500598
0.16374655 -0.066303596 0.0797702 -0.08057568 -0.039814156 0.047329295 0.16408688 -0.047700297
-0.2193617 0.010301809 0.058197785 0.13151295 -0.23737296 -0.06494566 0.048659123 0.031652074
-0.06734239 0.09223388 -0.1370428 -0.13390693 -0.0022660214 -0.1534452 -0.1895409 -0.21177727
0.20879085 0.21126753 0.10382922 -0.029082678 0.11401599 -0.14159383 -0.1747571 -0.11601778
-0.17624559 -0.11438337 -0.13312472 -0.095304884 0.14093664 -0.061028965 -0.011568492 -0.0944025
0.025134448 0.06542445 0.1264016 -0.14282496 0.2012421 -0.21621946 -0.079420246 -0.07302582
0.18556541 -0.098187424 -0.12220738 -0.068080865 0.033429787 -0.055070143 -0.045532804 0.16305777
-0.06268593 -0.10417491 -0.08168559 -0.11315901 0.17530167 0.13853937 0.035600137 -0.106535144
0.1849644 -0.19153483 -0.11130617 -0.06628346 -0.11562236 -0.20855223 0.18866664 -0.12689124
-0.20598929 -0.17366485 -0.15683885 0.1509493 -0.0032398768 -0.17034881 -0.1804447 -0.15703411
-0.16401498 -0.035173908 -0.056157637 0.1485599 0.16701257 0.038777743 0.0035616197 -0.215569
-0.09725853 0.19293037 0.002103028 0.15149695 0.19338456 -0.07468172 -0.16693005 0.24010362
0.18958 0.027465092 -0.14734082 0.21615146 0.22484663 -0.15663667 -0.063618824 0.14210917
0.09032114 0.2500406 -0.1386691 -0.20374008 -0.09473943 0.10540959 0.09082807 -0.15310009
-0.22797002 -0.050875906 -0.09723612 0.022228532 0.05975785 0.15258084 -0.12492701 0.040340424
0.13601477 -0.054593567 0.0344892 0.056861393 -0.2224768 0.20577502 0.15687321 -0.0578711
0.13744825 -0.023206158 -0.1500066 0.13069215 0.07751402 -0.11141128 0.007580729 -0.12796235
-0.09906432 -0.068486646 -0.014591599 0.01496275 -0.03329912 0.0666643 0.1717524 0.19984485
0.08909789 0.042337906 -0.17289475 -0.014725987 -0.15853554 -0.11913366 -0.023775654 0.19924769
-0.14338851 0.056288682 -0.08050447 -0.108253516 -0.12595642 0.03815988 -0.22354369 -0.20163363
-0.047847535 0.12439256 0.12293055 -0.018458858 -0.090437554 -0.09907735 -0.075551644 0.06999115
0.18824367 0.23227431 0.07565259 -0.08465663 -0.045948334 0.05816762 -0.061742935 0.19922988
0.14221494 -0.1157659 -0.049263217 0.032662556 -0.18174231 0.113412 -0.025573434 0.10905761
0.08173218 -0.0678835 0.18159093 -0.06549554 -0.09934646 0.044339556 -0.17873207 0.16800338
-0.05149128 0.12736355 0.17096414 0.008235046 0.12313757 0.015705258 0.13007943 -0.04597438
0.024293382 0.0064029996 -0.03372025 0.045499496 -0.14420344 0.23632793 -0.12604351 0.047640156
-0.05058141 -0.038185105 0.12788297 -0.1926884 0.084638506 -0.17683229 0.10152189 0.016510112
-0.06562099 -0.14318575 -0.13457814 -0.07149916 -0.17449728 0.07109004 0.050758637 0.028542265
0.16835968 0.08615125 0.059855483 0.14142254 -0.20408967 0.20441227 0.22791137 -0.121429905
-0.17477977 -0.15843707 -0.085363425 0.099153094 0.18209356 0.0305811 -0.20049407 0.14934483
0.21916747 -0.042446032 0.2013698 -0.09538586 0.16872256 0.09343415 -0.104288705 0.12394013
00000000: d137 0fbd 953b be3b a56b 1a3e b1d8 12bd
00000010: 0eb9 503e 0ef3 133d 5cad debd 54f7 28be
00000020: 2dad 273e 2eca 87bd 8f5e a33d dd04 a5bd
00000030: 2b14 23bd 5ddc 413d 6406 283e 6361 43bd
00000040: 5aa0 60be ebc8 283c cd60 6e3d 55ab 063e
00000050: e611 73be 3b02 85bd ca4e 473d 9ba5 013d
00000060: cfea 89bd 1ee5 bc3d f354 0cbe e61e 09be
00000070: 8881 14bb bd20 1dbe 0217 42be 24dc 58be
00000080: 45cd 553e 8456 583e 6aa4 d43d cc3e eebc
00000090: 3781 e93d f9fd 10be 86f3 32be bb9a edbd
000000a0: b979 34be d441 eabd d951 08be 352f c3bd
000000b0: b251 103e 82f9 79bd c689 3dbc 1956 c1bd
000000c0: c2e6 cd3c 41fd 853d 6c6f 013e b540 12be
000000d0: 6912 4e3e a268 5dbe 15a7 a2bd 908e 95bd
000000e0: dc04 3e3e 7d16 c9bd dd47 fabd fb6d 8bbd
000000f0: aced 083d 3b91 61bd 9b80 3abd 9ef8 263e
00000100: 7b61 80bd a859 d5bd c64a a7bd e9bf e7bd
00000110: 4882 333e 44dd 0d3e 73d1 113d 192f dabd
00000120: 4f67 3d3e b521 44be 7df4 e3bd 9fbf 87bd
00000130: 6acb ecbd b78e 55be d431 413e c7ef 01be
00000140: dbee 52be 33d5 31be 5d9a 20be 7492 1a3e
00000150: 1d54 54bb eb6f 2ebe 7fc6 38be 8dcd 20be
00000160: 8bf3 27be 8412 10bd 8d05 66bd 1620 183e
00000170: 5805 2b3e 69d5 1e3d 106a 693b 1fbe 5cbe
00000180: 7b2f c7bd 8a8f 453e f4d2 093b 0422 1b3e
00000190: 9a06 463e bbf2 98bd b6ef 2abe b9dd 753e
000001a0: 4221 423e 79fe e03c 83e0 16be cf56 5d3e
000001b0: 323e 663e 5d65 20be 964a 82bd 1185 113e
000001c0: 4afa b83d 5205 803e 46ff 0dbe 3da1 50be
000001d0: bf06 c2bd fce0 d73d 1104 ba3d 45c6 1cbe
000001e0: f970 69be 4163 50bd bb23 c7bd 9c18 b63c
000001f0: a6c4 743d 273e 1c3e bbd9 ffbd 003c 253d
00000200: 7547 0b3e 819d 5fbd 8c44 0d3d 7ee7 683d
00000210: f5d0 63be b0b6 523e 5fa3 203e 3f0a 6dbd
00000220: 3cbf 0c3e d71a bebc 559b 19be 2ad4 053e
00000230: acbf 9e3d 992b e4bd c467 f83b 9008 03be
00000240: 3ce2 cabd ba42 8cbd 9a11 6fbc 5226 753c
00000250: a864 08bd 4b87 883d dcdf 2f3e 21a4 4c3e
00000260: f478 b63d 836a 2d3d 520b 31be 4445 71bc
00000270: 2457 22be 59fc f3bd 29c5 c2bc 9607 4c3e
00000280: 70d4 12be f68e 663d 87df a4bd 05b4 ddbd
00000290: b8fa 00be 894d 1c3d a3e8 64be 0c79 4ebe
000002a0: c7fb 43bd 87c1 fe3d 03c3 fb3d 0837 97bc
000002b0: 5337 b9bd 11e9 cabd d2ba 9abd 8557 8f3d
000002c0: f3c2 403e 51d9 6d3e bfef 9a3d 7560 adbd
000002d0: 5234 3cbd 2c41 6e3d 29e6 7cbd eb02 4c3e
000002e0: cba0 113e ac16 edbd 3ac8 49bd 2cc9 053d
000002f0: a81a 3abe 8d44 e83d 617f d1bc 9959 df3d
00000300: 3463 a73d 8106 8bbd f9f2 393e 8722 86bd
00000310: 2876 cbbd 659d 353d 8a05 37be 1409 2c3e
00000320: 85e8 52bd 976b 023e 3911 2f3e 49ec 063c
00000330: 8d2f fc3d 50a8 803c 8b33 053e a24f 3cbd
00000340: ea02 c73c 41d0 d13b 3f1e 0abd ae5d 3a3d
00000350: 11aa 13be f3ff 713e 8d11 01be 5322 433d
00000360: 742e 4fbd fc67 1cbd c1f3 023e 1c50 45be
00000370: f456 ad3d 8613 35be b5ea cf3d 3740 873c
00000380: 4c64 86bd 499f 12be dace 09be 276e 92bd
00000390: 6aaf 32be a897 913d 4ae8 4f3d 78d1 e93c
000003a0: 7b66 2c3e 1170 b03d 062b 753d 12d1 103e
000003b0: e2fc 50be 7351 513e 9961 693e 3eb0 f8bd
000003c0: 78f9 32be 543d 22be 05d3 aebd c710 cb3d
000003d0: bc76 3a3e 3785 fa3c 514e 4dbe daed 183e
000003e0: 706d 603e e4db 2dbd e333 4e3e a959 c3bd
000003f0: 9bc5 2c3e 675a bf3d 5195 d5bd 53d4 fd3d

model/dense_4/MatMul;model/dense_4/Relu;model/dense_4/BiasAdd f4 [64]
-0.07456805 -0.028386692 0.30199245 -0.27124977 -0.34878966 -0.100033775 0.2527467 0.090840034
0.09112101 0.10201531 0.21609363 0.2542229 -0.0016017513 0.20444417 -0.19889876 0.10752465
0.49314684 0.086354874 0.25682884 -0.2864383 0.22078395 -0.094464295 0.046173103 0.058411106
-0.029578531 -0.09220421 -0.12626114 -0.34425354 -0.24051158 -0.26648325 0.09526755 0.22323176
-0.06772762 0.058535233 -0.21801618 -0.21831897 0.22811612 0.08140517 -0.17906077 0.49781978
0.1554011 0.11980432 0.40497243 0.20707856 -0.3693385 -0.0331382 0.02148255 -0.3568409
0.11876977 -0.13501617 -0.026976366 -0.004716709 0.058535874 0.045376346 -0.33600658 0.08841269
0.16757724 -0.115448 0.016388224 0.3466523 -0.110404186 0.0687588 0.29103053 -0.5668929
00000000: 22b7 98bd 358b e8bc c19e 9a3e 40e1 8abe
00000010: 8f94 b2be 82de ccbd 0468 813e 570a ba3d
00000020: a79d ba3d 67ed d03d a647 5d3e 8129 823e
00000030: dbf1 d1ba d059 513e 1eac 4bbe e235 dc3d
00000040: be7d fc3e d3da b03d 127f 833e 0aa8 92be
00000050: 3015 623e 7f76 c1bd 0220 3d3d 7c40 6f3d
00000060: ad4e f2bc 90d5 bcbd 9a4a 01be 0042 b0be
00000070: ab48 76be 7e70 88be a21b c33d de96 643e
00000080: c7b4 8abd a4c2 6f3d a23f 5fbe 028f 5fbe
00000090: 4697 693e c1b7 a63d b55b 37be 3ce2 fe3e
000000a0: 7721 1f3e f85b f53d 8c58 cf3e 670c 543e
000000b0: f019 bdbe ecbb 07bd 2cfc af3c dab3 b6be
000000c0: 913d f33d ae41 0abe 8afd dcbc 9f8e 9abb
000000d0: 50c3 6f3d 8cdc 393d 0e09 acbe b611 b53d
000000e0: 5e99 2b3e 0070 ecbd 9940 863c 697c b13e
000000f0: 971b e2bd 6ad1 8c3d f401 953e e51f 11bf

model/batch_normalization_1/batchnorm/mul_1;model/batch_normalization_1/batchnorm/add_1;model/dense_4/MatMul;model/dense_4/Relu;model/dense_4/BiasAdd f4 [64, 64]
-0.13988556 -0.15486242 0.19115596 -0.1161078 -0.032966815 -0.15532507 -0.008781008 0.1694284
0.061006825 0.076148525 0.055095322 -0.051218472 0.1868718 0.089738294 0.031769454 -0.02193949
-0.012575922 -0.04032366 -0.093168385 0.1170062 0.019990372 -0.16237952 0.10928084 0.07096081
-0.1015961 0.1103859 -0.040171225 0.08037105 0.124440975 0.17010379 -0.19849128 0.066524245
-0.072222546 -0.036464788 -0.019334001 0.1650596 -0.0753472 -0.06388534 -0.14930463 0.030865157
0.03834216 -0.02823029 0.0913341 0.14189707 0.12649429 0.034310527 0.06826611 0.18041334
-0.1741797 0.02925453 0.18471235 -0.0027766044 -0.15563561 0.013063925 -0.08844265 0.061632946
-0.16272742 -0.040504307 -0.15022565 -0.07247475 0.04529279 -0.111869216 -0.091860786 0.16633418
-0.06511819 -0.036393497 -0.11432864 -0.2251732 -0.03185279 0.10985003 0.16191792 0.10319466
0.20775975 0.10155764 0.04156628 -0.0818183 -0.16653037 0.117588505 0.12356006 -0.2156152
0.088243745 -0.12359898 0.18914032 0.15362656 -0.123130694 0.19259979 0.109918445 -0.06224939
0.10465616 0.06615254 -0.09214975 -0.0013631296 0.05800662 -0.18485327 0.21251583 -0.09041799
-0.058914043 -0.15318385 -0.011728873 0.090139136 -0.19805339 0.07473915 0.04030675 -0.040922098
-0.18145938 0.17001684 0.029514814 0.19277222 -0.15345459 -0.14557071 0.16193657 -0.20459147
0.10516138 -0.114709176 0.025640424 -0.17951423 -0.12018588 0.1643976 -0.19820072 -0.08422264
0.027737806 -0.06678267 0.08732126 -0.21635118 0.14204332 0.19896312 0.19167562 -0.15449283
0.07981203 0.016576927 -0.21538337 0.2251244 -0.20172395 0.0048389058 0.012264746 -0.1724195
-0.21089953 0.0782749 0.030876366 -0.16370599 -0.06921411 -0.004274632 0.046559177 -0.08185621
0.07454028 -0.14278598 0.0024121269 -0.13059855 -0.09429192 0.17188078 0.19094904 -0.06981112
0.15709205 -0.15920754 -0.13881733 0.16637424 0.18777575 -0.14077143 0.07139591 -0.07472195
0.10457376 -0.030075721 -0.19698383 -0.026213959 0.18842992 -0.060738977 -0.11754116 0.056028526
-0.13235475 -0.01582046 -0.023003407 0.0055792 -0.13985461 -0.21758264 -0.16098936 -0.10555054
-0.16180302 -0.030469907 0.05402725 0.10689651 0.20627221 0.031601544 0.13680589 -0.024028981
-0.2038074 -0.009456184 -0.17958133 -0.15720277 -0.06744559 0.15571733 0.12440307 0.093723886
-0.03187806 0.1975064 0.13292213 0.037845597 -0.050085 0.12735467 0.17669289 0.042134177
-0.04760682 -0.18545756 0.0638957 0.12530431 -0.030456884 0.100640886 0.15364066 0.22328654
-0.11415531 -0.0128132105 0.1127711 0.15024357 -0.14543606 -0.025739333 0.13028787 0.026037801
-0.052616246 0.028102819 0.14745317 0.008719189 -0.07377827 0.23280828 -0.011356551 0.086973846
-0.120313935 -0.0020072032 0.014564733 0.004831917 -0.18037708 -0.093585745 -0.15246585 -0.10356258
0.20186937 0.031605106 -0.11547282 0.12804781 0.058244962 -0.097640716 -0.058376703 0.034719
0.17677513 -0.03932269 0.12686674 -0.022175394 0.008766095 -0.14704111 -0.052344944 0.093553916
0.030783337 -0.13388298 0.2051766 -0.07850712 0.040889643 0.12796503 -0.12589975 0.084997095
00000000: 293e 0fbe 4194 1ebe 63be 433e edc9 edbd
00000010: 3608 07bd 890d 1fbe 38de 0fbc a37e 2d3e
00000020: 4be2 793d c2f3 9b3d a2ab 613d 76ca 51bd
00000030: 525b 3f3e b6c8 b73d b020 023d 72ba b3bc
00000040: 3d0b 4ebc 6c2a 25bd 11cf bebd f2a0 ef3d
00000050: d9c2 a33c d146 26be a2ce df3d e753 913d
00000060: 9e11 d0bd 0112 e23d 958a 24bd 9499 a43d
00000070: e9da fe3d b02f 2e3e 4c41 4bbe dd3d 883d
00000080: 6ae9 93bd 1a5c 15bd 5762 9ebc 6205 293e
00000090: a24f 9abd 51d6 82bd 50e3 18be edd8 fc3c
000000a0: ab0c 1d3d 3643 e7bc 5f0d bb3d 774d 113e
000000b0: b887 013e 3289 0c3d 1acf 8b3d 46be 383e
000000c0: 2a5c 32be 32a7 ef3c 3c25 3d3e b1f7 35bb
000000d0: f15e 1fbe 130a 563c 6c21 b5bd d472 7c3d
000000e0: 04a2 26be d8e7 25bd c1d4 19be a46d 94bd
000000f0: ef84 393d b01b e5bd 8221 bcbd 8253 2a3e
00000100: b05c 85bd 5911 15bd 2225 eabd ce93 66be
00000110: 1278 02bd 0df9 e03d d0cd 253e b957 d33d
00000120: f9be 543e 74fd cf3d 6741 2a3d 5a90 a7bd
00000130: f086 2abe 3ed2 f03d 0f0d fd3d 3bca 5cbe
00000140: 23b9 b43d 7621 fdbd 00ae 413e 4850 1d3e
00000150: f22b fcbd e138 453e ec1c e13d 37f9 7ebd
00000160: f855 d63d fc7a 873d 02b9 bcbd 0aab b2ba
00000170: 5998 6d3d 2d4a 3dbe c09d 593e 112d b9bd
00000180: da4f 71bd 3adc 1cbe 752a 40bc de9a b83d
00000190: 82ce 4abe d710 993d b118 253d ee9d 27bd
000001a0: 7dd0 39be e518 2e3e 0dc9 f13c 1566 453e
000001b0: 3323 1dbe 7d10 15be b3d2 253e 6d80 51be
000001c0: d95e d73d a5ec eabd de0b d23c 94d2 37be
000001d0: 0424 f6bd d857 283e 21f5 4abe eb7c acbd
000001e0: 653a e33c 5ac5 88bd 7dd5 b23d 2a8b 5dbe
000001f0: ce73 113e fdbc 4b3e 9d46 443e 5e33 1ebe
00000200: 7d74 a33d 56cc 873c 758d 5cbe 0387 663e
00000210: b990 4ebe af8f 9e3b 13f2 483c bd8e 30be
00000220: 0cf6 57be 974e a03d 6ff0 fc3c 8ba2 27be
00000230: 21c0 8dbd 3612 8cbb d6b4 3e3d 3ba4 a7bd
00000240: 93a8 983d 7d36 12be c614 1e3b a0bb 05be
00000250: 1f1c c1bd 8401 303e 2588 433e 22f9 8ebd
00000260: bddc 203e 4d07 23be 2126 0ebe 025e 2a3e
00000270: 4948 403e 6326 10be 0538 923d d207 99bd
00000280: c42a d63d 5c61 f6bc 21b6 49be a8be d6bc
00000290: c6f3 403e 6fc9 78bd 6bb9 f0bd 2b7e 653d
000002a0: 0188 07be e999 81bc a471 bcbc b9d1 b63b
000002b0: 0c36 0fbe fccd 5ebe 65da 24be e22a d8bd
000002c0: b1af 25be 079c f9bc ad4b 5d3d 8fec da3d
000002d0: 0639 533e 9f70 013d d816 0c3e 6dd8 c4bc
000002e0: e3b2 50be 1cee 1abc 2be4 37be c3f9 20be
000002f0: ea20 8abd 5d74 1f3e 09c7 fe3d 4ff2 bf3d
00000300: 9292 02bd 1e3f 4a3e bd1c 083e fc03 1b3d
00000310: ee25 4dbd 4369 023e fbee 343e e394 2c3d
00000320: 5eff 42bd 96e8 3dbe c0db 823d c64f 003e
00000330: b780 f9bc cf1c ce3d fa53 1d3e 3aa5 643e
00000340: 42ca e9bd 80ee 51bc 89f4 e63d 73d9 193e
00000350: 31ed 14be 4bdb d2bc 2f6a 053e 3a4d d53c
00000360: 2284 57bd e237 e63c f7fd 163e eeda 0e3c
00000370: 1019 97bd 4b65 6e3e d410 3abc 581f b23d
00000380: 2767 f6bd 488b 03bb eba0 6e3c 0f55 9e3b
00000390: c5b4 38be e2a9 bfbd 0220 1cbe 9e18 d4bd
000003a0: d8b6 4e3e 5b74 013d 047d ecbd f71e 033e
000003b0: 4592 6e3d dbf7 c7bd 691c 6fbd 8335 0e3d
000003c0: 8a04 353e d410 21bd 5be9 013e 2ca9 b5bc
000003d0: ab9f 0f3c f291 16be a767 56bd 3299 bf3d
000003e0: 562d fc3c 9f18 09be d119 523e 57c8 a0bd
000003f0: e67b 273d 4409 033e ddeb 00be f512 ae3d

model/position_output/BiasAdd/ReadVariableOp f4 [2]
-0.024656624 -0.01239182
00000000: b0fc c9bc 0f07 4bbc

model/floor_output/BiasAdd/ReadVariableOp f4 [5]
0.03499993 -0.029982325 -0.035767928 -0.028444963 -0.005888976
00000000: 165c 0f3d 7e9d f5bc 6481 12bd 6905 e9bc
00000010: 50f8 c0bb

model/dense/BiasAdd/ReadVariableOp f4 [128]
0.0014010549 0.00039028263 -0.018200226 -0.012728123 0.022794977 0.016242808 0.0076732533 0.011168762
0.032016043 0.0156062115 -0.0072271656 -0.009633464 0.028610116 -0.021581924 -0.005490392 -0.015221172
0.009590058 -0.0051444597 0.01170552 0.00041649945 0.0123543 -0.019901602 -0.024511341 0.013687801
0.0016501803 0.01274648 0.00551383 0.028026389 -0.0067799855 0.026694115 -0.015865663 0.007271706
0.0031459644 0.003227776 -0.0062768515 -0.023914397 -0.0014341399 0.028239038 0.014988296 0.013182749
-0.0007444197 0.006811618 0.00886938 0.019408468 -0.010581342 -0.0007643452 0.0060377466 -0.00033122292
-0.008012549 -0.008643318 0.0065627615 -0.007890024 -0.0018297149 0.0065280697 -0.0071803126 0.009693258
-0.018054437 0.006340015 0.025877783 -0.01861776 0.01178893 -0.00046092604 -0.0030151927 0.0015829237
-0.0046371287 0.003161515 0.0074885883 0.012444033 -0.024354232 -0.004609389 -0.0011345185 -0.015845323
0.018201359 0.0048663993 0.0010098267 0.00806899 0.007543863 0.0010922473 0.007928716 0.004973381
0.0027173688 0.0104154935 0.010377643 -0.018960608 0.0025116424 -0.006044432 -0.0013244211 0.011251716
-0.008166218 0.013029341 -0.01677475 0.0069735055 -0.0041175345 -0.012513851 0.009405329 0.011848984
0.010413824 0.006866466 0.0059100804 0.014747985 0.025052452 0.005517624 -0.0030523327 -0.0047573866
0.008223261 -0.004404983 -0.015319181 0.01720351 0.0048945467 0.00957017 0.011727618 -0.01763557
0.0015444282 -0.010165226 0.018208291 0.008488304 0.011083179 0.008956514 -0.0059146807 -0.0022276998
-0.0084492685 0.0017561768 -0.0010102253 0.017628983 -0.00074383593 -0.008649652 0.0155855 0.00093650306
00000000: 9aa3 b73a d99e cc39 a418 95bc 9e89 50bc
00000010: 88bc ba3c a30f 853c ea6f fb3b 2ffd 363c
00000020: 4123 033d 32b1 7f3c dcd1 ecbb add5 1dbc
00000030: c35f ea3c 93cc b0bc bfe8 b3bb 3962 79bc
00000040: 9e1f 1d3c db92 a8bb 82c8 3f3c 9c5d da39
00000050: b169 4a3c af08 a3bc 02cc c8bc cc42 603c
00000060: dd4a d83a 9dd6 503c 5cad b43b 9997 e53c
00000070: a42a debb 9ead da3c b5f8 81bc 7e47 ee3b
00000080: 862c 4e3b 1889 533b 0cae cdbb 20e8 c3bc
00000090: c0f9 bbba 8e55 e73c 7891 753c 75fc 573c
000000a0: 2925 43ba fe33 df3b e050 113c 82fe 9e3c
000000b0: 5d5d 2dbc 575e 48ba 4ad8 c53b fda7 adb9
000000c0: 1147 03bc b49c 0dbc 6f0c d73b 2945 01bc
000000d0: 0bd3 efba 6be9 d53b d448 ebbb 79d0 1e3c
000000e0: e6e6 93bc e7bf cf3b a5fd d33c 4684 98bc
000000f0: 5b26 413c 72a8 f1b9 8a9a 45bb 1b7a cf3a
00000100: 0ef3 97bb 6c31 4f3b d562 f53b 0fe2 4b3c
00000110: 8782 c7bc 5c0a 97bb 20b4 94ba 0dce 81bc
00000120: 041b 953c 5176 9f3b 295c 843a cc33 043c
00000130: 8232 f73b bd29 8f3a 72e7 013c bef7 a23b
00000140: e215 323b bfa5 2a3c fd06 2a3c 4753 9bbc
00000150: 5e9a 243b 5f10 c6bb 3398 adba 1e59 383c
00000160: 9acb 05bc 0479 553c 336b 89bc 0182 e43b
00000170: 62ec 86bb e506 4dbc cf18 1a3c 3e22 423c
00000180: be9e 2a3c 1700 e13b 59a9 c13b 88a1 713c
00000190: cd3a cd3c 2fcd b43b a509 48bb dae3 9bbb
000001a0: dbba 063c ad57 90bb 4dfd 7abc 60ee 8c3c
000001b0: 6f62 a03b 34cc 1c3c 3225 403c 7978 90bc
000001c0: 696e ca3a 0c8c 26bc 8e29 953c 8712 0b3c
000001d0: 3996 353c 58be 123c f0cf c1bb 9afe 11bb
000001e0: cd6e 0abc 842f e63a 8969 84ba a86a 903c
000001f0: fcfd 42ba 45b7 0dbc 535a 7f3c a87f 753a

model/building_output/BiasAdd/ReadVariableOp f4 [3]
0.03757598 -0.033153273 -0.033015665
00000000: 45e9 193d bacb 07bd 6f3b 07bd

model/dense/MatMul f4 [128, 385]
-0.017115002 -0.00030892395 -0.002502014 -0.070997916 -0.019678347 -0.06659842 0.10748383 -0.036065858
0.0004428771 -0.0057770708 0.074378334 0.07378911 0.004581806 -0.005740088 -0.058358546 0.07797328
-0.009053472 -0.035569053 -0.115862556 -0.09781598 0.06028034 -0.02782543 -0.02209189 -0.036113493
-0.08786771 0.030058622 -0.089366846 -0.045584172 -7.084174e-05 -0.091407895 0.07039339 0.101500556
0.031361368 0.097156405 0.009950855 -0.075085014 9.811837e-05 -0.0014190068 0.07498622 0.08381434
0.08776278 -0.031977706 0.02656497 0.0052124443 0.03384703 -0.096974544 0.09342579 -0.03223294
0.028857687 0.021546843 0.021215882 -0.06884848 -0.04019519 0.016576681 -0.031403486 0.06962767
0.054400463 0.0017694283 -0.038653105 -0.0332717 0.075844675 0.09474455 -0.006171794 -0.05050305
-0.04712334 -0.05708909 -0.014346625 0.030591842 -0.001770387 0.022655318 0.039006256 -0.070122026
-0.10310219 0.03015984 -0.04677665 -0.027270667 0.022180397 -0.08873358 0.09318118 0.05673522
0.04790705 0.03109908 -0.043333597 0.07268122 -0.01833701 0.031102184 0.04276294 0.0061228476
0.039142527 0.03696187 -0.011345348 -0.08514996 -0.03717082 0.054901075 -0.10242213 -0.02679867
-0.04181998 0.09518976 0.005630266 0.030779738 0.08046991 0.09811513 -0.09285723 0.028218355
0.08876599 -0.05344197 -0.02272405 -0.079889886 -0.08192934 -0.06116195 -0.08883983 -0.018480955
0.07842921 0.011985598 0.117212765 0.013895721 0.091035545 0.060253683 0.03659238 0.056635566
0.09145904 -0.052417878 -0.05728499 0.057725433 0.07897285 0.001603323 -0.036915123 0.04145125
-0.002589067 0.06545833 -0.02417903 0.11180982 0.06773238 -0.013297218 -0.001787494 -0.069631405
0.0029588914 -0.029495329 -0.042200275 -0.005192638 -0.076467484 0.07646309 0.07859966 0.055881396
-0.018668422 0.057141196 -0.08606681 -0.0883037 0.06744564 0.08660575 0.09374955 0.08502972
0.05561363 -0.0016913383 0.014852581 -0.033933993 -0.049282156 -0.08663853 0.074655905 0.04068401
-0.08799593 -0.02775447 -0.06752242 -0.095358506 -0.012161118 0.035547107 -0.0044595543 0.01480441
0.054244388 0.07117466 -0.021080082 0.07135792 -0.08988185 0.11754098 -0.01724088 0.06040791
0.015165829 -0.08267805 -0.105446264 -0.038155857 -0.072749324 -0.01868372 -0.054577976 -0.0659976
-0.040311195 -0.043618713 0.0042444267 0.0046037696 0.007113163 -0.018444372 0.0010349783 -0.080853485
0.010865279 -0.0020204845 -0.089661844 -0.05191797 -0.022514645 0.10443939 0.07784649 0.06096145
-0.018195195 -0.008351266 -0.058958784 -0.053152096 0.039656427 -0.028743483 0.06248206 -0.0070412625
-0.042427607 -0.033426233 -0.009336004 -0.0092113735 -0.018711347 0.030025598 0.019937562 -0.08191919
0.013118854 0.049925663 -0.0622551 0.09120423 0.097191446 -0.044070616 0.0076411273 -0.04512407
0.06502663 -0.09844589 -0.028768523 0.021858938 0.1146895 0.013022997 0.004379507 -0.0007801553
-0.082619146 -0.029062536 0.032151103 0.029623536 0.08381002 0.019663826 -0.07748289 0.031964753
0.019715019 0.07215316 -0.087493345 -0.04479229 0.11222601 -0.08779403 -0.0057924474 0.043735858
-0.086337715 -0.07844669 0.00018978462 -0.09964662 -0.02659101 -0.08330145 -0.033567168 -0.006330838
00000000: c334 8cbc 12f7 a1b9 d4f8 23bb 5b67 91bd
00000010: 7c34 a1bc c164 88bd 7b20 dc3d cbb9 13bd
00000020: f531 e839 954d bdbb ab53 983d bf1e 973d
00000030: f922 963b 5917 bcbb 5f09 6fbd 74b0 9f3d
00000040: 0455 14bc dbb0 11bd 5949 edbd bf53 c8bd
00000050: 85e8 763d 28f2 e3bc 0dfa b4bc beeb 13bd
00000060: fcf3 b3bd 803d f63c f705 b7bd 78b6 3abd
00000070: df90 94b8 1034 bbbd 692a 903d 86df cf3d
00000080: c774 003d f0f9 c63d e908 233c 2cc6 99bd
00000090: e6c4 cd38 f8fd b9ba 6092 993d daa6 ab3d
000000a0: f9bc b33d 0efb 02bd c89e d93c 27cd aa3b
000000b0: 2fa3 0a3d 979a c6bd 0556 bf3d b006 04bd
000000c0: f566 ec3c 0183 b03c eecc ad3c 6f00 8dbd
000000d0: b6a3 24bd d2cb 873c f1a0 00bd f498 8e3d
000000e0: 05d3 5e3d 29ec e73a b852 1ebd e847 08bd
000000f0: 7454 9b3d 6e09 c23d c33c cabb 49dc 4ebd
00000100: 6704 41bd 40d6 69bd 1b0e 6bbc be9b fa3c
00000110: 550c e8ba a597 b93c 06c5 1f3d 239c 8fbd
00000120: 3e27 d3bd c511 f73c df98 3fbd bc66 dfbc
00000130: aab3 b53c f4b9 b5bd c6d5 be3d 3163 683d
00000140: 2f3a 443d 7fc3 fe3c 927e 31bd e4d9 943d
00000150: 7f37 96bc 02ca fe3c 3128 2f3d 2ba2 c83b
00000160: ea53 203d 5465 173d d7e1 39bc 1a63 aebd
00000170: 6e40 18bd f3df 603d b2c2 d1bd e288 dbbc
00000180: 6d4b 2bbd d9f2 c23d 187e b83b ca25 fc3c
00000190: 68cd a43d 96f0 c83d ee2b bebd 2e2a e73c
000001a0: f2ca b53d f8e5 5abd c927 babc 4f9d a3bd
000001b0: 92ca a7bd f484 7abd a8f1 b5bd 5f65 97bc
000001c0: 7e9f a03d 3e5f 443c 3f0d f03d e1aa 633c
000001d0: d870 ba3d 91cc 763d e4e1 153d b2fa 673d
000001e0: e14e bb3d 21b4 56bd aaa3 6abd 8171 6c3d
000001f0: 85bc a13d 9826 d23a 5034 17bd c9c8 293d
00000200: 56ad 29bb 040f 863d 1a13 c6bc 8cfc e43d
00000210: 46b7 8a3d 93dc 59bc 594a eaba e99a 8ebd
00000220: f6e9 413b 30a0 f1bc 32da 2cbd 0127 aabb
00000230: fc9a 9cbd ae98 9c3d dcf8 a03d e4e3 643d
00000240: 85ee 98bc e30c 6a3d cc43 b0bd 92d8 b4bd
00000250: f120 8a3d 5b5e b13d c4ff bf3d 1024 ae3d
00000260: 1ecb 633d e5af ddba 3d58 733c 5ffe 0abd
00000270: 16dc 49bd 8b6f b1bd 32e5 983d 47a4 263d
00000280: 3637 b4bd 585d e3bc 3249 8abd 524b c3bd
00000290: 6d3f 47bc d899 113d 7421 92bb 328e 723c
000002a0: 5d2f 5e3d 05c4 913d 23b0 acbc 1a24 923d
000002b0: fa13 b8bd 53b9 f03d bf3c 8dbc 496e 773d
000002c0: 197a 783c 1c53 a9bd 36f4 d7bd 5149 1cbd
000002d0: 99fd 94bd 9a0e 99bc 288d 5fbd c029 87bd
000002e0: 5a1d 25bd 89a9 32bd d514 8b3b 38db 963b
000002f0: 8915 e93b a718 97bc 1ca8 873a 8396 a5bd
00000300: 4804 323c 1b6a 04bb a1a0 b7bd f0a7 54bd
00000310: a270 b8bc 52e4 d53d fb6d 9f3d b7b2 793d
00000320: 170e 95bc c0d3 08bc c47e 71bd 03b6 59bd
00000330: c76e 223d 7477 ebbc 30ed 7f3d 64ba e6bb
00000340: 92c8 2dbd f2e9 08bd 0af6 18bc 4deb 16bc
00000350: 8a48 99bc 3ef8 f53c 1954 a33c 40c5 a7bd
00000360: 76f0 563c da7e 4c3d 34ff 7ebd 49c9 ba3d
00000370: 4f0c c73d 6483 34bd 6c62 fa3b 04d4 38bd
00000380: af2c 853d 009e c9bd f7ab ebbc 8411 b33c
00000390: 54e2 ea3d 695e 553c f881 8f3b 5683 4cba
000003a0: 3a34 a9bd 8e14 eebc e0b0 033d 0fad f23c
000003b0: 96a4 ab3d 0816 a13c 59af 9ebd 79ed 023d
000003c0: 6481 a13c 09c5 933d b62f b3bd 1f78 37bd
000003d0: c0d6 e53d 5bcd b3bd 92ce bdbb 5f24 333d
000003e0: d4d1 b0bd a9a8 a0bd ec00 4739 8713 ccbd
000003f0: 64d5 d9bc f399 aabd ba7d 09bd eb72 cfbb

model/building_output/MatMul f4 [3, 64]
0.0325568 -0.24018788 -0.0008655072 -0.042148937 0.26325238 -0.115673356 0.18171634 -0.057197805
-0.2652357 -0.014899212 0.10081649 0.30967236 0.046522386 -0.0065408354 -0.10861511 -0.022771917
-0.004607488 -0.050785813 -0.040954564 0.058486976 -0.11652421 0.13750061 0.1649491 0.05589446
0.16131152 -0.23628792 -0.2077206 -0.18014938 0.027831446 -0.050690044 0.06371308 0.03952054
0.18798454 0.048250124 -0.07276444 0.27951476 -0.01206891 -0.09365008 0.24103884 0.012987734
0.26844355 -0.2475873 -0.20053193 -0.11479062 -0.18322642 0.066683024 -0.07174534 0.3261839
0.17959002 -0.25038603 -0.18762538 -0.003607169 -0.121849515 -0.21269368 -0.23947163 0.29297265
-0.18283623 -0.027728718 -0.1124236 0.32745957 0.18349211 -0.2667719 -0.17963418 -0.23317888
0.011495605 -0.20565335 -0.051906824 -0.13993607 -0.21748343 0.25036237 0.25715598 0.11503458
0.086419955 0.050156705 -0.018534452 0.1784256 0.003417958 -0.3060284 -0.028443046 -0.07313025
-0.11712763 -0.011617856 -0.13456006 0.20191759 0.03579296 -0.10746195 -0.23462373 -0.012991131
0.26188874 0.21794213 0.04271011 -0.22154085 0.09102595 0.07188099 -0.025215542 0.19318098
-0.23647529 0.21826278 -0.03335646 0.0013065482 0.025506606 0.14631893 -0.17468773 0.22238412
-0.10663883 0.114186026 0.16666012 0.083333775 0.27615198 -0.2846106 -0.17597267 0.15806225
0.022756739 0.17971055 -0.15726407 -0.22469752 0.07435999 0.17152844 0.010512954 -0.07531715
0.13303372 0.18396764 0.25295806 0.033118512 0.1638602 -0.24617922 -0.20690309 0.1861333
0.20740211 -0.19041675 0.20187096 0.036634978 0.15029027 0.21735609 0.1971831 0.17520027
-0.07142812 0.19188909 0.24969919 0.18123911 0.2545294 0.24711886 -0.20654248 -0.19438328
0.18148762 -0.117071226 -0.12645093 0.08667742 -0.07447329 0.18386698 0.105227746 -0.31586426
0.0048147244 0.15579559 0.03383995 -0.08583319 0.278145 -0.053142365 -0.13506344 0.18568042
0.13167877 0.20930381 -0.091188334 0.16787757 0.13790305 -0.25913936 -0.2341124 -0.0045537297
0.03714905 -0.2441572 0.13581343 -0.0701905 -0.2900869 0.17204165 0.119572975 -0.14325535
-0.24251388 -0.13988742 0.23721956 -0.20959793 -0.26649147 -0.15728232 0.0018908698 0.2578234
-0.23378591 -0.06584868 -0.22149247 0.1680359 0.23432389 -0.025199972 -0.27256438 -0.023283029
00000000: 475a 053d d0f3 75be 34e3 62ba 5da4 2cbd
00000010: 04c9 863e 27e6 ecbd d913 3a3e 3f48 6abd
00000020: f9cc 87be d31b 74bc e078 ce3d 608d 9e3e
00000030: 428e 3e3d 8154 d6bb 9971 debd 2c8c babc
00000040: 69fa 96bb c904 50bd f9bf 27bd 0a90 6f3d
00000050: 3fa4 eebd f6cc 0c3e 6be8 283e 97f1 643d
00000060: d92e 253e 76f5 71be b5b4 54be 1479 38be
00000070: c6fe e33c 5da0 4fbd 017c 823d 4ae0 213d
00000080: 057f 403e eca1 453d 8605 95bd 8f1c 8f3e
00000090: adbc 45bc 9dcb bfbd e3d2 763e 81ca 543c
000000a0: 6f71 893e 8687 7dbe 3e58 4dbe 5817 ebbd
000000b0: b59f 3bbe 1c91 883d 39ef 92bd 9301 a73e
000000c0: 72e6 373e 9932 80be de20 40be 4166 6cbb
000000d0: 3d8c f9bd 5fcc 59be 0d38 75be 8300 963e
000000e0: 6c39 3bbe 5627 e3bc 583e e6bd c8a8 a73e
000000f0: 5be5 3b3e 5496 88be 06f2 37be 72c6 6ebe
00000100: 1058 3c3c cb96 52be 409c 54bd 674b 0fbe
00000110: fab3 5ebe 7f2f 803e f3a9 833e 4097 eb3d
00000120: f2fc b03d 1e71 4d3d 90d5 97bc 33b5 363e
00000130: d2ff 5f3b c1af 9cbe 6401 e9bc 50c5 95bd
00000140: 9ce0 efbd d258 3ebc 1dca 09be 7cc3 4e3e
00000150: a49b 123d 0315 dcbd 3441 70be c1d8 54bc
00000160: 4816 863e 392c 5f3e ccf0 2e3d 9bdb 62be
00000170: d06b ba3d 5736 933d d390 cebc 3cd1 453e
00000180: 9426 72be 4780 5f3e c9a0 08bd 7c40 ab3a
00000190: 3bf3 d03c a1d4 153e 57e1 32be aab8 633e
000001a0: 7565 dabd 5dda e93d f3a8 2a3e e6aa aa3d
000001b0: cb63 8d3e 7bb8 91be 2e32 34be 12db 213e
000001c0: 576c ba3c 0b06 383e d509 21be 1b17 66be
000001d0: 0d4a 983d 27a5 2f3e 863e 2c3c e13f 9abd
000001e0: fe39 083e 0362 3c3e b883 813e 47a7 073d
000001f0: f8ca 273e 6816 7cbe 67de 53be ba99 3e3e
00000200: 3861 543e 9cfc 42be 43b7 4e3e 8f0e 163d
00000210: b1e5 193e 9892 5e3e 5eea 493e b367 333e
00000220: e848 92bd 937e 443e 25b1 7f3e bf96 393e
00000230: ad51 823e ba0c 7d3e df7f 53be 690c 47be
00000240: e4d7 393e 0ac3 efbd 5a7c 01be ee83 b13d
00000250: 7485 98bd a047 3c3e a581 d73d f6b8 a1be
00000260: d6c4 9d3b e188 1f3e c29b 0a3d 50c9 afbd
00000270: 0569 8e3e cfab 59bd 124e 0abe 0223 3e3e
00000280: cdd6 063e bd53 563e f3c0 babd 19e8 2b3e
00000290: 7536 0d3e eaad 84be 29bb 6fbe 7437 95bb
000002a0: 9a29 183d 5804 7abe ad12 0b3e 09c0 8fbd
000002b0: 4586 94be b02b 303e ade2 f43d 88b1 12be
000002c0: 8f55 78be a63e 0fbe afe9 723e d7a0 56be
000002d0: 9271 88be 9e0e 21be 10d7 f73a 6e01 843e
000002e0: 9365 6fbe acdb 86bd ecce 62be 9a11 2c3e
000002f0: 9af2 6f3e 2c70 cebc 8f8d 8bbe 0dbc bebc
