250630/models/original_hadnn.tflite (tflite, 362344 bytes, 26 tensors)

model/position_output/MatMul f4 [2, 64]
00000000: c4dc 90bd e894 68be ba68 483e 9f73 7a3e
00000010: d1f8 47bd 163b 823d 7739 22be 27e5 abbd
00000020: 76f3 53bd 2a13 94bd 1b28 50be 214b bbbd
00000030: 61f8 76be dc57 b9bd 222e 86bd 852f 0abe
00000040: 2dc5 f43d d747 213e d6ce 953e aedd 33bc
00000050: 13e1 6f3e 665f f33a 87c3 b9bd dcca 803d
00000060: b401 eebc 42fc 2ebe 9967 12be 1d28 19be
00000070: fd9b 41bd 444f 0ebe 0bdd 2d3e 4663 4bbe
00000080: a64f 523e 6728 33be 297d 1dbe 6e3f 8e3e
00000090: 891a 93bc 8f2c 62bd 7b24 b53c d4f9 de3d
000000a0: 2df7 49be 571d 21be 76b3 d9ba e869 283d
000000b0: e1cf 7a3e 2f17 d43d c692 b8bd eae7 203e
000000c0: 8d19 4ebe 5f1e a6bd e595 33be c39e 87bd
000000d0: 3a94 d73d 1884 263e c6b2 d4bd 75c6 563d
000000e0: 347b 443e ebc9 03be 8bb8 1a3e 8553 11be
000000f0: 0001 25bd 6d49 3cbd 719e 83bd defd 5abe
00000100: af42 56bc a5ba b0bc 1825 a3bd fe58 c73d
00000110: c497 493e 0b31 3fbe 8ff7 28be 547e 2bbe
00000120: f559 56be 32c9 f8bd a616 9dbd a885 af3d
00000130: 91b3 0c3e 753b 843e 2cce 9a3d 5b22 023e
00000140: 96e3 eabd ca1a 083e 0c76 103e 8be7 d6bd
00000150: 9483 123e a903 163e d9be 473d 645d 363e
00000160: c894 06be d5da 41be 722a 0abc 4e25 0a3e
00000170: 29d9 f83d 1ea7 283e ac20 f6bc 85db 623e
00000180: f882 32bd 8efb 18be df30 683d 8798 afbc
00000190: 22c0 60be 277c 073e a163 c0bd 493a 9ebc
000001a0: 8287 553e ecb0 05bc d2f0 50be cd38 243d
000001b0: 0178 093e f2d0 5bbe bd85 de3c aa37 47be
000001c0: a99e 2f3d bb95 d4bd 0313 43bc 73c4 ba3d
000001d0: a169 c2bd dae2 21be 7622 1e3d 6d4a 683e
000001e0: f953 aabd b8a1 47be f3e6 353e a3c9 2bbd
000001f0: dda5 e63d d9b0 1dbe 425b 45bd 66fa e53d
-0.07073358 -0.22713053 0.195712 0.24458168 -0.048821274 0.06358926 -0.15842234 -0.08393317
-0.051745854 -0.07230218 -0.20327799 -0.09145189 -0.24118187 -0.09049961 -0.06551768 -0.1349469
0.11951671 0.15750061 0.29259366 -0.0109781455 0.23425703 0.001856786 -0.09070497 0.06288692
-0.029053546 -0.17088416 -0.14297332 -0.14956708 -0.047267903 -0.13897425 0.16978852 -0.19862089
0.20538196 -0.17495881 -0.15379776 0.27782768 -0.017956989 -0.055218276 0.022112122 0.10887495
-0.19723196 -0.15733849 -0.001660927 0.041116625 0.24493362 0.103559844 -0.0901237 0.15713468
-0.20126934 -0.081112616 -0.17537649 -0.06622078 0.10526319 0.16261327 -0.10385661 0.052435357
0.19187623 -0.12869994 0.1510946 -0.14192016 -0.040284157 -0.04596846 -0.06426705 -0.21385905
-0.013077422 -0.021573374 -0.079660594 0.09733771 0.196868 -0.18671052 -0.16500686 -0.16747409
-0.20932753 -0.1214775 -0.076703355 0.08570415 0.13740374 0.25826612 0.075588554 0.12708418
-0.1146919 0.13291469 0.14107531 -0.10493382 0.14308006 0.14649834 0.04876599 0.17809063
-0.13142693 -0.18931134 -0.008432971 0.13490793 0.12150795 0.1647 -0.030044876 0.22154053
-0.043581933 -0.1493971 0.056687232 -0.021435035 -0.21948293 0.13230954 -0.09394003 -0.019314902
0.20852473 -0.008159857 -0.20404366 0.040093232 0.13424684 -0.21466425 0.02716338 -0.19454828
0.04287592 -0.10380121 -0.011906388 0.09119501 -0.09492803 -0.15809193 0.038607083 0.22684641
-0.08316798 -0.19495285 0.17763881 -0.041940343 0.11262105 -0.15399493 -0.048182733 0.112294

model/floor_output/MatMul f4 [5, 64]
00000000: 225f 2a3d f846 3b3d b62b 683e 02bb 7b3e
00000010: 4256 913e 709e db3d 9ef2 54be d44e 203e
00000020: 6104 2e3e e741 a33e e7fe 903d d1ef 383e
00000030: 8dec a03e 9d72 683e 8f4a 083e 5405 1b3d
00000040: bd40 c53c bbc8 10be f916 aebc 9c3b b53e
00000050: b8f2 8c3d a31e 253e ea1e 51bd 7054 63be
00000060: a7c9 8fbd f893 ab3e 03f6 2a3e c7c1 273e
00000070: 2bbb f5bd ab22 5b3e 3e92 463d bc38 0b3e
00000080: eeae ab3d d2ed 0d3d 4a07 1cbe e45b 3cbe
00000090: 6730 46be 689d 04be 0132 4b3e 7e7c 74be
000000a0: b60f bebd 1a23 dabd abfc 8b3e afac 4cbe
000000b0: ee91 0e3d bb6e 13be 0127 21be ef60 a93c
000000c0: 4da1 d53b ab26 88bd 4766 133d 2f7e a5bd
000000d0: a8f0 3abe 4d39 89bd 13cf 4ebe 6481 36be
000000e0: 7a1b 783e 7539 67be 6733 27be 7757 173d
000000f0: 5308 9b3e 0f49 5bbe 793f c13d 213b 5ebe
00000100: 147e f2bc 7e12 d53d 3e06 a7be 82d1 ee3d
00000110: 8b9f 8b3d fa32 18bd 88ae a0be 5476 953d
00000120: e21b 193e 8573 94be db2e 5e3e 3eed 863e
00000130: 1942 2c3e 02ba 23be dc48 80bc 7faf 23be
00000140: 6936 2fbe 035d 463e 830a 8e3e c98a 123e
00000150: b7c5 68be c49f 6c3e 441d edbd 04b8 a2be
00000160: 2feb 0a3e 4d41 b6be 1c0b 46be c0c3 fb3b
00000170: 45d5 4c3b bdb9 d2bc 04e9 783d 1931 9fbe
00000180: bbcf 53be ec91 adbe 756e 1abe 7e5b 48be
00000190: 1529 a1be 776b b6bc e089 5b3e 2e55 c4bd
000001a0: 8148 39bd 37fb 033e 087f 93bc eac5 e83d
000001b0: 40b1 94be c604 f83d 70ff f6bd ed4d 61bd
000001c0: 104c 873e d7c5 91be 90fe 593e 1c07 1abe
000001d0: 8afc 97be a671 873c b2f0 b8bc 58c7 87bd
000001e0: 7dc7 3b3d f90c 793e c17f 9dbe 02d0 0c3e
000001f0: 0937 8bbe dfb7 ff3d 5165 6cbe 25ee 763e
00000200: 0220 413d 475e 1cbe 78ad 833e 9e26 813e
00000210: 116e bfbe ea87 73bd 795c 9ebe ed84 233e
00000220: 3fb1 67be c70a f73d 7d85 dcbd 2e6a 6fbd
00000230: f0d3 0d3e b0ed 99be d1d3 35be 567b 8abd
00000240: 1eab 25be f921 b1be c133 41bd 903c 383e
00000250: 3d0b 403e cade b5bd baae 063e 5750 423d
00000260: 51f2 9ebe 248f e3bd 33cd 9ebc 1d06 54be
00000270: f7a7 afbd 60ce 3fbe d76a a13e 1ac2 90be
00000280: 7097 2f3b 4060 2abe 866d a3be adaf 28bc
00000290: 914b 3e3d ad39 973e a486 9f3e dd4d aebc
000002a0: 30e7 7bbd 083c 433e f955 a53d b826 ee3d
000002b0: 10c3 5a3e 1d8f 623d 84e7 8dbe 6e16 11be
000002c0: 294c 45be 2fbd 11be ad54 99be 26f1 5fbe
000002d0: 5717 1e3e 9f45 cfbd 3e42 2a3e c203 553e
000002e0: 59d0 d9bd 9e69 86be 1af1 56bd 21a1 87bc
000002f0: a6a1 0c3e 0cdf 75be 6c89 98be 4e5b 8f3e
00000300: b75b 1c3e 5e05 703e 159d 7bbe 422a f1bd
00000310: fc9e 5b3e 6386 5abe 4a3f 993d 5f5d 94be
00000320: 4b6b d13d 13b3 86be fab7 603e a005 d73d
00000330: 4156 34bd bc72 22be 74ed 0e3d 8991 6cbe
00000340: 4c96 403e 4b1e 7bbe 130b 963e b5c2 56be
00000350: f2d1 babd 1b49 8cbe c076 2dbe c80d 1a3e
00000360: e3a4 8fbd 78bc 3dbe e3f5 993e 389a a03d
00000370: ca08 99bd bb08 80bd ae96 96be 8ba9 71be
00000380: 9a7c 0e3d e8b1 07be 223e 393e 0503 5c3e
00000390: 2553 543e b968 cd3c 9ade 85be 2499 643e
000003a0: 2b32 55be bb57 a1be 6588 afbd 7679 92be
000003b0: 9760 893c 5bcd 52bd 10b7 0d3c 2dc7 ce3d
000003c0: 1d5c 6b3d 9651 6c3d ca92 b0be 1d82 4f3e
000003d0: f37d 2b3e 561c a7be 7083 723d 18e2 953e
000003e0: 185a ae3d aa07 1c3c b574 70be 8241 88be
000003f0: b5ef 883d b4d2 e43d 5139 353e 2d87 8cbe
0.041594632 0.045721978 0.22672924 0.24583057 0.28386122 0.10723579 -0.20795676 0.1565507
0.16993858 0.31886217 0.07079869 0.18060233 0.31430474 0.22699971 0.13309692 0.03784688
0.024078721 -0.14139073 -0.021251189 0.3539704 0.068822324 0.16124968 -0.051054873 -0.22200179
-0.07020884 0.3351133 0.16695409 0.16382514 -0.1199859 0.21399944 0.04847931 0.13595861
0.083829746 0.03465063 -0.15237156 -0.18394428 -0.19354402 -0.1295067 0.19843294 -0.23875615
-0.092803404 -0.10651226 0.27341208 -0.19987749 0.03480714 -0.14397709 -0.15737535 0.020676104
0.0065194727 -0.06648 0.03598621 -0.08080708 -0.18255866 -0.067003824 -0.2019618 -0.17822796
0.24229231 -0.22580512 -0.16328202 0.036948647 0.30279788 -0.21414588 0.094359346 -0.21702243
-0.029601134 0.10403918 -0.3262195 0.11661054 0.0681754 -0.03715799 -0.31383157 0.0729796
0.14952043 -0.28994384 0.21697561 0.26352876 0.16822089 -0.15988925 -0.015659742 -0.15984915
-0.171106 0.19371419 0.27742395 0.14310755 -0.22731672 0.23107821 -0.115778476 -0.31781018
0.13566278 -0.35596696 -0.19340175 0.0076832473 0.0031255048 -0.025723333 0.060769096 -0.31092146
-0.20684712 -0.33900392 -0.15081199 -0.19566151 -0.31476656 -0.02226804 0.21439314 -0.09586559
-0.04523516 0.128888 -0.01800491 0.11365874 -0.2904148 0.121102855 -0.120604396 -0.055005956
0.2642522 -0.28471252 0.21288514 -0.15041775 -0.2968486 0.016533684 -0.02257571 -0.06629819
0.045844544 0.24321355 -0.3076153 0.13751224 -0.27190426 0.124862425 -0.23085524 0.24114282
0.047149666 -0.15270339 0.25718284 0.25224775 -0.37388662 -0.05945579 -0.30929926 0.15968676
-0.22626208 0.120626025 -0.10767648 -0.05845087 0.13850379 -0.30064154 -0.17756583 -0.06761806
-0.16178557 -0.34596232 -0.047168497 0.17991853 0.18754287 -0.08880384 0.1315259 0.0474399
-0.31044248 -0.11111286 -0.019384956 -0.20705457 -0.085769586 -0.1873107 0.31526825 -0.28273088
0.0026793145 -0.16638279 -0.31919497 -0.010295791 0.046458784 0.2953619 0.3115741 -0.021277362
-0.061499774 0.19065869 0.080730386 0.11628479 0.21363473 0.055312265 -0.27715695 -0.14168712
-0.19267334 -0.14232324 -0.29947415 -0.21869335 0.15438591 -0.10120701 0.16626832 0.20802215
-0.10635442 -0.26252455 -0.052476026 -0.016556324 0.13733539 -0.24010867 -0.29792345 0.27999347
0.15269361 0.23439547 -0.24571641 -0.11775638 0.21447366 -0.21340327 0.074827746 -0.28977486
0.10225543 -0.26308498 0.21945181 0.1049912 -0.04402757 -0.1586408 0.03489442 -0.23102392
0.18807334 -0.24523275 0.29305324 -0.20972712 -0.09122075 -0.27399525 -0.16939831 0.1504432
-0.070138715 -0.18528926 0.3007041 0.07841915 -0.074723795 -0.06251665 -0.29411834 -0.23599832
0.034786798 -0.1325146 0.18090108 0.21485527 0.20734842 0.02507435 -0.26146394 0.22324044
-0.20819919 -0.31512246 -0.08570937 -0.28608292 0.01676969 -0.051465373 0.0086496025 0.100965835
0.057460893 0.057694994 -0.3448699 0.20264478 0.16747265 -0.32638806 0.05920738 0.29274058
0.08513278 0.009523312 -0.2348202 -0.26612478 0.066863455 0.11173001 0.17697646 -0.2744688

model/building_output/MatMul f4 [3, 64]
00000000: bd2f a53c c558 453e b9fd f6bd 6070 8e3d
00000010: 51f7 113e 882e 743e 6994 193e 32ff 723e
00000020: 208b 17be 07a8 5f3e 4d37 263e 0b09 8dbe
00000030: 98e8 d73d 4c62 3ebc a975 103e 463e 8abd
00000040: 5435 95be b911 37bd 3805 d13d 2cec 2bbd
00000050: ed2a 813e b39b c3bd 11c8 64bc 173c 803e
00000060: 625b 9a3e 3745 503e b845 40be b88b 463e
00000070: 0dbe 7abd c933 b9bd 0719 a13d 0c08 0a3e
00000080: 5d73 84be b408 81be f8c3 773e 5420 3fbe
00000090: 5ad8 94be b1e6 d2bd 0c9d 4ebe 923a 88be
000000a0: 2dd9 823e 151a a73e 0e1a e8bd 4970 1a3e
000000b0: 10b8 87be 6d13 a23d b843 c53d ffbe 3ebe
000000c0: fb69 4e3e f79e 5cbe ba33 87bd d56a 623e
000000d0: 7e64 ecbd 2616 8e3e c457 b0bd 7c8f b03d
000000e0: 8d47 28be c4a3 08be 6c84 fcbd 12c0 8dbe
000000f0: 0672 763d 28bc e0bd d3cc 63be 3cb7 273e
00000100: f4cc 9f3d b3a1 4fbc a3b9 eebd 8f3d 893e
00000110: 65db 6f3e b3f7 9d3d f001 6bbe 1527 33be
00000120: 48fe 99be 6f97 92be a10f 84be 19a3 37bd
00000130: 6605 a43d f44e ae3d a462 403d c752 713e
00000140: 08c8 913d cef3 40be 7389 40be 8dfa 80be
00000150: 8904 aabd 8793 993e 5341 6d3c 8a23 d9bc
00000160: 84a4 8f3e fb5a c63d 1fd9 81be e2b4 d53b
00000170: 466a 96be 0a5b 55be 47be 713e cb55 2b3e
00000180: 07aa e9bd abd6 0cbe 048d 7d3e 5bc3 68be
00000190: 0db5 a13e 0f05 a2be a4f0 e03b acae 873e
000001a0: 3445 5cbe 6b5d 0e3d 5553 5dbe f020 6c3e
000001b0: 2f98 2a3e 5d9c 3b3e 18e9 60be 5126 af3d
000001c0: 18f9 6f3e e395 12bd 01ee 0f3e 6ead a8bc
000001d0: d1b5 afbd 4b17 a43e 7ae4 7a3e f630 cabd
000001e0: ca48 8e3e 99d0 593e 99b9 233e 4790 cbbd
000001f0: 1c85 5a3e 046a 37bd ab0c 79be 45fe 12bd
00000200: 6fb1 493e d4cd 87be 91c8 463e 978a 893e
00000210: 0b9c 513d fe9b f7bc 3452 883e 1da4 323e
00000220: 3e1b b23d c07e e1bc 85a1 8abe c9b0 d93d
00000230: dc51 ae3c 16d8 7c3e dc77 4abd b585 9ebd
00000240: 8411 8d3e 8ce0 9bbd 33d2 ca3d 7766 6abd
00000250: ad69 8fbe 7581 a6bd a975 963e a6da 4cbe
00000260: 1abb 973d c404 603e 552a 0b3d 4349 2b3e
00000270: 2f14 ff3c 417d ff3d 8f99 713e e9bb 21be
00000280: 4a13 a13d dd48 18be ecb0 61be 34aa 813e
00000290: bb0f 4cbe 675d 6dbe 9d41 a03e d1da 53bd
000002a0: 9afc 533e 2bc5 e13d 2226 243e a2b2 cf3d
000002b0: 92c3 1b3d 93c1 db3d 82af 7fbe 8a0d d1bc
000002c0: ca6e 513e df95 103c 2411 8ebe 6741 4cbe
000002d0: 7790 523e d2a6 52bc ec45 513d 973e 97be
000002e0: 5dd3 4fbe a452 a6be 2d89 8dbe af92 9abe
000002f0: 5a7c 84be e3e0 403d 9684 333e f862 af3c
0.020164365 0.19272144 -0.120601125 0.069550276 0.142545 0.23845875 0.1499802 0.23730162
-0.14799166 0.21841441 0.16232033 -0.27545962 0.105424106 -0.0116201155 0.14107384 -0.06750159
-0.2914225 -0.044694636 0.102060735 -0.041973278 0.25228062 -0.09551182 -0.013963715 0.25045845
0.30147845 0.20338903 -0.18776596 0.19389236 -0.061216403 -0.0904308 0.07866102 0.13479632
-0.25869265 -0.25201952 0.2419585 -0.18664676 -0.29071313 -0.10297907 -0.20177096 -0.26607186
0.25556317 0.32637087 -0.113330945 0.15081896 -0.26507616 0.079138614 0.09632057 -0.18627547
0.20157616 -0.21545015 -0.06601663 0.22111066 -0.11542605 0.27751273 -0.0861049 0.086211175
-0.16433544 -0.13343722 -0.12329945 -0.276856 0.060167335 -0.10973388 -0.22246103 0.16378492
0.078027636 -0.012672829 -0.11656501 0.26804778 0.23423536 0.077132605 -0.22949958 -0.17495377
-0.30076814 -0.2863116 -0.25793174 -0.044833276 0.08008842 0.08511153 0.04696907 0.23566733
0.07118231 -0.18843004 -0.18802433 -0.25191155 -0.08301646 0.29995367 0.014480907 -0.026506204
0.28055203 0.09685322 -0.25360963 0.006521807 -0.29377955 -0.2083551 0.23607741 0.16731946
-0.11409383 -0.13753764 0.24760824 -0.22730772 0.31583443 -0.31644484 0.006864624 0.26500452
-0.21510774 0.03475706 -0.2161382 0.2305944 0.16659616 0.18321367 -0.21963918 0.0855223
0.23434865 -0.035787474 0.14055635 -0.02059051 -0.085796006 0.3204902 0.2450122 -0.0987262
0.2778991 0.2127098 0.15988769 -0.09939628 0.2133984 -0.04477884 -0.24321239 -0.03588702
0.19696592 -0.26524222 0.19412448 0.26863548 0.051174205 -0.03022575 0.26625216 0.17445417
0.08696602 -0.02752626 -0.27076355 0.10629422 0.021279268 0.24691805 -0.049430713 -0.07740346
0.27552426 -0.07611188 0.099033736 -0.057226624 -0.28010312 -0.08130161 0.29386643 -0.20005283
0.07408734 0.21876818 0.033975918 0.16727166 0.031137554 0.12475062 0.23593734 -0.15794338
0.07865007 -0.14871545 -0.22040147 0.25325167 -0.19927876 -0.23180161 0.3130006 -0.05172235
0.20701829 0.11023935 0.16030172 0.101414934 0.038028307 0.10730281 -0.24969295 -0.025519151
0.20452419 0.008824795 -0.27747452 -0.19946824 0.20562921 -0.012857156 0.051092073 -0.2953994
-0.20295472 -0.32484925 -0.2764372 -0.30190036 -0.25876123 0.04708947 0.17531046 0.021409497

model/attention_layer/MatMul_1 f4 [1, 128]
00000000: d679 2a3e 5578 c4bd 4890 193d 1984 e8bd
00000010: 87ed 40be fead 2cbe d47b cc3d a4ef 3abd
00000020: aaad 04be b892 afbd 9823 aa3c 00de 62ba
00000030: dcc2 a73d f812 c5bc 106b 1fbc 2085 9a3d
00000040: 123f 1a3e 122f 3d3e 9859 5b3e 6414 203e
00000050: 0abb 1c3e bde8 51be 4c68 9e3d 6e40 55be
00000060: 2362 23be 3673 543e ba51 9ebd 6473 3b3e
00000070: 8e39 0d3e d005 893d 4804 f73c e0ca 50bd
00000080: 5851 8dbc 4ebd e7bd a249 253e a5db 2cbe
00000090: 3054 07be 90fc 2fbc 1a93 523e 6e29 533e
000000a0: f84a 073d a043 76bd 6646 33be a96a 2abe
000000b0: 7ccf d03d 5005 3c3e fa1d 38be 7667 15be
000000c0: 1017 7abd 003e 733a 2200 153e 50ea 823c
000000d0: 602f 67bd 9858 6d3d 4e00 a5bd e4df 903d
000000e0: 9038 80bd 847b 44be a8f8 503d 9e7a 303e
000000f0: 5e5e 303e 5e38 f9bd 96b0 02be 6e78 3b3e
00000100: 80fe 023c 0894 d33d 80ae c13d 8b5a cabd
00000110: 9c1c cc3d 7c98 bb3d 9039 abbd 9e7d 193e
00000120: 0807 c03c 1c97 4e3e 09ac 4abe 9885 c23c
00000130: 4097 c93d 3236 103e b729 30be 56b1 e2bd
00000140: d496 7dbd 98c6 693d d4fe 09be 82d7 29be
00000150: 40b7 10bc 9766 17be a05f 3c3d b0fb 8bbd
00000160: bb63 1abe 4d66 23be 1462 d7bd 4465 173e
00000170: 7a8c 50be f019 b23d cc6c 063e 60f2 59bc
00000180: e820 393e fc05 3abe 72c4 8cbd f133 e4bd
00000190: 340b 983d c07e 34be 5437 46be 6451 4f3e
000001a0: 78e5 f73d a68b 37be 9934 14be 8ce9 95bd
000001b0: 78ce 203e 5610 9dbd 6d02 32be c60c 033e
000001c0: 7e1e b1bd b0b2 3e3d 1036 a63d 9c71 913d
000001d0: c4b3 f73d 7e0f fabd 5e3b ccbd f057 203e
000001e0: 6041 343e d3ad 40be 8ce4 cd3d 6a04 083e
000001f0: 0039 0bbd d0e3 fa3d c0a5 623d 26ed 3e3e
0.16648039 -0.09593264 0.037491113 -0.11353321 -0.1884061 -0.16863248 0.09984556 -0.045638695
-0.12956873 -0.08572906 0.020768926 -0.00086542964 0.08191463 -0.024056897 -0.0097301155 0.07544923
0.15063122 0.18474987 0.21420896 0.15632778 0.15305725 -0.20498939 0.07734737 -0.20825359
-0.15955405 0.20747074 -0.07730432 0.18305737 0.13791487 0.06690562 0.030153409 -0.050974727
-0.017250702 -0.11315404 0.1614137 -0.16880663 -0.13215709 -0.010741368 0.20563927 0.20621273
0.03303048 -0.060123086 -0.17507324 -0.1664225 0.101958245 0.18361402 -0.17980185 -0.14590248
-0.06105715 0.0009278953 0.14550832 0.01598087 -0.056441665 0.057945818 -0.08056699 0.07073954
-0.062607884 -0.19187742 0.051018387 0.17234275 0.17223498 -0.12168954 -0.12762675 0.18307659
0.007995248 0.10330969 0.09457111 -0.09880551 0.09966394 0.091599435 -0.083605886 0.14989325
0.023440853 0.20174831 -0.19792189 0.023745343 0.09843302 0.14083174 -0.17203413 -0.110689804
-0.06191142 0.05707416 -0.13476115 -0.16586116 -0.008832753 -0.14785229 0.045989633 -0.06835115
-0.15077107 -0.15956993 -0.10516754 0.14784724 -0.20366088 0.086963534 0.1312744 -0.013302416
0.18078959 -0.18166345 -0.068734065 -0.111427195 0.07424012 -0.17626476 -0.19357044 0.20245892
0.121043146 -0.17924365 -0.1447319 -0.07319936 0.15703762 -0.076691315 -0.17383738 0.12797841
-0.08648394 0.04655713 0.0811578 0.071017474 0.120948344 -0.12209986 -0.09972261 0.15658545
0.17603064 -0.18816309 0.100533575 0.13282934 -0.033989906 0.12250483 0.055333853 0.18645152

model/building_output/BiasAdd/ReadVariableOp f4 [3]
00000000: 6585 be3c fcd8 cbbc 8f8d b2bc
0.023256967 -0.02488374 -0.021796016

model/dense_2/BiasAdd/ReadVariableOp f4 [128]
00000000: 9822 553c e567 0c3c d507 723c c291 2f3c
00000010: 8ad0 c6ba b272 e53c fe5a 033d 116d f8b8
00000020: 71fb 8a3c ade2 e83c 1ec5 57bc 88dc 163c
00000030: 580c a03b 0a4f 423c f445 a13a 1050 023d
00000040: 05fa 9cbb 4d39 f93c 0821 423c 1adc 7f3b
00000050: 8398 ff3b a7fa 883c 601f 533c cc4c 87ba
00000060: d9df 933c adc5 1dba 7c4c ecbb 0c1b 243b
00000070: 1992 26bc b1ba 93bb 8bb0 583c dfe2 82ba
00000080: 5a89 15bb cc1f 583c 416c c5bb 953b 243c
00000090: fa43 d13c 7fed 053c 49df 60bc 1edc 943c
000000a0: 8dfc f83c bc58 293b 81c7 6a3c 2d08 1e3d
000000b0: bfc6 a33c 73b5 ab3c bbb0 963b 7998 7e3c
000000c0: 2eca b33b 96ed 8b3b 9784 523d c692 043c
000000d0: 1908 dd39 d918 90bc cf45 9a3c 849c 96bb
000000e0: cbb2 ab3c 67e0 a739 601f 0e3d 8aba f53b
000000f0: 0cd5 fd3b 111b e93c 1941 ae3c 49c0 9b3b
00000100: 7ff3 773c 9951 863b 29df d53b cfea 2d3c
00000110: 04b1 10bc bbde d13b e7b1 bb3c 7587 903c
00000120: dc73 f63c 0b12 733c 8507 063d 20f2 233c
00000130: a804 d03c cdc8 d63a 949c e13c 9577 b23b
00000140: b850 633c ef54 063d 1258 c53b 9f06 cd3c
00000150: 7707 223c 2d7f 1a3c d5e9 213a 09da 313c
00000160: 54ca 5c3c 6f99 073c bc60 ca3c ed72 d53c
00000170: 0202 043c 511f b03c 92a7 02bc 48d9 0b3d
00000180: a4b1 8739 2f46 a63b b6e4 f43a e683 4d3c
00000190: 06df 603c 7aba 25bb 84eb 733c 7453 c13c
000001a0: ea5f 963c b882 283c 0963 923b 08d2 3dbc
000001b0: 4978 283c 3a0d a63c db26 833c 3d6b 10bc
000001c0: 81f1 9c3b 8ff1 8a3c 05d9 783b eaad bf3c
000001d0: 5e02 bbbb ea6a ecbc 5bfd d03c b3a0 b63c
000001e0: c2ae 633c 5d20 003d 301c 913b 3998 f13b
000001f0: 5e46 423c efe1 91bc 05f8 a33c 6076 88bb
0.013008736 0.008569692 0.014772375 0.010715904 -0.0015168351 0.028008793 0.0320692 -0.00011845877
0.0169656 0.0284284 -0.013169555 0.009207852 0.004884284 0.011859665 0.0012304173 0.031814635
-0.004790547 0.030422831 0.011848696 0.0039041103 0.0078001632 0.016721083 0.012885898 -0.001032257
0.018051075 -0.00060185307 -0.007211266 0.0025040535 -0.010166668 -0.0045083393 0.013225685 -0.0009985826
-0.0022817464 0.013191175 -0.0060248678 0.010023971 0.025545109 0.008174299 -0.01372511 0.018171366
0.030393863 0.0025840243 0.014329792 0.038582016 0.01999223 0.020960545 0.0045987046 0.015539282
0.005486748 0.004270266 0.05139598 0.008091634 0.00042158438 -0.017589973 0.018832115 -0.004596295
0.020959279 0.00032019915 0.03469789 0.007499044 0.0077463444 0.02845529 0.021271275 0.004753147
0.015133738 0.0040990827 0.006526847 0.010615065 -0.008831266 0.0064047254 0.022911979 0.017642716
0.030084543 0.014835845 0.032722015 0.010006458 0.025392845 0.0016386748 0.027540483 0.005446384
0.013874225 0.032795843 0.0060224617 0.025027571 0.009889475 0.009429735 0.0006176506 0.010855206
0.013475973 0.0082763275 0.02470433 0.026055777 0.008057119 0.021499308 -0.007974522 0.034142762
0.0002588156 0.0050742845 0.0018683884 0.012543654 0.013725048 -0.002528815 0.014887694 0.023599364
0.018356282 0.010285072 0.0044673723 -0.01158572 0.0102825845 0.020269979 0.016009739 -0.00881463
0.0047895317 0.016960887 0.003797115 0.023398358 -0.0057070693 -0.028859574 0.025511434 0.022293424
0.013896646 0.031280864 0.004428409 0.0073728827 0.011857597 -0.017807929 0.020015726 -0.004164502

model/dense_4/BiasAdd/ReadVariableOp f4 [128]
00000000: 2220 993b 92a8 ab3b 57ef d3bc beb6 80bc
00000010: da3c 0f3c 264d 3d3c edfb 18bc dbe7 923b
00000020: 505a e13c 7259 593c 0515 fbb9 af02 68bc
00000030: abea d73c ddbb 253b 1446 bf3a 3195 223b
00000040: 061f c63c 7f57 663b e546 373c ec14 383c
00000050: e79c a63c 39af d83c 0a4f 3eb8 1730 813b
00000060: 7e51 cb3c 364f dbbb c4d1 c63c 92fc 8f3c
00000070: 303f 1f3b 244e 39bc 68de 2abb 1863 bb3c
00000080: 3f7f b3bb ab9d 563c 8db7 ab3c d930 d43b
00000090: 5f32 ac3b 9c60 3dbc 2b28 50bc d16f 9fba
000000a0: e2a2 a63a 9bd2 cb3a d52c c1ba f9c7 073d
000000b0: 78f7 6c3c b152 863c e35f 8b3c e563 b83b
000000c0: 5aba 1abc 96b1 b639 d9e5 c93a 2059 8e3c
000000d0: 4c8c c639 d928 103c b107 90bc 5e25 fe3b
000000e0: 82ef 92bc 9f25 223b 100d e43c 329e fb3b
000000f0: 061f bdbb c5d6 a63c f471 9abb d804 973c
00000100: dff1 e13c 2732 993c 9772 f43c e369 bc3c
00000110: a503 e23a 9faa 9fbb 1e61 e53b d22d 893c
00000120: 5155 683c b8d0 df3c 03ea 413c a16b a0bc
00000130: 65cb e93c 75db 0f3d 2eed cf3b 7c87 30bc
00000140: 2bff 813c 2d96 523c 72b9 183c 5a88 fc3c
00000150: b53a 963c 3edd fc3c 12ab 31bc 968e 9b3c
00000160: b17b 323c 675b 463c 3367 0f3d 2014 9a3c
00000170: 18b4 363c c0ff f83b 6f3d 95bc e1c4 d0bb
00000180: 0aba 243d 629d e03c 8e67 953c dc19 4e3c
00000190: 07c1 923b 1d1d 3cbc 14f1 f43a d18c 98ba
000001a0: d908 aa3c b3ee 25bc 8c0e 083d 55c7 be3c
000001b0: 29f0 cd3c 8dcf c33c 179b 7a3c 7d3b d43c
000001c0: f099 973c 3ee6 9ebc 5a33 2e3c 19a5 15bc
000001d0: 6569 47bb 0576 3d3c b485 8b3b bbfc 0b3b
000001e0: 430b f43c b53e fc3b 91b9 d13c 93ac 053c
000001f0: 120c 693c c171 553c 3e1f deba c519 193d
0.00467302 0.005238601 -0.025870962 -0.015712138 0.0087425355 0.011554038 -0.009337408 0.0044832057
0.027508885 0.013265954 -0.0004789011 -0.014160796 0.026357016 0.0025288977 0.0014593028 0.0024808163
0.024184715 0.0035147367 0.011186336 0.011235457 0.020338489 0.02645074 -4.537314e-05 0.0039425003
0.024819132 -0.0066927923 0.024269946 0.01757649 0.0024299137 -0.011310134 -0.0026072506 0.0228744
-0.0054778154 0.013099114 0.020961547 0.0064755497 0.005255028 -0.011558678 -0.012704889 -0.0012164061
0.0012713338 0.0015550436 -0.0014738092 0.033149693 0.014463298 0.016396852 0.017013496 0.0056271427
-0.009443844 0.00034846057 0.0015403583 0.017376482 0.00037870032 0.008798801 -0.017581793 0.0077559194
-0.017936472 0.0024741662 0.02783826 0.0076787705 -0.0057715205 0.020366082 -0.0047132913 0.018434927
0.027581153 0.018700672 0.029839797 0.02299971 0.0017243518 -0.0048726345 0.0070001027 0.016745482
0.014180497 0.027321205 0.011835578 -0.019582571 0.028539369 0.0351214 0.0063454127 -0.0107744895
0.015868744 0.0128531875 0.009321557 0.030826736 0.01833854 0.030867215 -0.010844009 0.018988889
0.010893748 0.012106753 0.035010528 0.018808424 0.011151336 0.007598847 -0.01821777 -0.006371126
0.040216483 0.027418796 0.018237855 0.012579408 0.004478577 -0.0114815505 0.001868757 -0.0011638646
0.020756172 -0.010127711 0.033216998 0.023288408 0.025138931 0.023902679 0.015295765 0.025907272
0.01850602 -0.019396897 0.01063236 -0.009133601 -0.003042781 0.011563783 0.004257882 0.0021360356
0.029790526 0.007697905 0.02560118 0.008158821 0.014224069 0.013027609 -0.0016946567 0.03737809

model/dense_6/BiasAdd/ReadVariableOp f4 [128]
00000000: 79d9 f23c ff41 efbb c943 63bc ed82 133c
00000010: f630 73bb bad6 e83a 3cbd b9ba 311c 073c
00000020: 77e9 503c bfc3 d83c 7ac0 79b9 6332 55bb
00000030: a06a 153c 5899 893c bcfc d53c c877 92ba
00000040: c225 9f3c 39e8 acbb 7657 cebb eede 923b
00000050: a892 ab3c b1ab 73ba 7c13 b23b 6378 4b3c
00000060: 9f71 3d3c b941 39bc 510f c73c 23e4 423c
00000070: b292 8dbb ebd3 073d 0b47 4b3b e691 b43c
00000080: 6f25 ee3b 184c 723c 8a36 083d 15d5 5c3c
00000090: a5bc 723c 3be6 fb3a 3a5d ad3b 58d0 883c
000000a0: e207 153d 95fe 103d d352 313c 500b c0bb
000000b0: 51a4 d03c 2dbb 5c3b 22d9 be3c 4835 e03c
000000c0: ead5 4b3c 9404 8b3c 7c22 2abc fae8 063b
000000d0: 754f 583c 5965 e83b 632a 8e3b 5a65 c63c
000000e0: 92c9 463c 1aba 223c 6882 133c 0fd6 36bc
000000f0: 695e 483c 28b2 e83c 59c6 f5bb b451 0e3c
00000100: 5d9c 5b3a d0b9 273c 32a1 cb3b cc6f 763c
00000110: 657c 6ebb edb0 a7bc 14a2 bf3b e3d2 ba3c
00000120: 4589 013d 93fd ceba 2688 613c 2a4e e93b
00000130: 64db f23c dfa8 4a3c c0e7 963c c3d1 04bc
00000140: a4ba 653c 854b f13b 6486 8a3c 5ff3 a63c
00000150: d684 be3c 680d 573c 34fe fbba 8f24 623c
00000160: 5775 933a 75c9 ec3c 90b5 053c 95d0 1b3c
00000170: c621 833c c8c6 e73b ac2e 213c b419 c53b
00000180: 25a0 123c 1b77 463b 6f51 66bc 43ed 573c
00000190: 1730 283d ec91 acba f8eb 303c d809 043c
000001a0: 9f2e 1e3c f8ac 943c 343e d23c c671 dd3b
000001b0: bfcb bcbb c2da 49bc 8872 043d 9a6a af3b
000001c0: e98a 113c e5cc 083d 6d6c 5e3a 5c0c 7fbc
000001d0: f018 913c 8d44 74b9 0607 f7b9 d199 42bb
000001e0: 4adb b13c 6ca3 fe3b 5395 1e3a eb31 39bc
000001f0: 8cfe 553c 0ae0 6dbc 401d f43c ee8a aeba
0.029644715 -0.0073015685 -0.013871142 0.009003383 -0.003710804 0.0017764189 -0.0014170776 0.008246467
0.012750975 0.026460527 -0.00023818194 -0.0032531254 0.00911966 0.016796753 0.02612149 -0.0011174614
0.019427184 -0.0052767065 -0.0062970472 0.0044821417 0.020943955 -0.00092952984 0.0054344516 0.012418839
0.011562734 -0.011307173 0.024299296 0.011895212 -0.004320466 0.033161085 0.0031017687 0.022042226
0.007267646 0.01478865 0.033255138 0.013478537 0.014815484 0.0019218394 0.0052906545 0.016700909
0.03638447 0.03539904 0.0108229695 -0.0058607236 0.025468977 0.0033680901 0.023296896 0.027369156
0.012441138 0.016969956 -0.010384198 0.0020585642 0.013202538 0.0070921597 0.004338549 0.02421825
0.012133019 0.009932065 0.009003259 -0.011159434 0.01222954 0.028405264 -0.0075004515 0.008686472
0.0008377487 0.010237172 0.0062142843 0.015041303 -0.0036390063 -0.020470107 0.0058481786 0.022805637
0.03162505 -0.0015792124 0.0137653705 0.0071199136 0.02964563 0.012369364 0.018421054 -0.008106652
0.014021549 0.007363739 0.016909786 0.02037972 0.0232567 0.013125755 -0.0019225539 0.013802662
0.001125018 0.028904656 0.008160964 0.009510179 0.016007315 0.007073257 0.009837788 0.006015027
0.008949314 0.0030283395 -0.014057501 0.013179126 0.041061487 -0.0013166047 0.010798447 0.008058988
0.00965467 0.018148884 0.025664426 0.0067579476 -0.005761593 -0.012320222 0.032335788 0.005353284
0.008883216 0.033398528 0.00084847846 -0.015566912 0.017712086 -0.0002329519 -0.00047116744 -0.0029693733
0.02171101 0.0077709462 0.0006049473 -0.011303405 0.013061177 -0.014518747 0.029799104 -0.0013316551

model/dense/BiasAdd/ReadVariableOp f4 [256]
00000000: bebc 84bc 25c4 203c 9d9e cd3b 68a2 b33c
00000010: ee44 863c 6fa6 1f3d 3935 033d 0e6e 77bb
00000020: 21f7 883c 3409 b33c 8b5f cf3c f8f8 c4bc
00000030: 66a0 05bc 8496 9e39 eede 413b 03bb 36bc
00000040: 14f7 04bc fbd6 88ba ce2f 8c3b 1bd5 9a3c
00000050: d364 1c3d 1047 eb3a 4628 173c 065c bb3c
00000060: 02d6 6e38 6a06 113b 8dab 2dbc 08f0 55bb
00000070: 7b6e 353c 12bc fb3b 0388 f13b d5f4 6cbc
00000080: 68f5 0aba 9d23 d63c c6bf 2e3d 643c 7dbc
00000090: 811c dcbb e6c3 a33c 75cc e8bb c4a3 7dbb
000000a0: 9eaa f3bb fcd8 3d3c 42ad ba3a 5581 923c
000000b0: ae8d a33b a420 573d b570 1ebc a8b0 4b3c
000000c0: 4649 75b9 6dbd 36bc 06d4 2a3c 4325 2d3b
000000d0: e1d1 1d3c 6b71 c4bc ccae f6bc bd32 353c
000000e0: efa2 99ba 497f 51ba 47ba fa3c 5901 0b3c
000000f0: 9611 3dbc e54d 5d3c f0dc 903c 26fb 143c
00000100: db77 813c ce72 853c 212a 0d3c 6da3 0a3c
00000110: 916d 2b3c bce0 573b 05fc 3e3c 621f 823c
00000120: 00df 5abc cd95 cd3b 2b9b 2bbc 3805 dbbb
00000130: 10de 823c fb10 053c 82d0 acbb 7ae7 163d
00000140: bf39 d7bc 46fa b83b 3700 993c acce ef3c
00000150: eb32 983c 2499 f3bb 3416 c8bb 9a00 2b3c
00000160: 224d 0ebc d41c 0abd f3e5 973c d088 a73a
00000170: 04c3 633c c398 70bb 8bd7 d1b9 bb75 2ebc
00000180: a720 5c3c c4c4 613c 79ab 35bc c414 5ebb
00000190: 843a 0b3d c932 913b e4d7 363a b95b 3e3a
000001a0: b248 7ebc 03d4 823c 366a 43bc 561e 0d3a
000001b0: 8ca6 5bbc 42c6 e33c e417 e7ba b111 283c
000001c0: bd0c 273d ea7e ebbb 3921 d23c 850c d03c
000001d0: e024 343b b94d 083c 25e1 793d 738e aabc
000001e0: 814e 933c c18a 203d a39f cdbb 48ad fc3c
000001f0: ab8c 4a3b d3ea 04bc 5b81 023b c5ee 06bc
00000200: ed9b 263c 621b 6ebc e0d7 f5b9 4866 40bb
00000210: ab32 91bc 69eb c23c cc74 c93b 8fc3 36ba
00000220: d6b2 7b3c 1bd7 923c ea32 123c 45dd 073b
00000230: 450f 5bbc e5aa b23b 71a3 0b3c d488 7fba
00000240: adcc 063c b9e8 a1bb dfa1 09bc 99b8 db3c
00000250: a8df a43c ec81 a33b dc17 da3c 4f20 213d
00000260: b8a2 893b 2a41 553a 089f 683c 91e5 8ebc
00000270: bb33 01bc 28e0 fc3a 3673 4abc 00e4 d33a
00000280: 3409 fcbb db6d 65bc 41ac 67b9 04de e9ba
00000290: cccc 703c ce79 223d 93a1 d6bb 7b08 383c
000002a0: da44 9c3a 32b4 0c3d 8fbf dd3c 9c86 a03c
000002b0: 2c87 233c dba5 b63c 9df0 9d3c 4829 40ba
000002c0: cd36 2c3c 3c84 5b3c d81c 433c 12d7 003b
000002d0: f59b 83b9 8910 4abb 509d b03c 4504 b63c
000002e0: 0208 f53c 7959 3ebc 5a7c fbbb cce9 e73a
000002f0: 13f7 753c 4248 c83c 4bed cf3a 874f 803c
00000300: b023 f1ba 435d bc3b e938 3e3c 3ab3 793c
00000310: 30c7 32bb 2f65 203d b2ba e33c c89c 2dba
00000320: 1bba c63c 8458 4c3c d69b 94ba be33 bb3b
00000330: c307 033c 5d9f ca3b 2131 843c 22b7 d5ba
00000340: d73d 0cbb 9d14 153a 5bbc b73c 1f54 043c
00000350: 3918 4bbc 97c3 7f3c 515a abbc 1420 413b
00000360: dcc1 6fbc 30f8 c73a ddcf eb3b 55e0 063c
00000370: 7f70 923c 7ff2 c63c 70ae c33b c47c 0e3c
00000380: 9acb 20bc 0c5d 8ebb 7470 1bbc 2a48 43bc
00000390: 659e f03b 4baf ea39 ea8c cf3c 79a1 b2bc
000003a0: 23ed 833b e589 a339 9bcf 88bb 2de3 f2bc
000003b0: d6d6 46bc 5f68 a7ba 0f56 c539 fd36 06bc
000003c0: 813f 8b3c af51 ebba d61a a23c 86a7 6d3b
000003d0: bff4 14ba f590 c0bb 8dcf ea3c 579a e2bb
000003e0: 8940 adba b404 81bc b1b4 c5bb b67d 6b3c
000003f0: 3137 403c 8be5 f33c 2474 d53c 6afd 213b
-0.01620328 0.0098123895 0.0062750117 0.021928027 0.01639029 0.038977083 0.03203318 -0.0037754807
0.016719403 0.021854974 0.025314113 -0.024044499 -0.008155918 0.0003024825 0.002958234 -0.0111529855
-0.008115549 -0.0010440046 0.0042781597 0.018900445 0.03818209 0.0017950255 0.0092259105 0.022871029
5.6942932e-05 0.0022129067 -0.010599983 -0.003264429 0.011073704 0.007682332 0.00737095 -0.014462669
-0.00053008506 0.026140029 0.04266336 -0.015456293 -0.006717265 0.019990873 -0.0071044513 -0.0038702348
-0.0074361106 0.011587378 0.0014242309 0.017883936 0.004991255 0.052521363 -0.009670426 0.012432255
-0.00023392317 -0.011153561 0.010426527 0.0026419915 0.009632559 -0.023979863 -0.030112647 0.01105946
-0.0011721532 -0.0007991684 0.030606402 0.008484208 -0.011539837 0.013507341 0.017683476 0.009093082
0.015804222 0.016290095 0.008616001 0.008461815 0.010463134 0.0032940349 0.011656766 0.015884105
-0.013358831 0.006273961 -0.010474007 -0.0066839717 0.015975028 0.008121724 -0.0052738795 0.036841847
-0.026272653 0.0056450693 0.01867686 0.029273354 0.018578967 -0.0074340273 -0.0061061624 0.010437155
-0.008685382 -0.0337189 0.018542266 0.0012781862 0.013901476 -0.0036712147 -0.00040024178 -0.010648186
0.013435519 0.013779823 -0.011088246 -0.003388689 0.03399135 0.004431103 0.0006974919 0.00072615925
-0.015520262 0.015970236 -0.011927178 0.00053832436 -0.013406407 0.027804498 -0.0017631021 0.010258124
0.040783633 -0.00718676 0.025650607 0.025396595 0.00274878 0.008319312 0.06100573 -0.020819878
0.01798177 0.039194826 -0.0062751337 0.030844346 0.0030906599 -0.008112627 0.0019913528 -0.008235638
0.010169012 -0.014532896 -0.0004689088 -0.002935784 -0.017724356 0.023793893 0.0061479565 -0.00069718895
0.015362462 0.017924836 0.008923272 0.0020731252 -0.01337034 0.005452501 0.008522854 -0.0009747867
0.008227509 -0.004941073 -0.0084004095 0.026821421 0.020126179 0.004989853 0.026622705 0.039337453
0.004200306 0.00081350154 0.014198072 -0.01744345 -0.007885869 0.0019292878 -0.01235657 0.0016165972
-0.007691527 -0.014003242 -0.00022094046 -0.0017842655 0.014697265 0.039666943 -0.006550023 0.011232491
0.0011922375 0.034351535 0.027068881 0.019595437 0.009980958 0.022295883 0.019279772 -0.000733037
0.010511112 0.013398226 0.011908732 0.0019659442 -0.00025102464 -0.003083261 0.021559387 0.022218833
0.029911045 -0.011618012 -0.007674736 0.0017693578 0.01501252 0.024448518 0.0015863565 0.015662922
-0.0018397477 0.0057484224 0.011610248 0.015240485 -0.002727937 0.039158996 0.027798984 -0.00066227885
0.024258664 0.012472276 -0.0011337947 0.0057129553 0.007997456 0.0061835484 0.016136708 -0.0016305188
-0.0021399164 0.00056869705 0.022428682 0.008076697 -0.012395912 0.015610597 -0.02091709 0.0029468583
-0.014633622 0.0015256461 0.00719641 0.008232196 0.017875908 0.024285553 0.0059717223 0.008696739
-0.009814167 -0.004344588 -0.00948726 -0.011919061 0.007343101 0.0004476256 0.025335748 -0.021805512
0.0040260716 0.00031192522 -0.004175139 -0.029649341 -0.012136182 -0.0012772194 0.00037638887 -0.008191821
0.016998054 -0.0017953421 0.019788187 0.0036263182 -0.0005682222 -0.005876655 0.028663421 -0.0069153714
-0.0013218086 -0.015749313 -0.006033503 0.014373234 0.011731909 0.02977254 0.026056357 0.0024717697

model/floor_output/BiasAdd/ReadVariableOp f4 [5]
00000000: 1850 873d 0cf9 17bb dce3 a3bd 509e 15bc
00000010: 886b 4fbd
0.066070735 -0.0023189215 -0.08002445 -0.009131983 -0.05063966

model/position_output/BiasAdd/ReadVariableOp f4 [2]
00000000: c400 8a3c b3d9 993c
0.016846068 0.018780565

model/batch_normalization_1/batchnorm/mul f4 [256]
00000000: a27b 8a3f cc4d 8c3f 119d bf3f beb8 a83f
00000010: 2a10 903f d6ea 723f b2e4 bc3f 7fe8 a53f
00000020: 777e 7c3f c355 d53f 1547 a03f a7ee ad3f
00000030: e4f2 9a3f d498 b23f 200e a63f b62d 8f3f
00000040: b3e3 9e3f 28b7 923f bff0 af3f 2f07 b13f
00000050: 17ed b13f c01f b33f fe07 b23f 6095 a83f
00000060: 3a67 803f 63f5 933f b0a5 af3f efc3 9d3f
00000070: b5ab a13f dbae bc3f be2f 9a3f 09cf a33f
00000080: 2a21 9f3f 810e 643f 6baf 993f 5a57 973f
00000090: 6935 bb3f 0d12 983f 1adb 853f 3643 873f
000000a0: 3608 8b3f ee53 bb3f 6f64 803f d9b5 953f
000000b0: c748 993f ab4b a13f 23a3 483f 1528 a13f
000000c0: 5bc0 693f 65c0 af3f 343e b13f 8a71 7c3f
000000d0: 9d0d a23f b7c1 b93f 7526 b23f e29d 5f3f
000000e0: b91c 983f aeab b03f 79a3 c63f 83ae 813f
000000f0: 1e94 a13f c0dc aa3f a859 9b3f 7a9f a93f
00000100: 500d 8b3f 5422 a43f 58c2 b43f f7b0 a43f
00000110: b5ad 8b3f 956f a53f 9a22 cb3f b86e 7e3f
00000120: c379 b63f 8045 a43f c233 b83f e2bf a23f
00000130: f296 9d3f bc02 b33f 6ea6 8d3f 2086 b33f
00000140: ca6f 9d3f 9e38 8d3f 17e4 a43f a02d 9e3f
00000150: 7b6b 9a3f e13c 9a3f 29a0 8c3f 7fc6 a43f
00000160: 46ad a53f 319f b03f 7682 9a3f 3ebd 713f
00000170: 1dd0 8b3f f7bf 6f3f f41a ad3f cfe7 b83f
00000180: eeb4 b93f 27b8 a63f 7b60 8a3f a1fb a03f
00000190: fc03 873f 2549 9c3f e30e 913f 4b7c c63f
000001a0: c165 b13f 51d0 a93f 1103 a73f 78e4 a83f
000001b0: bf6f a13f 9119 ac3f 9b11 a33f 3084 963f
000001c0: a3d1 ae3f 3c0c 953f 1f32 623f c4a5 a23f
000001d0: a2ea a03f 9a30 9a3f d4bd a93f 18f8 ae3f
000001e0: bdb4 8c3f 9d45 b63f 5453 a13f 603c 713f
000001f0: 2b3c b23f 156d 7a3f 12b9 c03f 3a7c a13f
00000200: 38e8 773f 9c40 913f 6fa2 993f 5692 9f3f
00000210: 1b99 973f 50df 823f a1ea a63f ddd2 a53f
00000220: 88ca ac3f 913f 8d3f dee7 a13f af7a a63f
00000230: 8f92 953f 1219 8b3f 6456 7c3f d0f2 963f
00000240: 3d86 6a3f dcbc a13f a7ce c03f e03d 9f3f
00000250: 8b44 a03f d4f1 983f 8412 c23f a072 9e3f
00000260: 8017 973f 9065 913f 4065 a33f 0ea4 a83f
00000270: 4ef0 a53f 98e0 a83f 8c8b a03f 997c c33f
00000280: ebfe 8f3f 1e52 b13f 3422 8b3f d250 9e3f
00000290: 3e19 b13f 38d9 943f a8f0 b73f 7ba0 b33f
000002a0: 0f56 943f ff19 923f 5aaf ad3f 345f a83f
000002b0: 29dc bd3f c16a a13f 57d2 973f 98ca 823f
000002c0: 1390 a43f d466 923f 4192 9f3f 69e2 843f
000002d0: 8ab2 893f 7f57 a33f 2c37 9c3f b4f5 c53f
000002e0: 9212 9f3f acd7 af3f c742 a93f 54c0 833f
000002f0: f48a a23f 177c a23f e891 a23f 561c b53f
00000300: d1e0 a33f 637c a63f 0955 923f 4311 a53f
00000310: 2419 993f c1ab ad3f 41d2 c43f 6528 bd3f
00000320: 298c a83f 4303 ab3f 9d1f b53f e08c bb3f
00000330: 8f21 c53f 70f7 913f 6b8c ab3f f5c5 a13f
00000340: d7d8 8b3f 91b2 9f3f 9de4 b23f 571f c93f
00000350: 494d a03f 8c67 aa3f 3593 8e3f bee4 a13f
00000360: 0a6e a13f 0cbc a73f c646 a93f 1b40 b33f
00000370: 4e60 b63f f517 a93f 9bdf 913f ee06 a33f
00000380: ab15 963f 5b46 b33f 3911 9e3f 73f6 bc3f
00000390: 4a3d af3f 2cfb bc3f 52c2 a23f 58d2 c33f
000003a0: c889 803f d2c2 9e3f 2f41 9e3f c3c1 8d3f
000003b0: ffd7 aa3f 9102 c23f d843 913f ce68 933f
000003c0: 3d4a a13f 0c0d 8c3f e382 ac3f 03ea ad3f
000003d0: b1ca 973f c381 aa3f d6af ae3f fa27 af3f
000003e0: cef9 ab3f 9c2d be3f 7245 b63f a775 c63f
000003f0: c4d8 af3f 5df4 ac3f 3777 a13f 2a1e 9d3f
1.081898 1.0961242 1.4969808 1.3181379 1.1254933 0.9488958 1.4757292 1.2961577
0.9863047 1.6666797 1.2521693 1.3588456 1.2105374 1.395289 1.2973061 1.1185825
1.2413238 1.1462145 1.3745345 1.3830317 1.3900479 1.3994064 1.3908689 1.3170586
1.0031502 1.1559261 1.3722439 1.2325419 1.2630526 1.4740862 1.204582 1.2797557
1.2431996 0.8908463 1.2006658 1.1823533 1.4625674 1.1880509 1.045749 1.0567386
1.0861881 1.4634988 1.003065 1.169612 1.1975335 1.2601217 0.78373927 1.2590357
0.91309136 1.3730589 1.3847108 0.98610747 1.2660404 1.4512242 1.3917986 0.87350285
1.1883765 1.3802392 1.5518638 1.0131382 1.2623327 1.3348618 1.2136736 1.3251793
1.0863438 1.2822976 1.4121809 1.2866505 1.0912386 1.2924677 1.5869935 0.99387693
1.4255909 1.283371 1.4390795 1.2714808 1.231169 1.398521 1.1066415 1.4025307
1.229974 1.1032903 1.2882107 1.2357674 1.206405 1.2049829 1.0986377 1.2873076
1.2943504 1.3798581 1.2071064 0.94429386 1.0922886 0.9365229 1.352385 1.4445742
1.450834 1.3024949 1.0810694 1.2576791 1.0548091 1.2209822 1.1332668 1.5506681
1.3859178 1.3266698 1.3047811 1.3194723 1.2612227 1.3445302 1.2739748 1.175909
1.3657726 1.1644359 0.8835773 1.2706838 1.2571604 1.2046082 1.3261056 1.3669462
1.0992657 1.4239994 1.2603555 0.9423275 1.3924612 0.97822696 1.5056479 1.2616036
0.9683871 1.1347842 1.2002696 1.2466533 1.1843599 1.02244 1.3040353 1.2954975
1.3499308 1.1035024 1.2648885 1.300619 1.1685351 1.0867026 0.9856932 1.179285
0.9161108 1.263576 1.5063065 1.2440758 1.2520918 1.19488 1.51619 1.2378731
1.1804047 1.135912 1.2765274 1.3175066 1.296396 1.319354 1.2542586 1.5272399
1.124967 1.3853185 1.0869813 1.2368414 1.3835828 1.162879 1.4370317 1.403335
1.1588763 1.1414183 1.3569138 1.3154054 1.4832813 1.2610704 1.1861066 1.0218077
1.2856468 1.1437631 1.2466508 1.0381595 1.0757611 1.2761077 1.2204337 1.5465608
1.2427542 1.3737693 1.3223504 1.0293069 1.2698655 1.2694119 1.2700777 1.4149272
1.2802984 1.300671 1.1432201 1.2895893 1.1960797 1.356804 1.5376664 1.4777952
1.3167773 1.336037 1.4150273 1.4652367 1.5400866 1.1403637 1.3402227 1.2638537
1.0925549 1.2476369 1.3976017 1.5712689 1.2523586 1.331285 1.1138674 1.2647932
1.2611706 1.3104262 1.3224723 1.4003938 1.424814 1.3210436 1.1396364 1.273649
1.1725363 1.4005846 1.2349006 1.476271 1.3690579 1.4764152 1.2715552 1.5298567
1.0042048 1.2403204 1.2363642 1.1074756 1.3347167 1.5157033 1.1348829 1.1516359
1.2600781 1.0941482 1.3477443 1.358704 1.1858732 1.332085 1.3647411 1.3684075
1.3435609 1.4857669 1.4239943 1.5504655 1.3738027 1.3512074 1.2614506 1.227483

model/batch_normalization_1/batchnorm/sub f4 [256]
00000000: 52d0 04bf 99c6 ffbe 42b8 37bf b4a7 3bbf
00000010: 4e75 eabe 2d51 fabe cd01 19bf cb25 35bf
00000020: f73a ffbe b155 18bf 9b55 3abf aeaf 3ebf
00000030: 51a9 12bf 183c 41bf f184 22bf 9d2c f1be
00000040: 3506 18bf 0c3e 11bf a2d0 16bf 3c05 1bbf
00000050: 5005 15bf 9d3e 41bf c8a5 31bf e032 18bf
00000060: 10b0 01bf 119c 15bf 7510 47bf 950d 1bbf
00000070: 2e61 19bf bd1d 49bf 4d7b 18bf 5502 20bf
00000080: bb26 27bf 4ead e1be 8853 30bf 6b71 0fbf
00000090: 8be3 3abf 6bfa 10bf 3906 13bf 0f06 ecbe
000000a0: 9f04 0bbf 32e1 3ebf bbad e2be 79ef 2abf
000000b0: f95a 0cbf 0518 f6be 1625 dabe 3bf0 0abf
000000c0: 0111 02bf 2ef1 46bf c3d6 28bf 203f 0abf
000000d0: d9cc 37bf a464 31bf 3fd4 34bf 3bbb febe
000000e0: 40f5 3cbf 3567 40bf d964 2abf 01ea 06bf
000000f0: ef2a 27bf 0d61 1dbf 5dc5 35bf 3634 1dbf
00000100: dd87 0fbf da50 17bf ead3 3bbf 550f 1abf
00000110: 54eb 05bf 30ff 24bf fe00 1abf eb7e 09bf
00000120: 04d5 43bf 9ad4 26bf 14c5 24bf 00cb 2bbf
00000130: 57c4 30bf 8f4c 22bf 5d0c 00bf 1e55 2cbf
00000140: 595a 11bf 664e 23bf 47dd 1cbf a0af 05bf
00000150: f47e 1fbf 07cd 13bf 1574 0cbf 4999 0abf
00000160: d75f 18bf 2828 24bf fee5 4abf 83a3 06bf
00000170: 173f f7be 51c0 00bf d1ab 34bf efee 35bf
00000180: 948e 3fbf 5681 09bf d92e 05bf c0ff 1ebf
00000190: ecdd 1dbf ad81 0fbf 1765 f9be 2b40 46bf
000001a0: c394 15bf e474 2cbf fa30 15bf f4ae 1fbf
000001b0: 4141 1cbf 4e8f 31bf 46f1 34bf 0e04 0abf
000001c0: 51e5 1dbf 11d1 12bf a3e0 d1be 798d 47bf
000001d0: 8899 0abf fd35 35bf fcca 1ebf ebda 34bf
000001e0: d62a 09bf 979d 3fbf afbb 0fbf 16db edbe
000001f0: 6f0a 1fbf 3665 f3be a3d2 20bf bfb3 18bf
00000200: 47bc 0fbf fe75 17bf 5bc9 0cbf 885b 05bf
00000210: 7029 22bf 2b1d 0ebf e807 3cbf 64c2 1bbf
00000220: 423b 19bf 91c8 0dbf 955a 33bf f496 36bf
00000230: b7f8 06bf 405d 09bf 2ab6 efbe a12f 12bf
00000240: cbb3 0cbf 82cc 19bf 55f2 2abf bde0 1bbf
00000250: a4a2 07bf 2627 0abf 2220 25bf 71c8 18bf
00000260: 8cc8 19bf fec4 17bf 0f10 3cbf 5a94 43bf
00000270: fc7a 1bbf 5ad2 1cbf 3069 35bf b19b 1bbf
00000280: 6078 fcbe 8818 09bf 3a21 17bf c191 25bf
00000290: 2004 2cbf 9192 10bf 9687 1dbf 5edf 24bf
000002a0: a456 09bf a508 1dbf baf9 37bf 5df8 2cbf
000002b0: 2e81 3cbf c689 0ebf 087f 24bf ef2a f8be
000002c0: de53 12bf 1254 16bf 5684 29bf 0cd4 07bf
000002d0: a798 0fbf 6dd0 17bf c161 20bf aa91 39bf
000002e0: e85d 09bf c564 3abf 688d 4ebf 1c10 10bf
000002f0: a07d 10bf fb45 15bf 46e3 3ebf bc20 2ebf
00000300: 2272 31bf f78c 28bf 2a62 07bf 84a4 1dbf
00000310: 245e 12bf f9b8 20bf c6fc 45bf 7538 33bf
00000320: 54a8 31bf 26dc 3fbf dd8f 18bf cd38 3bbf
00000330: 9630 3bbf 594d 12bf 9512 1cbf e3ac 0ebf
00000340: 7bd7 1bbf 166a 2dbf b665 2cbf 2430 47bf
00000350: ab92 34bf 19c9 2ebf ea40 07bf 6293 1bbf
00000360: a874 37bf 9ee0 42bf 77c5 1dbf 34a9 32bf
00000370: bb15 3abf e325 28bf 513a 0abf 6661 23bf
00000380: 5d59 debe 6980 42bf 5a7a 3cbf 691d 23bf
00000390: e24f 1dbf d6cd 4bbf 9489 28bf 20fb 39bf
000003a0: d78c 0dbf 7e94 27bf 51b9 20bf b7f0 17bf
000003b0: 4ca9 5abf 5c1d 30bf 9861 21bf e337 14bf
000003c0: 2066 20bf 2fe8 17bf 1c61 28bf 13cd 28bf
000003d0: 0dc1 15bf d3b2 17bf 9a47 3abf 44d3 2fbf
000003e0: 9e50 19bf c090 31bf cd0a 1fbf ea05 34bf
000003f0: af41 3ebf 9828 41bf 1e23 3bbf d02e 0fbf
-0.5188037 -0.49956205 -0.7176553 -0.7330277 -0.4579262 -0.48890057 -0.5976837 -0.7076079
-0.49849674 -0.59505755 -0.72786874 -0.74486816 -0.57289606 -0.7548232 -0.634841 -0.4710435
-0.5938447 -0.567353 -0.589121 -0.6055486 -0.5821123 -0.75486165 -0.6939359 -0.5945263
-0.50659275 -0.58441263 -0.77759486 -0.605676 -0.5991391 -0.78561 -0.5956314 -0.6250356
-0.65293473 -0.44077533 -0.6887746 -0.5603244 -0.73003453 -0.5663211 -0.5743137 -0.46098372
-0.54303926 -0.7456237 -0.4427317 -0.66771656 -0.54826313 -0.480652 -0.4260642 -0.5427281
-0.50807196 -0.7771176 -0.659527 -0.5400257 -0.7179695 -0.6929419 -0.7063636 -0.4975222
-0.7381172 -0.7515748 -0.6656013 -0.5270081 -0.65299886 -0.6147621 -0.7100428 -0.6140779
-0.56066686 -0.59107745 -0.7337023 -0.60179645 -0.5231221 -0.64451885 -0.60157764 -0.53709286
-0.7649691 -0.65168154 -0.6436322 -0.6710663 -0.6904959 -0.6339807 -0.50018865 -0.6731738
-0.56778485 -0.637915 -0.6127514 -0.5222111 -0.6230309 -0.5773472 -0.5486463 -0.54140145
-0.5952124 -0.64123774 -0.7925719 -0.5259325 -0.4829032 -0.5029345 -0.7057467 -0.7106771
-0.7482693 -0.53712976 -0.5202461 -0.62108994 -0.6166675 -0.56057245 -0.48709938 -0.7744166
-0.5843012 -0.6736586 -0.5827786 -0.6237633 -0.6103707 -0.6935929 -0.70680654 -0.53912437
-0.61678034 -0.5735026 -0.40991697 -0.77950245 -0.5414052 -0.70785505 -0.6202848 -0.7064654
-0.5358099 -0.7484984 -0.5614576 -0.46456212 -0.62125295 -0.47538155 -0.62821406 -0.5964927
-0.56146663 -0.59164417 -0.54994744 -0.5209279 -0.6334448 -0.55513257 -0.73449564 -0.6084349
-0.59856045 -0.55384165 -0.7006009 -0.71324086 -0.5272326 -0.53657913 -0.46818668 -0.57103926
-0.5496184 -0.6007768 -0.6677602 -0.608898 -0.52982545 -0.53965986 -0.64502156 -0.5968085
-0.60071635 -0.5928496 -0.73462003 -0.7639824 -0.60734534 -0.6125847 -0.7086363 -0.6078444
-0.4931059 -0.53553057 -0.59035075 -0.6467553 -0.67193794 -0.5647364 -0.6153501 -0.6440333
-0.5364783 -0.61341316 -0.7186543 -0.6756647 -0.7363461 -0.55678976 -0.64256334 -0.48470256
-0.5715922 -0.5872203 -0.66217554 -0.5305793 -0.56092304 -0.5930241 -0.6264916 -0.7248789
-0.53658915 -0.7281001 -0.8068452 -0.5627458 -0.5644169 -0.58309907 -0.7456554 -0.680187
-0.6931478 -0.65840095 -0.5288416 -0.61579156 -0.571749 -0.62782246 -0.77338827 -0.7000802
-0.69397473 -0.74945295 -0.5959452 -0.73133546 -0.7312101 -0.57149273 -0.60965854 -0.55732554
-0.6087567 -0.6774 -0.673427 -0.7780783 -0.705363 -0.682756 -0.52833426 -0.60771763
-0.7166238 -0.7612399 -0.6162943 -0.69789433 -0.7268941 -0.6568281 -0.53995234 -0.63820493
-0.43427554 -0.7597719 -0.73624194 -0.6371675 -0.61450016 -0.79610956 -0.6583493 -0.7264881
-0.5529303 -0.65460956 -0.6278277 -0.59351677 -0.85414577 -0.687948 -0.6303954 -0.57897776
-0.6265583 -0.5933866 -0.6577318 -0.6593792 -0.584977 -0.5925724 -0.72765505 -0.6868174
-0.5988864 -0.69361496 -0.62125856 -0.70321524 -0.74318975 -0.75452566 -0.7310046 -0.55930805

model/dense_7/MatMul;model/dense_7/Relu;model/dense_7/BiasAdd f4 [64]
00000000: dda9 823f 596b 02bf 91fd 343f 02d2 343f
00000010: 9e29 b73f 52ac 033f 154d 5a3e 9b4e 2a3f
00000020: 5bb7 413f b67c bebf 89e4 bdbe 5bd1 963c
00000030: 0f1e b43e 5cb7 f03e 27d2 17be 8993 993e
00000040: 1178 453e aef5 89bf b420 bc3e 2d1b 143f
00000050: 62a3 a1be 5c0c c7be 769b 49bf 0468 d3bd
00000060: e2bd 3cbf c13d 9bbf 1db5 c4bf d6c7 753f
00000070: fc32 9d3f 30c0 0c3e 13fa adbe 7d1b 36bf
00000080: ddb5 d7be 94af 16be c894 74be 2b45 953f
00000090: a017 163f f0d1 afbe 26a9 4f3f 0d88 5fbf
000000a0: b09e 2b3f 7a00 a4bf 7a1c 1e3e 663e 283c
000000b0: 81b2 b8bf cb55 1bbf c7dc 033e 4b59 1c40
000000c0: 3057 d63e 7b77 8ebf 8c25 0c3e a397 913e
000000d0: 2e8a f5be fca3 76bd c00b 073f a674 92be
000000e0: 6a36 fcbe f347 8f3f b876 283e d1ed 69bf
000000f0: 3abd 7cbf a55d 553e e9cb a53e c061 0c3f
1.0208088 -0.5094505 0.7069941 0.70632946 1.4309576 0.51434815 0.21318467 0.6652619
0.75670403 -1.4881809 -0.3708842 0.018410375 0.35179183 0.47014892 -0.1482626 0.29995373
0.19284083 -1.07781 0.367437 0.57853967 -0.31569964 -0.38876617 -0.7875284 -0.10322574
-0.7372724 -1.2128221 -1.5367771 0.9600805 1.2281184 0.13745189 -0.33979854 -0.71135694
-0.42130938 -0.14715415 -0.2388488 1.1661733 0.586298 -0.34339857 0.81117475 -0.8731697
0.6703901 -1.2812645 0.1544055 0.010268783 -1.4429475 -0.60677785 0.12877189 2.44295
0.41863394 -1.1130213 0.13686198 0.28436002 -0.47956985 -0.06021498 0.52752304 -0.2860462
-0.49260265 1.1193832 0.16451538 -0.91378504 -0.98726237 0.20836504 0.32382134 0.54836655

model/dense_5/MatMul;model/dense_5/Relu;model/dense_5/BiasAdd f4 [64]
00000000: ad10 6b3f 1dd3 42bf d496 41bf 06ad 263f
00000010: 7a78 bb3f cae4 663f c293 71bf 3689 c6bd
00000020: 3aee 0d3f 909c a1bc 3e88 4a3d 239a 073f
00000030: 2bc0 7e3f 1cb0 31bf 46ae 363e 6983 f33f
00000040: 7b66 923e 94b3 e73f 6668 e13e 735d 68bf
00000050: 34a7 553e b81b bd3f 2d60 80be 657c 6e3f
00000060: 63d7 32bf 1c59 4bbe 64ed ab3d 9e23 ac3c
00000070: e302 1a3f c269 c83f db2f 08bf 8065 5abf
00000080: e98c 073f a910 243f d6bc d63f eca8 03bf
00000090: 2413 5dbf 59db 0340 73cd 493f 92cd fbbe
000000a0: 5495 383e a2be 323f f556 0d3e 814e 923e
000000b0: 5fa7 89bf d793 b03f 3b28 1abf 427a 1ebf
000000c0: 140f 6cbf 44ad 58bd 6cdb 833f f9fd 333e
000000d0: 6c2a 5c3d d6ea 04be b224 dfbf c5bf c53f
000000e0: e619 b1be 4557 3f3f f9f4 46bd 8ab2 9b3d
000000f0: 9382 21bf baf8 8a3f 2a35 3b3d 9a6c 9b3f
0.9182232 -0.76103383 -0.7562077 0.6510776 1.4646142 0.90192854 -0.94366086 -0.0969414
0.5544163 -0.019727975 0.049446337 0.5296957 0.99511975 -0.69409347 0.17839918 1.9024478
0.2859381 1.8101678 0.44024962 -0.9076759 0.20864564 1.4774084 -0.25073376 0.9315856
-0.69859904 -0.19858211 0.08394888 0.021013077 0.60160655 1.5657275 -0.5319802 -0.85311127
0.52949387 0.6408792 1.6776378 -0.5142963 -0.8635733 2.060263 0.78829116 -0.49180275
0.18025714 0.6982213 0.13802703 0.2857552 -1.0754203 1.3795117 -0.60217637 -0.619053
-0.9221051 -0.052899614 1.0301337 0.17577352 0.053751394 -0.12980208 -1.7433074 1.5449148
-0.3459007 0.7474254 -0.048573468 0.07602413 -0.63089865 1.0857155 0.045704998 1.2142518

model/dense_3/MatMul;model/dense_3/Relu;model/dense_3/BiasAdd f4 [64]
00000000: 5bcd 64bf 17b8 c4be c047 313e f4de 08be
00000010: 1307 32bd 9557 86be ea2e c63f 8271 a1bd
00000020: 40e9 ebbe 58ea f93e df23 0640 adbc 873f
00000030: 6e8d 4abf e731 7e3e ab00 b03f be69 313f
00000040: 79df 803e 532c 14bf 48bd a43e e47b 27bf
00000050: a80b 6b3f 32ac abbe c1e1 313e bfe6 273f
00000060: 4602 353e e5d0 88bf 0787 703f 14a7 043f
00000070: 5054 de39 7a5d ba3d 662e b2be 8d19 1ebf
00000080: 50d2 f13e 9007 a4be f856 9c3d d665 a2bf
00000090: 11e0 3e3f e7d6 503f eafb 153f c972 8cbf
000000a0: 27f6 ca3e 4907 c23f ecc1 233f 613c 703e
000000b0: 481a 92be 35f6 423d d8a7 a13f 9b8f 743f
000000c0: d859 a3be 1bc6 b7be 831a 633c d9b2 45bf
000000d0: 1524 2bbf fbfb 813e f960 393d d35c fb3f
000000e0: d17b 90bd 8a1d 953f 179a d13e f816 363e
000000f0: 3287 4ebe 196d 25bf 739f b93f fbc9 163f
-0.8937585 -0.384217 0.17312527 -0.133663 -0.043463778 -0.26238695 1.5483067 -0.07882978
-0.46076393 0.48811603 2.0959394 1.0604454 -0.79122055 0.24823724 1.3750204 0.69301975
0.25170496 -0.57880133 0.3217566 -0.6542342 0.9181466 -0.33529812 0.17371275 0.65586466
0.17676648 -1.068875 0.93956035 0.5181744 0.00042405957 0.090998605 -0.34801024 -0.6175774
0.47230768 -0.3203702 0.076337755 -1.2687328 0.7456065 0.81577915 0.58587515 -1.097253
0.39640924 1.5158473 0.63967776 0.23460533 -0.28535676 0.047598083 1.2629347 0.95531625
-0.31904483 -0.3589333 0.013861301 -0.77226025 -0.6685193 0.25387558 0.045258496 1.9637703
-0.07054866 1.164964 0.40937874 0.177822 -0.2016876 -0.64619595 1.4501785 0.5890195
