250630/models/original_hadnn.tflite (tflite, 362344 bytes, 26 tensors)

model/position_output/MatMul f4 [2, 64]
0	0xbe7d939d	-0.24763341
1	0xbc489a57	-0.012243829
2	0x3e317167	0.17328416
3	0x3e8da326	0.27663535
4	0xbe7ca799	-0.24673308
5	0x3e00ee00	0.1259079
6	0xb6c29864	-5.799391e-06
7	0x3e446c27	0.19181882
8	0x3e02535d	0.12727113
9	0x3d994bde	0.07485174
10	0xbd534986	-0.05158379
11	0xbe0437a1	-0.12911846
12	0xbdfdbb62	-0.12389256
13	0x3d6f4385	0.058414
14	0x3e4d50f3	0.20050411
15	0x3ca73585	0.020411262
16	0xbdabc14a	-0.08386476
17	0xbe4aa5a8	-0.19789755
18	0x3dce3685	0.100689925
19	0xbdcdbd51	-0.10045875
20	0x3e7eaa9c	0.2486977
21	0xbd71610f	-0.058930453
22	0x3d96c11a	0.0736105
23	0xbe4aa7e7	-0.19790612
24	0xba8fa0c8	-0.0010957951
25	0x3e11495b	0.14188139
26	0xbdec20cc	-0.11529693
27	0x3d391731	0.045188133
28	0xbe1d976c	-0.15389794
29	0xbe017f6d	-0.12646265
30	0x3e663453	0.22480898
31	0xbe1c24fe	-0.15248486
32	0xbe184835	-0.14871295
33	0xbe388e78	-0.18023098
34	0xbe333845	-0.17501934
35	0xbd1e4b27	-0.03864589
36	0x3cd09f69	0.025466638
37	0xbdef1579	-0.116740175
38	0xbe4dba0e	-0.20090505
39	0x3e874dc0	0.26426506
40	0xbe61ce80	-0.2205143
41	0xbd376b3d	-0.044780005
42	0xbe0ac1ac	-0.13550442
43	0x3d8a3bf4	0.067497164
44	0x3e04b4cb	0.12959592
45	0x3e813833	0.2523819
46	0xbe6b7e9d	-0.22997518
47	0x3ddfef73	0.10934343
48	0x3e447f22	0.19189122
49	0xbe7124e9	-0.23549236
50	0xbde49efc	-0.11163136
51	0xbe5b097f	-0.21390341
52	0x3c9006bc	0.017581336
53	0xbdd1b8f2	-0.10240354
54	0xbd6b3b84	-0.057429805
55	0xbe331205	-0.17487343
56	0x3ddc8f5a	0.1076953
57	0xbe7516ae	-0.23934433
58	0x3dbc2217	0.091861896
59	0x3dfed7f8	0.124435365
60	0x3d31ee9f	0.043440457
61	0xbd30af64	-0.043136016
62	0x3e4f5e66	0.20250854
63	0x3db551ee	0.088535175
64	0xbdc6e24d	-0.09711132
65	0xbd5f2f62	-0.054488547
66	0xbd044e58	-0.032301277
67	0xbe4539ba	-0.19260302
68	0xbe2214ae	-0.15828201
69	0x3db58527	0.088632874
70	0x3e3a611a	0.18201104
71	0xbe35770f	-0.17721198
72	0xbdd555cd	-0.10416756
73	0xbe24e848	-0.16104233
74	0xbe5ee080	-0.21765327
75	0xbd04817d	-0.032350052
76	0x3e254d14	0.16142684
77	0xbdb1cf8b	-0.08682164
78	0xbcf91f0e	-0.030410316
79	0x3db2702f	0.087128036
80	0x3e3ea08f	0.18615936
81	0x3ddbdeb7	0.10735839
82	0xbe58fb11	-0.21189524
83	0xbe0c5f6e	-0.13708279
84	0x3e450f71	0.19244172
85	0x3defe8af	0.11714303
86	0x3c642afd	0.013926265
87	0xbd5e78ed	-0.054314543
88	0x3e82ae9a	0.25523835
89	0xbe7854a8	-0.24251044
90	0xbd8a0bcc	-0.06740531
91	0x3de7fc61	0.11327434
92	0x3e511740	0.20419025
93	0xbb56793e	-0.0032726075
94	0x3d17e937	0.037087645
95	0x3dd04ac9	0.10170514
96	0x3d44333a	0.047900416
97	0x3e0a1ffb	0.13488762
98	0x3d07c61f	0.033147927
99	0xbdfcd982	-0.12346174
100	0x3e2e49b8	0.17020309
101	0xbe315437	-0.17317282
102	0xbdd97cd7	-0.106195144
103	0x3cab0626	0.020876955
104	0x3c88bb56	0.016690891
105	0xbd49d1f9	-0.04927251
106	0x3e67ceed	0.2263753
107	0x3d97dd1f	0.074152224
108	0xbe2d42d1	-0.1692002
109	0xbd7d4902	-0.061837204
110	0x3ce7f042	0.028312806
111	0x3d417d98	0.047238916
112	0xbe240998	-0.16019285
113	0x3e44714d	0.19183846
114	0x3d27ec45	0.04099681
115	0x3d370a81	0.04468775
116	0xbe4d2f82	-0.20037654
117	0x3e3cf1d5	0.18451627
118	0xbd876bf4	-0.06612387
119	0xbd813bd3	-0.06310239
120	0x3b41c572	0.002956715
121	0x3df9a7bf	0.12190198
122	0x3c6f2f15	0.014598628
123	0xbd0e2419	-0.034702394
124	0x3de03130	0.10946882
125	0xbc62a8fd	-0.013834235
126	0x3db28de1	0.087184675
127	0x3e08b600	0.13350677

model/floor_output/MatMul f4 [5, 64]
0	0x3bf9847a	0.0076146694
1	0x3e490666	0.19631347
2	0xbd3a86c2	-0.04553867
3	0xbe556896	-0.20840678
4	0xbcde2bcd	-0.027120495
5	0x3e63c0ac	0.22241467
6	0xbd9154e1	-0.070962675
7	0x3e6959e5	0.22788198
8	0x3e026c3b	0.12736599
9	0xbcc126e7	-0.02357812
10	0x3e93e6dc	0.2888707
11	0x3e8e0f7c	0.2774619
12	0xbe81a50d	-0.25321236
13	0x3e99f4e3	0.30069646
14	0x3e4bd7e4	0.19906574
15	0x3e807cd9	0.2509525
16	0x3d9039bc	0.07042262
17	0x3e80af87	0.25133917
18	0xbd24c093	-0.040222716
19	0x3d92222f	0.07135426
20	0x3e2f344c	0.17109793
21	0x3e66384e	0.22482416
22	0x3e3e0352	0.18555954
23	0xbe161664	-0.14656979
24	0x3d5fcc7f	0.054638382
25	0x3e11dcf8	0.14244449
26	0x3d79bcd3	0.060971092
27	0xbd944146	-0.072390124
28	0xbdcd69fc	-0.100299805
29	0xbe63abb2	-0.22233465
30	0x3ea535c0	0.3226757
31	0xbe44ebd8	-0.19230592
32	0x3ea9317d	0.3304557
33	0x3dac681b	0.08418294
34	0x3e73f3fc	0.23823541
35	0x3e0e9214	0.13922912
36	0x3e0f7154	0.14008075
37	0x3e813bc2	0.25240904
38	0x3d0b0a61	0.033945445
39	0xbe56618b	-0.20935647
40	0x3e923f35	0.28563848
41	0xbe02e96f	-0.1278436
42	0x3ccb88ad	0.024845446
43	0xbe6a459f	-0.22878121
44	0x3e36aa8e	0.17838499
45	0xbd7a3403	-0.06108476
46	0x3e1448bb	0.1448087
47	0xbe84a083	-0.2590371
48	0xbd45cf49	-0.048293386
49	0xbdb77362	-0.089575544
50	0xbdbc044e	-0.091805086
51	0x3e8effa9	0.27929428
52	0xbd6105b6	-0.054937087
53	0x3e83a964	0.25715172
54	0xbdd85488	-0.10562998
55	0xbd4568f0	-0.04819578
56	0x3ea45297	0.3209426
57	0x3e12a19d	0.14319463
58	0xbe886b17	-0.26644203
59	0x3c0de5d0	0.008660749
60	0x3e724ac6	0.23661336
61	0xbe995fc0	-0.29955864
62	0x3d8f31a7	0.06991892
63	0xbcd68ea4	-0.026191063
64	0xbe4cd1d2	-0.20001915
65	0x3e0b4f0a	0.1360437
66	0xbd1a5751	-0.037680928
67	0x3d56a769	0.05240575
68	0xbe60c537	-0.21950231
69	0xbe10ed01	-0.1415291
70	0xbe086126	-0.13318309
71	0xbe37d63a	-0.17952815
72	0x3dcf5dd2	0.10125317
73	0x3de9fef2	0.1142558
74	0x3e908c64	0.2823211
75	0xbe8f50f3	-0.27991447
76	0xbe4dbcea	-0.20091596
77	0xbe7c6deb	-0.24651305
78	0xbe984a89	-0.29744366
79	0xbe45c67f	-0.19314002
80	0x3dd2f78e	0.103011236
81	0x3e82ee23	0.2557231
82	0xbc8e6f46	-0.017387044
83	0xbe6b8447	-0.22999679
84	0xbdecb3e1	-0.11557747
85	0x3d2c6419	0.042087648
86	0x3d888bdd	0.06667302
87	0xbd5362fa	-0.051608063
88	0x3da56458	0.0807578
89	0xbe71f039	-0.23626794
90	0x3e91bbbe	0.28463548
91	0x3e6f9651	0.23397185
92	0x3de9a1e2	0.1140783
93	0xbe3d3d6e	-0.18480465
94	0x3dff981f	0.12480187
95	0xbe95f6bb	-0.29289803
96	0x3e64d11f	0.22345398
97	0xbdafe5bc	-0.0858874
98	0x3e673e0f	0.22582267
99	0x3e3fe84c	0.18740958
100	0x3e736b71	0.23771454
101	0x3e1733a1	0.14765789
102	0xbe3fb358	-0.18720758
103	0xbd50fc73	-0.051022004
104	0x3c7a7b7a	0.015288228
105	0x3e65c0c3	0.22436814
106	0xbdf54fd0	-0.11978114
107	0xbea0f7b9	-0.31438997
108	0x3e82d52c	0.25553262
109	0xbdb24bb1	-0.08705843
110	0xbe7a9289	-0.24469961
111	0x3e8d98ad	0.27655545
112	0xbeaafbbc	-0.33395183
113	0x3e97681d	0.2957162
114	0xbd1fcdb6	-0.03901454
115	0xbd7d955f	-0.06191003
116	0xbd96b36f	-0.07358443
117	0x3e109961	0.1412101
118	0x3e126c04	0.14299017
119	0x3d2ccb59	0.042186115
120	0xbe211636	-0.15731129
121	0xbe96c264	-0.29445183
122	0x3e04a7f3	0.12954693
123	0xbe977feb	-0.2958978
124	0x3e52721a	0.20551339
125	0x3dec17d3	0.115279816
126	0x3e3f2327	0.18665753
127	0x3cf8ccd8	0.030371115
128	0x3e861a8c	0.2619213
129	0x3e11cb94	0.14237815
130	0xbe3bc0ab	-0.18335216
131	0x3c8d08e2	0.01721615
132	0x3de3012b	0.11084207
133	0xbe1b9268	-0.15192568
134	0xbe66cf5d	-0.2254004
135	0x3cd722b3	0.026261663
136	0xbe80974f	-0.2511544
137	0xbe94c491	-0.29056218
138	0x3d2b89e6	0.041879557
139	0xbeb15ebf	-0.34642598
140	0x3bc37f53	0.005966106
141	0xbd624a7b	-0.05524681
142	0xbe28f4de	-0.1649966
143	0xbe267b06	-0.16257867
144	0x3b32bdf0	0.0027273856
145	0x3ddac83c	0.10682723
146	0xbdd39173	-0.103304766
147	0x3e10e138	0.14148414
148	0x3e111fd6	0.141723
149	0xbe13531c	-0.14387172
150	0xbe8f9b85	-0.2804834
151	0xbd0a293c	-0.03373073
152	0xbe794ab3	-0.24344902
153	0xbde68c70	-0.11257255
154	0xbd2f1222	-0.042741902
155	0xbdb87c2c	-0.09008059
156	0xbd20b8ac	-0.039238617
157	0xbca33a74	-0.019925334
158	0x3e19db1f	0.15024994
159	0xbe403c27	-0.18772946
160	0x3e4bddc1	0.19908811
161	0xbea0d303	-0.3141099
162	0xbe9c7b8b	-0.30563006
163	0x3dfc6117	0.12323206
164	0xbe9e7802	-0.30950934
165	0xbd4675e5	-0.048452277
166	0x3def79b0	0.11693132
167	0x3ea27830	0.3173232
168	0xbe424284	-0.18970686
169	0x3e03cc2d	0.12870856
170	0xbe69476a	-0.22781149
171	0xbddc54dc	-0.10758373
172	0x3e0606ca	0.13088527
173	0xbe40cc66	-0.18827972
174	0xbdecdcaf	-0.115655296
175	0x3e293ca3	0.16527037
176	0xbe36360c	-0.17794055
177	0xb9f97aaf	-0.00047584387
178	0x3e19ee1a	0.15032235
179	0x3da372d4	0.07980886
180	0xbd915120	-0.070955515
181	0xbcff8175	-0.03118966
182	0xbdb2adf5	-0.08724586
183	0x3e8d5fdd	0.276122
184	0x3e753a65	0.23948057
185	0x3e231648	0.15926468
186	0xbdabb1d1	-0.08383525
187	0x3e980244	0.2968923
188	0xbd7eccb2	-0.06220693
189	0x3e325f0c	0.1741907
190	0xbe5f98e9	-0.21835674
191	0x3e77e4b1	0.24208333
192	0xbe3b1038	-0.18267906
193	0xbe1d2d65	-0.15349348
194	0xbda56453	-0.08075776
195	0x3bfc2be2	0.007695661
196	0x3e914a0d	0.2837681
197	0x3e038876	0.12845024
198	0xbe23bab3	-0.15989189
199	0xbce434c8	-0.0278572
200	0xbe161866	-0.14657745
201	0x3e59e0e7	0.212772
202	0xbdd2f6ba	-0.103009656
203	0x3e40b829	0.18820252
204	0x3e4e57b5	0.20150645
205	0xbe4251d1	-0.18976523
206	0x3e48e81c	0.19619793
207	0x3e3c1ce3	0.18370394
208	0xbe178103	-0.14795308
209	0xbb0aad18	-0.00211603
210	0x3e4b90f1	0.1987951
211	0xbea3ae5f	-0.31968972
212	0x3e335b1a	0.17515221
213	0xbdd6264e	-0.10456525
214	0xbc8c6c58	-0.017141506
215	0xbb44ae97	-0.003001129
216	0x3c44571a	0.011983657
217	0xbd36fd4b	-0.044675153
218	0x3dd4bcc9	0.103875704
219	0xbe1f29e7	-0.15543328
220	0x3e91bf29	0.28466156
221	0xbc4764dc	-0.012170043
222	0x3d566cfe	0.052350037
223	0x3de77345	0.11301283
224	0xbe9b1293	-0.30287609
225	0x3e018d4c	0.12651557
226	0x3e2f8ba1	0.17143108
227	0x3e55ad3f	0.2086687
228	0x3dfd71ee	0.12375246
229	0xbe256e33	-0.16155319
230	0xbe06e847	-0.13174544
231	0x3e255233	0.16144638
232	0x3e286a3e	0.16446778
233	0xbea0cbda	-0.31405526
234	0x3e0200ce	0.1269562
235	0xbe994edf	-0.29942986
236	0x3d82fe48	0.063961565
237	0x3e60c27c	0.2194919
238	0x3e60b9d4	0.21945888
239	0xbe7659a0	-0.24057627
240	0xbe56d14d	-0.2097828
241	0xbe6fc9c6	-0.23416814
242	0xbdf33b24	-0.118765146
243	0x3c3d2047	0.01154334
244	0x3de3f5eb	0.111308895
245	0xbdc5eb22	-0.09663989
246	0x3d8b5c58	0.068047225
247	0xbe582607	-0.21108256
248	0x3e569418	0.20954931
249	0x3d4769b2	0.048684783
250	0xbe882b24	-0.26595414
251	0xbe2ede21	-0.17076923
252	0xbdfc2ca2	-0.123132005
253	0x3de7a8fb	0.11311527
254	0x3d4a8264	0.049440756
255	0xbe396bff	-0.18107603

model/building_output/MatMul f4 [3, 64]
0	0x3e7487af	0.23879884
1	0x3e709517	0.23494373
2	0x3e8a168f	0.26970336
3	0xbd0d4bee	-0.03449624
4	0xbe6fd4f1	-0.23421074
5	0xbe6e3af2	-0.23264673
6	0xbd7cb4af	-0.06169575
7	0xbd996126	-0.07489233
8	0x3e353ec9	0.17699732
9	0x3e9713ee	0.29507393
10	0xbe67031e	-0.22559783
11	0x3e5d2a23	0.21598105
12	0x3dbe0251	0.092777856
13	0x3c9b6092	0.018966947
14	0xbe965a37	-0.29365703
15	0xbddf38de	-0.108995184
16	0xbda7722f	-0.08176076
17	0xbe955954	-0.29169714
18	0xbe10f1b1	-0.14154698
19	0x3e702763	0.23452525
20	0x3e452d40	0.19255543
21	0xbe59d9d2	-0.21274498
22	0x3e6ececd	0.23321076
23	0x3e805bbf	0.25069997
24	0xbe634631	-0.22194745
25	0xbe0c1300	-0.13679123
26	0x3d1f5be0	0.03890598
27	0xbe536968	-0.20645678
28	0xbe3c828f	-0.18409179
29	0x3dbeba39	0.09312863
30	0xbe8c03a4	-0.27346528
31	0xbb78531e	-0.0037891339
32	0xbd945e5d	-0.07244561
33	0xbd950319	-0.072759815
34	0x3e9fc788	0.31206918
35	0x3cd719a0	0.026257336
36	0x3e9c062a	0.30473453
37	0xbe998169	-0.29981545
38	0x3d937e5e	0.07201837
39	0xbe5d2ce4	-0.21599156
40	0x3dc507e2	0.09620644
41	0xbcbb8214	-0.022889175
42	0xbe833c84	-0.25632107
43	0xbcddc001	-0.027069094
44	0x3e4c7951	0.19968154
45	0x3e82d9f5	0.25556913
46	0xbdcf2d85	-0.10116104
47	0x3dbd24f5	0.092355646
48	0xbddef2c2	-0.10886146
49	0x3e4643d3	0.1936181
50	0x3e922edc	0.28551376
51	0x3c9107b1	0.017703863
52	0x3ead6485	0.33865753
53	0xbe114b2f	-0.14188837
54	0x3cddfb02	0.027097229
55	0xbe5f6627	-0.21816312
56	0xbe663be5	-0.22483785
57	0x3e24d79a	0.1609787
58	0xbe0e7fbc	-0.13915914
59	0xbd18d7d9	-0.037315223
60	0xbd4ae960	-0.04953897
61	0xbe2c6171	-0.16834046
62	0xbe8dad58	-0.27671313
63	0x3e8ee4e4	0.27909005
64	0xbe30a572	-0.17250612
65	0xbe86937c	-0.26284397
66	0xbe791342	-0.24323753
67	0xbe21aa1e	-0.15787551
68	0x3e9175f7	0.28410313
69	0x3e2475de	0.16060588
70	0xbe66c333	-0.225354
71	0xbe4a25f0	-0.19741035
72	0xbe0bff75	-0.13671668
73	0x3e279ddb	0.16368811
74	0xbe7ab285	-0.24482162
75	0x3dc8592b	0.097826324
76	0x3d4fbd99	0.050717924
77	0x3e408307	0.18799983
78	0x3e05136b	0.12995689
79	0x3d6900f3	0.05688567
80	0xbd8c5b6d	-0.068533756
81	0x3e89147d	0.26773444
82	0x3e138251	0.1440518
83	0x3da6380c	0.08116159
84	0xbdb01387	-0.085974745
85	0x3e948d3d	0.29014006
86	0xbce2034e	-0.027589466
87	0x3e9a420a	0.3012851
88	0xbe93ddbc	-0.28880107
89	0x3e88a411	0.26687673
90	0x3e914fdc	0.2838124
91	0xbdee838b	-0.116461836
92	0xbe68a4aa	-0.22719064
93	0xbc40eacb	-0.011774729
94	0x3d81842d	0.06324039
95	0xbe4a47d8	-0.19753969
96	0xbe976a97	-0.2957351
97	0x3e6914ac	0.22761792
98	0x3df62297	0.12018316
99	0xbdf616b9	-0.12016053
100	0xbde428f6	-0.11140625
101	0xbd2487d6	-0.040168606
102	0xbe99b52e	-0.30021042
103	0x3e3cacf4	0.18425351
104	0xbe868c5c	-0.2627896
105	0x3dbac138	0.09118885
106	0x3d20d265	0.039263148
107	0xbd953c4e	-0.07286893
108	0xbe2da202	-0.16956332
109	0x3e340921	0.17581607
110	0x3e6980d0	0.22803044
111	0xbea03e5a	-0.3129757
112	0x3e797dac	0.24364346
113	0x3d0ebc59	0.03484759
114	0x3e9b2f3a	0.30309469
115	0xbcc233d3	-0.023706352
116	0xbe9cb3a8	-0.30605817
117	0xbe8d60f0	-0.2761302
118	0x3e855d8a	0.26047927
119	0x3ce64939	0.028111087
120	0xbe4a0df4	-0.19731885
121	0x3e25883d	0.16165252
122	0x3d0f323d	0.03496002
123	0xbe8979cc	-0.26850736
124	0xbe101190	-0.140692
125	0xbc534e94	-0.012897152
126	0xbe319df5	-0.17345412
127	0xbe7827c9	-0.24233927
128	0x3dd90a38	0.10597652
129	0xbe03990c	-0.12851351
130	0x3e440596	0.19142756
131	0x3e83c127	0.257333
132	0xbd723162	-0.059129126
133	0xbdfdebbe	-0.1239848
134	0xbe6655b3	-0.22493629
135	0xbe816e78	-0.25279593
136	0xbe429a37	-0.19004141
137	0x3e2dcbd8	0.16972291
138	0xbdc13900	-0.094347
139	0xbd1df986	-0.038568042
140	0x3e94e3f7	0.29080173
141	0x3e9bdfbc	0.30444133
142	0x3e0f1aca	0.13975063
143	0xbcc03a18	-0.023465201
144	0xbcdefd4a	-0.027220387
145	0x3d9cbf38	0.076536596
146	0x3d2e78f5	0.042595822
147	0x3e103594	0.14082938
148	0xbe398659	-0.18117656
149	0xbe89dfcb	-0.26928553
150	0xbe4c29a1	-0.19937755
151	0xbe46a9fc	-0.19400781
152	0xbc7351d4	-0.014851052
153	0x3cf7f6da	0.030269075
154	0xbe258cb0	-0.1616695
155	0x3db468ea	0.08809073
156	0x3e0cb869	0.13742222
157	0x3e88ebe8	0.26742482
158	0xbe2a1eb5	-0.16613276
159	0xbe84aab8	-0.25911498
160	0xbe298684	-0.1655522
161	0xbe1bc6fc	-0.15212625
162	0xbe62c319	-0.22144736
163	0xbe810e41	-0.25206187
164	0x3e4a7262	0.19770196
165	0x3e2b95bb	0.16756336
166	0xbe4be970	-0.19913268
167	0x3e9987a9	0.29986313
168	0x3e646a18	0.22306097
169	0x3e87e9ac	0.26545465
170	0xbe9d759b	-0.30753788
171	0x3e40f8d1	0.18844916
172	0xbd07f46b	-0.03319208
173	0x3dbb1e8c	0.09136686
174	0x3d024038	0.031799525
175	0x3e2c2296	0.16810068
176	0xbea67a63	-0.3251525
177	0xbc84ff65	-0.016235063
178	0x3db805de	0.08985494
179	0x3e3f1996	0.18662104
180	0x3d79860c	0.060918853
181	0xbe47f6a6	-0.19527683
182	0xbe6f5428	-0.23371947
183	0x3e9d8c54	0.30771124
184	0x3bf996ce	0.0076168543
185	0x3c55d5be	0.013051448
186	0xbe65f990	-0.22458482
187	0xbe8bb432	-0.27285916
188	0x3e606d4e	0.21916696
189	0xbde47c3d	-0.11156509
190	0x3e252406	0.16127023
191	0xbd0914df	-0.03346717

model/attention_layer/MatMul_1 f4 [1, 128]
0	0x3d759ac0	0.059962034
1	0x3d28d318	0.04121694
2	0xbde7f38c	-0.1132575
3	0xbdf5caee	-0.120015964
4	0x3df0c184	0.1175566
5	0x3dce4a50	0.10072768
6	0xbe141c48	-0.14463913
7	0xbdcc7477	-0.099831514
8	0xbc0b8c60	-0.008517355
9	0xbe0d8abc	-0.13822454
10	0xbe19fab0	-0.15037036
11	0x3e57098c	0.20999736
12	0x3d3e7248	0.046495706
13	0xbd9acbc4	-0.075583965
14	0xbe4756be	-0.19466683
15	0x3dba3a68	0.09093171
16	0x3d1ae118	0.037812322
17	0xbcbc7350	-0.023004204
18	0xbe230ae3	-0.15922122
19	0xbe30e715	-0.17275651
20	0xbce5bf70	-0.028045386
21	0xbe45f177	-0.19330393
22	0xbdeef4c0	-0.11667776
23	0x3dee1d00	0.11626625
24	0x3c99df68	0.018783286
25	0xbe2804ee	-0.1640813
26	0x3cf620c0	0.030044913
27	0xbe3350ab	-0.17511241
28	0x3e55c19a	0.20874634
29	0x3e37c20c	0.17945117
30	0xbc9e47e0	-0.019321382
31	0x3cc92e20	0.024558127
32	0xbe140a38	-0.14457023
33	0x3c1cba00	0.00956583
34	0xbbdd5560	-0.0067545623
35	0xbdc59693	-0.096478604
36	0x3dbada1c	0.09123632
37	0x3d9f7a90	0.07787049
38	0xbda51eb0	-0.08062494
39	0xbdb3a050	-0.087708116
40	0xbdd1301a	-0.10214253
41	0x3e2c7814	0.16842681
42	0xbe28c7f9	-0.16482534
43	0x3be37680	0.0069416165
44	0xbdfb81ca	-0.12280615
45	0x3e443566	0.19160995
46	0x3cd449e0	0.025914133
47	0xbc9c5088	-0.019081369
48	0x3e3f8038	0.18701255
49	0xbe5130e9	-0.20428814
50	0x3d619cc0	0.05508113
51	0x3dbfbaf8	0.09361833
52	0x3d28b238	0.041185588
53	0xbe03deec	-0.12878007
54	0x3b04e5c0	0.0020278543
55	0xbd3f2df4	-0.046674684
56	0x3e393bb8	0.18089187
57	0x3ddb98a8	0.10722476
58	0x3e5bd620	0.21468401
59	0xbe095ef0	-0.13415122
60	0x3c5bbcf0	0.013411745
61	0x3e0a3c10	0.13499475
62	0xbd66793c	-0.05626796
63	0x3e298700	0.16555405
64	0x3ce19720	0.027537882
65	0x3e056ef4	0.13030607
66	0x3e29e230	0.1659019
67	0x3985e000	0.0002553463
68	0xbde5808d	-0.1120616
69	0xbe1b7250	-0.15180326
70	0x3e1cab1e	0.15299651
71	0xbe425a61	-0.1897979
72	0xbe28e035	-0.16491778
73	0xbde98c87	-0.114037566
74	0xbcf83988	-0.03030087
75	0xbe235441	-0.15950109
76	0xbe2095e9	-0.15682186
77	0xbe145d02	-0.14488605
78	0x3cf4a168	0.02986212
79	0x3e48d80e	0.19613668
80	0x3e33061a	0.17482796
81	0xbdd66231	-0.10467947
82	0x3dea2fd0	0.11434901
83	0x3dfd44ac	0.12366614
84	0xbcf9a990	-0.030476362
85	0x3cdc4ad0	0.026891142
86	0xbe417944	-0.18893915
87	0xbe0cd28f	-0.13752197
88	0x3e0ccf9c	0.13751072
89	0x3e3b1ac4	0.18271929
90	0x3d9a8368	0.07544595
91	0xbd5ee944	-0.05442168
92	0xbe5989d2	-0.2124398
93	0x3c5990f0	0.013279185
94	0xbcfbd078	-0.030739054
95	0x3d2840c8	0.041077405
96	0xbdd3d505	-0.103433646
97	0x3e488cda	0.1958498
98	0xbcde5e50	-0.027144581
99	0xbe22ad54	-0.15886432
100	0xbda6df4e	-0.08148061
101	0xbe1991b0	-0.14996982
102	0xbc226910	-0.009912744
103	0xbd8dfffe	-0.06933592
104	0x3e494466	0.19654998
105	0x3dc69e34	0.096981436
106	0x3d8551c8	0.06509739
107	0x3e513daa	0.20433679
108	0xbe37948e	-0.17927763
109	0x3e3e0bb8	0.18559158
110	0xbe44c4de	-0.19215724
111	0xbd8dcbb2	-0.069236174
112	0xbdc64c08	-0.096824706
113	0x3d1ef668	0.03880921
114	0xbd1c1e2c	-0.03811471
115	0xbdbf48ce	-0.09340058
116	0xbe250790	-0.16116166
117	0x3b12c1c0	0.0022393316
118	0xbe493944	-0.19650751
119	0xbd0023dc	-0.0312842
120	0xbd4f6f48	-0.050643235
121	0xbe45bd96	-0.19310603
122	0xbe288108	-0.16455472
123	0xbd7c7fe0	-0.06164539
124	0x3d49d018	0.04927072
125	0xbe05996a	-0.13046804
126	0xbe29c774	-0.16579992
127	0x3e34dec6	0.17663106

model/building_output/BiasAdd/ReadVariableOp f4 [3]
0	0x3bc966db	0.0061462945
1	0xbc3b3382	-0.011425855
2	0xbba51174	-0.005037481

model/dense_2/BiasAdd/ReadVariableOp f4 [128]
0	0x3c2b939a	0.010472203
1	0x3ce3dda8	0.027815655
2	0x3c863cd4	0.016386427
3	0xbbf8a21a	-0.0075876834
4	0x3c26d138	0.010181718
5	0x3c705e73	0.014670956
6	0x3c27a054	0.010231096
7	0x3cd39f6c	0.025832854
8	0xbc0409f9	-0.008059018
9	0x3c546a80	0.012964845
10	0x3c19d97c	0.009390231
11	0x3c6a50cd	0.014301491
12	0xbacfeeed	-0.0015864052
13	0x3c08d481	0.008351446
14	0x3cb73aea	0.02236696
15	0xbbb9afa8	-0.005666692
16	0xbaef80a5	-0.0018272592
17	0x3bd820fe	0.00659573
18	0x3c9a8cad	0.018865908
19	0x3c69cab3	0.014269519
20	0x3c15fde6	0.009154772
21	0xbb404601	-0.00293386
22	0xba73ff17	-0.00093077257
23	0x3cc548e5	0.02408261
24	0x3c216288	0.009850152
25	0x3b910f4b	0.004426872
26	0x3c3a321d	0.011364487
27	0x3c42d305	0.011891131
28	0x3cd5e257	0.026108904
29	0x3c4f87f5	0.012666692
30	0x3cde54f0	0.02714011
31	0x3c5df7f2	0.013547884
32	0x3be2d60b	0.0069224886
33	0x3c93b435	0.018030265
34	0x3ae0fa3c	0.0017164419
35	0x3c397645	0.011319702
36	0x3d20e5cb	0.039281648
37	0x3c0302b5	0.007996251
38	0xbba3e1ac	-0.0050012674
39	0x380e3dbf	3.3912944e-05
40	0x3c0e023f	0.008667528
41	0xbb8358d1	-0.0040083905
42	0x3cc13914	0.023586787
43	0x3a9a58d5	0.0011775742
44	0x3cadfe6c	0.021239482
45	0x3c90e479	0.01768707
46	0x3c6a5dcc	0.0143045895
47	0x3c9e32c4	0.019311316
48	0x3c8d348c	0.01723697
49	0x3c5c9b65	0.013464783
50	0x3b9cbb4d	0.00478307
51	0x3ccd5679	0.025065647
52	0xbc870745	-0.016482959
53	0x3be902bf	0.007110923
54	0x3c982875	0.018573979
55	0x3bf86988	0.0075809397
56	0xbcd37a52	-0.025815163
57	0x3b7a12f3	0.0038158267
58	0x3ca974bd	0.020685548
59	0x3ca193fb	0.019723883
60	0x3cc8f2d3	0.02452985
61	0xbb352035	-0.0027637605
62	0xbb9c8486	-0.00477654
63	0x3d0629c0	0.03275466
64	0xbbe1a8b3	-0.0068865656
65	0xbc8da180	-0.017288923
66	0x3c9b94f7	0.01899193
67	0x3be4c217	0.006981145
68	0xbc29e6b0	-0.010369942
69	0x3d0d2348	0.034457475
70	0x3c97733a	0.018487561
71	0x3c82005d	0.015869314
72	0x3d0652a3	0.032793652
73	0x3979407c	0.00023770513
74	0xbadf5408	-0.0017038593
75	0x3c83fda2	0.016112152
76	0x3c51d998	0.012808226
77	0x3bfbda01	0.0076859
78	0x3cca8a5b	0.024724176
79	0x3d07c54e	0.03314715
80	0x3bbba8e8	0.0057269223
81	0xbb05128f	-0.0020305251
82	0x3c4c6472	0.01247512
83	0x3cb7a967	0.022419645
84	0xbb7a36ea	-0.0038179704
85	0x3c91bdef	0.017790763
86	0x3ca01685	0.019541988
87	0x3c9f9341	0.019479396
88	0x3c62e480	0.013848424
89	0x3cc35fa0	0.023849308
90	0x3c19c95e	0.009386389
91	0x3ab6e669	0.0013954166
92	0x3cbaa53a	0.022783864
93	0x3b9e1979	0.004824814
94	0xbbd6592d	-0.0065413923
95	0x3b8abee8	0.0042341836
96	0xbb8d68f3	-0.0043154894
97	0x3c969d71	0.01838562
98	0x3c2ed356	0.010670504
99	0xba5f5429	-0.0008519316
100	0xba86b10a	-0.001027615
101	0xbc277d58	-0.010222755
102	0x3d00054f	0.031255063
103	0x3c92e032	0.01792917
104	0x3d6b4d6e	0.05744689
105	0x3cfc4ab0	0.030797333
106	0x3a8c859f	0.0010720975
107	0xba1aa7df	-0.00058996485
108	0x3c35e4c1	0.011101902
109	0x3c2ce918	0.010553621
110	0x3cc9791d	0.024593884
111	0x3c763137	0.015026382
112	0x3ba59c10	0.0050540045
113	0x3c9e6e99	0.019339846
114	0x3cb5ea31	0.022206398
115	0xbca2986d	-0.019848073
116	0x3d54ea5f	0.051981326
117	0x3bc5a9c8	0.0060322024
118	0x3c6e3fbe	0.0145415645
119	0x3c5cb627	0.013471163
120	0x3be6cbe0	0.0070433468
121	0x3c2aabf0	0.01041697
122	0x3c91bc58	0.017790005
123	0x3c9b2851	0.018940123
124	0x3c9cdd7a	0.019148577
125	0x3bbcdce4	0.005763637
126	0xbb646b3c	-0.0034853956
127	0x3c8b4f0f	0.017005472

model/dense_4/BiasAdd/ReadVariableOp f4 [128]
0	0xbb6725b5	-0.0035270278
1	0x3cddd367	0.027078344
2	0x3c9d036d	0.019166673
3	0x3bd3d81a	0.0064649703
4	0x3cb6acd0	0.0222992
5	0xba40cd5d	-0.000735482
6	0xbbc370cf	-0.0059643756
7	0x3c760a23	0.015017065
8	0x3c811b7e	0.01576018
9	0x3c30fda8	0.010802664
10	0x3c199641	0.009374202
11	0x3c84b8a2	0.016201321
12	0x3be3bad4	0.006949762
13	0x38d52fbd	0.000101655234
14	0x3ca9925d	0.020699674
15	0xbbd15ef8	-0.006389495
16	0x3c5257bd	0.012838301
17	0x39ac8d5b	0.00032911715
18	0x3cd81d94	0.026381291
19	0xbba4ad53	-0.0050255447
20	0x3b83654c	0.0040098783
21	0x3c4d826b	0.012543301
22	0xbbf04c09	-0.007333283
23	0x3ccb2baa	0.024801094
24	0xbc6b6861	-0.014368148
25	0x3b047240	0.00202097
26	0x3c974b9c	0.01846867
27	0x3c4d5896	0.012533328
28	0x3c61bc7c	0.013777848
29	0xbc1252f9	-0.008930915
30	0xba81c2e8	-0.0009900006
31	0x3d160edf	0.036635276
32	0xbc408623	-0.011750731
33	0x3b143a9f	0.0022617949
34	0x3c728156	0.014801344
35	0xb9a6e592	-0.0003183303
36	0xbb945ed3	-0.0045279055
37	0xbcae279f	-0.021259127
38	0xbc0cd91c	-0.008596685
39	0xbb5377dd	-0.003226749
40	0x3cc72685	0.02431036
41	0x3c915589	0.017740982
42	0x3b23dc08	0.0025002975
43	0x3d15f265	0.03660812
44	0xbc84fc0b	-0.016233465
45	0xbbfa3ea1	-0.0076368605
46	0xbc367a9e	-0.011137633
47	0xbd1bbcd6	-0.038021885
48	0x3c7667b1	0.01503937
49	0x3b43e3c0	0.0029890388
50	0x3c0a11ee	0.008427126
51	0x3c932efa	0.017966736
52	0x3c991db4	0.018690921
53	0x3c187c31	0.009306953
54	0x3bb8a2a1	0.0056346213
55	0x3c305f1c	0.010764863
56	0x3b2281a9	0.0024796522
57	0x3b82ef22	0.003995792
58	0x3bfee325	0.0077785426
59	0x3d47ebe7	0.04880896
60	0x3d021462	0.03175772
61	0x3c94c378	0.018159613
62	0x3c970fcc	0.01844015
63	0xbba5903c	-0.0050525945
64	0xbc2cdd24	-0.010550771
65	0x3b97d931	0.0046340455
66	0x3cd4f039	0.025993453
67	0x3c4dc6d6	0.012559613
68	0xbb190302	-0.002334774
69	0x3bd05b6e	0.0063585555
70	0x3c2d1416	0.010563871
71	0x3c638fe4	0.013889287
72	0xbba1cd7f	-0.004937827
73	0x3be2af14	0.0069178436
74	0x3d01a387	0.031650092
75	0x3d1a8154	0.037720993
76	0xbc463fa2	-0.012100132
77	0xbcf6b7f5	-0.030117014
78	0x3995e83a	0.00028592517
79	0x3c40826f	0.011749848
80	0x3cf323d3	0.029680168
81	0x3b9ef20c	0.0048506316
82	0x3c7121b2	0.014717506
83	0x3bd0c11f	0.006370678
84	0x3c3493fe	0.011021612
85	0x3c3646c6	0.011125272
86	0x3d002ab1	0.031290714
87	0x3c40633f	0.011742412
88	0xbc3ced19	-0.011531138
89	0xbab5d30e	-0.0013872103
90	0x3b9d8fd7	0.004808407
91	0x3c4c06cc	0.012452792
92	0xbbb467c1	-0.0055055325
93	0x3c77c261	0.015122027
94	0xbc47b26f	-0.012188538
95	0x3cb9313e	0.022606488
96	0xbc41b01e	-0.011821775
97	0x3b50820c	0.0031815795
98	0x3c739abf	0.014868437
99	0x3cef5d8d	0.029219413
100	0x3ad182fb	0.001598447
101	0x3ca594b0	0.020212501
102	0x3c44d182	0.012012841
103	0xbc992294	-0.018693246
104	0x3c43cdf9	0.011950963
105	0x3c8ea618	0.017413184
106	0x3c05ee36	0.00817447
107	0x3bc8a6a7	0.006123382
108	0xbbd7e608	-0.006588701
109	0x3ae5543b	0.0017496416
110	0x3b84d76d	0.004054001
111	0x39a7fa57	0.0003203924
112	0x3c5bcd6e	0.0134156775
113	0xbb292425	-0.0025808897
114	0x3bd9fd69	0.0066525233
115	0x3cd82b45	0.02638782
116	0x3cfe6add	0.031056816
117	0x3b841152	0.004030385
118	0x3d404bc7	0.046947267
119	0xbbe3e91a	-0.006955278
120	0x3ccc3cc5	0.02493132
121	0x3d3b1d3a	0.04568217
122	0x3c71ab2d	0.014750284
123	0x3c048419	0.008088135
124	0xbbfb5d4e	-0.007671035
125	0x3cb0957c	0.021555655
126	0x3b8e0c4c	0.004334962
127	0x3ca7a385	0.020463714

model/dense_6/BiasAdd/ReadVariableOp f4 [128]
0	0x3cec7c95	0.028868
1	0x3bf36513	0.0074278205
2	0x3b0fe332	0.0021955487
3	0x3c8fd3b2	0.017556999
4	0xbbf8dbe3	-0.007594572
5	0x3cb74ee8	0.022376493
6	0x3c79cc8f	0.0152465245
7	0x3ac2382d	0.0014817767
8	0xbc474bbf	-0.012164055
9	0xbc13ccf5	-0.0090210335
10	0x3c8e3d67	0.017363263
11	0x3c26c110	0.010177866
12	0x3b830aa7	0.0039990726
13	0x3c422b94	0.01185121
14	0x3c7b9831	0.0153561095
15	0x3c4b2ff3	0.012401569
16	0xbc59047e	-0.0132457
17	0xbb5ca11a	-0.003366536
18	0x3ce6d8e5	0.028179595
19	0x3c04bc28	0.008101501
20	0xbb2cdd3e	-0.0026376988
21	0x3bdec717	0.0067986357
22	0x3be3edf9	0.006955859
23	0xb9d6ec2f	-0.0004099323
24	0xbb0ce16f	-0.0021496674
25	0x3c742a42	0.014902653
26	0x3cab6e42	0.020926598
27	0x3c80881c	0.015689902
28	0xbbcd88c8	-0.006272409
29	0x3af3c753	0.0018598832
30	0x3b931497	0.0044885385
31	0x3cea6036	0.02861033
32	0x3c8e1d2a	0.01734789
33	0x3c635613	0.013875502
34	0x3bb529ab	0.005528649
35	0x3b599af7	0.0033203939
36	0x3b9a995f	0.0047179903
37	0xbc9342a4	-0.017976113
38	0x3c2e7fa6	0.010650551
39	0x3cda5c11	0.026655229
40	0x3caecd0b	0.021338006
41	0x3c72711d	0.014797476
42	0xbbd6d663	-0.0065563186
43	0x3d0a0958	0.033700317
44	0x3b0bba1f	0.0021320654
45	0x3c000c9b	0.007815505
46	0xb7ab1c86	-2.039807e-05
47	0x3c0914b9	0.008366757
48	0xbb13a391	-0.0022527913
49	0x3bd38edf	0.0064562405
50	0x3b43e6bf	0.0029892174
51	0xb8f6074c	-0.00011731553
52	0xbc380376	-0.011231294
53	0x3c8527e2	0.01625437
54	0x3c22f16e	0.009945257
55	0x3c821f23	0.015883988
56	0x3c903c93	0.017607009
57	0x3c8786db	0.016543796
58	0xbb3232e8	-0.0027190987
59	0x3c15a76b	0.009134154
60	0x3bcf9790	0.0063352063
61	0x3b85ff21	0.0040892516
62	0x3c1f5363	0.009724471
63	0xbbcce331	-0.0062526693
64	0xbb304127	-0.0026894303
65	0x3c864bc0	0.016393542
66	0x3bca4267	0.0061724666
67	0x3c4f9706	0.012670284
68	0x3c6fe4d0	0.0146419555
69	0x3caa335e	0.020776447
70	0x3c0ae9ab	0.008478562
71	0x3d133042	0.035934694
72	0xba19b674	-0.00058636745
73	0xbc5a0ffe	-0.013309477
74	0x3c477acf	0.012175276
75	0x3c05c54c	0.008164715
76	0xbc1aab7a	-0.009440297
77	0x3ca4d94b	0.020123145
78	0xbb8b5096	-0.00425155
79	0xbbd795f7	-0.0065791565
80	0x3d260f43	0.0405419
81	0x3becc5b1	0.007225715
82	0xbb35f65e	-0.0027765254
83	0x3c487e76	0.012237182
84	0x3cc1371a	0.023585845
85	0x3c5ef10c	0.013607275
86	0x3cc90ac5	0.024541268
87	0x3b9ceac9	0.0047887308
88	0x3cdfa3f9	0.027299868
89	0xbc7db4ee	-0.0154850315
90	0x3c624765	0.013810967
91	0x3cd55274	0.026040293
92	0x3cb46c81	0.022024395
93	0xbb14eedf	-0.0022725386
94	0x3b900088	0.0043945946
95	0x3c97d602	0.018534664
96	0x3d1ddd3b	0.03854106
97	0x3c116523	0.0088742105
98	0xbc7da404	-0.015480999
99	0x3c912a31	0.017720314
100	0x3c9318dd	0.017956192
101	0x3c564631	0.013078258
102	0x3b4f5d1f	0.0031641198
103	0x3bf8bb7f	0.0075907107
104	0x3c2eda86	0.010672217
105	0x3c0c6beb	0.0085706515
106	0x3c3e47d7	0.011613808
107	0x3c959a6e	0.018262114
108	0x3be0e5c2	0.0068633268
109	0x3bbe14f5	0.005800838
110	0x3ca17d7b	0.019713154
111	0x3c30ce94	0.01079144
112	0x3bcf9e37	0.0063359994
113	0xbc2471c0	-0.010036886
114	0x3b72ecff	0.003706753
115	0x3ce1bed2	0.02755681
116	0x3c0f37d6	0.00874134
117	0x3b0d8d09	0.0021598956
118	0x3ca2dba4	0.019880123
119	0x3baf9f48	0.005359564
120	0x3c76b4ac	0.015057724
121	0x3c6e3d40	0.01454097
122	0x3c5adea6	0.013358748
123	0x3c5982de	0.01327583
124	0x3c92dd8e	0.017927911
125	0xbc94da6c	-0.018170558
126	0x3cab2c94	0.02089528
127	0xbbeebe15	-0.007285843

model/dense/BiasAdd/ReadVariableOp f4 [256]
0	0xbc0893ed	-0.0083360495
1	0x3bbbb4d5	0.005728344
2	0x3c5874f3	0.013211477
3	0xbbcb6b19	-0.0062078354
4	0x3bbd5e91	0.0057790955
5	0x3c000756	0.007814249
6	0xbcb56d47	-0.022146834
7	0x3c9e674a	0.019336361
8	0x3a724efe	0.0009243338
9	0x3cc9792c	0.024593912
10	0x3cb32bea	0.021871526
11	0x3c7b71bb	0.01534694
12	0x3c83e5df	0.016100822
13	0x3c2b00db	0.010437216
14	0x3c4525e7	0.012032962
15	0xbb3711dd	-0.0027934231
16	0x3bb1dcfc	0.0054279547
17	0x3ce32cb8	0.027731284
18	0x3cda621b	0.026658108
19	0x3c4ab92b	0.012373249
20	0xbcb74345	-0.022370944
21	0xbc1ff53d	-0.009763059
22	0xbc115eee	-0.008872731
23	0xbc3cab25	-0.011515413
24	0x3cc1cbc3	0.023656731
25	0xbbae3480	-0.005316317
26	0xbb962bed	-0.004582873
27	0x3cf5c980	0.03000331
28	0x3d48cae6	0.049021624
29	0xbb65a0cd	-0.0035038472
30	0x3b4baff4	0.0031080218
31	0x3b172241	0.0023061188
32	0xbb9dc4de	-0.004814728
33	0xbaafec2f	-0.0013421829
34	0x3c32b16e	0.01090656
35	0xbc1e21ba	-0.009651596
36	0x3ceac8f4	0.028660275
37	0x3c08bfa0	0.008346468
38	0x3c429750	0.011876896
39	0x3be1fa0e	0.006896264
40	0x3cf5f3c8	0.03002347
41	0xba8c56cc	-0.001070702
42	0xbb880da0	-0.004152015
43	0x3b280772	0.0025639203
44	0x3d0b7034	0.034042552
45	0xbbe54417	-0.0069966423
46	0x3b1fd559	0.002438864
47	0x3aafcd5b	0.0013412641
48	0x3b9163e1	0.0044369553
49	0x3c2e7a68	0.010649301
50	0xbb400987	-0.0029302554
51	0xbbddd5bf	-0.0067698653
52	0x3cb521ec	0.022110902
53	0x3bf6d0b7	0.007532205
54	0x3be2d4d1	0.0069223423
55	0x3cb14a43	0.021641856
56	0x3cb650d9	0.022255348
57	0x3c44a16b	0.012001376
58	0xbc9c0ce2	-0.019049112
59	0xbb8ee7b0	-0.0043611154
60	0x3c31a750	0.010843113
61	0xbaa0a629	-0.0012256551
62	0x3c5413c3	0.012944165
63	0x3d178b6f	0.03699821
64	0x3c7aa44a	0.015297959
65	0xbbfba8a0	-0.007680014
66	0xb96f146c	-0.00022800424
67	0x3c01b70f	0.00791718
68	0xbc61b6fe	-0.013776539
69	0x3cb79fa7	0.022414995
70	0x3c3ecb3c	0.011645135
71	0x3cbfc217	0.023407979
72	0xbbd34b06	-0.0064481525
73	0x3c34c64a	0.011033604
74	0xbc819eaa	-0.015822727
75	0x3c98e056	0.01866166
76	0x3ce2b9dc	0.027676515
77	0x3c837b0b	0.016049882
78	0x3bcb3e99	0.0062025306
79	0x3cd5260d	0.02601912
80	0x3c009b94	0.007849593
81	0xbc0c9b7f	-0.008581995
82	0x3cdfd383	0.027322536
83	0x3c8980b1	0.016784998
84	0xbc599a26	-0.013281381
85	0x39d41488	0.00040451088
86	0x3b737639	0.0037149324
87	0xbb4854e6	-0.0030568182
88	0xb9d1d87b	-0.00040024877
89	0xbb682ab1	-0.0035425837
90	0x3c8f0bce	0.017461684
91	0x3b8e97c6	0.004351589
92	0x3bd97c59	0.006637138
93	0xbaf16bf9	-0.0018419019
94	0xbb9b2058	-0.0047340803
95	0x3c0f9bbc	0.008765157
96	0x3c07bf19	0.008285307
97	0xbc6fcdd3	-0.014636475
98	0x3cb013dd	0.021493847
99	0x3ca2f1b4	0.019890644
100	0xbb456122	-0.003011771
101	0x3a9c51f0	0.0011926275
102	0xbbffedc5	-0.0078103268
103	0x3cbb108f	0.022835044
104	0x3d511488	0.05104497
105	0x3c9141b2	0.017731521
106	0xb93736ea	-0.00017472697
107	0x3b67049c	0.003525055
108	0xbaaa907d	-0.0013013032
109	0x3c3416fa	0.010991806
110	0xbb8a328a	-0.0042174505
111	0x3c0c3d8e	0.008559598
112	0xbbe3c013	-0.0069503873
113	0x3c397c9e	0.011321215
114	0x3be1f1c1	0.0068952744
115	0x3c414156	0.011795362
116	0x3ba74c12	0.005105504
117	0x3c3083cc	0.01077361
118	0xbb630dbb	-0.0034645635
119	0x3ca739ee	0.020413365
120	0xbb3217a5	-0.0027174738
121	0x3c834130	0.016022295
122	0x3cdbb121	0.02681786
123	0xbccbeed5	-0.024894157
124	0x3c0fa00b	0.008766185
125	0x3caa201a	0.02076726
126	0x3d43e96c	0.04783003
127	0x3c611ff6	0.01374053
128	0xbb8f437a	-0.0043720575
129	0xbb2a8063	-0.0026016466
130	0x3ba0b045	0.0049038255
131	0x3c92bccb	0.01791229
132	0xbc732466	-0.014840221
133	0x3ca16e20	0.019705832
134	0xbcae5324	-0.021279879
135	0x3c915077	0.017738564
136	0xbc4230d0	-0.011852458
137	0x3ccee898	0.025257394
138	0x3d236c7a	0.039898373
139	0x3c6af347	0.014340228
140	0xbcadae2b	-0.021201214
141	0x3c9fc41e	0.019502696
142	0x3d40eb68	0.0470995
143	0x3cc290d5	0.023750702
144	0x3cafd91d	0.021465832
145	0xbc50c376	-0.012741914
146	0x3c9419c0	0.018078685
147	0xbc0c72b9	-0.008572274
148	0x3c1a7ede	0.009429662
149	0x3ca011ba	0.019539703
150	0x3c4baea9	0.012431779
151	0xbc8d37c6	-0.017238509
152	0x3bbc4723	0.005745785
153	0xbbff8434	-0.0077977423
154	0xbae3b0f2	-0.0017371459
155	0x3c4151a3	0.011799249
156	0x3c07431d	0.008255747
157	0x3c7ac051	0.015304641
158	0xbb624510	-0.0034526028
159	0x3b9cceb4	0.004785383
160	0x3ca1b38c	0.019738935
161	0x3bd1478c	0.006386703
162	0x3c68f580	0.014218688
163	0xbb8da53c	-0.004322676
164	0x3bcb6d2f	0.006208084
165	0x3d026a0a	0.031839408
166	0x3b6bed0d	0.0035999448
167	0x3cf8773f	0.030330298
168	0x3d128313	0.035769533
169	0x3c845bfc	0.016157143
170	0xb996525c	-0.00028671592
171	0x39de3cee	0.00042388536
172	0x3d2645db	0.040593963
173	0x3ce66763	0.02812547
174	0x3c2eb66a	0.010663608
175	0x3c609a77	0.013708702
176	0x3c2dba2d	0.01060347
177	0x3b1d4cc1	0.0024002048
178	0x3ceb51e2	0.028725568
179	0x3bd5dc17	0.006526481
180	0xb99161af	-0.00027729335
181	0x3cb0bb53	0.021573698
182	0xb9f3c62d	-0.00046496224
183	0x3c5147fe	0.012773512
184	0xbbbf3cf9	-0.005836126
185	0xbc1a9fb8	-0.009437494
186	0xbca18d1f	-0.019720612
187	0x3c99f4c1	0.018793466
188	0x3ae631f2	0.0017562492
189	0x3d01a871	0.03165478
190	0x3bcb60f1	0.0062066247
191	0x3cad91ca	0.021187682
192	0x3be4412a	0.006965776
193	0x3bfb1eb2	0.0076635713
194	0x3bf81035	0.0075702914
195	0xbabb0b39	-0.0014270312
196	0x3b3ef366	0.0029136776
197	0x3d0b08ae	0.033943824
198	0x3cbfe6dd	0.023425514
199	0x3c59517c	0.013264056
200	0xbc223df4	-0.009902466
201	0xbb5c67fe	-0.003363132
202	0xbb2094f1	-0.0024502838
203	0x3cc6a01a	0.024246264
204	0xbb7e000b	-0.003875735
205	0x3c0e671d	0.008691576
206	0x3c6e33ad	0.014538688
207	0xbc6d694a	-0.014490435
208	0x3c173428	0.009228744
209	0xbcdd2c2b	-0.0269986
210	0xbb6021b5	-0.0034199778
211	0x3bc0bc31	0.005881809
212	0xbb8b1f3d	-0.0042456673
213	0xbaded3bc	-0.0017000358
214	0x3c1fba57	0.009749017
215	0xba486011	-0.00076437095
216	0x3c78a1fd	0.01517534
217	0xbc2f7d33	-0.010711002
218	0x3caf2fd5	0.021385113
219	0x3cec6c9d	0.028860385
220	0x3ba0a054	0.004901925
221	0x3ce0d52f	0.027445404
222	0xbc3e0371	-0.0115975
223	0x3cf01568	0.029307082
224	0x3c4cffb3	0.012512135
225	0xbce97b84	-0.02850128
226	0xbc27be96	-0.01023831
227	0xbc51b3cf	-0.012799217
228	0x3c953482	0.018213514
229	0x3c6f9324	0.014622483
230	0x3bb8b8b7	0.005637254
231	0x3beaedbd	0.007169454
232	0x3b992e3a	0.0046747
233	0xbb7b3572	-0.0038331416
234	0x3bcb7775	0.0062093087
235	0x3c33ab7f	0.010966181
236	0x3b721f14	0.0036944794
237	0x3b89b63a	0.0042026313
238	0x3bfbed76	0.0076882197
239	0x3c44cb05	0.012011294
240	0x3c96cb61	0.018407525
241	0xbc34b17d	-0.011028645
242	0x3ce33a01	0.02773762
243	0xbb410911	-0.0029454867
244	0x3bafd6ac	0.005366167
245	0x3c9ca614	0.019122161
246	0xbc24c44c	-0.010056566
247	0x3d07444b	0.033024114
248	0x3ce235b3	0.027613496
249	0xbbd095cd	-0.006365514
250	0x3c81747c	0.015802614
251	0x3c806799	0.0156744
252	0x3cbd847a	0.023134459
253	0x3b80fdf0	0.0039365217
254	0x3b933720	0.0044926554
255	0x3cfb29e3	0.030659622

model/floor_output/BiasAdd/ReadVariableOp f4 [5]
0	0x3cf8b338	0.030358896
1	0x3af1ca31	0.0018447099
2	0xbd1dd120	-0.038529515
3	0xbca222e6	-0.019792031
4	0xbd00ef46	-0.03147819

model/position_output/BiasAdd/ReadVariableOp f4 [2]
0	0x3cd816d7	0.026378078
1	0x3be751d1	0.007059314

model/batch_normalization_1/batchnorm/mul f4 [256]
0	0x3fadc552	1.3575842
1	0x3fbbd08a	1.4673016
2	0x3fbb6e2e	1.4642999
3	0x3f94a26c	1.1612067
4	0x3fb46289	1.409257
5	0x3f86d177	1.0532674
6	0x3faf7772	1.3708327
7	0x3fb893a3	1.4420055
8	0x3f87c2e9	1.0606357
9	0x3fa9cb14	1.32651
10	0x3fb37d34	1.4022584
11	0x3f8cc152	1.0996497
12	0x3fa4417d	1.2832485
13	0x3f66ac11	0.901063
14	0x3fdb6bc8	1.7142267
15	0x3f84ed46	1.038491
16	0x3f9b9eec	1.2157874
17	0x3f99b025	1.200688
18	0x3f9872fb	1.1910089
19	0x3f96da21	1.1785318
20	0x3fb51219	1.4146148
21	0x3fa3839e	1.2774541
22	0x3fa51c90	1.2899342
23	0x3fb331c1	1.3999559
24	0x3fab7475	1.3394915
25	0x3faae9f4	1.3352647
26	0x3fadf304	1.3589787
27	0x3f86750f	1.0504473
28	0x3f8bc1de	1.0918539
29	0x3f74df63	0.9565336
30	0x3f7cb14b	0.9870803
31	0x3f9c4ad2	1.2210333
32	0x3f92159f	1.1412848
33	0x3f97b9ce	1.1853578
34	0x3f7de404	0.9917605
35	0x3f687bf9	0.9081417
36	0x3fc3b91a	1.5290864
37	0x3fc6d62e	1.5534112
38	0x3f8469c7	1.0344781
39	0x3f9c3aa5	1.2205397
40	0x3fa52c25	1.2904097
41	0x3f8acc8a	1.084367
42	0x3faf2511	1.3683187
43	0x3fb1ff18	1.3905973
44	0x3fb06da0	1.3783455
45	0x3fa37629	1.2770435
46	0x3fc30e23	1.5238689
47	0x3f9a1608	1.2037973
48	0x3fb0c892	1.3811209
49	0x3fb225ac	1.3917747
50	0x3fb6875a	1.4260056
51	0x3fa760e6	1.3076446
52	0x3fbda275	1.4815203
53	0x3f8ec1c4	1.1152883
54	0x3f782609	0.9693304
55	0x3fa18f1c	1.2621799
56	0x3fa3409c	1.2754092
57	0x3f87a95f	1.0598563
58	0x3f96e3a0	1.1788216
59	0x3fb4d99c	1.4128909
60	0x3fad3f6a	1.3534977
61	0x3fb3a987	1.4036111
62	0x3fb85e95	1.4403864
63	0x3fc7e9c9	1.561822
64	0x3f99cc42	1.201546
65	0x3f9398d0	1.153101
66	0x3fa05714	1.2526574
67	0x3fa23437	1.2672185
68	0x3f72dd1f	0.94868654
69	0x3fa0b59d	1.2555424
70	0x3fa0801a	1.2539093
71	0x3fbe4b48	1.4866724
72	0x3fbf6e2b	1.4955496
73	0x3faad704	1.3346868
74	0x3fb19222	1.3872721
75	0x3fadbe5f	1.3573722
76	0x3fa49e9c	1.2860904
77	0x3fba81b6	1.4570835
78	0x3f896f5d	1.073711
79	0x3fd3c190	1.6543446
80	0x3f9cbc2b	1.2244924
81	0x3f9ba014	1.2158227
82	0x3fa3a8db	1.2785906
83	0x3fabc4cd	1.3419434
84	0x3fba28e7	1.4543732
85	0x3fa14248	1.2598352
86	0x3f894fb8	1.0727453
87	0x3fb25c5a	1.3934433
88	0x3f89347f	1.0719146
89	0x3f9346d0	1.1505985
90	0x3fa16585	1.2609106
91	0x3f9f96aa	1.2467854
92	0x3faaff8a	1.3359234
93	0x3f9d5e7f	1.2294463
94	0x3fac5d0e	1.3465898
95	0x3f9e05f2	1.2345564
96	0x3fa4ef4f	1.2885531
97	0x3f7933c2	0.973446
98	0x3f7772f2	0.9665977
99	0x3f9f49e7	1.2444428
100	0x3fa703fa	1.3048089
101	0x3fb051da	1.3774979
102	0x3f9947b4	1.1975007
103	0x3fb250a4	1.393086
104	0x3f68ba5a	0.9090935
105	0x3f9af3c7	1.2105645
106	0x3fc15801	1.5104982
107	0x3fa7e576	1.3116901
108	0x3f8b30bf	1.0874251
109	0x3f983fae	1.1894433
110	0x3fae0217	1.3594388
111	0x3f935c23	1.1512493
112	0x3f8b3de4	1.0878263
113	0x3fbf16c1	1.4928819
114	0x3f9bd307	1.2173775
115	0x3faa5b35	1.3309084
116	0x3fa7235d	1.3057667
117	0x3f97afa6	1.1850479
118	0x3f9fb388	1.2476664
119	0x3fa9fb78	1.3279867
120	0x3f827fa9	1.0195209
121	0x3f93abfc	1.153686
122	0x3f6a7503	0.91584796
123	0x3f8c551d	1.0963475
124	0x3fb5fad1	1.4217168
125	0x3f92bd78	1.1464071
126	0x3f9fb2e5	1.2476469
127	0x3fa65519	1.299472
128	0x3f9704a2	1.1798289
129	0x3fac9504	1.3482976
130	0x3fcf5209	1.619691
131	0x3fc9948e	1.574846
132	0x3f998d9b	1.199634
133	0x3fb8d03c	1.4438548
134	0x3f9fd791	1.2487661
135	0x3f78bbc7	0.97161525
136	0x3fb2d9f7	1.3972768
137	0x3faa7651	1.3317357
138	0x3fbac85c	1.4592395
139	0x3f982b5c	1.1888232
140	0x3fd00ce0	1.6253929
141	0x3fa34e96	1.2758358
142	0x3f9d651f	1.2296485
143	0x3fb90fa6	1.44579
144	0x3fbbab45	1.4661642
145	0x3f92f3ac	1.1480613
146	0x3fb0b703	1.3805851
147	0x3f8e7762	1.1130183
148	0x3fad8cc8	1.3558588
149	0x3f8582a1	1.043049
150	0x3fa8bc6e	1.3182504
151	0x3fc6a2cb	1.551843
152	0x3f9b3413	1.2125267
153	0x3fa380da	1.2773697
154	0x3fad514f	1.3540438
155	0x3f93d5fa	1.1549675
156	0x3faddb88	1.3582621
157	0x3fba5400	1.4556885
158	0x3f86fbb7	1.0545567
159	0x3f80f7ab	1.0075582
160	0x3fbe2ae7	1.4856843
161	0x3f92c064	1.1464963
162	0x3faac2a2	1.3340647
163	0x3f72719a	0.9470459
164	0x3fd8f022	1.6948283
165	0x3f9e2300	1.2354431
166	0x3fa56efd	1.2924496
167	0x3fa51cb8	1.2899389
168	0x3fa58e62	1.2934077
169	0x3fbf7cd8	1.4959974
170	0x3f7fc50f	0.9991006
171	0x3fb8d0f3	1.4438766
172	0x3fad2304	1.3526311
173	0x3fada291	1.3565236
174	0x3faa5f09	1.3310252
175	0x3f9d80fb	1.2304987
176	0x3f987e60	1.1913567
177	0x3f8176d4	1.0114388
178	0x3f9d49ca	1.2288144
179	0x3fa38a6b	1.2776617
180	0x3f797ece	0.97459114
181	0x3f9b0370	1.2110424
182	0x3f785421	0.9700337
183	0x3f9fff42	1.2499774
184	0x3f6b3091	0.9187098
185	0x3faf6a3a	1.3704293
186	0x3fbc6a55	1.471995
187	0x3f7ec968	0.9952607
188	0x3f92954c	1.1451812
189	0x3fb3c7f3	1.4045395
190	0x3fa59f11	1.2939168
191	0x3fa28081	1.2695466
192	0x3fa293ae	1.2701318
193	0x3fbc79f4	1.4724717
194	0x3fc5340d	1.540651
195	0x3fa3ca67	1.2796143
196	0x3f8c2403	1.094849
197	0x3f8be41d	1.092899
198	0x3fd0c96e	1.6311471
199	0x3f982390	1.1885853
200	0x3f76f7bc	0.9647176
201	0x3f97b0bf	1.1850814
202	0x3f85455e	1.0411794
203	0x3fac4a4d	1.3460175
204	0x3f8cd573	1.100264
205	0x3f92f434	1.1480775
206	0x3f9c3a58	1.2205305
207	0x3f740dc2	0.9533349
208	0x3fa62992	1.2981436
209	0x3f838ce1	1.0277368
210	0x3fa5d419	1.2955352
211	0x3f9597bc	1.1686931
212	0x3f9ec94f	1.2405185
213	0x3f813c0a	1.0096447
214	0x3f9640de	1.1738546
215	0x3fa28b77	1.2698811
216	0x3f96029b	1.1719545
217	0x3fa82de1	1.3139001
218	0x3fb88bfd	1.4417721
219	0x3fad36c0	1.3532333
220	0x3f9ab69f	1.2086982
221	0x3fb2c3ce	1.3966005
222	0x3fc2df08	1.5224314
223	0x3fb2730e	1.3941362
224	0x3f9cb4c0	1.224266
225	0x3fbdee15	1.4838282
226	0x3f93f277	1.1558369
227	0x3fab4caf	1.3382777
228	0x3f9c0e05	1.2191778
229	0x3fa70d2a	1.3050892
230	0x3f820adf	1.0159568
231	0x3f935030	1.1508846
232	0x3f9d5e1e	1.2294347
233	0x3fa0d30b	1.2564405
234	0x3f7cf480	0.9881058
235	0x3fa73353	1.3062538
236	0x3fadebe5	1.3587614
237	0x3f8a702e	1.0815485
238	0x3fa860c2	1.3154528
239	0x3f9ffd06	1.2499092
240	0x3fb737e9	1.4313937
241	0x3f84f99d	1.0388676
242	0x3f85e39f	1.046009
243	0x3f7eca99	0.9952789
244	0x3f9f0c58	1.2425642
245	0x3fbc8187	1.4727029
246	0x3f978a93	1.1839164
247	0x3f8a95fb	1.082702
248	0x3f78c12a	0.97169745
249	0x3fa721bc	1.305717
250	0x3f9b81b3	1.2148956
251	0x3fa0614c	1.2529693
252	0x3fbcb375	1.4742266
253	0x3fa514cb	1.289697
254	0x3fa46202	1.284241
255	0x3fa1aad6	1.263026

model/batch_normalization_1/batchnorm/sub f4 [256]
0	0xbf363350	-0.71172047
1	0xbf26a2b2	-0.65092003
2	0xbf2b3db8	-0.6689105
3	0xbf3bb2e8	-0.73319864
4	0xbf19bf53	-0.6005756
5	0xbf03a727	-0.5142693
6	0xbf2f2c3a	-0.6842686
7	0xbf2e8753	-0.6817524
8	0xbf108c8a	-0.56464446
9	0xbf31e6ad	-0.6949261
10	0xbf27f07e	-0.65601337
11	0xbefa8cb8	-0.48935485
12	0xbf316905	-0.6930087
13	0xbef078d1	-0.46967176
14	0xbf33feed	-0.7031086
15	0xbf0c2e57	-0.5475821
16	0xbf1af9d9	-0.6053749
17	0xbf217d56	-0.6308187
18	0xbf095893	-0.5365078
19	0xbf204aa9	-0.6261392
20	0xbf1720d1	-0.5903445
21	0xbf3b4c5d	-0.73163396
22	0xbf1bd140	-0.60866165
23	0xbf4959d7	-0.7865271
24	0xbf23b220	-0.6394367
25	0xbf157484	-0.58380914
26	0xbf445195	-0.76686984
27	0xbeeea312	-0.46608788
28	0xbee7b776	-0.45257157
29	0xbf021dab	-0.5082652
30	0xbef1bbef	-0.47213694
31	0xbf2406f8	-0.64073133
32	0xbf047228	-0.5173669
33	0xbf18281e	-0.59436214
34	0xbf0c289e	-0.54749477
35	0xbefb299b	-0.4905518
36	0xbf3446d9	-0.70420605
37	0xbf328278	-0.6973033
38	0xbf005c75	-0.5014108
39	0xbf0e5a6c	-0.5560672
40	0xbf204c17	-0.62616104
41	0xbf0515f8	-0.51986647
42	0xbf3b5dea	-0.73190176
43	0xbf2abdb8	-0.6669574
44	0xbf13f745	-0.5779918
45	0xbf15316c	-0.58278537
46	0xbf308c71	-0.68964297
47	0xbf02e265	-0.511267
48	0xbf266e7b	-0.6501233
49	0xbf425119	-0.75904995
50	0xbf2c02c2	-0.6719171
51	0xbf191e42	-0.59811795
52	0xbf41a584	-0.7564318
53	0xbf10a348	-0.5649915
54	0xbf153d2e	-0.5829648
55	0xbf15d212	-0.58523667
56	0xbf1d11e7	-0.6135544
57	0xbf038de4	-0.5138838
58	0xbf2305eb	-0.63680905
59	0xbf442b73	-0.766288
60	0xbf3061cd	-0.6889923
61	0xbf21a7f0	-0.6314688
62	0xbf104e86	-0.5636982
63	0xbf34c11d	-0.7060717
64	0xbf154737	-0.5831179
65	0xbf0e20b8	-0.55518675
66	0xbf14d7c5	-0.5814174
67	0xbf1a125d	-0.6018427
68	0xbf02c764	-0.51085496
69	0xbf37bc55	-0.71771747
70	0xbf17cd0a	-0.5929724
71	0xbf3c0e13	-0.73458976
72	0xbf329777	-0.69762367
73	0xbf1779d5	-0.59170276
74	0xbf35d6b3	-0.7103073
75	0xbf165390	-0.58721256
76	0xbf144b08	-0.5792699
77	0xbf28ce86	-0.6594013
78	0xbf0fa5bf	-0.56112283
79	0xbf4f265d	-0.8091791
80	0xbf45ba01	-0.77236944
81	0xbf1535a5	-0.5828498
82	0xbf13e596	-0.57772195
83	0xbf438952	-0.7638141
84	0xbf42e87d	-0.76136
85	0xbf09fd2b	-0.5390193
86	0xbf1f6267	-0.62259525
87	0xbf3d7611	-0.7400828
88	0xbf114a54	-0.5675404
89	0xbf15d3c3	-0.5852625
90	0xbf2269e8	-0.6344285
91	0xbf1022b9	-0.5630298
92	0xbf2583f0	-0.64654446
93	0xbf153e65	-0.5829833
94	0xbf0f056a	-0.55867636
95	0xbf287760	-0.6580715
96	0xbf3555b4	-0.708339
97	0xbf000a09	-0.5001531
98	0xbf0093d0	-0.50225544
99	0xbf17b9be	-0.59267795
100	0xbf21c2d2	-0.631879
101	0xbf34dd5d	-0.70650274
102	0xbf07f669	-0.5311037
103	0xbf3be56e	-0.73396957
104	0xbeba749a	-0.36417085
105	0xbf188022	-0.59570515
106	0xbf22649b	-0.6343476
107	0xbf33f457	-0.7029471
108	0xbf0a1698	-0.53940725
109	0xbf12e292	-0.5737697
110	0xbf2d583a	-0.6771275
111	0xbf00863c	-0.50204825
112	0xbf098e58	-0.53732824
113	0xbf3cfcd0	-0.7382326
114	0xbf184f1d	-0.5949572
115	0xbf20700c	-0.6267097
116	0xbf169030	-0.5881376
117	0xbefde1ad	-0.4958624
118	0xbf1e6710	-0.6187601
119	0xbf27b959	-0.65517193
120	0xbf176a09	-0.5914617
121	0xbf39b065	-0.7253478
122	0xbeff8172	-0.49903446
123	0xbf0f04fd	-0.55866987
124	0xbf2a9355	-0.6663106
125	0xbf0ded12	-0.55439866
126	0xbf291c27	-0.6605858
127	0xbf00bfca	-0.50292647
128	0xbf1026c8	-0.56309175
129	0xbf1e2582	-0.6177598
130	0xbf48643a	-0.78277934
131	0xbf4b9035	-0.7951692
132	0xbf156463	-0.583563
133	0xbf4412ba	-0.76591074
134	0xbf13c61e	-0.5772418
135	0xbf086cc8	-0.53290987
136	0xbf30d7b7	-0.69079155
137	0xbf324b30	-0.6964598
138	0xbf445f12	-0.76707566
139	0xbf27e88c	-0.65589213
140	0xbf13d22b	-0.57742566
141	0xbf0630f6	-0.5241846
142	0xbf1963c1	-0.5991784
143	0xbf309cf3	-0.68989486
144	0xbf4fcbd3	-0.81170386
145	0xbf0e74e5	-0.55647117
146	0xbf0feba3	-0.5621893
147	0xbf04b5e1	-0.51840025
148	0xbf2b1f10	-0.6684427
149	0xbf06a864	-0.52600694
150	0xbf113059	-0.567144
151	0xbf4ecb86	-0.807793
152	0xbeffbdcc	-0.4994949
153	0xbf2632a7	-0.6492104
154	0xbf401614	-0.7503369
155	0xbf510f88	-0.81664324
156	0xbf0c9bac	-0.54925036
157	0xbf256daa	-0.6462046
158	0xbf005cb6	-0.50141466
159	0xbf0ba00e	-0.545411
160	0xbf3ff6f7	-0.74986213
161	0xbf19ffc6	-0.60155904
162	0xbf120c5f	-0.57050127
163	0xbef5c007	-0.47998068
164	0xbf4e0d3d	-0.8048895
165	0xbf0449dd	-0.51675206
166	0xbf0face7	-0.56123203
167	0xbf35f32f	-0.71074194
168	0xbf3c47aa	-0.7354685
169	0xbf432d59	-0.7624107
170	0xbef1b0ee	-0.472053
171	0xbf21a656	-0.63144433
172	0xbf2a41a2	-0.665064
173	0xbf1429d5	-0.5787633
174	0xbf0d4259	-0.55179363
175	0xbf2d22ec	-0.6763141
176	0xbf0f5c57	-0.56000274
177	0xbef71c29	-0.48263672
178	0xbf1b878a	-0.6075369
179	0xbf465060	-0.7746639
180	0xbf0321c8	-0.5122342
181	0xbf12557e	-0.571617
182	0xbef034b1	-0.469152
183	0xbf18b103	-0.596451
184	0xbef27daa	-0.473615
185	0xbf354753	-0.7081196
186	0xbf56bcab	-0.83881634
187	0xbf0a5995	-0.5404294
188	0xbf185e4f	-0.59518903
189	0xbf258ced	-0.6466816
190	0xbf4166bc	-0.75547385
191	0xbf088ecd	-0.53342897
192	0xbf1ac1b2	-0.60451806
193	0xbf2123f6	-0.629455
194	0xbf2cec5c	-0.67548156
195	0xbf0f9428	-0.56085443
196	0xbf05b294	-0.52225614
197	0xbf02a24d	-0.510289
198	0xbf3a708a	-0.7282797
199	0xbf185933	-0.5951111
200	0xbee6ffd2	-0.4511705
201	0xbf0213da	-0.5081154
202	0xbee8c1ba	-0.45460302
203	0xbf14e928	-0.5816827
204	0xbf0b1fcc	-0.54345393
205	0xbf1763bf	-0.59136575
206	0xbf1f9d93	-0.62349814
207	0xbeee10e3	-0.4649726
208	0xbf1e1481	-0.61750036
209	0xbf1776dc	-0.5916574
210	0xbf1fd66e	-0.6243657
211	0xbf004815	-0.5010999
212	0xbf2714ae	-0.6526593
213	0xbef5abd2	-0.4798265
214	0xbefa270c	-0.48857915
215	0xbf183927	-0.5946221
216	0xbf0bdf8f	-0.54638
217	0xbf2c3f00	-0.6728363
218	0xbf140a4d	-0.5782822
219	0xbf4629b5	-0.7740739
220	0xbf0d75a1	-0.5525761
221	0xbf1e58b9	-0.6185413
222	0xbf39aa07	-0.72525066
223	0xbf2e5297	-0.6809477
224	0xbf1d8cd7	-0.6154303
225	0xbf1a954e	-0.6038407
226	0xbf0bbc07	-0.5458378
227	0xbf21d8ad	-0.63221246
228	0xbf0f939b	-0.56084603
229	0xbf3e9779	-0.7444988
230	0xbf009398	-0.5022521
231	0xbf26e7fc	-0.6519773
232	0xbf21176e	-0.62926376
233	0xbf19d7d0	-0.6009493
234	0xbf0bb827	-0.5457787
235	0xbf1a5fe6	-0.6030258
236	0xbf45efcd	-0.7731903
237	0xbf158b4b	-0.5841567
238	0xbf4fb788	-0.8113942
239	0xbf178622	-0.59189045
240	0xbf3d4422	-0.7393209
241	0xbf037f46	-0.5136608
242	0xbf068647	-0.5254864
243	0xbefda19c	-0.4953736
244	0xbf24e8bc	-0.64417624
245	0xbf368945	-0.71303207
246	0xbeff1e02	-0.49827582
247	0xbf137904	-0.5760653
248	0xbeff566f	-0.4987063
249	0xbf3d3f24	-0.7392447
250	0xbf076ba7	-0.5289864
251	0xbf07be58	-0.53024817
252	0xbf2a81dd	-0.66604406
253	0xbf3458bd	-0.70447904
254	0xbf1eac0c	-0.6198127
255	0xbf16a810	-0.58850193
