251008/models/hadnn_n_random_forest.tflite (tflite, 393812 bytes, 20 tensors)

model/dense_1/MatMul;model/dense_1/Relu;model/dense_1/BiasAdd f4 [64]
00000000: 383f 3e3f c5d0 3e3f 865d 5c3f 9cf5 8f3f
00000010: 4c92 313f d8d5 593f e7f3 5a3c b6a8 993e
00000020: d458 3a3f 263e cc3e 1a69 683f 5912 fc3e
00000030: dd9e 0a3f cec2 703f 1d03 223c e026 9d3f
00000040: 56aa d4be 32df 583f 1298 0b3f 8bbf 663f
00000050: 1e98 3b3f 3976 883f ea65 c0be 9516 ed3e
00000060: bd1e 383f 5818 07be 6f62 713f f5ef 533f
00000070: 0491 9e3f 3ade 373f fccd 373f 08f2 473f
00000080: ddd0 373e dc45 563f 2783 f6be 7efd 233f
00000090: b37e c63e f4a7 483f 6b86 4b3f 68df 933f
000000a0: 89b2 c8bc 47c6 a33f 8d32 5c3f 6295 2d3f
000000b0: 3067 c73e 4d0a 07bf 013f bcb9 adc0 f03e
000000c0: ac73 843e dccb 913f a0de 393f 1e8c b1be
000000d0: 0fc8 543f 30f2 a23f 610a 723d ca6f da3e
000000e0: 8ad9 903f 58b3 883f 017f 613e ded1 133f
000000f0: adec 6a3e 94fc fa3e 04e5 853f 7e36 6b3f
0.74315214 0.7453731 0.86080205 1.1246829 0.69363856 0.85091925 0.013363815 0.3001153
0.7279179 0.39891165 0.9078537 0.49232748 0.54148656 0.9404725 0.009888438 1.2277489
-0.41536206 0.8471557 0.54528916 0.9013602 0.7327899 1.0661079 -0.37577754 0.4630629
0.719219 -0.1319288 0.9429082 0.8278802 1.2388005 0.71823466 0.7179868 0.78103685
0.17950769 0.83700347 -0.48146936 0.64058673 0.3876854 0.78381276 0.7950198 1.1552553
-0.024499195 1.2794884 0.86014634 0.67806065 0.38945913 -0.5275009 -0.00035905096 0.47022
0.258695 1.1390338 0.72605324 -0.34677213 0.83117765 1.273016 0.05909193 0.42663413
1.1316388 1.0679731 0.22021104 0.57742107 0.22941847 0.49020827 1.0460515 0.91880023

model/batch_normalization/batchnorm/mul_1;model/batch_normalization/batchnorm/add_1;model/dense_1/MatMul;model/dense_1/Relu;model/dense_1/BiasAdd f4 [64, 128]
00000000: 6b1e 9abd 8bdb 97bb 6756 e23d bdd1 143d
00000010: 1e74 5bbd 38fe 88bd 24be 3fbe fb66 823d
00000020: 006f 56bd be20 02be 61b5 a33c 7684 e43d
00000030: a86a 0bbd e6c4 d43e 5df3 22be 6a44 afbd
00000040: 20a2 a7bd 84a7 583e 437a 75bd 646d 093d
00000050: 8d9b e3bd f1ee 653e 98d4 61be 0164 f1bc
00000060: 2ff3 593c 3f45 e0bd f284 2cbe 6db9 06be
00000070: 6eea 07be 5089 f7bd 5f7a 11be e6a7 393d
00000080: 881a 1ebe f028 b93d 3b40 153e 1386 3cbe
00000090: 801d 303d fcaf 8dbd a378 bcbe 88b0 8dbd
000000a0: 6541 bdbd 387c 9e3d f190 81bc 3d16 743d
000000b0: 3cd3 e6bd f757 ea3d efa7 93bd 1651 05bf
000000c0: 6551 74be 8b5b 7fbd d61f 18be 580c fcbe
000000d0: 90b8 de3e 415e bb3d 4893 723d 1686 7ebe
000000e0: 16ae c3bc 5060 28be b0cf 78bd 31b8 18be
000000f0: 3b12 493e 1f49 ce3d 5293 d13d d8e1 d3bd
00000100: 4231 89bd f1a1 283c 6719 7abc 9c6c 623e
00000110: 98aa 47be 88e0 6bbe 595a 8dbc fd15 7d3d
00000120: d325 c13d 7892 e53b da23 15bd aca2 333e
00000130: 06e1 8dbb 2a15 c6bd 7238 38bd b8eb 013e
00000140: f6e9 c6bd 0714 08bd 13bf d1bd 5b6f cb3d
00000150: 0e4d a3bb ee0f ac3d b167 023b 5707 dbbc
00000160: 006c 4bbc b81d f43d 68f1 493d 3584 06be
00000170: 3c64 96bd cb05 51bd 9268 b63d fd8a 9ebd
00000180: e028 e83d 48f8 a0bd 1b90 093e 0111 d8bd
00000190: ef8a 72be 0e61 82bd b18b 263d 2563 ff3d
000001a0: ba63 ae3d a61e 943d 7364 043e f691 1e3d
000001b0: 7ac1 57bc 68dd cf3c db32 db3d abb0 213e
000001c0: 4b97 793d 2932 883e d5f1 bebd 5724 dd3d
000001d0: 26fa 8b3c 2b03 50be 25c8 bbbd 7365 bd3e
000001e0: cfbe efbd 343a 1dbe 66ad 11be 26a0 c93d
000001f0: f0c1 e5bd c73d 1ebe ca8b 823e 0d5a 653d
00000200: 986a c9bb 40ad e5bd 34b0 22be 9e2f 933c
00000210: a51e 32bd 79bd 723c e343 8b3d 7d37 b03c
00000220: 40c2 0abd 980f df3d 3a82 b1bd 467c 69be
00000230: b951 8cbe a3ca 39bd fee5 103e 4395 6cbd
00000240: 7510 09be 0844 893c e829 89be 31e6 70bb
00000250: a1c7 16be 2e0a 4c3e 1615 b53c 985a 2a3e
00000260: 5d99 4cbd 5003 9b3e 3659 efbd 3983 6c3e
00000270: b898 f5bc 9cff 6bbd acb4 f9bd c117 dabd
00000280: 9011 1cbe cc5d dd3d d482 a93d 0a13 1cbe
00000290: da87 a4bd 877b 063e ca36 14be df35 8bbd
000002a0: b2a6 843e 18a5 0a3d dcf4 14be c3b6 5abd
000002b0: 4798 f4bd c232 cfbd 5997 853e f24b 95be
000002c0: 346d 8b3d 6f7f 023e 4346 bebb 4bcd 1cbe
000002d0: f8ac ac3e 360a 0bbe 930e ce3d 1782 6abd
000002e0: d63d a33d d0ef d5bd 3e77 0b3d 458e 813e
000002f0: d989 603d f762 dcbc e527 e3bd e334 823b
00000300: 03ff 6abd facd f0bd 7af1 643d 3550 93bd
00000310: e9f5 0e3e d531 87bd 15a0 8a3d cfda 643c
00000320: e537 6f3f e8d8 583e 564c 06be ffbe 36bd
00000330: 5d9c 5cbe 914a ce3d 9852 4abc 6a08 45bd
00000340: 52ef 63bc 61c2 c7bd bbd8 47be c9c3 103e
00000350: d567 783d 7646 1c3d ff56 b5bc dd21 03bd
00000360: a3ac 0bbe 7b8a 5b3e 1193 53bc 261c b3bd
00000370: 192c 1f3d f20e c13d d09b 0e3d 114d 1fbe
00000380: 398e 03be 5153 f7bc 354d 0e3d ba51 99bd
00000390: d8db 1e3e af22 0cbd 9b0d 5fbc ab3e 1abe
000003a0: 933a c63d 4044 44be ff90 643c 7d8f 48be
000003b0: 8da9 65bd e7ec 5cbe 1c0f 343e 0df9 9e3d
000003c0: 8c68 513d cd54 0c3e 8ed9 f8bc 040b 81bd
000003d0: 8c59 a4be 0d57 4fbe 663a 273c 0390 53bf
000003e0: 15d5 e0bd 284f 86be 1c86 6bbd 4dc7 37be
000003f0: 4b4b 4fbe e572 0dbc 3853 47be d473 09bd
-0.07525333 -0.004634326 0.11051636 0.036332835 -0.053577535 -0.066891134 -0.18724877 0.06367298
-0.05235195 -0.12707803 0.01998395 0.111580774 -0.034037262 0.41556472 -0.15913148 -0.08557971
-0.0818522 0.21157652 -0.05993105 0.03355159 -0.11113653 0.2245443 -0.22053754 -0.02946663
0.013302608 -0.10950708 -0.1684759 -0.13156672 -0.13273022 -0.12086737 -0.14206837 0.045326136
-0.15439808 0.09041011 0.14575283 -0.1841052 0.042996883 -0.06918332 -0.3681079 -0.06918436
-0.09240989 0.077385366 -0.015816184 0.05959152 -0.112707585 0.11442559 -0.07209765 -0.5207685
-0.23859175 -0.06234316 -0.14855894 -0.49228168 0.43500185 0.09148837 0.05922249 -0.24855837
-0.023886722 -0.1644299 -0.06074494 -0.14914013 0.1963586 0.100725405 0.10233177 -0.10345811
-0.06698848 0.010292516 -0.015264845 0.22111744 -0.1949867 -0.2303487 -0.017254995 0.061788548
0.094310425 0.007005986 -0.036411144 0.17542523 -0.0043298034 -0.096720055 -0.044975705 0.12687576
-0.09712593 -0.033222225 -0.10241523 0.09933349 -0.004983551 0.08401476 0.001989823 -0.026736898
-0.012415886 0.11919731 0.04930249 -0.1313637 -0.07343337 -0.051030915 0.08906664 -0.07741354
0.11335921 -0.07859856 0.13433878 -0.10550118 -0.23685811 -0.06366168 0.040660564 0.12470082
0.08515115 0.07232408 0.12928943 0.038713418 -0.013168687 0.02537413 0.10703059 0.1579005
0.0609353 0.2660077 -0.093234695 0.10797947 0.017087054 -0.20313708 -0.09169034 0.36991462
-0.11706316 -0.15354234 -0.14226303 0.09844999 -0.11218631 -0.15453254 0.25497276 0.055994082
-0.00614674 -0.112146854 -0.15887529 0.017967042 -0.043486256 0.014815682 0.06800058 0.021510834
-0.033876657 0.10891646 -0.08667417 -0.22801313 -0.274061 -0.045359265 0.14150235 -0.057759535
-0.13385184 0.016756073 -0.26789784 -0.0036758299 -0.1472459 0.19925758 0.022104781 0.16636121
-0.049950946 0.30275965 -0.116869375 0.23096932 -0.029980049 -0.057616815 -0.121926636 -0.10649062
-0.15241075 0.10808906 0.082769066 -0.15241638 -0.08033724 0.1313306 -0.14474025 -0.067973845
0.25908428 0.033848852 -0.14546531 -0.05339695 -0.11943107 -0.10117103 0.26092032 -0.29159504
0.06807938 0.12743925 -0.0058067157 -0.15312688 0.33725715 -0.13578114 0.100613736 -0.05725297
0.07970779 -0.10446131 0.034049265 0.25303856 0.05481896 -0.026902659 -0.11091594 0.0039735897
-0.057372104 -0.11758037 0.055894352 -0.07193033 0.13960995 -0.066013016 0.067688145 0.013968184
0.93444663 0.21176493 -0.13115057 -0.04461574 -0.21544023 0.10072816 -0.012348793 -0.048103727
-0.013912039 -0.09753872 -0.1951627 0.14137186 0.060645897 0.038153134 -0.02213621 -0.032014716
-0.13640074 0.21439545 -0.012913481 -0.08745603 0.038860414 0.09426679 0.034816563 -0.15556742
-0.12847222 -0.030191096 0.0347416 -0.07486291 0.15513551 -0.034212764 -0.013614084 -0.15062968
0.09679141 -0.1916666 0.013950585 -0.19585986 -0.0560699 -0.21574746 0.17583889 0.077623464
0.051125094 0.13704224 -0.030377176 -0.06300929 -0.3209957 -0.20248051 0.010206794 -0.8264162
-0.10978142 -0.26232266 -0.057500944 -0.17947121 -0.20243566 -0.00863335 -0.19465339 -0.033557728

model/batch_normalization_1/batchnorm/sub f4 [64]
00000000: a4ed 1cbf 7f83 09bf 9db3 1dbf 8436 32bf
00000010: 2906 36bf f669 1fbf d68d 09bf 4c92 15bf
00000020: d906 1abf 96ca 06bf 5c75 1dbf 3b8e 1cbf
00000030: 82fc e6be 9d26 2dbf da26 12bf 705a 15bf
00000040: 5608 debe 9ad7 02bf c3b6 36bf 2a91 14bf
00000050: 4019 31bf 0fec 3fbf 83a8 0bbf b827 16bf
00000060: ea72 31bf 7eb5 dcbe 8eda 1abf 52e0 27bf
00000070: 66f3 18bf 66fb 05bf 201c 23bf ca2c 38bf
00000080: 993e 01bf 1175 0cbf 2ed7 d9be 5653 0fbf
00000090: 4e68 32bf a7c4 28bf 5766 10bf a839 2ebf
000000a0: 0b88 c4be 03b8 25bf 7230 38bf b5bc 1fbf
000000b0: 7a04 1bbf b25c 07bf 31a7 0cbf 20f4 17bf
000000c0: 989e 22bf f459 1dbf 2036 1bbf da13 06bf
000000d0: 435b 16bf eede 58bf 95fe 0bbf 60d8 01bf
000000e0: 40fc 17bf f0c4 19bf 73a8 18bf 6e05 0abf
000000f0: 3613 0fbf a8c7 27bf 53e0 2bbf 4061 2ebf
-0.6130011 -0.5371627 -0.61602193 -0.69614434 -0.7110315 -0.6227106 -0.5373205 -0.58426356
-0.601667 -0.5265287 -0.615072 -0.61154526 -0.45114523 -0.67637044 -0.5709053 -0.5834112
-0.43365735 -0.5111023 -0.7137262 -0.58034 -0.69179153 -0.7496957 -0.54554003 -0.58654356
-0.6931597 -0.43107218 -0.6048974 -0.6557666 -0.59746397 -0.5233673 -0.6371479 -0.7194334
-0.5048614 -0.5486613 -0.42546982 -0.55986536 -0.69690406 -0.6592507 -0.5640616 -0.68056726
-0.38385043 -0.64733905 -0.7194892 -0.6239732 -0.60553706 -0.52875817 -0.54942614 -0.5935688
-0.63523245 -0.6146538 -0.60629463 -0.5237404 -0.58733004 -0.84715164 -0.54685336 -0.5072079
-0.5936928 -0.6006613 -0.59632033 -0.53914535 -0.5588869 -0.65539026 -0.67139167 -0.6811714

model/batch_normalization_1/batchnorm/mul f4 [64]
00000000: b640 a23f d746 883f 09c1 913f f5e8 893f
00000010: 5e03 933f 6d61 9c3f bc64 963f 724a 783f
00000020: a3f3 893f 3054 993f eacc 8e3f c6b8 8d3f
00000030: 071b 833f 55a4 8f3f c92d 853f 69d1 9a3f
00000040: c1e2 7a3f b9a9 7e3f 7a48 793f a5ba 743f
00000050: 0101 933f 42c1 a33f 7f9d 843f a75d 873f
00000060: e0a5 863f 69cb 833f 4822 883f 1427 903f
00000070: 3f0f 993f 0351 883f 2c9a 8f3f 7aca 813f
00000080: de79 6d3f 8424 873f 4ebd 8f3f c78f 783f
00000090: 2557 943f 1fce 8f3f 440c 8d3f 6bdc 863f
000000a0: f53d 8a3f 8452 9e3f c4b3 8e3f e636 8f3f
000000b0: 6db6 783f 9614 a63f 2d54 853f 182e 843f
000000c0: 2023 7d3f 312f 943f cb63 7f3f de46 823f
000000d0: bda4 9f3f ef07 983f cd3d 873f 5766 853f
000000e0: c2af 983f 2f52 a93f acb2 8d3f ce25 a73f
000000f0: 3a3b 873f 8e20 833f 671f 903f c7ed a33f
1.2675998 1.0646619 1.1387035 1.0774218 1.1485403 1.2217232 1.1749492 0.96988595
1.0777477 1.1978817 1.1156285 1.1072013 1.0242623 1.1222025 1.0404598 1.2095157
0.9800225 0.99477726 0.97376215 0.95597297 1.1484681 1.2793353 1.0360564 1.0575455
1.0519371 1.0296451 1.0635462 1.1261926 1.1957778 1.0649723 1.1218925 1.0139916
0.9276408 1.0558019 1.1229646 0.97094387 1.1589094 1.1234778 1.1019368 1.0536016
1.0800158 1.2368932 1.114861 1.1188629 0.9715336 1.2975032 1.0416313 1.0326567
0.9888172 1.1576902 0.99761647 1.0177877 1.2472149 1.1877421 1.0565735 1.0421857
1.1928637 1.3228205 1.1070151 1.3058412 1.056495 1.024431 1.1259583 1.2806939

model/position_output/BiasAdd/ReadVariableOp f4 [2]
00000000: 484e 03bd b043 383d
-0.032057077 0.044986427

model/floor_output/BiasAdd/ReadVariableOp f4 [5]
00000000: 1df0 82bb 9fc3 9c3c e6f7 733a e8ea f63c
00000010: f2c6 8abd
-0.003995909 0.019136248 0.0009306654 0.030141309 -0.06776227

model/dense/BiasAdd/ReadVariableOp f4 [128]
00000000: 7543 f13c f4e1 003e b57f 543d bbcc 0e3d
00000010: 88a2 ae3d 11a5 2e3e c54d 1d3d 1202 2d3d
00000020: e291 883d efe3 2c3e 74b8 663c 1ae8 0c3e
00000030: 8edc 1f3e 3e95 dd3d 365d 283e d682 073e
00000040: 0636 333e ac54 213e aba2 ac3d 77ca d93d
00000050: 078b 9cbd e064 fd3d bd94 293d a378 a93d
00000060: b06e dd3d aa37 0d3d ae2e ff3d c232 b8bc
00000070: 7f42 203e 96eb ed3d 4d86 fb3c 1302 9a3d
00000080: ed7a ac3a ee44 403e 6954 25bb bf80 153e
00000090: 2bbe 5ebd 2d34 3b3d e059 6a3e 2663 f73d
000000a0: effa 0f3d 404a bf3d 0ff5 ab3d 6de5 a53d
000000b0: bf19 b63c 8be0 713d 5a8e ee3c 1cc0 cf3d
000000c0: 710e 433e 6139 313d 1938 003e fdcb 163d
000000d0: af22 133e 63e5 ce3d 5c9d 273e 0052 80bc
000000e0: a7e1 ba3d b51c 873d bf04 c03d 33a3 7b3e
000000f0: 5a1f 06bb 2ece 4e3e ca31 d33d e807 263e
00000100: 3ecd 033e a347 f63d 6c6f 073e a9e8 d33d
00000110: 318d 073e be62 c73d 1b46 7dbc 2604 af3d
00000120: 7db9 a63d 4f7a 493d 0db3 153e d551 313e
00000130: 6488 4b3d 0c0f 203c cbe9 e83d 158d 0c3e
00000140: dbcf 9e3d a080 183e 1867 3a3e 605f 1a3d
00000150: 4571 903d 05ab 0b3e 0bdc ec3d e2c8 183e
00000160: 70c9 063e 13ce c53d 2faa 033e e3e7 383e
00000170: 14d3 b63d 2ffe d73d 22ab e53d df0a 373e
00000180: 20c8 963d 8d38 ad3d b9bb 983c df3f 7f3d
00000190: b5f3 7b3d 3d8b 4b3d b44f b73d e812 ac3d
000001a0: 785d 143b 52d8 113e 2204 053e eb0d 173e
000001b0: 1796 b33d 1243 0a3e 99fc 2d3d ba80 ec3d
000001c0: 2f0c 493d 5c77 cb3d d1e5 883c 7dd9 273e
000001d0: 7e67 333e 27e1 223e d693 c33d 488b 4c3d
000001e0: d963 263e 197b a53d cf90 3d3e aef7 d53d
000001f0: fb95 1e3e 2d14 873d 934d eb3d 64e8 2f3e
0.029451111 0.12586194 0.051879603 0.034863215 0.08527094 0.17055155 0.038404245 0.042238303
0.0666845 0.16883825 0.014082063 0.13760415 0.15611479 0.10819481 0.16441807 0.13233504
0.17501077 0.15754956 0.08429464 0.1063432 -0.07643705 0.12372756 0.041401614 0.08274963
0.108121276 0.034476914 0.12460075 -0.02248514 0.15650366 0.116172 0.030703688 0.07519927
0.0013159193 0.18776295 -0.0025227314 0.14599894 -0.054380577 0.045704056 0.22885847 0.12079458
0.03515142 0.09340334 0.083963506 0.081004 0.022229074 0.05905203 0.029120613 0.10144064
0.19048478 0.04326761 0.125214 0.036815632 0.143687 0.10102346 0.16368622 -0.0156641
0.09125071 0.06597272 0.09375905 0.24573974 -0.0020465464 0.20195839 0.10312231 0.16213953
0.12871262 0.12025382 0.13226098 0.10347111 0.13237454 0.097356305 -0.015458609 0.08545713
0.08140848 0.04918891 0.14619084 0.17316373 0.04969062 0.009769212 0.113727175 0.13725694
0.07754489 0.14892817 0.1820339 0.037688613 0.070528544 0.13639458 0.11565407 0.1492038
0.1316278 0.09658446 0.12857889 0.18057208 0.08926979 0.105465285 0.112142816 0.1787524
0.073623896 0.08458052 0.0186442 0.06231677 0.061511714 0.049693335 0.08950749 0.084020436
0.002263872 0.14242676 0.12989858 0.14751403 0.08768862 0.13502148 0.042477224 0.1154799
0.049083885 0.09934875 0.016711148 0.16391559 0.17519948 0.15906201 0.09549682 0.049937516
0.16249026 0.0808012 0.18512271 0.10447632 0.154869 0.06595645 0.114894055 0.17178494

model/dense_4/BiasAdd/ReadVariableOp f4 [64]
00000000: a911 923d a8d4 d6bd 6321 bbbd 2676 0abd
00000010: d773 343c 7ef1 bdbd a472 9fbd ff4f 9ebd
00000020: beea 54bd 5908 e5bd 266a a7bd a890 24be
00000030: f1a7 81bc b1dd c0bd 26f6 e2bc 79d9 acbd
00000040: 5d11 9abd 7406 0dbe bf82 44bd fc37 96bd
00000050: 9e27 a2bd 309f 96bd 19ca d4bd a215 5bbc
00000060: 8237 9ebd ec8c 5abd 9982 94bd 590b 9fbb
00000070: 063a 02be 3ce1 0ebe 3c16 87bb 0180 7bbd
00000080: cc81 68bd f22f 32bd a163 f6bc 8469 2abe
00000090: 179b 99bd 9975 53bd 5686 29bd 881a 2fbc
000000a0: 68e6 16be 842a 933c f1ec 8dbd fbed 043d
000000b0: b3ca 12bd a2c9 8abc 65b9 97bd 4fbd 2dbc
000000c0: db6d d5bd 751b eebc b47d 4a3b e45c 6dbc
000000d0: 0256 acbd f33d 8bbd 81eb 05be 84f9 bdbc
000000e0: 75af 9fbd 36aa e3bd cea5 28bd 9b3f a4bd
000000f0: e6d5 e0bd 68a0 bbbd bb11 c93c 1f78 abbd
0.07132275 -0.1048978 -0.091372274 -0.03380408 0.0110139465 -0.092745766 -0.07785538 -0.07730102
-0.05198168 -0.11183233 -0.08174543 -0.16070807 -0.015827151 -0.09417284 -0.027705263 -0.08439917
-0.07522843 -0.13771993 -0.04797625 -0.07334897 -0.07917713 -0.07354581 -0.103901096 -0.013371857
-0.07725431 -0.05335705 -0.07251472 -0.0048536477 -0.12717447 -0.13953108 -0.0041225236 -0.06140137
-0.05676441 -0.043502755 -0.030076804 -0.16641814 -0.07500284 -0.05162582 -0.04138788 -0.010687478
-0.1473633 0.017964609 -0.069299586 0.03245352 -0.03583784 -0.01694185 -0.07408408 -0.010604217
-0.10421344 -0.029065827 0.0030897679 -0.014487479 -0.08414842 -0.06798925 -0.13078119 -0.023190267
-0.07797138 -0.111164495 -0.04117375 -0.08019944 -0.10978298 -0.091614544 0.024544587 -0.08372521

model/dense_3/BiasAdd/ReadVariableOp f4 [64]
00000000: 75fe c13d 827a 463e 8924 853d c670 5abb
00000010: f1bc e83d 3388 043d 684f e73c cd0b b8bd
00000020: ffc0 0d3d 57e0 523d 985c 2c3c 99c3 bfbc
00000030: 597a 463d a077 8fbc 7cc8 0e3d 39ff 3b3d
00000040: 378c 603d 2a8c 703d d8c4 da3d 4adb 0c3d
00000050: 6881 573d 6a74 1f3d 2571 933d 596b 903d
00000060: eb58 633d 7998 cebb b781 7c3c 514b 633c
00000070: 3257 463d e8de d43c cfe6 0b3b 35ba 3c3d
00000080: 3696 c23c 9107 743c 060f 503d 0ae2 3b3d
00000090: 9f73 3b3e 4f99 913c 83b5 0dbd e0b8 943d
000000a0: e1e0 ca3d 0a1b 3e3b acc2 953c 7c46 f3bb
000000b0: bfbb 243d 8b50 273d c995 433d e018 f03d
000000c0: 7d96 2c3e 1735 e83d 0165 733d fdba 0ebd
000000d0: 3c41 8f3d dc8f f73d 8847 8d39 0ba4 113e
000000e0: 346b 4f3c 995f bdba d30f 8f3d 8f2f 06bd
000000f0: cdd6 7b3c 7505 0a3e c8e1 6bbc 5771 863d
0.09472362 0.1938267 0.06501109 -0.0033331378 0.11364163 0.032356452 0.028236106 -0.08986626
0.034607884 0.05148348 0.010520123 -0.023408698 0.048456524 -0.017513096 0.034859166 0.045897696
0.05482122 0.05872742 0.10682076 0.034388818 0.052613646 0.03892938 0.07199315 0.07051725
0.05550472 -0.0063047973 0.015411786 0.013872937 0.048423 0.025985196 0.002134729 0.04607602
0.023753267 0.014894382 0.050795577 0.045869865 0.18305825 0.017773299 -0.03459693 0.072618246
0.099061735 0.0029007816 0.018281303 -0.007424174 0.04021811 0.040848296 0.047750268 0.117234945
0.16854282 0.11338251 0.059422497 -0.034846295 0.06994864 0.12087986 0.0002694691 0.14222734
0.012659837 -0.0014448046 0.0698544 -0.0327602 0.015371037 0.13478644 -0.014397092 0.065645866

model/dense_2/BiasAdd/ReadVariableOp f4 [64]
00000000: c37e 3c3c 03db e93d 350c 513d 0195 ddbc
00000010: e106 cabc 4644 fabc 0aad b33d 7150 2bbd
00000020: 0952 8dbd 4dae 113d 76c7 583d 055e 1fbc
00000030: e509 393d 3449 a73d f4f0 8cbb f304 ae3c
00000040: f324 8bbd d5d4 b5ba f235 10bd 9aa8 a23d
00000050: 06c1 863d ce5c 973d 25d4 0d38 9ba7 703d
00000060: 6140 fcbc 5fc4 b03c 3687 bb3d 253f 87bd
00000070: a8e1 bd3d db5c 0cbc 49ec 143d 5c6e a73d
00000080: 3cc6 b8bc 6d56 4bbc 0fb5 5d3b c7eb 213e
00000090: af38 203c 037f aa3b cec7 3c3d 91b1 3b3c
000000a0: f698 1a3e 6533 7b3c d5db 85bb 0c80 153d
000000b0: c753 55bc 1ca4 103c 1264 daba 3b07 d0bb
000000c0: d0ff b73d a4d8 873c 265d 30bd 73c7 2dbc
000000d0: 4c0f a13d 99ed 363c 4463 d33a fa39 703c
000000e0: de4a c93d 6047 47bc 8fbd 0b3c c4c5 883c
000000f0: 8e7c 46bd d37e 823c b2e2 1b3d a3f4 d43c
0.011504832 0.11418726 0.051037032 -0.02704859 -0.024661483 -0.030550133 0.08773239 -0.04182476
-0.069004126 0.035566617 0.052924596 -0.009727006 0.04517545 0.08168259 -0.004301185 0.021242594
-0.06794157 -0.0013872633 -0.035207696 0.079423144 0.06579785 0.07390748 3.3814595e-05 0.05875359
-0.030792417 0.021578012 0.09156649 -0.06603841 0.09271556 -0.00856706 0.03635815 0.08175346
-0.022555463 -0.012410742 0.0033829843 0.15812598 0.009779139 0.0052031293 0.046088986 0.011455909
0.15097412 0.015332078 -0.004085044 0.03649907 -0.013020462 0.008828189 -0.0016661903 -0.006348518
0.08984339 0.016582794 -0.043057583 -0.010606634 0.07864246 0.011165046 0.0016127606 0.01466226
0.09828733 -0.012163013 0.008529081 0.016695864 -0.04845863 0.015929615 0.03805799 0.025995558

model/building_output/BiasAdd/ReadVariableOp f4 [3]
00000000: 635f 20bd 8744 c93b c69e 063d
-0.039153468 0.0061422023 0.032866262

model/dense/MatMul f4 [128, 556]
00000000: 440d ac88 15cc 9588 6b2a 8989 bc91 1d89
00000010: e4ba 02bc eda0 5abc 60c6 043d e73a 85bb
00000020: ba6c 3a3c 4cfe 663c 29b3 6d09 017a 8b39
00000030: 2cf9 343c 0081 4fbb f463 14bb 669d 593c
00000040: 8d37 493c a1ac f63c c282 5fbc e8b7 973b
00000050: 7261 503c eac6 cabb 51e0 613c 63f2 10bd
00000060: 32f4 ce3c a82e 573c 95ef ef3b d46c c43c
00000070: 2ace 4d3d 857e c13c 425b b63c 4412 173c
00000080: f441 f6ba 1fda 81bb a4ee fe3c 6089 b888
00000090: ccf9 31bc 8499 6ebc d00b 2ebc 7fd5 f5bb
000000a0: 4195 863b f5e5 92bc 757b efba 9db3 c93c
000000b0: b488 c1bb 6d23 4dbb 8a5b 35bc 5efc a0ba
000000c0: 8aa0 b9bb ef6c c3bb e29e 36bd 8f23 a1bb
000000d0: 8fc6 1b3b 420f b03b 652d feba 2c09 16bd
000000e0: 33d4 e3bb 117e de3b d56f 2cbd 75e4 943b
000000f0: b421 2089 ae8e 4fbc ec65 e9bb 8848 423c
00000100: e922 cdbb 9be6 2489 7ffd 4488 7044 8509
00000110: 9d04 dd88 95f0 803a c347 b33b 0306 f0bb
00000120: c45d dbb8 b850 2bbb dc66 593b e531 baba
00000130: 8740 9ebc 910b 053b 8246 a73c 8ae2 d83c
00000140: ba28 26ba 67da 6f3c ede7 d3bc 29e1 10bd
00000150: 6353 3e3d 9671 063d f115 4bbc 2c23 1cbd
00000160: 7d0c 08bd 0fb9 23bc 16b2 883c bdf2 ffbb
00000170: 2d2a 7b3a ee63 c43c 26c3 673c b934 aabc
00000180: 47e4 a63c 209b d4bb 88af 38bc 106e 33bc
00000190: 8782 283b 063e 0ebc 9147 113b 9796 773a
000001a0: c106 f73c eb2f a13c a029 853c 9e55 e23c
000001b0: b9e3 e9bc fddf 85bb 65c3 e13b 7ca6 09bd
000001c0: 156a 133d 1203 a3bc bf74 01bb b6ed f83c
000001d0: 6a34 33bd c228 52bc 182b 0ebc cb43 693b
000001e0: 4ed5 a53b ff6d e2bb 90f8 98bc 3398 e0ba
000001f0: 624e 693c 7396 01bd 3a1f e13c f0ea 8089
00000200: 08b8 f92c 84af ae8a 8cde ca3b 8c78 12bb
00000210: f859 0fbc bcf0 0589 669c bd88 c276 8389
00000220: e046 1b88 690f 9bbc b14b 50bc 2bbf 8a3c
00000230: e511 68bc 3de4 453d 4562 913c 0530 73bc
00000240: 369a d73c a151 d9bc 13ac a7bc 3d5e 45bc
00000250: 0b8a 6dbc 45f8 bd3c 0134 5c3c be48 ba3a
00000260: 9993 6c3b 94af 8b3b cfd8 e83b 27ce 713c
00000270: 7126 6dbc ec20 3f3d fc91 9e3b ed48 153c
00000280: 06cb 823c 8b70 6c3d 8493 b03c 1be6 653c
00000290: 98c9 1f3c 9292 7dbc 1004 06bb d585 37bb
000002a0: a04d 318a 4672 90bb 107f 48bc f47c 25bc
000002b0: 1b33 ebbb d036 22bc 348d 98bc 2333 bbbb
000002c0: d915 763c 4761 d6bb bc69 993c 724c 2cbc
000002d0: 260a cbba 4afc 09bd 0944 35bc c739 88bd
000002e0: 2321 8fba 011a 21bd 2cd0 c73c 17a2 e33c
000002f0: 85f3 713b 6e45 e1bb d2a1 353d a331 b43c
00000300: ee23 87bb bd88 4c3c cc04 12bd 7648 debc
00000310: 50b9 183c e660 0b3c 636b 1bbd 432f ebba
00000320: 63ca fbbc b32f 15bd b8f5 303d 3c0a 1fbc
00000330: a38c 16bb 0323 653b 70e7 863c a1a2 70bc
00000340: 1a93 1abd eb4a d7bb 806d e288 9bae 16bd
00000350: 557b 9dbb a74f 4dbc 9168 9e3c f069 ba3a
00000360: 9d84 7509 a0a5 3509 d784 fe3c 63a2 fe3c
00000370: c941 8cbb 9bc4 5cbb a8b4 babb 6b3c ee3b
00000380: 72bf 4b3b 827f 0cbd b9fa bf3b 3874 a8bc
00000390: 5ac5 bf3c 3dc3 c13b 7044 ac3b 7e6c 7cbc
000003a0: 48af 84bc 9e1a 0bbb 2008 08bc b8dc 0d3c
000003b0: 8397 c33c de32 0a3d a248 973d 54fb 8a3c
000003c0: d1ba 093d 8880 18bd 92b8 c1ba 6aca 9a3c
000003d0: 04cd 00bd c0c3 d63c 14a6 5dbc 75bd 40bc
000003e0: f2ae 303d 73d6 53bc f5fc 04bd 4fa7 d03b
000003f0: 3766 82bc 0ed8 983c 0fb3 2abd 63b7 87bd
-1.0354992e-33 -9.015591e-34 -3.302144e-33 -1.8966712e-33 -0.0079791285 -0.013344032 0.032415748 -0.0040658596
0.0113784615 0.014098715 2.8612078e-33 0.00026603046 0.011045735 -0.0031662583 -0.0022642585 0.013282156
0.012281311 0.030111613 -0.013642015 0.0046300776 0.012718545 -0.006188263 0.013786391 -0.035387408
0.025262926 0.013133682 0.0073222616 0.023977675 0.05024544 0.0236199 0.022260312 0.009220663
-0.0018787966 -0.0039627696 0.031119652 -1.1106394e-33 -0.010862779 -0.014562968 -0.0106229335 -0.0075022574
0.004107148 -0.017931918 -0.0018271046 0.02462178 -0.005906189 -0.0031301633 -0.011069188 -0.0012282243
-0.0056648897 -0.0059639136 -0.044585116 -0.004917569 0.0023769473 0.0053729126 -0.0019392191 -0.03662984
-0.0069527864 0.0067899306 -0.04209884 0.0045438358 -1.9275147e-33 -0.012668295 -0.0071227457 0.011858113
-0.006260265 -1.9849212e-33 -5.927959e-34 3.2082944e-33 -1.3302038e-33 0.0009837324 0.005471201 -0.0073249354
-0.00010460199 -0.0026140641 0.0033172881 -0.0014205544 -0.019317878 0.0020301084 0.020419363 0.02647521
-0.0006338466 0.0146394735 -0.025867427 -0.03537098 0.046466243 0.032823168 -0.012395368 -0.03811948
-0.033215035 -0.009992852 0.01668648 -0.007810919 0.0009581175 0.023973431 0.014145648 -0.020777093
0.020372523 -0.006488219 -0.011272319 -0.010951534 0.0025712566 -0.00868178 0.00221679 0.0009444742
0.030154588 0.01967617 0.0162552 0.027628716 -0.02855097 -0.0040855394 0.006889748 -0.033606037
0.03598984 -0.019898925 -0.0019753424 0.030386787 -0.043751158 -0.0128271 -0.008677267 0.0035593386
0.0050608283 -0.006910085 -0.018673211 -0.0017135203 0.014239879 -0.03163762 0.02748071 -3.1035813e-33
7.0974372e-12 -1.6821612e-32 0.0061910804 -0.0022349684 -0.008749478 -1.6122485e-33 -1.1411793e-33 -3.1648782e-33
-4.672693e-34 -0.018928247 -0.012713359 0.01693686 -0.014164423 0.048313368 0.017747054 -0.014842992
0.02631865 -0.026528182 -0.020467794 -0.012046394 -0.014498244 0.023189673 0.013440133 0.0014212353
0.0036098717 0.004262874 0.0071059237 0.014758623 -0.014474497 0.046662256 0.00483918 0.009111625
0.01596595 0.057724517 0.021554716 0.014031912 0.009752654 -0.01547684 -0.0020449199 -0.0028003354
-8.53684e-33 -0.0044081537 -0.012237325 -0.010100592 -0.007177723 -0.009900764 -0.018622018 -0.005712883
0.015019857 -0.006542358 0.018727176 -0.010516273 -0.0015490695 -0.033687867 -0.011063584 -0.06651645
-0.001091991 -0.03933144 0.024391256 0.027787251 0.003691883 -0.0068747317 0.044343777 0.021996325
-0.004124156 0.012483773 -0.035649106 -0.027134161 0.009321526 0.008506989 -0.03794421 -0.0017943162
-0.030736154 -0.036422443 0.043203086 -0.00970703 -0.002297201 0.0034963496 0.01646778 -0.014687211
-0.037737943 -0.00657021 -1.3627624e-33 -0.03678761 -0.004805962 -0.012531198 0.01933697 0.0014222246
2.9553157e-33 2.1864959e-33 0.031069202 0.031083291 -0.004280303 -0.0033686522 -0.0056978054 0.007270386
0.0031089452 -0.03430129 0.005858746 -0.02056323 0.023409534 0.005913167 0.005257182 -0.015406726
-0.016196862 -0.0021225582 -0.008302718 0.0086585805 0.023875957 0.033739917 0.073869005 0.016965546
0.033625428 -0.037231952 -0.0014779738 0.018895347 -0.031445518 0.026216388 -0.013528366 -0.01176392
0.04313559 -0.012929547 -0.0324678 0.006367601 -0.01591788 0.01865771 -0.04167467 -0.06626775

model/attention_layer/MatMul f4 [64, 64]
00000000: 2c26 20be ba60 963d 14f6 0b3d 0e00 d63d
00000010: af61 263e 704a 8ebc fe11 eb3d fb33 173e
00000020: 2865 9dbd a2d6 b4bd 42a9 ea3d be4e c23d
00000030: 5a66 aa3d fabd e23d e6a7 f73d 5fa1 063e
00000040: 0743 533e 805e 1fbb 23f5 4f3e f8cf 76bd
00000050: 1043 23bc 0c97 43bd 7011 36bd 5ca3 0bbd
00000060: 9461 4fbd 74d3 57bd b5a3 d7bd d151 023e
00000070: c03a 93bb 1092 82bd f300 c3bd d0f2 38be
00000080: 62d1 b4bd f8da a63c f23d 16be 9c35 143d
00000090: d539 263e 04d2 1cbd 6542 3c3e b983 443e
000000a0: 8aac 2abe bcd9 0abd 27a2 fcbd bc1f 673d
000000b0: 1654 30be 20da 93bd e811 24bd 52b8 ff3d
000000c0: 1818 1cbd e1f5 10be 7260 aabd 64dc 263d
000000d0: 3ae8 adbd 3eaa 5abe 0b2b f6bd 389c ad3c
000000e0: e198 54be 8ddd 063e 6fe9 57be 8644 26be
000000f0: efd3 57be 8e14 9ebd ae76 e03d 9069 8dbd
00000100: 2662 d93d de41 b13d 7a3c ba3d 5110 3c3e
00000110: 27f2 4e3e a76e 173e a05b dd3c 7e4b b83d
00000120: 73e1 543e 05ae 143e 38a7 fc3c 8101 21be
00000130: 5020 c2bc 1b50 4cbe 60df bb3c 9298 5abe
00000140: d086 3abe 248c 08bd 043c 5b3d 22f5 e43d
00000150: 0000 d6b5 ecbe 6bbd 2283 84bd ae7f 973d
00000160: 4c9c 0d3d 8afa b23d c53b 1c3e 18f0 5bbd
00000170: 7a8f 94bd f837 0fbe 204a 153c 4447 5b3d
00000180: 19df 123e 30ad 21bd 1575 183e 0a7c 2fbe
00000190: e97f 4e3e e01b 2abd dc43 30be 9631 af3d
000001a0: c4b5 39bd d9dd 37be fc8d 18be d82c 0ebe
000001b0: cb87 263e 0b85 0cbe dbf8 053e fa9a 4cbe
000001c0: c905 033e c4da 63bd bac5 883d d675 f73d
000001d0: 4817 88bd c71a 513e 8c9a 68bd 805a 07bb
000001e0: 1d38 d9bd 641b acbd ecee e0bd 2023 3cbc
000001f0: 48cd 66bd dcb9 293d 1903 013e 4ca7 7e3d
00000200: 6a78 e93d 38e0 afbc aaea a73d 505d 4cbe
00000210: 1053 82bd d411 1abd 3095 2bbe 4039 5ebb
00000220: 919c 39be 3065 d9bc de3e 1bbe 80a1 6d3c
00000230: 97f0 443e 667c 84bd 5a9f f7bd 6e2a 8c3d
00000240: 6024 26be 6ff6 ebbd 3c30 653d 04bb 2e3d
00000250: 725d f8bd 5f06 493e 39b1 f3bd 03ae 413e
00000260: ca9a 07be f3ae 3dbe 6c97 313d cc18 7ebd
00000270: ecc9 383d 7cd9 5f3d 01fb 1abe 64ba 46bd
00000280: dc36 683d c0c5 f63c 7dd5 513e e463 33be
00000290: 8ea1 cc3d 615e 283e 9a5d 8a3d 55ba 3d3e
000002a0: 1aa8 fc3d c13b fbbd 1811 33be f689 a7bd
000002b0: f8b2 c5bc 18bb 043d a07a debb 56d2 b03d
000002c0: 83d3 163e b36c 073e e1eb 1b3e 057d 213e
000002d0: 5ed7 833d cacc a63d 64f7 8bbd 01b9 52be
000002e0: b0ee 44bd 1879 4abe 8da0 3c3e c1a8 143e
000002f0: 089e ccbd 2dc3 d1bd d249 ec3d 2bca 4d3e
00000300: a0bc 06be c33c 403e f675 fc3d ae3b e0bd
00000310: 26a9 02be 6504 0e3e 06e3 fcbd 7fde 1f3e
00000320: 86e3 45be 3401 abbd 07a6 443e 70f8 4fbc
00000330: fdf6 3cbe 88d8 01be 9f88 293e f0ae 773c
00000340: e324 e1bd 7fae 373e 735f 193e a5db 5a3e
00000350: 80fe a6bb 96ba 9b3d e452 7c3d c44a ecbd
00000360: 8724 293e 40b7 0fbb f9c8 2d3e cb10 0f3e
00000370: 6c75 57bd ccd3 733d 4eb7 c3bd d07c 963c
00000380: 81b3 4e3e 02c9 b5bd 3cae 383d 8be6 24be
00000390: e581 48be a415 b1bd e905 043e 9c22 2c3d
000003a0: 6ac4 c93d 2cce 33be 8fbc 513e 78a0 1dbe
000003b0: f95f 503e cbbf f8bd acac 373d d628 c03d
000003c0: a002 2cbd 60b4 93bb 5fe8 c6bd 8f5d bdbd
000003d0: 1624 c63d c497 3f3d 5a18 b83d a054 ba3b
000003e0: ef8d 4a3e ea6e a8bd 116a c6bd 96c2 febd
000003f0: 5b2a 0f3e 08c1 b33c 0966 58be a2cf de3d
-0.15639561 0.07342668 0.034170225 0.10449229 0.16248201 -0.017369479 0.11478041 0.14765923
-0.0768531 -0.088300005 0.114580646 0.09487675 0.08320303 0.110713914 0.12092571 0.13147496
0.20631038 -0.00243178 0.20308356 -0.06025693 -0.009964719 -0.04775147 -0.044450223 -0.03409134
-0.050630167 -0.05269189 -0.105292715 0.12726523 -0.0044930875 -0.063755155 -0.095216654 -0.18061376
-0.08828999 0.020368084 -0.14672068 0.03618394 0.16232999 -0.038286224 0.18384703 0.19190873
-0.16667381 -0.033899054 -0.123356156 0.05642675 -0.17219576 -0.072193384 -0.04005614 0.12486328
-0.038108915 -0.14156295 -0.08319177 0.040737525 -0.08491559 -0.21354005 -0.120199285 0.021192655
-0.20761444 0.13170452 -0.21085142 -0.16237077 -0.2107694 -0.07718764 0.10960136 -0.069049
0.106144235 0.08655141 0.09093566 0.18365599 0.20209561 0.14788304 0.02702123 0.08998774
0.20789127 0.14519508 0.030841455 -0.1572323 -0.023697048 -0.19952433 0.022933662 -0.21347263
-0.1821549 -0.033336774 0.053524032 0.11179568 -1.5944242e-06 -0.057555124 -0.06470324 0.073974
0.034572884 0.08739193 0.15257175 -0.053695768 -0.072539285 -0.13986194 0.009111911 0.05353476
0.14342918 -0.039471805 0.14888413 -0.17137161 0.20165981 -0.04153049 -0.17213386 0.0855438
-0.04533936 -0.17955722 -0.14897913 -0.13884294 0.16262738 -0.13722627 0.13083212 -0.19980994
0.12795176 -0.055628553 0.06678338 0.12083022 -0.066450655 0.20420371 -0.056788012 -0.0020653307
-0.10606406 -0.08403662 -0.10983071 -0.011482984 -0.056348115 0.041437015 0.12598838 0.062171265
0.1139992 -0.02146922 0.081990555 -0.19957471 -0.06363499 -0.03761466 -0.1675613 -0.0033908635
-0.18126132 -0.026537508 -0.151607 0.014503837 0.19232403 -0.064690396 -0.12090941 0.0684403
-0.16224813 -0.11521613 0.055954203 0.04265882 -0.12127198 0.19631337 -0.11899037 0.18914036
-0.13242641 -0.18523769 0.043357298 -0.062035367 0.045114443 0.05465077 -0.15134813 -0.0485176
0.056692943 0.030123591 0.20491596 -0.17518574 0.099917516 0.16442253 0.06756134 0.18528111
0.1233675 -0.122672565 -0.1748699 -0.08180611 -0.02413319 0.03240499 -0.0067895204 0.086338684
0.14729123 0.13225059 0.152267 0.15770347 0.064375624 0.08144529 -0.068342954 -0.20578386
-0.048079193 -0.19772756 0.1842062 0.145175 -0.099910796 -0.10242305 0.115375176 0.20096652
-0.13157892 0.18773179 0.12327187 -0.10948883 -0.12759838 0.13868864 -0.12347989 0.1561222
-0.19325075 -0.08349839 0.1920396 -0.012693509 -0.18453594 -0.12680256 0.16556023 0.015117392
-0.10993364 0.17937659 0.14977817 0.2137285 -0.0050962567 0.07603948 0.06160249 -0.11537698
0.1651784 -0.0021929294 0.16971196 0.1397125 -0.052602217 0.059528157 -0.09556447 0.018370062
0.20185663 -0.0887623 0.045088038 -0.1610357 -0.19580801 -0.08646706 0.1289288 0.042025194
0.09851916 -0.17559117 0.20482086 -0.15393245 0.2034911 -0.121459566 0.044842407 0.09382789
-0.04199469 -0.0045075864 -0.0971229 -0.092463605 0.096748516 0.046775594 0.0898902 0.0056863576
0.19780706 -0.0822428 -0.09688199 -0.12439458 0.13981001 0.02194263 -0.21132673 0.108794466

model/attention_layer/MatMul_1 f4 [1, 64]
00000000: 0a5f 3d3e b898 513e e0c6 353c 709d 453d
00000010: b45d 84bd 3060 b13d f80e 47be 53ee 52be
00000020: 245a ef3d 7e84 62be b4d6 8cbe e0af 883d
00000030: a8ce 0a3e 9abe 933e f0cf ea3d d425 363e
00000040: 0090 83b8 d4d3 2d3e 9ae9 5fbe 20f9 48bc
00000050: 80ee e13b 44a2 ec3d e363 23be 9a79 023e
00000060: 5cff 8a3e 9402 833d dc4e 613e b62c 76be
00000070: 50b7 ae3d d2d6 3fbe 08e7 6e3e c044 5bbe
00000080: 64e2 6b3e 7807 5a3d bceb 723e d816 203e
00000090: 9e88 37be 2025 7a3c f4ed 8a3d 90b4 57be
000000a0: 63e8 5abe 1451 6dbe c070 733d ae4b 323e
000000b0: a8ed c1bd 8ee0 8a3e 6a69 8bbe 807c e6bb
000000c0: a4b5 b33d bec3 c2bd 4869 363e ef6b 8fbe
000000d0: 5430 64be 2e01 83be 1261 6dbe f66a 87be
000000e0: aa11 7cbe 8533 1bbe 8055 6ebd fc6b 3f3e
000000f0: f1e1 02be 340e 5a3e 4868 683e 9143 47be
0.18493286 0.20468414 0.011094779 0.048245847 -0.06463185 0.086609244 -0.19439304 -0.20598726
0.11687115 -0.22120854 -0.27507555 0.066741705 0.13555396 0.28856355 0.11465442 0.17787868
-6.273389e-05 0.16975337 -0.21866456 -0.012266427 0.0068948865 0.11554387 -0.15956073 0.127417
0.2714795 0.06396976 0.22002739 -0.24040493 0.08531058 -0.18734291 0.23330319 -0.21412945
0.2303558 0.05322978 0.23722738 0.15633714 -0.17923209 0.01526764 0.06783667 -0.21064973
-0.21377711 -0.2317546 0.0594337 0.17411682 -0.094691575 0.27124447 -0.27228862 -0.0070338845
0.087748796 -0.09509991 0.17813599 -0.28012034 -0.2228406 -0.25586838 -0.2318156 -0.26448792
-0.24616113 -0.15156372 -0.058187008 0.18693537 -0.12781502 0.2129448 0.2269603 -0.19459368

model/dense_2/MatMul f4 [64, 64]
00000000: 255f 54bd b623 d63d 6e1d be3b 6920 4abe
00000010: ac19 363e a8da 25be e309 fdbd b747 433e
00000020: bb57 ccbd a653 aa3d fe62 f9bd f861 3a3e
00000030: 8120 9abd c4a0 a5bc 87c1 323e a2b9 b13d
00000040: 3281 163e a8fe a33e 29f2 073e 59de 433e
00000050: 1c60 893c c30c 84be 8449 a23d b716 763c
00000060: f016 4fbe 324a 53be 2a11 c9bd 2253 dfbc
00000070: 0f92 653e 0e38 393e b8bc f2bd eac8 f03d
00000080: 56a1 043e ff49 003e da01 57be d365 dfbd
00000090: 6b1a 57be fe12 65be 6008 f93d 1881 2fbe
000000a0: caae 503e 6f1b 253e 7d2b 2c3e da45 a3bd
000000b0: db17 60be 7e48 81bb 0d4e b43d 9d05 473d
000000c0: 4b95 9cbd b20c ac3c b031 433e 959a 443e
000000d0: 6106 a33d 9000 b03d 3b98 3abd ef4f 113e
000000e0: c7d0 e3bc fe76 083e bbe9 5fbe bdc9 6ebd
000000f0: 11ca 81be 111a 3ebe a8b1 eebd 8bf9 1d3e
00000100: 6eb3 3b3d 621e d3bd 5848 a8bd 2224 473e
00000110: 9256 5d3e 335b 023e 0083 80be 7567 85bd
00000120: 10ec 1cbe 2f32 dcbd d209 47bc 0bcf d1bc
00000130: d792 1dbe cf77 fbbd 9958 a9bc 85fe c33d
00000140: ed06 07be a2fe e5bd 9bd6 1f3e 47bb 2abe
00000150: 2374 2d3e 3916 9f3e e8b4 afbc 5757 a1bd
00000160: 4164 183e 53f2 90bc 9afa 0d39 22e6 8e3c
00000170: e001 4fbe f7cc 41be 1922 503e a68d fcbd
00000180: f58c cabd 1602 cd3c 71c2 33be 3d6f 163d
00000190: ba8f 243e b344 a4bc 6aa1 023e 010e 853e
000001a0: d372 bebb 6e4f 3bbe e9f7 1e3d 7411 cbbc
000001b0: c865 0d3e 6a32 3dbe 704f 133e 9e09 683e
000001c0: e187 673d 90f8 fdbd 8b0a f5bd b4de 72bd
000001d0: ca55 e23d 29ca db3d 76fd 48be f8b9 c6bd
000001e0: 51bc 983e 72bf fabd 970f 89be 0936 51bc
000001f0: 9054 003e bf9f c13d c950 39be 39a1 34be
00000200: cfe4 55bc 772f d4bc 1ae2 b53d 9a2d 283e
00000210: 15a2 543d abce 093e 0aaf 0cbe 12b1 993e
00000220: 82cc 853e f79b c4bd 86d3 db3d eae3 0ebd
00000230: d737 3b3e a65a 863d 2e08 0d3d 3233 d4bd
00000240: ec1d e4bd f9f9 19bd 836f f83c 0645 06be
00000250: 1ab6 433d b3a3 06bd 15fd 623e e202 82bd
00000260: cb68 9cbc 6a71 943d e644 93bd 2739 3cbe
00000270: 4fca ebbd 63f7 9b3d 7784 d23d 6750 5fbe
00000280: 8b22 4f3d 498c 2b3e 1976 79be 76fb 62be
00000290: 1b10 98be b2ed 423e f6b0 04be 70f8 73be
000002a0: 6209 17be 8cd2 6d3e f230 e3bd 87b4 adbe
000002b0: b535 76bd b680 143e 3057 f13c 8659 77be
000002c0: ae1d a53c b5a3 3d3e 911c 80be b980 8dbc
000002d0: c1ea 8fbd de95 e8bd 6894 acbd b90b 083d
000002e0: b740 c93c f6e7 8a3d 1d45 823e 09a7 76be
000002f0: 77f8 713e f71e 883c 90d8 793c 7c86 273d
00000300: 16cc 6e3e b2ab 8e3d 056e 1bbe 97db 503e
00000310: be67 123d c695 3bbe cf38 733c e03d 493c
00000320: 53c9 56be 9b4c d63c a40f 3a3e 590c 223e
00000330: d69f 4fbe c41e 4e3c 3c11 e6bd ecd5 48be
00000340: 2d63 2a3e 2b35 8c3d 3c94 43be 6989 2b3c
00000350: b9ab a13d f416 9d3e f146 75bd 9daa 403b
00000360: f9c5 3f3e db94 17bd 26b1 063e f025 f03d
00000370: 134e 17be 8ea6 8e3d abe2 6ebd c707 1d3e
00000380: 356a e33d c323 c73c b4f4 843d 1297 993d
00000390: a0cc e8bd c1cc d03d 5f73 2dbe efb7 943e
000003a0: eb78 883d 900a 323e a684 e63d 842f 9cbc
000003b0: 25ac b03d d147 4d3e d7a5 5e3e 714e 1f3d
000003c0: 0a5b 7639 3c6b df3b 8922 c83c a5d0 a9bd
000003d0: 308e 16be 92ac 603d f470 8cbc aea9 54be
000003e0: 49a9 e43d 10b9 72bd 0512 b23d cccb e6bc
000003f0: df5b 35bd 538c 883d 7b70 f43d ec0e 743c
-0.05184855 0.1045603 0.005801848 -0.19738926 0.1778323 -0.16196692 -0.12355401 0.19070326
-0.09977671 0.08316736 -0.121770844 0.18201435 -0.07525731 -0.02021826 0.17456637 0.08677985
0.14697722 0.32030225 0.1327597 0.19127788 0.016769461 -0.25790986 0.07924178 0.015020064
-0.20223594 -0.20633772 -0.09817727 -0.02726132 0.22418998 0.1808779 -0.118524015 0.11757071
0.1295217 0.12528227 -0.209968 -0.10908093 -0.21006171 -0.22370526 0.121598005 -0.17139089
0.20379177 0.16123746 0.16813464 -0.079723075 -0.218841 -0.0039454093 0.088039495 0.048589338
-0.07645663 0.021002147 0.19061923 0.19199593 0.07960201 0.08593857 -0.045555335 0.14190648
-0.027809514 0.13326642 -0.21866505 -0.05829786 -0.25349477 -0.18564631 -0.11654979 0.15427224
0.045825414 -0.103085294 -0.082169235 0.19447377 0.21615055 0.12730102 -0.25099945 -0.065138735
-0.15324426 -0.10751759 -0.012148337 -0.025611421 -0.15388046 -0.12278711 -0.02067213 0.0957003
-0.13186236 -0.11230208 0.15609209 -0.16673003 0.16938834 0.31071642 -0.021448568 -0.07877987
0.14881994 -0.017693674 0.00013540164 0.01744372 -0.20215559 -0.18925844 0.20325507 -0.12331705
-0.09890167 0.025025409 -0.17554642 0.03672718 0.16070452 -0.02005229 0.12756887 0.25987247
-0.005812028 -0.18292019 0.038810644 -0.024788596 0.13808358 -0.18476263 0.14385772 0.22659919
0.05652607 -0.12400925 -0.119649015 -0.059294418 0.11051519 0.10731918 -0.19627938 -0.097034395
0.29831174 -0.122435465 -0.26769707 -0.012769231 0.12532258 0.09454297 -0.18097223 -0.17639627
-0.0130550405 -0.02590154 0.08881016 0.16423646 0.051912386 0.13457744 -0.13738647 0.30017906
0.2613259 -0.096000604 0.10733704 -0.034885325 0.1828302 0.065602586 0.03443163 -0.10361327
-0.1113852 -0.037591908 0.03032661 -0.13112268 0.047781087 -0.03287096 0.22166856 -0.06348206
-0.019092938 0.072481945 -0.07190876 -0.18381177 -0.11513197 0.07615545 0.10279172 -0.21808015
0.050570052 0.16752733 -0.24361457 -0.22166237 -0.29699787 0.19035986 -0.1295813 -0.2382524
-0.14749673 0.23224849 -0.1109332 -0.33926794 -0.060109813 0.14502224 0.02946052 -0.24155244
0.020155754 0.1851948 -0.25021794 -0.017273294 -0.07027198 -0.1135671 -0.08426744 0.033214305
0.024566991 0.06782524 0.25443354 -0.24087156 0.23629938 0.016616328 0.015249386 0.04089974
0.2332004 0.06966342 -0.15178688 0.20396267 0.035743468 -0.18318853 0.014845087 0.012282819
-0.20975237 0.026159575 0.18170029 0.15825023 -0.20275816 0.012580577 -0.11233756 -0.19612855
0.16639395 0.068460785 -0.19099516 0.010469773 0.078940816 0.30681574 -0.059882108 0.0029398568
0.18727864 -0.037007194 0.13153514 0.11725986 -0.14775877 0.069653615 -0.058321636 0.15334998
0.11104242 0.024309045 0.06491986 0.074995175 -0.11367154 0.10195304 -0.16938542 0.2904658
0.06663688 0.17386842 0.112557694 -0.019065626 0.08626584 0.20046927 0.2174295 0.038893167
0.00023494303 0.0068182033 0.02443053 -0.08291749 -0.14702678 0.054852076 -0.017143704 -0.20767853
0.11165101 -0.05925852 0.08694843 -0.02817335 -0.04427707 0.0666739 0.119355164 0.014896136

model/building_output/MatMul f4 [3, 64]
00000000: 7826 1bbe 6572 3d3d 9f95 143e 74ca f23d
00000010: d1f9 29be f0c9 87be 1df4 f8bd bb16 63bd
00000020: 3e34 03be d40e 79be ea3f 4cbe 7a28 34be
00000030: 525e 1bbd 9567 263e eccb 71be 6c92 8b3d
00000040: fb6b 1a3c 62f1 93be afe1 843e 6cb7 6f3e
00000050: 8cbf 1abe e64b 98be 4484 1d3d f848 a1bd
00000060: 5465 7dbe dd95 203d 2db8 aebc f4fa d13b
00000070: cff5 82be c77d 023d fc5a 063d 093c 07be
00000080: d3bd 1abe b51f 12bd 1200 c63d ddb2 afbd
00000090: a915 2fbe 3a04 1f3e d2fe 803d 770d 073e
000000a0: 0470 833b 7b2e e9bc 5e63 40be 5969 813e
000000b0: d6de 52bd 2cca 263d 88d6 fa3d 5ac7 7bbd
000000c0: 074e b93d 8120 0a3e 397a 443e 5a36 963e
000000d0: 59a1 e2bd 13ac a03d 234b 53be 7b24 1d3e
000000e0: 2fcc 143d 686c 67be e457 c7bc 787e 4dbc
000000f0: 37d5 ff3d 3587 debc 0718 06be 8d6b 793e
00000100: a1cf 4abe f93b cd3d 0a49 9fbd f21a 6d3e
00000110: b3af c03d 1f9a 1d3d 59da 9ebe 76be 7b3e
00000120: 5374 b53b 4f58 52bd 16d6 3a3e 067d a53b
00000130: 567f 86bd de70 df3c a3df e8bd 636d 5ebe
00000140: 21d0 2dbe 39fa 103e 5176 2bbe 48f3 9a3d
00000150: 6b55 1fbe d2f5 50be d5e6 f4bd d798 abbe
00000160: 763c 363e 4dc9 d23a dd65 c73d 84d0 cdbd
00000170: a9ed a1bd 509e 153d 1bcd fabd 8694 8fbb
00000180: f21d e43d aa7d 38be d01c 003a 91d7 03be
00000190: 199f 93be 106c e2bd 39fb a3be 0dda a03e
000001a0: d1de 9cbc 7b6b 683e b115 ad3d dff8 a3be
000001b0: b6a2 aabe c80c 87bd 9f0b 34bd 14c1 873e
000001c0: dcf4 d63d 43e0 993e ffb4 063e 6a75 9b3d
000001d0: 317d 6c3d 2c25 b0be f211 a6bd 797c 23be
000001e0: 8013 cbbe 007d dd3d 189e 60be 28ec 9cbe
000001f0: bd39 0a3e d449 803e 6275 87be db8c 6abc
00000200: 8441 643e 5551 bbbe 1ffb 223e 2279 233d
00000210: 52d3 06bc 19cb 973e 45be 45bd 9985 723d
00000220: 655a 93be 1af8 85bd 4cf7 b73d 20c7 90bd
00000230: 9dd3 5a3e 8701 adbe 83e2 03be f5f2 fc3d
00000240: b54c 81be 586e 9fbd a23f 31bd 9f5c 9e3e
00000250: 09d3 a6be 61d1 80bc 5f95 a7bd 619a 2b3c
00000260: faec 2cbe 3aed 6f3e a8c6 1cbe 7ea1 4ebe
00000270: a078 3cbe 2aea 3cbe 9d9d 98be c7fe a3be
00000280: ff96 393e d996 49be 5505 813e eb6e c3be
00000290: a62a 213e 9f2c 9abd 43ae 513e e89e 0d3e
000002a0: c26a 83be bbe2 9e3e 9c3a 5bbd 56e5 9a3c
000002b0: 00f1 90be f131 b3be 8ca3 933e 5c08 933d
000002c0: f388 86be 49e3 103e b5cc b43d b783 65bd
000002d0: cee5 c5be c7c3 033e 4c0d 9f3d 6e78 3bbe
000002e0: 8b4c 8d3d 1fd0 483e 82a7 613d 61ec b7be
000002f0: 800a 903e 273d 4dbd 6f44 023d d158 95bc
-0.15151393 0.046251673 0.14510201 0.11855021 -0.16599204 -0.26521254 -0.12155936 -0.0554416
-0.12812898 -0.24322063 -0.19946256 -0.17593566 -0.037931748 0.16250451 -0.23612946 0.06815037
0.009425159 -0.28895098 0.25953433 0.23409814 -0.15112132 -0.29745406 0.038456216 -0.07875246
-0.24745685 0.03920542 -0.021328056 0.00640809 -0.25578162 0.031858232 0.032801613 -0.13206495
-0.15111475 -0.03567477 0.09667982 -0.08579037 -0.17098106 0.15528956 0.06298603 0.1318873
0.004011156 -0.028464546 -0.18787906 0.25275686 -0.051482044 0.04072015 0.1224795 -0.061469413
0.09048086 0.13488962 0.19187249 0.29338342 -0.11065931 0.078453206 -0.20634131 0.15345947
0.036327537 -0.22599947 -0.024333902 -0.0125423595 0.124918394 -0.027164081 -0.13095103 0.24357434
-0.19805767 0.100212045 -0.07777603 0.2315481 0.09408512 0.03847706 -0.3102596 0.24584374
0.0055375486 -0.05135375 0.1824573 0.0050503043 -0.06567256 0.027275499 -0.1137078 -0.21721415
-0.16973926 0.14157952 -0.16744353 0.075659335 -0.15559928 -0.20406273 -0.1195809 -0.33515045
0.17796502 0.0016081721 0.09736226 -0.10049537 -0.07906658 0.03652793 -0.12246152 -0.004381719
0.11138524 -0.18016687 0.0004887106 -0.12875201 -0.2883232 -0.110557675 -0.32027605 0.3141636
-0.019149216 0.2269725 0.08451403 -0.3202581 -0.33327264 -0.06594235 -0.043956395 0.26514494
0.10495922 0.3005391 0.13154982 0.07590754 0.05773658 -0.3440336 -0.081088915 -0.15965451
-0.39663315 0.108148575 -0.21935308 -0.30648923 0.13498588 0.25056326 -0.26456743 -0.014315809
0.22290617 -0.3658549 0.15916108 0.039910443 -0.008229094 0.2964714 -0.04827716 0.05920944
-0.28779903 -0.06541462 0.08982715 -0.0706923 0.21369787 -0.33790228 -0.12879376 0.12351028
-0.25253835 -0.07784718 -0.043273576 0.3093004 -0.32582882 -0.01572484 -0.08182787 0.0104738185
-0.16887274 0.23430339 -0.15310156 -0.20178792 -0.1840539 -0.18448702 -0.2980775 -0.32030317
0.18124007 -0.1968645 0.2519938 -0.3817056 0.15738925 -0.07528042 0.20476632 0.13830149
-0.25667387 0.31032357 -0.05352269 0.018908184 -0.28308868 -0.3499904 0.28835714 0.07179329
-0.2627636 0.14149202 0.08828107 -0.056033816 -0.3865189 0.12867652 0.07766208 -0.18307659
0.06899365 0.19610642 0.05509139 -0.3592253 0.2813301 -0.050107148 0.031803545 -0.018230828

model/dense_3/MatMul f4 [64, 64]
00000000: 1138 c83d 39d1 6a3e fad2 013d 35cd 90bd
00000010: 6ac6 6dbd fa6d 83bd ec5b 63bd 8f0c ebbd
00000020: 6e48 e7bd baba a73c 7cc4 e33d f277 c9bb
00000030: 9ef1 28bd 1356 4cbe f563 95be e2e3 2cbe
00000040: 161b 443d 120b 193e 82d8 96be 30f4 013e
00000050: fd7b c53d 5cb5 a43c 12fd 3ebd 1441 c9bd
00000060: c453 dd3d c0b2 72be 93e7 12bd 1aac 46bd
00000070: ee9f a23d 6a38 15be 408d a1bc eab3 ff3a
00000080: 8833 cbbd d320 d6bd 8464 59be b65a 7abe
00000090: 620f 8dbc c596 2ebe 630e afbb 0279 ab3d
000000a0: 3553 9f3d ff48 553e b5fc 4d3e 6226 d93d
000000b0: 6c82 d0bd 7eff 723d 0c23 1b3e 0e14 0bbd
000000c0: 0fe8 2e3e df5b a1bd 5c34 253e ec3a 27be
000000d0: 1107 86be d431 f1bd 2cfe 5f3e 370a 7dbc
000000e0: 3702 c63d 38f4 493e f639 413e 5d2d de3d
000000f0: 4401 bcbd b54c 1fbd 4ffc 233e 3d6c 2ebe
00000100: 4094 883e 5f17 7b3e fb4a 31be e3c1 0dbd
00000110: 17d9 c0bd f2da 31be 5ba8 2b3d 65e5 bf3d
00000120: 59af 55bd 4122 2fbe f240 13be 0e8a b83d
00000130: a496 5bbe c92b a63d 7632 d63d 2577 2b3e
00000140: b55d aa3d 5981 73be b601 933e 7a34 c1ba
00000150: 9ba7 55be 2c6b 433d 7b1b 35bd 707d 83be
00000160: ef96 df3d 0728 ea3d b78e 093e fc0e 103e
00000170: 9992 623d ad6a 0a3e 9361 6ebe ed3c 19be
00000180: 8ce3 633d 9209 86be da90 6fbe 3ea2 99bd
00000190: 7914 f03d d690 933c 9823 32bd 74bb 52be
000001a0: d994 87be 17c7 77be ba40 27bd 4c67 243e
000001b0: 7c46 033b 6a39 a4bd c71c 3d3e 6a67 44be
000001c0: 9e06 ac3d acfe 05be c200 74be 29c8 48bd
000001d0: 4b35 54bd 2c32 88bd b8b9 80bd e73f 473d
000001e0: a2cd 4f3e f674 bb3d d1fa c33d 4856 6ebc
000001f0: 8ae7 663e 4bef aebc 8393 c2be 46e4 a0bd
00000200: 1aba 6fbe d566 183d 7fca 7bbd 5bed 8abd
00000210: 600e 943e 8a4c 44be aab2 97bc 3803 9fbd
00000220: a790 35be a50c 383c ba22 a93c 208e 303d
00000230: 19f2 5d3e acdb 8abc 8370 1fbe b542 2b3d
00000240: fa3b bd3d 3dd6 883d cf92 053e 4d57 48bd
00000250: 1143 853e ae2d 503e 42c9 853d 63a5 00bd
00000260: bea7 73bd aaae 6b3c 9c33 dfbc 850c 22be
00000270: d1b4 f83d 305c 933e 6138 60be 4975 debd
00000280: a996 2abe c9ff a3bc 2845 363e 2c10 133e
00000290: 2ea7 873c ce53 4d3e 9c66 ac3d 5af2 0e3e
000002a0: 89dd dbbd 99a7 6ebc 2344 f5bd 38ad 21be
000002b0: 7295 5abe 2bc9 17be fd55 393d 9bce 48be
000002c0: 587b e5bd 4139 df3d 1999 763e f715 943b
000002d0: e661 8b3d 139a 4cbe b687 dabd 1a81 3fbd
000002e0: 80b4 833c c31e 393d 12c6 af3d 1039 2bbd
000002f0: 7fc8 3bbe 2c53 cbbc 746d 1e3d 6a36 f13d
00000300: f40b 5fbd 518c babd ba71 78bd 9345 873c
00000310: 2c93 1fbe f543 d2bc ecaf 9f3d 7b49 313e
00000320: 3ec8 99be 5d3a efbd 0050 cabc ab93 06bd
00000330: b209 803d ad35 4c3e d99a e03c 3fc4 253e
00000340: 0ec5 143e 9bfe 1a3e 40a5 35be 6d97 b63d
00000350: 666a 1e3e 562f 30be 5e77 0bbc b8db f83d
00000360: 1891 8bbc 7fa3 afbd 2f3c 38be 162b cc3d
00000370: 7825 e2bd 8432 a93d b35f c6bc 9ed1 26be
00000380: aa1d a7bd 85ff a93d 3ac5 b63d 861b 35bd
00000390: 5be0 abbd 8792 4fbe 85b3 46bd 3efa af3d
000003a0: 71dc 09be 390b 133e a5c5 07be e4e0 6b3e
000003b0: 1edf 18be b9f5 843e 376d 82be d4d2 823c
000003c0: a8fb 0fbe 5244 a43d 7f59 bd3d fe27 9dbd
000003d0: 9edd fa3d 61c7 803e 3476 e53a 4943 fabd
000003e0: b2c4 b7bd 8abd 1abe 289d d23d d629 403b
000003f0: 1c1c be3d 7cda a03d b8a7 1a3e fa7d 3fbe
0.09776319 0.22931375 0.031695344 -0.0707039 -0.05805055 -0.06417461 -0.055507585 -0.11477005
-0.11293112 0.02047478 0.11121461 -0.006148332 -0.04124605 -0.1995471 -0.29177824 -0.16883805
0.047877394 0.14945629 -0.29462057 0.12690806 0.096427895 0.02010601 -0.046628065 -0.09826866
0.10806993 -0.23701 -0.035865378 -0.048503973 0.079406604 -0.14572302 -0.019720674 0.0019508575
-0.09921938 -0.104554795 -0.2122975 -0.24448666 -0.01721925 -0.17049702 -0.005342291 0.0837269
0.07779542 0.20828627 0.20115931 0.10603024 -0.10181126 0.059325688 0.15150088 -0.033954673
0.17080711 -0.07878851 0.16133255 -0.1633107 -0.26177266 -0.11777082 0.21874303 -0.01544433
0.09668391 0.19722068 0.18869767 0.10848496 -0.09179929 -0.038891513 0.16014217 -0.17033477
0.26675606 0.24520634 -0.17313759 -0.034608733 -0.094164066 -0.17368677 0.041908603 0.093699254
-0.052169178 -0.1710291 -0.14380243 0.09010707 -0.21444184 0.0811382 0.104588434 0.16744669
0.083186544 -0.23779811 0.28712243 -0.0014740371 -0.20864718 0.04770963 -0.04421566 -0.2568164
0.1091746 0.11433416 0.13433348 0.14068216 0.055315588 0.13517256 -0.23279409 -0.14964648
0.055636927 -0.26179177 -0.233951 -0.07501648 0.11722655 0.0180134 -0.043490976 -0.2057932
-0.2648075 -0.2419704 -0.040833212 0.1605503 0.0020031026 -0.08018763 0.18468009 -0.19180074
0.083997 -0.13085431 -0.23828414 -0.049019013 -0.051808637 -0.066501945 -0.06285423 0.048644926
0.20293286 0.09153168 0.09569324 -0.014546938 0.22549263 -0.021354338 -0.38003168 -0.0785604
-0.23410836 0.037207443 -0.061472412 -0.06783553 0.28917217 -0.19169822 -0.01851781 -0.07764286
-0.17730962 0.011233483 0.020646442 0.04310429 0.21674384 -0.01695045 -0.15570264 0.041811664
0.09239955 0.06681488 0.13044284 -0.04891138 0.2602773 0.20329925 0.065325275 -0.031407725
-0.059486143 0.014384905 -0.027246289 -0.15825088 0.12143863 0.2878127 -0.21896507 -0.10862214
-0.16659035 -0.020019429 0.17799819 0.14361638 0.01655921 0.200515 0.08418009 0.13959637
-0.10735614 -0.014566326 -0.11975887 -0.15788734 -0.21346071 -0.14822833 0.04524802 -0.19610064
-0.112051666 0.10899592 0.2408184 0.00451922 0.06805782 -0.1998065 -0.10670416 -0.04675398
0.01607728 0.045195352 0.08582701 -0.041802466 -0.18338202 -0.024819933 0.0386786 0.11777957
-0.05445476 -0.091087945 -0.060655333 0.016512668 -0.15583485 -0.02566717 0.07797226 0.17313187
-0.30035585 -0.11681054 -0.02469635 -0.03285567 0.06251849 0.1994235 0.027417587 0.16188143
0.14528295 0.15136187 -0.17738819 0.08915601 0.15470275 -0.17205557 -0.008512346 0.12151283
-0.01703696 -0.08576106 -0.17991708 0.099691555 -0.11042303 0.08261588 -0.024215555 -0.162909
-0.08159955 0.083006896 0.08924337 -0.0442157 -0.08392402 -0.2027074 -0.048511047 0.08592652
-0.13462998 0.1435975 -0.13258989 0.23035008 -0.14928862 0.25968722 -0.2547395 0.015969671
-0.14060843 0.080208436 0.09245586 -0.076736435 0.122493014 0.25152114 0.0017506541 -0.12219865
-0.089730635 -0.15111366 0.102838814 0.002932181 0.09282705 0.078541726 0.15103042 -0.187004
