251008/models/hadnn_n_random_forest.tflite (tflite, 393812 bytes, 20 tensors)

model/dense_1/MatMul;model/dense_1/Relu;model/dense_1/BiasAdd f4 [64]
0	0x3f808caa	1.0042927
1	0x3f3e36a3	0.7430212
2	0x3f1f67dd	0.6226786
3	0xbfadd156	-1.3579509
4	0x3fc7cc6b	1.5609258
5	0x3f3fe7ab	0.7496287
6	0x3f93cb95	1.1546503
7	0x3e556471	0.20839097
8	0x3efea210	0.4973302
9	0xbf823549	-1.0172511
10	0x3f67f1e7	0.9060349
11	0x3db0342f	0.08603703
12	0xbdf79d5a	-0.12090559
13	0x3eb30247	0.34962675
14	0x3fd1b23d	1.6382519
15	0x3e605501	0.21907426
16	0x3f54e133	0.83156127
17	0x3f86eaac	1.0540366
18	0xbf386c9e	-0.72040737
19	0x3edef8df	0.4354925
20	0x3f81258d	1.0089585
21	0x3efc1337	0.4923341
22	0x3ea1245a	0.31473047
23	0x3f088ab8	0.5333667
24	0x3f00abaa	0.5026194
25	0x3f696fe3	0.9118635
26	0x3ea3f8b5	0.32025686
27	0x3d15887f	0.036507126
28	0x3f31fd9c	0.695276
29	0x3f84fc0f	1.0389422
30	0x3ea33bd7	0.31881592
31	0x3fec3de3	1.8456386
32	0x3f618a2c	0.8810146
33	0xbeb22020	-0.34790134
34	0x3faad01d	1.3344761
35	0x3f9eb954	1.2400308
36	0x3e4701a5	0.19434221
37	0x3ec1dd51	0.37864164
38	0x3fa1ce81	1.2641145
39	0xbebf158b	-0.37321123
40	0x3ede5393	0.43423137
41	0x3f9b413f	1.2129287
42	0x3f310a62	0.6915647
43	0x3f16ba07	0.58877605
44	0xbe9b74d8	-0.30362582
45	0x3fb26689	1.3937541
46	0x3fad2d7e	1.3529508
47	0x3f274ba1	0.65349776
48	0x3fa638b4	1.2986054
49	0x3fb0be31	1.3808042
50	0x3f0ae715	0.54258853
51	0x3f3eef45	0.74583846
52	0x3d97711a	0.07394619
53	0x3f2798b9	0.6546741
54	0x3f24e424	0.64410615
55	0x3d9f1d00	0.07769203
56	0x3dd67068	0.104706585
57	0xbe44f232	-0.19233015
58	0xbef9a96a	-0.48762065
59	0x3f5d206b	0.8637759
60	0xbf8cf259	-1.1011459
61	0x3e81f94c	0.2538551
62	0x3d41f3f6	0.0473518
63	0xbe5a1a3e	-0.21299073

model/batch_normalization/batchnorm/mul_1;model/batch_normalization/batchnorm/add_1;model/dense_1/MatMul;model/dense_1/Relu;model/dense_1/BiasAdd f4 [64, 128]
0	0xbe7b372f	-0.2453277
1	0xbd977f77	-0.07397359
2	0x3dc552da	0.09634943
3	0xbdc54e32	-0.09634055
4	0xbd80f5a1	-0.0629685
5	0xbddfa4da	-0.10920115
6	0x3e107413	0.14106779
7	0xbd7afdae	-0.061277084
8	0xbd57bb82	-0.052669056
9	0x3e707b08	0.23484433
10	0xbea71277	-0.32631275
11	0xbdecd4f1	-0.11564053
12	0xbd93f6a5	-0.07224778
13	0x3d5720cc	0.052521512
14	0xbd17d900	-0.03707218
15	0x3d870d4e	0.065943345
16	0xbe4e629e	-0.20154807
17	0xbe27683e	-0.16348359
18	0x3e17ca04	0.14823157
19	0xbd842fac	-0.06454405
20	0xbd9e50de	-0.07730268
21	0x3e01e591	0.12685229
22	0xbe0843e3	-0.13307147
23	0xbd58c30f	-0.052920397
24	0x3e00e84d	0.12588616
25	0x3d831654	0.06400743
26	0xbdf54d4e	-0.11977635
27	0xbde72add	-0.112874724
28	0x3e623a9a	0.22092667
29	0xbe146915	-0.1449321
30	0xbcdb6910	-0.026783496
31	0xbdd4acf5	-0.103845514
32	0xbdd0cc12	-0.10195173
33	0x3d2b32d7	0.04179653
34	0xbd793a4c	-0.06084661
35	0xbe432f79	-0.19061078
36	0x3d106c20	0.035259366
37	0x3c906678	0.017626986
38	0xbccba169	-0.02485724
39	0xbe09ecb9	-0.13469209
40	0x3d6de857	0.058082905
41	0xbd7e4e07	-0.06208613
42	0xbdf77da9	-0.12084515
43	0x3e15bf36	0.14623722
44	0x3bb21a9b	0.0054353005
45	0x3cdeac5f	0.027181802
46	0x3b16105a	0.002289793
47	0x3d6b8660	0.057501197
48	0x3e6d0648	0.23146927
49	0xbc502642	-0.012704434
50	0x3d5eb3b6	0.054370604
51	0xbd858bc0	-0.06520796
52	0xbd538995	-0.05164488
53	0xbe16191f	-0.1465802
54	0x3d7579ed	0.05993073
55	0x3daa8446	0.083260104
56	0xbdf6a0c8	-0.12042385
57	0xbe82a49d	-0.25516215
58	0x3e175df5	0.14781936
59	0x3dacfee5	0.08447055
60	0x3dc3728e	0.09543334
61	0xbd1d4816	-0.038398825
62	0x3e4bef4c	0.19915503
63	0xbd0fe489	-0.035130057
64	0xbdf25e8e	-0.11834441
65	0x3eae3acd	0.34029236
66	0xbd12bc04	-0.035823837
67	0x3d9c227d	0.076237656
68	0xbe3e9e4c	-0.18615073
69	0xbd65b971	-0.056085054
70	0xbdabf41a	-0.08396168
71	0x3e1eb119	0.15497245
72	0xbcdaa8be	-0.02669179
73	0x3d62463e	0.05524277
74	0xbe32d54b	-0.17464177
75	0x3da8fb80	0.08251095
76	0xbdd75dac	-0.10515913
77	0x3e101907	0.14072047
78	0xbdfe21a4	-0.1240876
79	0x3d8595d0	0.06522715
80	0xbdf04c04	-0.11733249
81	0xbe447a50	-0.19187284
82	0x3d8815a3	0.06644752
83	0x3c31890c	0.010835897
84	0xbd2834b7	-0.041065898
85	0xbcd3b333	-0.025842285
86	0x3dab667a	0.08369155
87	0xbd7c0010	-0.061523497
88	0x3ebf80d8	0.37402987
89	0xbd636c5b	-0.055523258
90	0xbdcb45f5	-0.099254526
91	0xbd90c1db	-0.07068225
92	0xbe26b735	-0.16280825
93	0xbb66f34b	-0.0035240229
94	0xbd98fbac	-0.074698776
95	0xbe16b8af	-0.14718889
96	0x3e80055e	0.25004095
97	0xbd8261dc	-0.063663214
98	0xbd2e2c80	-0.042522907
99	0x3ea2f5d5	0.3182818
100	0xbd2942c4	-0.04132344
101	0x3e221382	0.15827754
102	0x3dadcfe0	0.08486915
103	0xbc62bf61	-0.013839574
104	0x3d58d25f	0.052935
105	0x3d7e7053	0.06211884
106	0xbe076c73	-0.13224964
107	0x3e422121	0.1895795
108	0xbdd2e49f	-0.10297512
109	0xbe3084e7	-0.17238198
110	0x3d9d89d9	0.07692308
111	0xbded69b8	-0.1159243
112	0xbe07e4dc	-0.13270897
113	0xbc444384	-0.011978988
114	0x3e6e35db	0.23262732
115	0xbe55d5c9	-0.20882334
116	0x3e72876a	0.23684469
117	0x3e33131f	0.17487763
118	0x3c65fd6a	0.014037469
119	0x3e1100e5	0.14160497
120	0x3d6e7525	0.058217186
121	0xbd93a9b8	-0.07210106
122	0x3ce37020	0.027763426
123	0xbd122631	-0.035680953
124	0xbddacb73	-0.10683336
125	0x3d8dedb6	0.069301054
126	0x3e90aa88	0.28255105
127	0xbcf48dc0	-0.029852748
128	0x3d989148	0.07449585
129	0x3d91757f	0.07102489
130	0x3e65ef98	0.22454679
131	0xbe7ccab3	-0.24686699
132	0xbe79c428	-0.24391234
133	0x3e36dc37	0.17857443
134	0x3dca7792	0.098860875
135	0xbe5284fc	-0.20558542
136	0xbe76c145	-0.24097164
137	0xbdc60b5b	-0.09670135
138	0xbe83adb3	-0.2571846
139	0xbca38ef5	-0.019965628
140	0x3e420d4e	0.18950388
141	0x3e466a22	0.19376424
142	0xbcf41d99	-0.02979927
143	0x3de5538c	0.11197576
144	0x3e3044de	0.17213771
145	0xbe5a0a5f	-0.21293019
146	0x3ddb3d1e	0.107050166
147	0xbd81718b	-0.06320485
148	0xbd278542	-0.04089857
149	0xbb36860a	-0.002785089
150	0xbdaa6d11	-0.08321584
151	0xbd3dcc71	-0.04633755
152	0xbdd2e8cd	-0.102983095
153	0xbe0da80e	-0.13833639
154	0x3d0b56ad	0.034018207
155	0xbe4bdd0b	-0.1990854
156	0xbe56b8cb	-0.2096893
157	0x3d834abc	0.06410739
158	0x3cfde7f9	0.030994402
159	0x3d2463a9	0.040134106
160	0xbe6b6c23	-0.2299047
161	0xbe12f762	-0.14352182
162	0xbe2891ba	-0.1646184
163	0xbe0c9b70	-0.1373117
164	0xbddb559c	-0.10709688
165	0x3e0b53b4	0.13606149
166	0x3df069ef	0.11738955
167	0xbdadcb84	-0.08486083
168	0xbc16ca40	-0.009203494
169	0x3ded6d1f	0.11593079
170	0xbd7c71c7	-0.061631944
171	0xbe901700	-0.28142548
172	0xbd4123d3	-0.047153305
173	0xbe056482	-0.13026622
174	0x3c850085	0.0162356
175	0xbd367e0e	-0.04455381
176	0xbeb456b5	-0.35222402
177	0xbd9a2bfe	-0.07527922
178	0xbd0be52b	-0.0341541
179	0xbe871daa	-0.2638982
180	0x3e18350a	0.14863983
181	0x3e98494d	0.29743424
182	0xbd4a7fc9	-0.04943827
183	0xbc3a2ba2	-0.011362942
184	0x3de1e3a3	0.110297464
185	0xbdcacac2	-0.09901954
186	0x3d9dc2e4	0.07703188
187	0xbd9e0da8	-0.077174485
188	0xbe1d7a74	-0.15378743
189	0xbd8952a7	-0.06705218
190	0x3dbc0f0c	0.091825575
191	0x3db33f51	0.08752311
192	0x3dde05a5	0.1084092
193	0x3ed528b5	0.4163262
194	0x3d0698b5	0.032860477
195	0xbd98fdf7	-0.07470315
196	0xbe20425c	-0.15650314
197	0x3e046df6	0.12932572
198	0xbdbad96b	-0.091235004
199	0x3da9e1ea	0.08295043
200	0x3e9cdd64	0.30637658
201	0xbd71557d	-0.05891942
202	0x3e330731	0.17483212
203	0x3e2c8e5c	0.16851181
204	0x3df948cc	0.12172088
205	0x3e12b168	0.14325488
206	0x3e45308e	0.19256803
207	0xbdf7e838	-0.12104839
208	0xbd29bba2	-0.041438706
209	0xbd3200d6	-0.04345783
210	0xbe454b2d	-0.19266959
211	0xbd16c482	-0.0368085
212	0x3c99f51c	0.018793635
213	0xbbd0ecb2	-0.0063758725
214	0xbd7d6a05	-0.061868686
215	0x3d2660b9	0.040619586
216	0xbeb22e73	-0.34801063
217	0xbe5d42c3	-0.21607499
218	0xbcdb9fd7	-0.026809616
219	0xbd97422c	-0.07385668
220	0xbe1ba782	-0.15200618
221	0xbdc237f0	-0.094833255
222	0xbe05d1f6	-0.13068375
223	0x3e269a17	0.16269718
224	0x3d381361	0.044940356
225	0xbe113062	-0.14178613
226	0x3c8c58ed	0.017132247
227	0x3e9ca73c	0.3059634
228	0x3d8ef6ef	0.069806926
229	0xbe14804f	-0.14502071
230	0x3e9145aa	0.28373462
231	0x3e236019	0.15954627
232	0xbe3b5da4	-0.1829744
233	0x3e38bc10	0.1804049
234	0x3e5bf90c	0.21481723
235	0x3ed69944	0.41913807
236	0x3d9fdd75	0.078059115
237	0x3dd7e64e	0.10541974
238	0xbb56a43d	-0.0032751702
239	0x3e3b1364	0.18269116
240	0xbe0380fe	-0.12842175
241	0xbd887517	-0.06662958
242	0x3daaa094	0.08331409
243	0xbda60b2a	-0.08107598
244	0xbdb480d9	-0.08813638
245	0xbdb789e3	-0.08961847
246	0x3e22b3cb	0.15888898
247	0xbdc610e6	-0.09671192
248	0xbd28d762	-0.04122103
249	0xbe55432f	-0.2082641
250	0xbe4ccfe1	-0.20001175
251	0xbe31f6c6	-0.17379293
252	0xbc080191	-0.008301155
253	0x3c2a9548	0.010411568
254	0x3e8490a0	0.2589159
255	0xbda27762	-0.07932927

model/batch_normalization_1/batchnorm/sub f4 [64]
0	0xbf28530b	-0.65751714
1	0xbf1c9fac	-0.6118114
2	0xbf1bd0b5	-0.60865337
3	0xbeb89800	-0.36053467
4	0xbf5328c6	-0.8248409
5	0xbf21367e	-0.62973773
6	0xbf2c77a2	-0.67370045
7	0xbf117cf9	-0.5683132
8	0xbef74765	-0.48296657
9	0xbe93fb00	-0.28902435
10	0xbf1a7e8e	-0.6034936
11	0xbec92bf4	-0.39291346
12	0xbeea1362	-0.45717913
13	0xbede01ba	-0.43360692
14	0xbf355bfd	-0.7084349
15	0xbeeba2fa	-0.4602278
16	0xbf370997	-0.7149901
17	0xbf088cbb	-0.5333974
18	0xbed59373	-0.41714057
19	0xbefc3f2f	-0.49266955
20	0xbf1ddc26	-0.61664045
21	0xbf03ff6a	-0.51561606
22	0xbf13ab90	-0.5768366
23	0xbf1a4250	-0.60257435
24	0xbf30693e	-0.68910587
25	0xbf4816b3	-0.78159636
26	0xbf265c0c	-0.649842
27	0xbee9f134	-0.45691836
28	0xbf04ce72	-0.5187751
29	0xbf1e4a2e	-0.6183194
30	0xbf101b93	-0.56292075
31	0xbf61b46e	-0.8816594
32	0xbf3a4d56	-0.72774255
33	0xbeefd681	-0.4684334
34	0xbf360582	-0.71102154
35	0xbf14185b	-0.57849663
36	0xbeb1f15f	-0.34754464
37	0xbf067cb4	-0.5253403
38	0xbf477ca7	-0.7792458
39	0xbec80ee8	-0.39073873
40	0xbed2a93a	-0.41144735
41	0xbf34a92e	-0.7057065
42	0xbf13a116	-0.5766767
43	0xbf261f21	-0.6489125
44	0xbec25668	-0.37956548
45	0xbf1c1ef3	-0.60984725
46	0xbf375f26	-0.7162956
47	0xbf151168	-0.58229685
48	0xbf268b5a	-0.65056384
49	0xbf2c9749	-0.6741834
50	0xbf1ad676	-0.6048349
51	0xbf3f29a1	-0.74672896
52	0xbef6a180	-0.4817009
53	0xbf06851f	-0.52546877
54	0xbf3a6ef7	-0.7282557
55	0xbf20ba81	-0.6278458
56	0xbf1f984e	-0.62341774
57	0xbec7d186	-0.3902704
58	0xbef21dec	-0.47288454
59	0xbf24c1c4	-0.6435816
60	0xbef74ce5	-0.48300853
61	0xbf118b5e	-0.5685328
62	0xbf20f396	-0.6287168
63	0xbed90402	-0.4238587

model/batch_normalization_1/batchnorm/mul f4 [64]
0	0x3f78bbd9	0.9716163
1	0x3f625f04	0.8842623
2	0x3f5d2d73	0.86397475
3	0x3f792477	0.97321266
4	0x3f810fa9	1.0082904
5	0x3f7dca7d	0.991371
6	0x3f6c27ce	0.9224824
7	0x3f7caba0	0.9869938
8	0x3f56b643	0.8387186
9	0x3f45e8a0	0.7730808
10	0x3f6cd9ff	0.92520136
11	0x3f749dea	0.9555346
12	0x3f683de1	0.9071942
13	0x3f538089	0.82618004
14	0x3f901bbd	1.1258465
15	0x3f4dae5e	0.8034419
16	0x3f64a15e	0.89308727
17	0x3f6acc99	0.9171844
18	0x3f640a53	0.89078254
19	0x3f652cf3	0.8952171
20	0x3f7d7a00	0.9901428
21	0x3f4ff87d	0.8123854
22	0x3f58fb6d	0.84758645
23	0x3f60f371	0.8787146
24	0x3f4af76c	0.79283786
25	0x3f66f154	0.9021199
26	0x3f6f5d3f	0.9350166
27	0x3f6e9ceb	0.9320819
28	0x3f7016d9	0.9378486
29	0x3f71af82	0.9440843
30	0x3f830013	1.0234398
31	0x3f88cff2	1.068846
32	0x3f746bc8	0.9547696
33	0x3f4dfa68	0.80460215
34	0x3f7327eb	0.94982785
35	0x3f82dc48	1.0223475
36	0x3f5dd6c0	0.8665581
37	0x3f7263e2	0.9468366
38	0x3f953a72	1.1658461
39	0x3f561104	0.83619714
40	0x3f60e772	0.8785316
41	0x3f8810a7	1.0630082
42	0x3f675497	0.9036345
43	0x3f89c3ca	1.0762875
44	0x3f697c83	0.91205615
45	0x3f77ff7b	0.9687421
46	0x3f86aaab	1.0520834
47	0x3f64b74b	0.8934218
48	0x3f754cdd	0.9582041
49	0x3f79db2c	0.97600055
50	0x3f8c3d5b	1.0956224
51	0x3f87027f	1.0547637
52	0x3f5aaf2f	0.8542356
53	0x3f85ee18	1.0463285
54	0x3f5e0967	0.86733097
55	0x3f4da75e	0.8033351
56	0x3f54105d	0.8283747
57	0x3f5f0ae2	0.8712598
58	0x3f454deb	0.7707202
59	0x3f674b6d	0.90349466
60	0x3f4ccb2a	0.79997504
61	0x3f51c8af	0.81946844
62	0x3f80580a	1.0026867
63	0x3f7d363e	0.9891089

model/position_output/BiasAdd/ReadVariableOp f4 [2]
0	0x3d030a4b	0.031992238
1	0x3c8e004e	0.01733413

model/floor_output/BiasAdd/ReadVariableOp f4 [5]
0	0x3d358f45	0.044326086
1	0x3b2afb09	0.002608957
2	0x3d06c823	0.03290571
3	0xbd133f49	-0.035949025
4	0xbd4eddab	-0.050504368

model/dense/BiasAdd/ReadVariableOp f4 [128]
0	0x3e413473	0.18867664
1	0x3dd53c89	0.10411937
2	0x3d19b3ea	0.037525095
3	0x3d0ed6c9	0.034872804
4	0x3dc11473	0.094277285
5	0x3e18b627	0.14913236
6	0x3e816af8	0.25276923
7	0x3dac6b2a	0.084188774
8	0x3de95ae6	0.113942906
9	0xbbae0b2c	-0.0053113904
10	0x3e006514	0.12538558
11	0x3de299cf	0.11064493
12	0x3e07bb71	0.13255097
13	0x3da458e3	0.08024766
14	0x3d69b8d3	0.057061028
15	0x3d1acca4	0.037792817
16	0x3dbb677a	0.09150596
17	0x3e039aef	0.12852071
18	0x3dc3f874	0.09568873
19	0x3e0cdb7b	0.137556
20	0x3e1121b0	0.14173007
21	0x3d409440	0.047016382
22	0x3dbd23a9	0.09235317
23	0x3da4ea64	0.08052519
24	0x3da33151	0.07968391
25	0x3d96f587	0.073710494
26	0x3d8957fb	0.06706234
27	0xbd700610	-0.05859953
28	0x3e091c96	0.13389811
29	0x3d98b70d	0.07456789
30	0x3d67af5f	0.05656373
31	0x3e285e0d	0.16442128
32	0x3dc486a9	0.09595997
33	0x3de47727	0.11155539
34	0x3dcd56f9	0.10026354
35	0x3de06633	0.10956993
36	0x3d42cba0	0.047557473
37	0x3da8571b	0.08219739
38	0x3ce66edb	0.028129032
39	0x3dddfbfa	0.10839076
40	0x3dcf2e51	0.10116256
41	0x3e1768d8	0.14786088
42	0x3d7ffc3d	0.062496413
43	0x3d87b88e	0.06626998
44	0x3db90016	0.090332195
45	0x3e2e0e1b	0.16997568
46	0x3e168854	0.14700443
47	0x3d72fc26	0.0593225
48	0x3dee76d8	0.116437614
49	0x3db074d8	0.08616036
50	0x3daec871	0.08534325
51	0x3d3b0728	0.04566112
52	0x3d75b0c5	0.059983034
53	0x3dd8aaf0	0.10579479
54	0x3e346274	0.17615682
55	0x3e016b1a	0.12638512
56	0x3e04c8f3	0.12967281
57	0x3de2a65e	0.11066888
58	0x3dbc4ad6	0.09193961
59	0x3d3317dd	0.04372393
60	0x3db4d1b6	0.08829062
61	0x3d7e71b5	0.06212016
62	0x3dc8b5a8	0.09800273
63	0x3dd4a502	0.10383035
64	0x3e15eed3	0.14641885
65	0x3d2d7cda	0.042355396
66	0x3dd59661	0.10429073
67	0x3d1ad833	0.03780384
68	0x3da10c49	0.07863671
69	0x3e18fe1a	0.14940682
70	0x3e083be5	0.13304098
71	0x3dc50a41	0.096210964
72	0x3d58e420	0.052951932
73	0x3e0ff32e	0.1405761
74	0x3d559925	0.052148003
75	0x3e3ec38a	0.1862928
76	0x3d47340c	0.04863362
77	0x3ddb869a	0.107190326
78	0x3dce74e4	0.10080889
79	0x3d27f648	0.041006356
80	0x3b763ded	0.0037573532
81	0x3deb0533	0.11475601
82	0x3d8c1fc4	0.06841996
83	0x3de852ba	0.11343904
84	0x3dc7c75f	0.09754824
85	0xbb002cc1	-0.0019557925
86	0x3e2974da	0.16548482
87	0x3dd56796	0.10420148
88	0x3dc25b38	0.09490055
89	0x3bb7e7df	0.005612358
90	0x3e01c615	0.12673219
91	0x3df506f5	0.119642176
92	0x3cea747f	0.028620003
93	0x3e12fd86	0.14354524
94	0x3decd386	0.115637824
95	0x3df0683c	0.11738631
96	0x3d717a93	0.058954787
97	0x3c5a0736	0.013307383
98	0x3dd7e291	0.10541261
99	0x3dcdbc6b	0.100457035
100	0x3da2eb88	0.0795508
101	0x3de9e53a	0.114206746
102	0x3dd0648c	0.10175428
103	0x3de72ca7	0.11287814
104	0x3de407fb	0.11134335
105	0x3e1a0ec3	0.15044694
106	0x3e0ba6e7	0.13637887
107	0x3db033e2	0.08603646
108	0x3e16ea4f	0.14737819
109	0x3e0604e6	0.13087806
110	0x3dd22aaf	0.102620475
111	0x3e093a2a	0.13401094
112	0xbc49a4b9	-0.012307339
113	0x3c29f84d	0.010374141
114	0x3e1a3e70	0.1506288
115	0x3e327b6c	0.17429894
116	0x3de1e11c	0.11029264
117	0x3d418567	0.047246363
118	0x3d74c38a	0.059756793
119	0x3e34984e	0.17636225
120	0x3dc16478	0.09442991
121	0x3d3be757	0.04587492
122	0x3d7767b8	0.06040165
123	0x3de9ccbe	0.114160046
124	0x3dbbdf22	0.091734186
125	0x3dc6fd90	0.09716332
126	0x3d22c750	0.03974086
127	0x3dfbc72e	0.1229385

model/dense_4/BiasAdd/ReadVariableOp f4 [64]
0	0xbd779c57	-0.06045183
1	0xbe095c7f	-0.1341419
2	0xbdb24c33	-0.0870594
3	0xbd7e68e8	-0.062111765
4	0xbd5e3131	-0.05424613
5	0xbdbd0a06	-0.092304274
6	0xbdd90e17	-0.105983905
7	0xbdadabbc	-0.08480021
8	0xbbfdbb85	-0.0077433013
9	0xbd1f87f5	-0.038948018
10	0xbcfed96b	-0.031109532
11	0xbded7fef	-0.11596667
12	0xbcc41bc6	-0.023939025
13	0xbdcdd3f0	-0.100501895
14	0xbdc2a69a	-0.09504433
15	0xbe2738a8	-0.16330206
16	0xbcb17418	-0.021661803
17	0xbe1a6a23	-0.1507955
18	0xbda126f6	-0.07868759
19	0xbddf9feb	-0.10919174
20	0xbcb78ea9	-0.022406893
21	0xbd48c065	-0.049011607
22	0xbcf4aa64	-0.029866405
23	0xbd32ecae	-0.043682747
24	0xbd33af00	-0.043868065
25	0x3c854945	0.01627029
26	0xbd77c00c	-0.060485885
27	0xbdb8d9d9	-0.09025926
28	0xbdaf5700	-0.08561516
29	0xbd412d12	-0.047162123
30	0xbe1b35d6	-0.15157256
31	0xbdb485a9	-0.08814556
32	0xbd9899b3	-0.07451191
33	0xbde634db	-0.1124055
34	0xbd93aa7b	-0.07210251
35	0xbdaf5fa3	-0.08563163
36	0xbd38d632	-0.045126148
37	0xbda5e241	-0.08099795
38	0xbcf28076	-0.02960227
39	0xbdae6eac	-0.08517203
40	0xbd3938f8	-0.045220345
41	0xbe01edac	-0.12688321
42	0xbce4fe81	-0.027953388
43	0xbd9df47f	-0.077126496
44	0xbdd073b1	-0.101783164
45	0xbdc2892d	-0.094988205
46	0xbd8a2ea8	-0.0674718
47	0xbd844b22	-0.06459643
48	0xbe2a337e	-0.16621205
49	0xbd84a44d	-0.064766504
50	0xbdd4e535	-0.1039528
51	0xbd9d4dd2	-0.07680859
52	0xbbaf93ec	-0.00535821
53	0xbdbe8dd9	-0.09304399
54	0xbd80f5bc	-0.0629687
55	0xbd904ee3	-0.070462964
56	0xbdb7c8fb	-0.08973881
57	0xbd20db60	-0.039271712
58	0xbd2373d3	-0.03990538
59	0xbba080cf	-0.0048981677
60	0xbd20312b	-0.03910939
61	0xbdda8510	-0.10669911
62	0xbdae7b6f	-0.08519637
63	0x3d130492	0.03589303

model/dense_3/BiasAdd/ReadVariableOp f4 [64]
0	0x3da3e7da	0.080032066
1	0xbd6b2283	-0.05740596
2	0x3d0dc63d	0.034612883
3	0x3d864179	0.06555457
4	0x3dc62a5e	0.0967605
5	0x3ce863e7	0.02836795
6	0xbce14765	-0.027499864
7	0x3d5de91d	0.054177392
8	0x3d7e54a7	0.06209245
9	0x3cf654dd	0.030069763
10	0x3d46ef61	0.048568133
11	0x3c9e1b90	0.019300252
12	0x3cf18d26	0.02948625
13	0x3d0560d7	0.032563057
14	0x3dc3cac6	0.0956016
15	0x3d93d1ff	0.07217788
16	0xbc855797	-0.016277118
17	0x3d069dab	0.032865208
18	0x3cf14357	0.029451055
19	0x3d4e43f2	0.050357766
20	0x3bfd786f	0.007735304
21	0xbd00d79f	-0.031455632
22	0x3daac686	0.083386466
23	0x3c7a401e	0.015274076
24	0x3db40eb6	0.087918684
25	0x3d3e3afd	0.046442974
26	0x3e0356de	0.12826106
27	0x3d8ef265	0.06979827
28	0x3c842754	0.016132034
29	0x3d353726	0.044242047
30	0x3d89a6b7	0.067212515
31	0x3cc20ee6	0.023688745
32	0x3d52762f	0.05138224
33	0x3ccc40f9	0.024933325
34	0x3d6a82e3	0.05725373
35	0x3d6659d5	0.056238014
36	0x3dabea09	0.08394248
37	0x3d8ee341	0.06976939
38	0x3e27a526	0.16371593
39	0xbc0ada6a	-0.0084749255
40	0xbc39e0fe	-0.011345146
41	0x3d3d1d78	0.04617068
42	0x3d8ab845	0.06773428
43	0x3d93c292	0.07214846
44	0x3c4f9ffc	0.012672421
45	0x3d22a600	0.03970909
46	0x3ce233a7	0.02761252
47	0x3c3a3959	0.011366212
48	0x3d9b5d0e	0.07586108
49	0xbb1d52ec	-0.0024005724
50	0x3dc42914	0.095781475
51	0xbccd1f5e	-0.025039371
52	0x3d4a93ba	0.04945729
53	0xbc4ce64b	-0.012506078
54	0x3cb3e480	0.021959543
55	0x3c193c8b	0.0093528135
56	0x3d85758b	0.0651656
57	0xbda989e6	-0.08278255
58	0x3cba1af4	0.02271793
59	0x3ca7f32c	0.020501696
60	0xbbe94f45	-0.0071200454
61	0x3ccf822a	0.025330622
62	0x3d852cd7	0.06502693
63	0x3d94f1d3	0.07272687

model/dense_2/BiasAdd/ReadVariableOp f4 [64]
0	0x3ce760ce	0.028244402
1	0x3dc16b71	0.09444321
2	0xbd2097de	-0.03920733
3	0x3ca7e935	0.020496944
4	0x3cbcfb8e	0.02306917
5	0xbcfa3b64	-0.030545898
6	0xbd016c69	-0.03159753
7	0xbbef213c	-0.007297663
8	0xbc75680d	-0.014978421
9	0x3d1f667a	0.03891609
10	0x3d4f5091	0.050613943
11	0x3ad855d0	0.0016505066
12	0xbc7a47f2	-0.015275942
13	0xbd11ebf2	-0.035625406
14	0xbc0a6412	-0.00844671
15	0x3cb7fbdc	0.022458963
16	0x3bc6721d	0.006056084
17	0x3cca81dc	0.024720125
18	0x3cb1c600	0.02170086
19	0x3d862fe5	0.06552104
20	0xbcfebfb4	-0.03109727
21	0xba27522b	-0.00063827884
22	0x3ce90e48	0.028449193
23	0x3d2ecf47	0.042678144
24	0x3cac4e6c	0.021033488
25	0x3cf4dcc3	0.029890424
26	0x3d3124a6	0.04324784
27	0x3d8a4f41	0.06753398
28	0xbbed29c6	-0.007237646
29	0xbc045fc2	-0.008079471
30	0x3d683fec	0.056701586
31	0x3d195b69	0.03744069
32	0xbce4d05e	-0.027931388
33	0xb9b6b99d	-0.00034852038
34	0x3cceca47	0.025242938
35	0xbce55379	-0.027993904
36	0x3b178fd5	0.0023126502
37	0xbd45ebc8	-0.04832056
38	0xba59dabf	-0.0008310489
39	0xbcd087f2	-0.025455449
40	0x3d220764	0.03955783
41	0xbc699e08	-0.014258869
42	0x3a441c5e	0.00074810337
43	0xbc6d498f	-0.01448287
44	0x3d270e47	0.0407851
45	0xbb3fe9c1	-0.0029283615
46	0x3d815cf5	0.06316558
47	0x3d66ea6e	0.056375913
48	0xbc16347a	-0.009167785
49	0xbb7403f7	-0.0037233809
50	0x3d175baa	0.036952652
51	0xbd03ab8c	-0.03214602
52	0xbd65548b	-0.05598883
53	0x3d9a9da0	0.07549596
54	0xbc75ceae	-0.01500289
55	0xbcb03ac3	-0.021512395
56	0x3d6e13af	0.05812424
57	0x3cbc593f	0.022991775
58	0x3d1fa7bf	0.038978335
59	0x3d0b6652	0.034033127
60	0x3c52db5d	0.012869683
61	0x3d24c5e3	0.040227782
62	0xbbac1f6c	-0.005252769
63	0x3d1a8540	0.037724733

model/building_output/BiasAdd/ReadVariableOp f4 [3]
0	0x3c762fe9	0.015026071
1	0xbc99af0b	-0.018760225
2	0xbc1d32f0	-0.009594664

model/dense/MatMul f4 [128, 556]
0	0xb903fd7e	-0.00012587567
1	0xb9cff5ec	-0.00039665343
2	0xb902a6e0	-0.00012459932
3	0x9997559f	-1.5647616e-23
4	0x3c4ced14	0.012507696
5	0xbdc9e05c	-0.09857246
6	0xbda1ccb9	-0.07900376
7	0x3d29b7b0	0.041434944
8	0x3d58e035	0.052948195
9	0xbd192852	-0.037391968
10	0x3ceba16b	0.028763494
11	0xba2e42cf	-0.00066475285
12	0xbc289f17	-0.010291836
13	0x9571207e	-4.8695194e-26
14	0x162bec66	1.3887864e-25
15	0xbcaf7058	-0.021415874
16	0x3d22249c	0.039585695
17	0xbcf14b9e	-0.029455002
18	0x3cc1a1d6	0.02363674
19	0x3dad2e45	0.08456091
20	0x3d17396d	0.03692
21	0xbd5e8836	-0.05432912
22	0x3c9f1f99	0.019424247
23	0x3d90271d	0.0703871
24	0xbbd7a17c	-0.0065805297
25	0x3d932b0b	0.07185944
26	0xbd1d0bae	-0.038341217
27	0xbc1914bc	-0.009343322
28	0xbd58533a	-0.052813746
29	0xbd174cd0	-0.03693849
30	0x3c904e2f	0.017615406
31	0x3d11d5c4	0.035604253
32	0x3d43eb06	0.047831558
33	0x3c698bdd	0.014254537
34	0xbd65264e	-0.055944733
35	0x3ccfd417	0.025369687
36	0xbd7fb7fb	-0.062431317
37	0xbcc46f0f	-0.023978738
38	0xbc8a95d6	-0.01691715
39	0xbbed6179	-0.0072442857
40	0xbcb83f7c	-0.02249121
41	0x3c533139	0.012890154
42	0x3c8a39cb	0.016873261
43	0xbd3a5073	-0.04548688
44	0xbd6b9e87	-0.05752423
45	0xbd27f726	-0.041007183
46	0xbc44cafe	-0.012011288
47	0xbd1f0c5a	-0.03883014
48	0xbd96563c	-0.07340667
49	0xbb661e9c	-0.003511346
50	0xbd785e5e	-0.06063687
51	0xbc69f7ea	-0.014280299
52	0x3c411a9b	0.011786128
53	0x3c255e69	0.01009331
54	0xbd749a06	-0.0597172
55	0xbcca45bb	-0.024691453
56	0xbc960e60	-0.018317401
57	0xbd1adf71	-0.037810747
58	0x3cd0f20e	0.025506046
59	0x3d0fb7f7	0.035087552
60	0x15ba43ba	7.5231655e-26
61	0x3c3f8836	0.01169019
62	0xbbf9ccd2	-0.0076232934
63	0xbc1f1b13	-0.009711045
64	0xbbd5fb20	-0.0065301806
65	0x163c9a88	1.523528e-25
66	0x972a68f0	-5.506241e-25
67	0xb903f757	-0.00012585275
68	0xb9093f72	-0.00013088973
69	0x3cdb1c3b	0.02674686
70	0x3c495117	0.0122874
71	0x97e7b3ec	-1.4973444e-24
72	0xba9bd0fe	-0.0011887846
73	0x3cce0964	0.025150962
74	0xbc5a51ee	-0.013325198
75	0xbc852da0	-0.016257107
76	0xbc248d22	-0.010043414
77	0xbc864802	-0.016391758
78	0x3cc31223	0.02381236
79	0x3d9cb677	0.0765199
80	0x3d2e11aa	0.042497315
81	0xbd40954c	-0.04701738
82	0xbd28001e	-0.041015737
83	0x3d26cf11	0.040724818
84	0xbc25528e	-0.010090483
85	0xbc150388	-0.00909508
86	0x3cae6534	0.021288492
87	0xbd154a35	-0.036447722
88	0x3d65abbc	0.05607198
89	0xba90b146	-0.001103916
90	0xbd8cb088	-0.06869608
91	0x3d223061	0.03959692
92	0x3cbef0d1	0.02330819
93	0xbabb4740	-0.0014288202
94	0x3d090b62	0.03345812
95	0xbd1de132	-0.03854484
96	0x3d22dd16	0.039761625
97	0x3d54fafa	0.051997162
98	0xbd2b6859	-0.04184756
99	0xbd8ff810	-0.07029736
100	0x3d313b6c	0.04326956
101	0x3c989e1d	0.018630082
102	0x3c49d44b	0.012318681
103	0x3c89ccf0	0.016821355
104	0xbd3c291f	-0.045937654
105	0xba7e3c83	-0.0009698348
106	0xbd85351d	-0.06504271
107	0xbda1f50e	-0.079080686
108	0xbdab6c4d	-0.08370266
109	0x3cdc4016	0.026886027
110	0xbd5b8e75	-0.053602654
111	0xbd68e955	-0.056863148
112	0x3b09df32	0.0021037576
113	0x3adc5416	0.0016809728
114	0xbd28fcbe	-0.04125666
115	0xbcd31ab1	-0.025769563
116	0x3be5065c	0.0069892835
117	0x3be2b53f	0.006918579
118	0xbd1b4726	-0.03790965
119	0x3d76fdb8	0.06030056
120	0xbd145d9f	-0.036222097
121	0xbd531711	-0.05153567
122	0xbc0d1f49	-0.008613416
123	0x3c8305aa	0.015993912
124	0xbca8a12b	-0.020584663
125	0x3d3aeb25	0.045634408
126	0xbd161238	-0.03663847
127	0xb9034cba	-0.00012521716
128	0x19ab85fe	1.7735105e-23
129	0xb902a2d7	-0.00012458429
130	0x3c093c53	0.008376199
131	0x3d26f9c3	0.040765535
132	0x3c899f2b	0.01679953
133	0xb9aec712	-0.00033336185
134	0xb9046c53	-0.00012628855
135	0xb905dd82	-0.00012766386
136	0x96479706	-1.6122747e-25
137	0xbc84c48e	-0.016207006
138	0xbd3ef1fe	-0.0466175
139	0xbcf07370	-0.02935192
140	0x3cc19594	0.023630895
141	0x3bb2203b	0.005435971
142	0x3d1ef858	0.038811058
143	0x3d1c710a	0.03819374
144	0x3d137a1d	0.03600513
145	0xbc8ac70d	-0.016940618
146	0x3bf620d8	0.0075112395
147	0x3b519489	0.0031979403
148	0x3d1676ba	0.03673432
149	0x3c94e562	0.018175784
150	0xbbb0209a	-0.00537498
151	0xbd916501	-0.07099343
152	0x3d6df4ba	0.058094718
153	0x3b0284fb	0.0019915688
154	0x3c9f0ffa	0.019416798
155	0x3d4534b1	0.048145954
156	0x3dda6a1f	0.10664772
157	0xbd1cfbf1	-0.038326208
158	0x3db1f565	0.086893834
159	0x3ced075d	0.028934175
160	0x3af47ced	0.0018652953
161	0x3d924504	0.0714207
162	0xbd232bcf	-0.0398367
163	0xbd6cc931	-0.05780906
164	0xbd1e7d1e	-0.03869354
165	0x3cd59e34	0.026076414
166	0x3d647305	0.055773754
167	0x3d84fbf5	0.064933695
168	0xbc1663ff	-0.009179114
169	0xbcab0eb3	-0.020881033
170	0xbd848a52	-0.06471695
171	0xbd17867a	-0.03699348
172	0xbd31df1d	-0.043425668
173	0xbc68719c	-0.014187243
174	0xbc218dae	-0.009860439
175	0xbc957bf8	-0.01824759
176	0x3d86807b	0.065674745
177	0x3bc70576	0.006073649
178	0xbd001f09	-0.031279597
179	0xbd411d7c	-0.04714726
180	0x3d5047a4	0.05084957
181	0x3d091eb2	0.03347654
182	0xbc9b514f	-0.01895967
183	0xbd52c4c4	-0.05145718
184	0x3cbd7d50	0.023131043
185	0x3d0e73b7	0.034778323
186	0xbd632a61	-0.055460338
187	0xbdbce005	-0.09222416
188	0xbcc216da	-0.023692537
189	0xbcf5f04b	-0.030021807
190	0xbd2e5236	-0.04255887
191	0xbd05cbad	-0.032664943
192	0x3c2bc626	0.010484254
193	0x3d231d4f	0.039822873
194	0xbcf13695	-0.029444972
195	0x3d3dfee5	0.046385664
196	0xbc26f031	-0.010189102
197	0xbc455be7	-0.012045837
198	0x3d2dccab	0.042431515
199	0xbcd8b37c	-0.026452772
200	0x3d997563	0.07493093
201	0xbd3ce25f	-0.04611432
202	0xbc2a37e6	-0.010389304
203	0x3de98823	0.11402919
204	0xbd18b092	-0.037277766
205	0xbd254243	-0.040346395
206	0xbd259b88	-0.04043153
207	0x3d4e8417	0.05041894
208	0xbd0fda12	-0.035120077
209	0x3d43f84c	0.047844216
210	0x9817eb25	-1.963501e-24
211	0x3d3337bc	0.043754324
212	0x3c830411	0.01599315
213	0x3ca5e3f1	0.020250292
214	0xbc85188c	-0.016247056
215	0xbc2b0791	-0.010438816
216	0x19696555	1.20662815e-23
217	0xb9038e17	-0.00012546066
218	0x3d745bc5	0.05965783
219	0xbc97957c	-0.018503897
220	0x16a4f16e	2.6647993e-25
221	0xba3b096d	-0.00071348884
222	0xbc56414f	-0.013077094
223	0xbcfa55be	-0.030558463
224	0x3ccc36fb	0.02492856
225	0xbd829cc0	-0.06377554
226	0xbcb9a8ce	-0.0226635
227	0x3c2d904a	0.010593483
228	0xbd1a4741	-0.03766561
229	0x39977770	0.00028889952
230	0x3d3c753a	0.046010233
231	0xbd5ac896	-0.05341395
232	0x3d5b9b42	0.053614862
233	0x3db1661e	0.086620554
234	0xbd92ed2d	-0.07174144
235	0xbcde4aa1	-0.027135195
236	0x3d0b8f4c	0.034072205
237	0x3c769cc2	0.015052022
238	0xbd2d09d6	-0.04224571
239	0xbd3dc164	-0.04632701
240	0xbd8e4c7a	-0.069481805
241	0x3a21efa1	0.000617737
242	0xbb31f2f1	-0.002715286
243	0x397db796	0.00024196351
244	0xbb833a5d	-0.00400476
245	0xbc2cfacb	-0.010557841
246	0x3d2a00d8	0.04150471
247	0x3d3957d3	0.04524977
248	0xbd254040	-0.040344477
249	0xbd3c54e5	-0.0459794
250	0xbda71158	-0.08157605
251	0xbd0e57ba	-0.03475163
252	0x3d31600b	0.043304484
253	0xbc89c273	-0.016816353
254	0x3cd0c947	0.025486602
255	0xbc3bc3fb	-0.0114603

model/attention_layer/MatMul f4 [64, 64]
0	0xbdc7c273	-0.09753885
1	0xbcb9b280	-0.022668123
2	0xbe16d278	-0.14728725
3	0xbdf827ac	-0.12116942
4	0xbe30c75c	-0.1726355
5	0x3e4dde77	0.20104395
6	0xbe0dabd8	-0.13835084
7	0x3d9abf6a	0.075560406
8	0xbdaa9b88	-0.083304465
9	0x3e5a3ed1	0.21313025
10	0xbe2f7c14	-0.17137176
11	0x3e27e5b5	0.1639622
12	0x3cbe0298	0.023194596
13	0xbe0325d4	-0.12807399
14	0x3d2f2fec	0.04277031
15	0xbcfe66d8	-0.0310549
16	0x3e4c59a5	0.19956072
17	0xbd1d7cc8	-0.03844908
18	0x3daf7aaa	0.08568318
19	0xbd2ab814	-0.041679457
20	0xbe35be75	-0.17748435
21	0x3e217f7b	0.15771286
22	0xbd4c6184	-0.049897686
23	0x3d8a7ec2	0.067624584
24	0xbdda1fa4	-0.10650566
25	0x3e4245b3	0.189719
26	0xbe090983	-0.13382535
27	0xbd1f2be8	-0.03886023
28	0xbdac7916	-0.08421533
29	0x3e1c1b3f	0.15244769
30	0xbe48a18f	-0.1959288
31	0xbe2bf8ce	-0.1679413
32	0xbe4bfab1	-0.1991985
33	0xbe472482	-0.1944752
34	0xbe4824be	-0.19545266
35	0x3d926e56	0.07149951
36	0x3e054e73	0.13018207
37	0x3e05da33	0.13071518
38	0xbe2d1f11	-0.16906382
39	0xbcc20a90	-0.023686677
40	0x3e50c139	0.20386209
41	0xbdb0d8fe	-0.08635138
42	0x3e0c295d	0.13687654
43	0xbe177c66	-0.14793548
44	0x3e2c5abf	0.16831492
45	0xbcab8d38	-0.020941362
46	0xb90b7c00	-0.00013302267
47	0xbe53289a	-0.20620957
48	0x3e4afb1f	0.19822358
49	0xbe116426	-0.1419836
50	0x3d85eb36	0.065390036
51	0xbde40a87	-0.111348204
52	0xbdb9c546	-0.0907083
53	0xbd20a468	-0.03921929
54	0x3e34acc3	0.17644028
55	0xbe347b41	-0.17625143
56	0x3d34db54	0.04415448
57	0xbdfba100	-0.12286568
58	0x3dcf096e	0.101092204
59	0x3dafbaee	0.08580576
60	0x3e531397	0.20612942
61	0xbe342de1	-0.17595626
62	0x3d828b9a	0.06374283
63	0xbd73b2bc	-0.059496626
64	0x3e054c1b	0.13017313
65	0xbe3794a0	-0.1792779
66	0x3d8bedc2	0.06832458
67	0xbd41fe04	-0.04736139
68	0x3e2df09d	0.16986318
69	0x3da6c0ea	0.08142264
70	0x3e0ba155	0.13635762
71	0x3bf61e00	0.0075109005
72	0xbdbb608e	-0.09149276
73	0xbdbcdfb0	-0.092223525
74	0x3df43ca6	0.1192563
75	0x3e33910d	0.17535801
76	0x3e477afd	0.1948051
77	0xbe4dbe15	-0.20092042
78	0x3dcf239a	0.10114212
79	0xbde56a1b	-0.11201879
80	0xbe1bf3ef	-0.15229772
81	0xbe4e4149	-0.20142092
82	0xbc139120	-0.009006768
83	0x3d000014	0.031250075
84	0x3e1cb0cb	0.15301816
85	0x3d5ae684	0.053442493
86	0xbe3f8051	-0.18701293
87	0x3d135ddc	0.035978183
88	0xbe461c50	-0.19346738
89	0xbddbacaf	-0.10726296
90	0x3cac0c70	0.021002024
91	0x3e2e52c3	0.17023759
92	0xbe4e7d80	-0.20165062
93	0xbe0b6132	-0.13611296
94	0xbdca5802	-0.098800674
95	0xbe1139b3	-0.14182167
96	0x3d0fc014	0.03509529
97	0xbd400f20	-0.046889424
98	0xbcf14738	-0.029452905
99	0xbe37c14f	-0.17944835
100	0x3d4b490c	0.04963021
101	0x3c92b7a0	0.017909825
102	0x3dfe584e	0.124191865
103	0x3e356151	0.17712905
104	0xbccad658	-0.02476041
105	0xbe3e39cc	-0.18576735
106	0xbe5c4726	-0.21511516
107	0xbe39f166	-0.18158492
108	0x3d852f6a	0.06503184
109	0xbcd77f00	-0.026305676
110	0x3cd53830	0.026027769
111	0xbe4418d0	-0.1915009
112	0xba82df00	-0.0009984672
113	0xbd8557da	-0.06510897
114	0x3e5920dd	0.21203943
115	0x3dfa3b56	0.12218349
116	0x3e181b9d	0.14854284
117	0xbd188330	-0.037234485
118	0x3e33b7b9	0.17550553
119	0xbe20fe87	-0.15722094
120	0x3dbc49a6	0.09193735
121	0xbdf57874	-0.11985865
122	0xbe46f5c1	-0.19429685
123	0x3cdac9f8	0.026707634
124	0x3e1a36c5	0.15059955
125	0xbdcabd17	-0.09899347
126	0x3e457775	0.1928385
127	0x3d94fd4e	0.072748765
128	0xbe5d9a97	-0.21641003
129	0xbe1ef98a	-0.15524879
130	0xbe00680a	-0.12539688
131	0x3c5b2060	0.013374418
132	0x3dd39ed2	0.10333027
133	0xbe226778	-0.15859783
134	0x3d0c990c	0.034325644
135	0xbdbbabde	-0.091636404
136	0x3d050ba4	0.032481804
137	0x3c307d30	0.0107720345
138	0x3e4efbff	0.20213316
139	0xbe5319da	-0.2061533
140	0x3c0f2b80	0.008738399
141	0x3da567f6	0.080764696
142	0x3d727b84	0.059199825
143	0xbe2229d2	-0.15836266
144	0xbcc2ec98	-0.023794457
145	0xbe3b7820	-0.18307543
146	0x3e295011	0.16534449
147	0x3b113a80	0.0022160113
148	0x3e50f66d	0.20406504
149	0xbe418065	-0.18896635
150	0x3e488103	0.19580464
151	0x3e332383	0.17494015
152	0xbda58a9a	-0.08083077
153	0x3d85c85a	0.06532355
154	0xbdbe3e4a	-0.092892244
155	0xbcb57700	-0.02215147
156	0xbd7dc8b0	-0.06195897
157	0x3da9fabe	0.082997784
158	0x3d4ca9e4	0.049966708
159	0x3d813b62	0.063101545
160	0x3e244dad	0.16045256
161	0xbdaca2ae	-0.08429466
162	0xbd1c9c7c	-0.038235173
163	0xbd854958	-0.0650813
164	0x3b3e84c0	0.0029070824
165	0xbe515bc8	-0.20445168
166	0xbe254903	-0.16141133
167	0x3e44a921	0.19205143
168	0xbe5325ec	-0.20619935
169	0x3e21efa9	0.1581408
170	0x3e03041b	0.12794535
171	0x3daf524e	0.0856062
172	0xbc088ba0	-0.00833407
173	0xbe4f73ae	-0.20258972
174	0x3b9effa0	0.00485225
175	0x3e4104e5	0.18849523
176	0x3da6ad96	0.08138578
177	0xbdd7a392	-0.105292454
178	0xbd7a9d28	-0.061185032
179	0xbdb5cbfc	-0.088767976
180	0x3dfca222	0.12335612
181	0x3db1df06	0.086851165
182	0x3dd3f5f6	0.10349648
183	0x3dca5f1a	0.098814204
184	0xbe56fb8c	-0.20994395
185	0xbe15b586	-0.14620027
186	0xbe0fd52a	-0.1404616
187	0xbe1e3a60	-0.15451956
188	0x3e4ae63d	0.19814391
189	0x3e003061	0.12518455
190	0x3de08e8e	0.1096469
191	0x3e107b75	0.14109595
192	0xbd7064e8	-0.05868998
193	0xbe2c3e1a	-0.16820565
194	0xbd628f4c	-0.05531244
195	0xbd8f345e	-0.0699241
196	0x3e5837ff	0.21115111
197	0xbe2dc64a	-0.16970173
198	0xbd8af0be	-0.06784199
199	0xbda85d54	-0.08220926
200	0x3d3855c4	0.045003667
201	0xbdee84d3	-0.11646428
202	0x3e194f95	0.14971764
203	0x3d866766	0.065626904
204	0x3e197ced	0.14989062
205	0xbe014c24	-0.12626702
206	0xbcd84688	-0.02640082
207	0x3d6530f4	0.05595489
208	0xbd3d4a48	-0.04621342
209	0x3dc3fd52	0.095698014
210	0x3dbdb39e	0.09262775
211	0x3cd51e50	0.02601543
212	0xbd8bcf8e	-0.06826697
213	0x3e09488f	0.13406585
214	0x3e588ee9	0.21148266
215	0x3e4b8a8f	0.19877075
216	0xbdbe2e30	-0.09286153
217	0x3e43a72d	0.19106741
218	0x3d68f634	0.056875423
219	0x3dbb056e	0.09131895
220	0xbe0b211c	-0.13586849
221	0x3e215b2b	0.15757434
222	0xbe31ae6a	-0.1735169
223	0x3de4629e	0.11151622
224	0xbd474160	-0.04864633
225	0x3d9f51a2	0.07779242
226	0xbdb85d76	-0.09002201
227	0x3e2b2803	0.16714482
228	0xbdfad659	-0.12247915
229	0x3bb2f840	0.0054617226
230	0x3d883afa	0.06651874
231	0xbdc930a4	-0.098237306
232	0xbd012e7c	-0.03153847
233	0xbe5ac1b9	-0.21362962
234	0xbd42755c	-0.047475204
235	0x3cbf5918	0.023357913
236	0x3e2d84b7	0.16945158
237	0x3e1d4b03	0.15360646
238	0xbdaac342	-0.08338024
239	0x3df379c6	0.11888461
240	0x3e4794a9	0.19490303
241	0x3e326ef9	0.17425145
242	0xbcae9e98	-0.021315858
243	0xbe3b315e	-0.18280551
244	0x3d959b52	0.073050156
245	0xbda03b1a	-0.07823773
246	0x3e5915f5	0.21199782
247	0x3d561ec4	0.052275434
248	0xbd2fb08c	-0.042892978
249	0xbe04503e	-0.12921235
250	0x3e090199	0.13379516
251	0xbe207a00	-0.1567154
252	0x3cfa5558	0.030558273
253	0x3cca0bb0	0.024663776
254	0xbe0b504e	-0.13604853
255	0x3d185fd4	0.037200764

model/attention_layer/MatMul_1 f4 [1, 64]
0	0xbe4becec	-0.19914597
1	0xbd349268	-0.044084936
2	0x3d30b4b8	0.043141097
3	0xbdfc13d4	-0.123084694
4	0x3dbcef98	0.092253864
5	0x3ddb286c	0.10701069
6	0xbe2efadc	-0.17087883
7	0xbe76ef28	-0.24114668
8	0xbe63cbce	-0.22245714
9	0xbe974927	-0.29547998
10	0x3d40f848	0.04711178
11	0x3e0f8156	0.14014181
12	0xbdfdb234	-0.12387505
13	0x3e136592	0.14394215
14	0x3d0b2c48	0.033977777
15	0xbe93cd11	-0.2886739
16	0xbe7198da	-0.23593464
17	0xbd59a818	-0.053138822
18	0x3e00c390	0.12574601
19	0xbe1ae6cd	-0.15127106
20	0x3e974d3c	0.29551113
21	0xbe01ffce	-0.12695238
22	0xbe26bac9	-0.1628219
23	0xbd801a4c	-0.06255016
24	0xbe9a745e	-0.30166906
25	0x3e7f830c	0.24952334
26	0x3e832f08	0.2562182
27	0xbe4fe8cc	-0.20303649
28	0xbe1c242f	-0.15248178
29	0xbdd9ff64	-0.10644415
30	0xbe2ef0df	-0.17084073
31	0xbe85e874	-0.2615391
32	0xbde9112c	-0.113802284
33	0x3e3ee992	0.18643788
34	0xbe47c02c	-0.19506902
35	0x3e2c121e	0.16803786
36	0xbd6dc2f8	-0.058047265
37	0x3c9f7e70	0.01946947
38	0x3e85ddd2	0.26145798
39	0xbb8f6a80	-0.0043767095
40	0x3e65c2d8	0.22437608
41	0x3e46312e	0.19354698
42	0x3d94eca8	0.07271701
43	0x3d9eedec	0.07760224
44	0xbd5c4200	-0.05377388
45	0xbe72ce50	-0.23711514
46	0x3e41e006	0.18933114
47	0x3e2b6856	0.1673902
48	0x3e3e4084	0.18579298
49	0x3e74b4ec	0.23897141
50	0x3e4f90c8	0.20270073
51	0xbda8d7da	-0.082442954
52	0xbdd8ec96	-0.10592
53	0x3d8d4c44	0.06899312
54	0xbe8cc54d	-0.2749428
55	0x3db97650	0.090557694
56	0x3e99875c	0.29986084
57	0x3e5bd018	0.214661
58	0x3d58d038	0.052932948
59	0x3c9be4f0	0.019030064
60	0xbe4fa656	-0.20278296
61	0x3e5852cc	0.21125335
62	0xbe02ea39	-0.12784661
63	0xbde1b8d2	-0.1102158

model/dense_2/MatMul f4 [64, 64]
0	0xbe78d23a	-0.24298945
1	0xbde3b6fb	-0.11118885
2	0x3dc0a628	0.09406692
3	0xbe12c240	-0.14331913
4	0xbd2859c8	-0.041101247
5	0x3d7eacc0	0.062176466
6	0xbdd9e1ab	-0.10638746
7	0xbdf210da	-0.118196204
8	0x3d757a9b	0.05993138
9	0x3d639656	0.055563293
10	0x3e035fc8	0.12829506
11	0xba87c3a2	-0.0010357986
12	0x3d5ec1a6	0.054383896
13	0x3d15c898	0.036568254
14	0xbd8977a4	-0.06712273
15	0xbe2ee6bf	-0.1708021
16	0xbe521731	-0.2051666
17	0x3da7293e	0.08162163
18	0x3ddf1aff	0.10893821
19	0xbd72038a	-0.059085406
20	0x3d246f98	0.040145487
21	0xbdb08e2a	-0.08620866
22	0xbe88ccaa	-0.26718646
23	0x3e0c1d98	0.13683164
24	0x3cd76729	0.026294308
25	0xbd6f398d	-0.058404494
26	0x3dae4cca	0.0851074
27	0x3d49991e	0.04921829
28	0x3e374b28	0.17899764
29	0xbe62f721	-0.22164585
30	0xbe3540c0	-0.17700481
31	0xbe7af3b6	-0.24507031
32	0xbe7801f4	-0.24219495
33	0xbd8a87de	-0.06764196
34	0xbd484b83	-0.04890014
35	0x3c39d169	0.011341431
36	0x3e1da28c	0.15394038
37	0xbbfd2588	-0.0077254213
38	0x3e45be39	0.19310845
39	0xbd877041	-0.066132076
40	0x3e28df9c	0.1649155
41	0xbdce7760	-0.10081363
42	0x3d19b50f	0.037526187
43	0x3ccfec86	0.025381338
44	0xbe108552	-0.14113358
45	0x3e389a71	0.18027665
46	0x3e24bbb2	0.16087225
47	0x3d4a5ec5	0.049406786
48	0x3e030f91	0.12798907
49	0xbb9d78e8	-0.004805673
50	0x3d5ea42d	0.05435579
51	0xbe2583c1	-0.16163541
52	0xbc3bacd2	-0.011454778
53	0xbe26d375	-0.16291602
54	0x3e220e13	0.15825681
55	0x3d878f4a	0.06619127
56	0x3daea9c0	0.08528471
57	0xbe089285	-0.13337143
58	0xbd92d5a3	-0.07169654
59	0x3dd727fc	0.10505673
60	0x3d8c46b4	0.06849423
61	0xbe5b52ae	-0.21418259
62	0x3d3f7d89	0.04675058
63	0x3e37af75	0.17938025
64	0xbe12efa4	-0.14349228
65	0xbea4343a	-0.32071096
66	0x3da21160	0.0791347
67	0xbe20840c	-0.15675372
68	0x3ea29d87	0.3176081
69	0x3ca1e561	0.019762697
70	0xbe2e69a7	-0.1703249
71	0x3e7bd367	0.24592362
72	0x3e2e7dc5	0.17040165
73	0x3e488daa	0.1958529
74	0x3e5fbd3f	0.21849535
75	0xbdd6a179	-0.10480017
76	0xbd08f388	-0.033435374
77	0xbe270ee7	-0.16314279
78	0x3d14d823	0.036338937
79	0xbd09fcc6	-0.03368833
80	0xbdff58f1	-0.12468136
81	0xbe8c0b42	-0.2735234
82	0xbe3d8a91	-0.1850989
83	0xbe1cf012	-0.15325955
84	0xbd0aebd3	-0.033916306
85	0xbdfb63e0	-0.12274909
86	0xbe840c47	-0.25790617
87	0xbdb2b3f7	-0.08725732
88	0xbe38bcd6	-0.18040785
89	0xbd0c7deb	-0.034299772
90	0xbe62a26d	-0.22132273
91	0xbd12932a	-0.035784878
92	0x3d5f5751	0.05452663
93	0xbe4a9d3c	-0.19786543
94	0x3db81758	0.089888275
95	0x3de9f116	0.114229366
96	0x3de6c371	0.11267746
97	0xbe1c0d34	-0.15239412
98	0xbd81a0e3	-0.06329515
99	0xbd499c70	-0.049221456
100	0xbc62cdc3	-0.013843003
101	0xbe02cdee	-0.12773868
102	0xbde53a58	-0.11192769
103	0x3d7d0700	0.061774254
104	0x3dbd38e6	0.09239368
105	0xbc68298a	-0.01417006
106	0xbe689062	-0.22711328
107	0xbe49cbcf	-0.19706653
108	0x3c5adf7c	0.013358947
109	0x3e34c5fc	0.1765365
110	0x3e9e97fa	0.30975324
111	0x3e5b5656	0.21419653
112	0xbddd8d7e	-0.10818003
113	0x3e438433	0.19093399
114	0xbd8515f7	-0.0649833
115	0x3def7623	0.11692455
116	0x3dbe710a	0.09298904
117	0x3c1f2eb6	0.009715727
118	0x3d8975e3	0.06711938
119	0x3cda3dcb	0.026640793
120	0x3e245db9	0.16051377
121	0x3cb9d66c	0.022685252
122	0x3d801f84	0.06256011
123	0x3e46d163	0.19415812
124	0xbe44191d	-0.19150205
125	0x3cb5ba1a	0.022183467
126	0x3d221d33	0.039578628
127	0xbd15beb5	-0.036558826
128	0x3bcd696e	0.0062686717
129	0xbc9f7745	-0.019466052
130	0xbe278f25	-0.16363199
131	0xbe49daca	-0.19712368
132	0xbc5c5e6a	-0.013450244
133	0xbcc46471	-0.023973675
134	0x3e14640a	0.14491287
135	0x3d1cb892	0.038261957
136	0x3de2842e	0.110603675
137	0x3dd76357	0.105169944
138	0xbd5fd8ea	-0.054650225
139	0x3e04b041	0.1295786
140	0x3dd52544	0.104074985
141	0xbe2d2ec8	-0.16912377
142	0x3d806e32	0.06271018
143	0xbd6924f3	-0.056920003
144	0xbde2b685	-0.11069969
145	0x3de8131b	0.11331769
146	0xbd94019a	-0.07226868
147	0x3dfc5c1f	0.12322258
148	0x3e6a4ef5	0.22881682
149	0xbd583c72	-0.05279202
150	0x3c91b70c	0.017787479
151	0x3e0afc60	0.13572836
152	0x3e049ead	0.12951155
153	0xbe0d8f4e	-0.13824198
154	0xbe1a006d	-0.15039225
155	0xbdb8ff4d	-0.0903307
156	0x3dc8ee4d	0.09811077
157	0x3d3e7974	0.046502545
158	0x3c60781e	0.013700513
159	0xbd120b56	-0.035655342
160	0xbdd894c3	-0.10575249
161	0x3e1207c3	0.14260773
162	0xbe30f702	-0.17281726
163	0x3e218e81	0.15777017
164	0x3d84441d	0.06458304
165	0xbe6530be	-0.22381875
166	0xbd077498	-0.033070177
167	0xbe30f03e	-0.17279145
168	0xbe85ff8f	-0.26171538
169	0x3dc3788b	0.09544476
170	0x3e693053	0.2277234
171	0xbdb3737d	-0.08762262
172	0xbe5f46b0	-0.21804309
173	0x3d921af7	0.071340494
174	0x3d5ca982	0.053872593
175	0xba772c73	-0.00094289257
176	0x3e84dbd2	0.2594896
177	0x3d9c424e	0.07629834
178	0x3da1b0c4	0.078950435
179	0x3dbc50eb	0.091951214
180	0x3c999b25	0.018750736
181	0x3db8cae6	0.09023075
182	0xbe197108	-0.14984524
183	0xbc5b41cd	-0.013382387
184	0xbdc91198	-0.09817809
185	0x3dfaf491	0.122536786
186	0xbe4f7edc	-0.20263237
187	0xbdd6773e	-0.104719624
188	0x3e04ba8b	0.12961785
189	0xbd20722c	-0.039171383
190	0xbd9205f4	-0.07130042
191	0x3db5d766	0.088789746
192	0x3e23fb2f	0.16013788
193	0x3bbebeda	0.005821091
194	0xbd085a8c	-0.033289477
195	0xbcd70e67	-0.026251985
196	0xbe4975d7	-0.19673859
197	0xbd8e7ec3	-0.06957772
198	0x3b957e5d	0.004562183
199	0xbdd67608	-0.104717314
200	0x3b802dd1	0.0039117117
201	0x3d904ccf	0.070459
202	0xbd42f3d4	-0.047595814
203	0xbe7280e2	-0.23681977
204	0xbe0e89ff	-0.13919829
205	0xbe13ae7d	-0.14422031
206	0xbe22698f	-0.1586058
207	0xbe3b1455	-0.18269475
208	0xbdcae92c	-0.09907755
209	0x3ce2f927	0.027706696
210	0x3e00b57b	0.1256923
211	0x3e5fb790	0.21847367
212	0x3dc6140d	0.09671793
213	0x3e86bc34	0.26315463
214	0xbe185873	-0.1487749
215	0xbcc430be	-0.023949023
216	0x3e095c7a	0.13414183
217	0xbe1baf28	-0.15203536
218	0x3dce4f7c	0.10073754
219	0xbdfc2e6a	-0.1231354
220	0xbde86f26	-0.11349325
221	0x3ca983d1	0.020692738
222	0x3dac4d6f	0.08413207
223	0x3c25a515	0.010110159
224	0xbd87ea09	-0.066364355
225	0xbc67e64b	-0.014154027
226	0x3e26cc62	0.16288903
227	0xbe378466	-0.179216
228	0xbd763f1e	-0.060118787
229	0x3e2dc53e	0.16969773
230	0xbe3e54e4	-0.1858707
231	0xbdb6afe2	-0.08920266
232	0xbe3974b8	-0.18110931
233	0xbd50d079	-0.050980065
234	0x3e1f239f	0.15540932
235	0xbe2c9310	-0.16852975
236	0x3e242f17	0.16033588
237	0x3db2dad5	0.08733145
238	0xbe38e2d6	-0.18055281
239	0xbe4a23c3	-0.19740205
240	0x3de612f5	0.112340845
241	0xbc3d2633	-0.011544752
242	0x3d2e0184	0.042481914
243	0xbe4cc62f	-0.19997476
244	0xbd98ccd0	-0.0746094
245	0x3dd3c4a9	0.10340244
246	0x3daaf899	0.083481975
247	0xba960812	-0.0011446497
248	0x3dfb66a0	0.122754335
249	0xbc7707d6	-0.015077552
250	0xbd0192c9	-0.031634126
251	0xbe37647d	-0.17909427
252	0xbe206527	-0.15663587
253	0x3e090b41	0.133832
254	0x3d929476	0.07157223
255	0xbdff1b33	-0.1245636

model/building_output/MatMul f4 [3, 64]
0	0x3e356e9a	0.17717972
1	0x3eb13e48	0.3461783
2	0xbe8ff2b9	-0.2811487
3	0xbc90689f	-0.017628012
4	0x3dc6061f	0.09669136
5	0xbe5d7ba7	-0.21629201
6	0xbe2f1eb9	-0.17101564
7	0x3ded4cdb	0.11586925
8	0xbe676561	-0.22597267
9	0xbc820c1d	-0.015874917
10	0x3e6b1d43	0.22960381
11	0xbd601a9d	-0.05471288
12	0xbd969c63	-0.07354047
13	0xbe52984d	-0.2056591
14	0xbe222538	-0.1583451
15	0xbd257e82	-0.04040385
16	0x3e71d702	0.23617175
17	0x3e851c4b	0.25998148
18	0x3dc528b5	0.09626905
19	0xbd57b554	-0.052663162
20	0xbc25b254	-0.0101133175
21	0xbd0fe94d	-0.035134602
22	0xbba33b63	-0.0049814447
23	0xbcfd190c	-0.030895732
24	0xbd6c2b15	-0.057658274
25	0x3e390893	0.18069677
26	0x3ea15ef1	0.31517747
27	0x3e2ea9a3	0.17056899
28	0x3ea0a163	0.31373128
29	0xbdff0e22	-0.124538675
30	0x3e218836	0.15774617
31	0xbe0adc0e	-0.13560507
32	0xbe051d9c	-0.12999576
33	0xbd9bcc8e	-0.07607375
34	0x3e354350	0.17701459
35	0xbe70199e	-0.23447272
36	0xbe2a3105	-0.16620262
37	0xbe64111a	-0.22272149
38	0xbe33ead6	-0.17570052
39	0xbdc86d45	-0.097864665
40	0x3d4b0aec	0.049570963
41	0xbe41a7a3	-0.18911605
42	0xbd3bc65d	-0.04584347
43	0xbe663b58	-0.22483575
44	0xbe0aaeb0	-0.135432
45	0xbe8398f2	-0.25702626
46	0x3d1fa5ea	0.038976587
47	0x3e397c0c	0.18113726
48	0x3d45e547	0.04831436
49	0x3df3105f	0.11868357
50	0x3e8e1b70	0.27755308
51	0x3e525a48	0.20542252
52	0xbda7c847	-0.08192497
53	0x3ea17a68	0.315387
54	0xbe85a67d	-0.26103583
55	0xbd5b9c87	-0.053616073
56	0x3e9ad1ea	0.30238277
57	0x3e05b506	0.13057336
58	0x3e3d0b4f	0.18461345
59	0x3c4bc630	0.012437388
60	0x3e28c2d0	0.16480565
61	0x3d9e5a3e	0.07732056
62	0xbe0adf56	-0.13561758
63	0x3e86e485	0.26346222
64	0x3e897ab4	0.26851428
65	0x3e81d982	0.25361258
66	0xbe096975	-0.13419135
67	0xbd003db3	-0.03130884
68	0x3e0b73e9	0.13618435
69	0xbe1c346c	-0.15254372
70	0x3e40b4bd	0.18818946
71	0x3db71e7c	0.08941361
72	0x3b4f1849	0.0031600168
73	0xbe6c0920	-0.23050356
74	0xbd896a88	-0.06709772
75	0xbc9ff99f	-0.019528208
76	0x3d5ee8b4	0.05442114
77	0x3e0a7530	0.13521266
78	0xbe4262de	-0.18983027
79	0x3d3baa4c	0.045816705
80	0xbda1ecc8	-0.079064906
81	0xbde9413d	-0.11389396
82	0x3c297f26	0.010345256
83	0xbe12eb93	-0.14347677
84	0x3e3d731f	0.18500946
85	0x3d8f8bd7	0.07009094
86	0x3e26c646	0.16286573
87	0xbdeb7a78	-0.114979684
88	0xbdf657b8	-0.1202845
89	0x3e789162	0.24274209
90	0xbdac1def	-0.08404147
91	0x3e985b40	0.29757118
92	0xbe3f0e1e	-0.18657729
93	0x3e0e3968	0.13889086
94	0xbcb22b5f	-0.021749197
95	0x3e604249	0.21900286
96	0x3e250007	0.16113292
97	0xbd5ec771	-0.05438942
98	0x3e1744dd	0.14772363
99	0xbe9defbf	-0.30846974
100	0xbe28f60c	-0.1650011
101	0xbe4b160a	-0.19832626
102	0xbd5414f1	-0.051777784
103	0x3d9612ec	0.07327828
104	0x3e76953d	0.24080367
105	0xbe2e51f7	-0.17023455
106	0xbe7e5321	-0.24836399
107	0x3d273b7d	0.040828217
108	0xbea13583	-0.3148614
109	0x3e14d7c9	0.1453544
110	0x3dcfd77c	0.10148522
111	0xbd4931f8	-0.04911992
112	0x3e262003	0.16223149
113	0x3e95e7f0	0.29278517
114	0xbe10e036	-0.1414803
115	0x3e5f8dcb	0.21831433
116	0xbddd255e	-0.10798143
117	0x3df14847	0.11781364
118	0xbd7fdcef	-0.062466558
119	0xbdd18af4	-0.10231581
120	0xbc1f7e7a	-0.009734744
121	0x3e86c6e6	0.26323622
122	0x3d082b71	0.033244554
123	0x3e27b93a	0.16379252
124	0xbe4d5941	-0.20053579
125	0xbd576e3f	-0.052595373
126	0x3dc46379	0.095892854
127	0xbeaf9cd5	-0.3429934
128	0x3e030e1f	0.12798356
129	0xbe4c4389	-0.19947638
130	0x3e90b61a	0.28263932
131	0x3d8f7166	0.07004051
132	0xbe0de179	-0.13855542
133	0x3e7fd027	0.24981748
134	0x3d29eb73	0.041484307
135	0xbe8bfa3e	-0.27339357
136	0x3cd93ed4	0.026519217
137	0xbe2a1282	-0.16608623
138	0x3d3058a7	0.043053295
139	0x3e3bc0db	0.18335287
140	0x3e305b34	0.17222291
141	0x3dbf4ac0	0.09340429
142	0xbd2f9dc6	-0.042875074
143	0x3e36de65	0.17858274
144	0x3e36d954	0.17856342
145	0xbe670993	-0.22562246
146	0x3e85876b	0.26079878
147	0xbe8fe44f	-0.28103873
148	0xbcab5ef7	-0.020919306
149	0x3e7767d6	0.24160704
150	0xbe0f6364	-0.14002758
151	0x3e43e6b4	0.19130975
152	0x3d8ea783	0.06965544
153	0xbd771294	-0.06032045
154	0x3e4f778f	0.20260452
155	0xbe595398	-0.21223295
156	0x3cf49dd6	0.029860418
157	0xbdfc50b0	-0.123200774
158	0xbe827137	-0.25477
159	0x3e663a00	0.22483063
160	0x3def893d	0.11696098
161	0x3e3a6ef4	0.18206388
162	0x3e9ef3ed	0.31045476
163	0xbe30d9ba	-0.17270556
164	0xbea3319e	-0.31873792
165	0xbe7809c8	-0.24222481
166	0x3e3ca1a0	0.1842103
167	0xbd5b2b88	-0.05350831
168	0xba1014b2	-0.0005496248
169	0x3e35754b	0.17720525
170	0xbe5aed01	-0.21379472
171	0xbd020229	-0.03174034
172	0xbe7a05aa	-0.24416223
173	0x3e1de03d	0.15417571
174	0xbe628626	-0.22121486
175	0xbe734e21	-0.23760273
176	0x3e7b44e0	0.24537992
177	0x3d62772a	0.055289425
178	0x3e4cab6f	0.19987272
179	0x3e83273c	0.2561587
180	0xbe47df4b	-0.19518773
181	0x3e69da61	0.22837211
182	0xbe911958	-0.28339648
183	0xbc1f6f7f	-0.009731173
184	0x3e0d87a9	0.13821281
185	0xbd1f026f	-0.03882068
186	0xbeb07c2e	-0.34469742
187	0xbd277977	-0.040887322
188	0xbdccbe3a	-0.0999722
189	0x3d9c54f2	0.076333895
190	0x3d5d45ab	0.05402152
191	0x3e0a1e1d	0.1348805
