251008/models/mlp.tflite (tflite, 375856 bytes, 16 tensors)

model/dense_1/MatMul;model/dense_1/Relu;model/dense_1/BiasAdd f4 [64]
0	0x3f36fc18	0.71478415
1	0x3f365804	0.7122805
2	0x3ee9ff24	0.4570247
3	0x3f785b97	0.97014755
4	0xbda9efcc	-0.08297691
5	0x3f9d9171	1.231001
6	0xbed34d85	-0.4127008
7	0xbd867372	-0.06564988
8	0x3f944dd3	1.158625
9	0x3fbbb8e1	1.4665796
10	0x3f4dc7ec	0.8038318
11	0x3e9d84dd	0.3076543
12	0x3f75d0f9	0.9602199
13	0x3f635cef	0.8881368
14	0x3ed5222e	0.4162764
15	0x3f2cbc45	0.67474777
16	0x3f23ac9f	0.63935274
17	0x3f03eee3	0.5153639
18	0x3f804b24	1.0022931
19	0x3fcd421b	1.6035799
20	0x3e33fb47	0.17576323
21	0x3f1e6e64	0.6188719
22	0x3f3163d4	0.6929295
23	0x3e4cd22b	0.20002048
24	0x3f61da7f	0.88224024
25	0x3f61b4ae	0.8816632
26	0x3ec4f882	0.38470846
27	0x3f0ce242	0.5503274
28	0x3eeb4de9	0.45957878
29	0x3f874d5c	1.0570483
30	0xbfa4fb51	-1.2889196
31	0x3f0d75d3	0.5525791
32	0x3ed030c9	0.4066222
33	0x3f983e79	1.1894065
34	0x3ea0b7ab	0.31390128
35	0x3f509405	0.8147586
36	0xbe842213	-0.25807247
37	0x3f93b1c6	1.1538627
38	0x3f35127c	0.7073133
39	0x3da25ad4	0.0792748
40	0x3f878f70	1.0590649
41	0x3f3e4fb6	0.7434038
42	0x3eb9c859	0.36285666
43	0x3e8d02ab	0.27541098
44	0x3f384994	0.7198727
45	0x3f885182	1.0649874
46	0x3da74c64	0.08168867
47	0x3f029a95	0.51017123
48	0x3ed93ee9	0.4243081
49	0x3f853fe4	1.0410123
50	0x3f4fb5dd	0.81136876
51	0x3f9b9d05	1.2157294
52	0x3e93af5c	0.28844726
53	0x3dbe4f0a	0.09292419
54	0x3e98cfa1	0.29845908
55	0x3f76295c	0.9615686
56	0xbf073dff	-0.52828974
57	0x3e185174	0.14874822
58	0x3e1b4d70	0.15166259
59	0x3f30390a	0.68837035
60	0x3f0505f9	0.5196224
61	0x3f4b89c1	0.7950707
62	0x3fa24c68	1.2679567
63	0xbed9e28f	-0.42555663

model/batch_normalization/batchnorm/mul_1;model/batch_normalization/batchnorm/add_1;model/dense_1/MatMul;model/dense_1/Relu;model/dense_1/BiasAdd f4 [64, 128]
0	0xbc9f32bb	-0.01943337
1	0x3db35883	0.08757117
2	0x3df1547c	0.11783692
3	0xbe09a671	-0.13442399
4	0x3da30a4b	0.079609476
5	0xbd8ff430	-0.07028997
6	0xbfc68c6a	-1.5511601
7	0x3e69384c	0.22775382
8	0x3d5cdcee	0.053921632
9	0x3e16ba07	0.14719401
10	0xbe07cc85	-0.13261612
11	0xbf0100a5	-0.5039161
12	0xbbd78172	-0.0065767104
13	0xbe9a4125	-0.30127826
14	0xbe1a1e5c	-0.15050644
15	0xbd1b4ab4	-0.03791304
16	0x3da21adb	0.079152785
17	0x3e73eb93	0.23820333
18	0x3e223460	0.15840292
19	0xbe44c76c	-0.19216698
20	0x3ddbf35b	0.10739776
21	0x3de40af7	0.11134904
22	0x3b0d5709	0.002156677
23	0xbc74e320	-0.014946729
24	0x3d45bf3b	0.048278075
25	0xbe2727a9	-0.16323723
26	0xbd4779b1	-0.04870004
27	0xbe5b3b62	-0.21409371
28	0xbd558bac	-0.052135155
29	0x3db18c8d	0.08669386
30	0x3ece14c6	0.40250224
31	0x3c27a6d9	0.010232651
32	0x3d981a90	0.074269414
33	0xbda7dc5a	-0.081963256
34	0x3e4c98cb	0.19980161
35	0x3dc9a986	0.09846787
36	0x3d9b8d6a	0.07595332
37	0x3e169783	0.14706235
38	0xbe8aba7d	-0.27095404
39	0xbf4637b0	-0.7742872
40	0xbd5ae65d	-0.053442348
41	0xbd974e16	-0.073879406
42	0xbdee0191	-0.116213925
43	0x3d7d0493	0.06177194
44	0x3cfc0a3a	0.030766595
45	0xbe1dddf4	-0.154167
46	0xbe9f1e0b	-0.31077608
47	0xba68eb2b	-0.00088851404
48	0xbe3b5c70	-0.18296981
49	0xbe333bcb	-0.17503278
50	0xbea05451	-0.31314328
51	0x3e2f9c33	0.17149429
52	0x3e30efef	0.17279027
53	0x3e261ec3	0.16222672
54	0xbe1ea11e	-0.15491149
55	0xbe03ec18	-0.12883031
56	0xbe73d027	-0.23809873
57	0xbdb8d8e1	-0.09025741
58	0x3d2fdbfc	0.042934403
59	0x3e1d09d2	0.15335777
60	0xbde3ec25	-0.11129025
61	0x3d1efec0	0.038817167
62	0x3b08a249	0.0020848683
63	0xbf1742d6	-0.5908636
64	0xbe76c1ad	-0.24097319
65	0xbe4909bb	-0.19632618
66	0x3e69f41d	0.22847028
67	0x3e03498e	0.12821028
68	0xbc810e8c	-0.015754007
69	0x3e1cc4c3	0.15309434
70	0xbe0e076a	-0.13870016
71	0x3da585fa	0.080821946
72	0x3e0d58b7	0.13803373
73	0xbd2982cb	-0.0413845
74	0xbe8c09ac	-0.2735113
75	0xbe824324	-0.2544185
76	0xbde7399e	-0.112902865
77	0x3e10e5f8	0.14150226
78	0xbda33559	-0.0796916
79	0xbda9b6f2	-0.08286847
80	0x3f13ba31	0.5770598
81	0x3d63ae88	0.055586368
82	0xbe0e4587	-0.1389371
83	0xbd523f10	-0.051329672
84	0x3e297745	0.16549404
85	0x3dd778e7	0.10521107
86	0x3ec94a68	0.3931458
87	0xbe2dd6f3	-0.16976528
88	0xbe0be440	-0.13661289
89	0xbe9832f5	-0.29726377
90	0x3eaf771d	0.34270564
91	0x3d848776	0.064711496
92	0xbe0d4f8b	-0.13799874
93	0xbea3d3f2	-0.3199764
94	0x3e24f34f	0.1610844
95	0x3d5946ca	0.053046025
96	0xbe53b1a7	-0.20673238
97	0xbda4a63b	-0.080395184
98	0xbddec16f	-0.10876738
99	0xbe4acd6c	-0.19804925
100	0x3e76c593	0.24098806
101	0x3e248b01	0.16068651
102	0xbedac740	-0.4273014
103	0xbeaf2db9	-0.3421457
104	0xbdf9c864	-0.121964246
105	0x3d8c3bd0	0.06847346
106	0xbe4b72f5	-0.19868071
107	0xbe6020d7	-0.21887527
108	0xbe144a9f	-0.1448159
109	0x3df4745f	0.119362585
110	0xbee0971c	-0.43865287
111	0xbe468395	-0.19386132
112	0x3d5b0d30	0.053479373
113	0x3dafecb3	0.08590069
114	0x3b4b866c	0.0031055463
115	0xbdc921f5	-0.0982093
116	0xbe13cd5c	-0.14433807
117	0x3da2ee3e	0.07955597
118	0xbe0ed0e0	-0.13946867
119	0x3e52a4fd	0.2057075
120	0xbd8bd2df	-0.0682733
121	0xbd8921a7	-0.06695872
122	0xbd64bb2a	-0.055842556
123	0x3e87277d	0.26397315
124	0xbd974cc8	-0.07387692
125	0x3e3b0c41	0.18266393
126	0xbbbba1b6	-0.0057260646
127	0x3e6f1ad7	0.23350082
128	0x3dc366ce	0.09541093
129	0x3d6120bc	0.05496286
130	0x3c22de36	0.0099406745
131	0x3e7f2892	0.2491782
132	0xbe801b50	-0.25020838
133	0xbdd50236	-0.10400812
134	0x3df91da6	0.12163858
135	0x3b48e201	0.0030652287
136	0xbd868d60	-0.06569934
137	0xbe3b0a61	-0.18265678
138	0x3e4fa66b	0.20278327
139	0x3e9bc056	0.30420178
140	0x3d1a5b21	0.037684564
141	0x3da603f7	0.08106225
142	0xbda86e2f	-0.08224141
143	0xbe1d8b48	-0.15385163
144	0x3dd6cbc4	0.10488084
145	0x3e4e354b	0.20137517
146	0x3dfb3761	0.12266422
147	0x3ebca8ec	0.36847627
148	0xbdf01412	-0.11722578
149	0xbe1645ff	-0.14675139
150	0x3e17e486	0.14833269
151	0x3e1ac32e	0.15113518
152	0xbe5a6f85	-0.21331604
153	0xbc952d7c	-0.018210165
154	0xbdfdb946	-0.12388854
155	0xbe4f71f9	-0.20258321
156	0x3df5c348	0.120001376
157	0x3d7cb983	0.061700355
158	0xbcb903e9	-0.022584872
159	0x3da40329	0.08008415
160	0xbd8440c7	-0.06457668
161	0xbe6af916	-0.22946581
162	0xbe0abadb	-0.13547842
163	0xbd3b651b	-0.04575072
164	0xbe0b4206	-0.13599405
165	0xbe354c2c	-0.17704839
166	0xbc1cbd76	-0.009566655
167	0x3ea807bf	0.3281841
168	0xbe27b0ca	-0.16376033
169	0xbe11d784	-0.14242369
170	0xbd1ae92c	-0.037820026
171	0x3dac36d9	0.08408899
172	0xbe08b975	-0.13351996
173	0x3dd58f36	0.10427706
174	0x3ddcf0e2	0.10788132
175	0x3dd16c7a	0.102257684
176	0xbdbff1be	-0.093722805
177	0xbd1ff144	-0.03904845
178	0x3e5d8378	0.21632183
179	0xbdc5048e	-0.09620009
180	0xbe403253	-0.18769197
181	0xbe16cbcb	-0.14726178
182	0x3e66780f	0.22506736
183	0xbde83ac7	-0.11339336
184	0x3db26e8b	0.08712491
185	0x3d042666	0.032263182
186	0xbdd88c35	-0.10573617
187	0x3d4339a4	0.047662392
188	0xbe019fe9	-0.12658657
189	0xbc285ce3	-0.010276052
190	0x3e2090bb	0.1568021
191	0x3d9cd4c8	0.07657772
192	0xbd2b8b03	-0.04188062
193	0xbe4040d2	-0.18774727
194	0x3e8083e1	0.25100616
195	0x3c8a743f	0.016901134
196	0xbe379752	-0.17928818
197	0x3da125a4	0.078685075
198	0xbdcc6879	-0.09980864
199	0xbda71368	-0.08157998
200	0x3d9df563	0.077128194
201	0xbc313394	-0.01081552
202	0x3dbd4652	0.09241928
203	0x3dbb6d01	0.0915165
204	0x3cb80c5e	0.022466835
205	0xbe4c51f0	-0.19953132
206	0xbdf7e4d0	-0.121041894
207	0x3df1831a	0.11792584
208	0x3ea51342	0.32241255
209	0x3dd379b7	0.1032595
210	0x3d90166a	0.07035525
211	0xbe98b5da	-0.29826242
212	0xbe5c5164	-0.21515423
213	0xbe7d65f7	-0.24745928
214	0x3e571b86	0.21006593
215	0x3d1d6f51	0.038436238
216	0x3d99bfc8	0.075072825
217	0xbd30b958	-0.043145508
218	0xbdbbfb0c	-0.09178743
219	0xbe546824	-0.20742851
220	0x3de4df4b	0.11175402
221	0x3eac5fe5	0.33666912
222	0xbc8b5091	-0.01700619
223	0xbdf7be0a	-0.12096794
224	0x3eb8ce3f	0.36094853
225	0xbd13a318	-0.03604421
226	0x3b4d11cd	0.0031291128
227	0x3e6a1dda	0.2286295
228	0xbc968274	-0.018372752
229	0xbe506f69	-0.20355
230	0x3db040a5	0.0860608
231	0xbe834214	-0.2563635
232	0xbe3ca612	-0.18422726
233	0xbe8f79c6	-0.28022593
234	0xbeb79f58	-0.35863757
235	0xbdb3b08e	-0.087739095
236	0x3e61d3fb	0.2205352
237	0xbe033ee4	-0.1281696
238	0x3e6c3167	0.2306572
239	0x3dc29fd5	0.09503142
240	0xbe2b381a	-0.1672062
241	0xbdb06ae9	-0.086141415
242	0xbe2e04bd	-0.16993995
243	0xbe347980	-0.17624474
244	0xbdabc5a1	-0.08387304
245	0xbb28ae56	-0.0025738678
246	0xbe405dc3	-0.18785767
247	0xbd6753ba	-0.056476332
248	0x3bc667b7	0.0060548442
249	0x3d27d8c8	0.040978223
250	0xbc0b56ec	-0.0085046105
251	0xbe6efe40	-0.23339176
252	0xbbf135e0	-0.0073611587
253	0x3c840ad0	0.016118437
254	0xbe149260	-0.14508963
255	0xbe424f08	-0.1897546

model/dense_2/MatMul;model/dense_2/Relu;model/dense_2/BiasAdd f4 [64]
0	0xbf82e9ce	-1.0227602
1	0xbf6d0337	-0.9258303
2	0x3f8a2371	1.0792066
3	0xbf6b9cb1	-0.9203597
4	0x3d3dba2b	0.04632012
5	0x3f307ab4	0.6893723
6	0xbe0017ca	-0.12509075
7	0x3f8d4abe	1.1038435
8	0x3cb0f4a7	0.021601034
9	0x3f0dad4d	0.5534256
10	0x3f959025	1.1684614
11	0x3f94604d	1.1591889
12	0xbeb3b9c9	-0.3510268
13	0x3f2bedac	0.67159534
14	0xbf10ca95	-0.56559116
15	0xbbcbde83	-0.006221594
16	0xbf282241	-0.6567727
17	0x3f80fbe2	1.0076869
18	0xbe352399	-0.1768936
19	0xbea96bae	-0.33089966
20	0x3f0c2da5	0.5475715
21	0x3e461bd9	0.1934656
22	0x3fbe8d0e	1.4886796
23	0x3f5ad73a	0.8548466
24	0xbf2a8448	-0.66608095
25	0xbfb79836	-1.4343326
26	0xbef52ce8	-0.47885823
27	0x3f2af269	0.6677614
28	0xbfe4ecbd	-1.7884747
29	0xbde7c2d9	-0.11316461
30	0xbf044205	-0.5166324
31	0x3f2a1338	0.66435575
32	0xbf755fd5	-0.95849353
33	0x3f465d3b	0.7748601
34	0x3f824916	1.0178554
35	0xbfa1fb3e	-1.2654798
36	0xbe134270	-0.14380813
37	0x3eaa5f3a	0.33275777
38	0x3b5de722	0.003385969
39	0x3ed7db81	0.42159656
40	0x3e823c1d	0.25436488
41	0x3f030ce6	0.51191556
42	0x3f360f83	0.7111742
43	0x3f3a9d30	0.728961
44	0xbf03af04	-0.5143893
45	0xbdaccd1d	-0.0843756
46	0x3f8bfbd9	1.0936233
47	0x3e721a3c	0.2364282
48	0x3e242e5c	0.1603331
49	0xbe8b39ae	-0.27192444
50	0xbc9be8e6	-0.019031953
51	0xbe96663b	-0.2937487
52	0x3d4f6bb7	0.050639834
53	0x3dfd3a59	0.123646446
54	0x3dbd3388	0.092383444
55	0xbf4a6d45	-0.7907298
56	0x3ed6bba5	0.41940036
57	0x3f61771d	0.8807238
58	0xbf77b249	-0.96756417
59	0xbda9512c	-0.082674354
60	0xbcc0aada	-0.023518968
61	0xbe35b36d	-0.17744227
62	0x3f581d8b	0.8442008
63	0xbea05bce	-0.3132004

model/batch_normalization_1/batchnorm/mul_1;model/batch_normalization_1/batchnorm/add_1;model/dense_2/MatMul;model/dense_2/Relu;model/dense_2/BiasAdd f4 [64, 64]
0	0xbe57ad33	-0.21062164
1	0x3e82ae55	0.2552363
2	0xbdb96dcb	-0.090541445
3	0x3e5809c0	0.2109747
4	0xbe126c0e	-0.14299032
5	0xbc4cc8f9	-0.0124990875
6	0x3d930de0	0.07180381
7	0x3dfdb1e9	0.12387449
8	0x3e3e9492	0.18611363
9	0x3e4d8cf2	0.20073298
10	0x3e0d4c9f	0.1379876
11	0x3d924182	0.07141401
12	0xbdbef885	-0.09324745
13	0x3d882089	0.066468306
14	0xbd853683	-0.06504538
15	0x3e1360bb	0.14392368
16	0x3dff3143	0.12460568
17	0x3e2eafc1	0.17059232
18	0xbd02144b	-0.031757634
19	0x3cc967c9	0.024585621
20	0x3a474c83	0.00076026487
21	0x3dba2713	0.09089484
22	0x3c2d4740	0.010576069
23	0xbe3eee92	-0.18645695
24	0x3e8c7d16	0.27439183
25	0x3e0c82d7	0.13721786
26	0x3e6948c9	0.22781672
27	0x3e731658	0.23738992
28	0x3e0ef380	0.13960075
29	0xbdda92d0	-0.106725335
30	0xbdc50401	-0.09619904
31	0x3c42014a	0.011841128
32	0x3dd8111c	0.10550138
33	0xbdd1eed0	-0.10250628
34	0xbe045897	-0.1292442
35	0x3c8170c1	0.015800836
36	0x3e30123c	0.17194456
37	0xbd974a80	-0.073872566
38	0xbdfdae3d	-0.12386749
39	0xbdd177f1	-0.10227955
40	0xbd9e7e93	-0.07738986
41	0x3cedaafd	0.029012198
42	0x3ddd7576	0.108134195
43	0xbca39cf9	-0.019972311
44	0xbc2676d0	-0.010160163
45	0x3e68e8de	0.22745082
46	0x3df823b3	0.12116184
47	0xbd2bfce4	-0.041989222
48	0xbe3ce7b4	-0.18447763
49	0xbbec71b4	-0.007215703
50	0xbe79323e	-0.24335572
51	0xbd380f67	-0.044936564
52	0xbe7a8ee8	-0.24468577
53	0x3e29a9c8	0.16568673
54	0xbd270fb1	-0.04078645
55	0xbc955cd5	-0.018232742
56	0x3e3c16d1	0.18368079
57	0x3e86cbf9	0.26327494
58	0x3e490e4c	0.1963436
59	0xbd6d4136	-0.057923518
60	0x3e1d828b	0.1538183
61	0x3d7e423d	0.06207489
62	0xbdf11a46	-0.117725894
63	0x3dc4d569	0.09611017
64	0x3d6153e3	0.05501164
65	0x3eacfef7	0.33788273
66	0x3e69b2c7	0.22822104
67	0xbdbba084	-0.09161475
68	0xbe0816a4	-0.13289887
69	0xbdc9deaa	-0.09856923
70	0x3aaf70f2	0.0013385101
71	0xbe25dd1d	-0.1619763
72	0xbe28b696	-0.16475901
73	0xbe1775a1	-0.14790966
74	0xbd88fb85	-0.066885985
75	0xbdeceb99	-0.11568374
76	0x3e5830d4	0.21112376
77	0x3e8cfd0b	0.27536806
78	0xbd8bde69	-0.06829531
79	0xbe6f9ccd	-0.23399659
80	0x3e1bf06f	0.15228437
81	0x3d29f690	0.041494906
82	0xbce23827	-0.027614666
83	0x3d7441c7	0.059633043
84	0x3e1aa9fd	0.15103908
85	0xbe4b8111	-0.19873454
86	0x3e5da6f3	0.21645717
87	0xbcd515da	-0.026011396
88	0x3e4e8062	0.20166162
89	0xbd02f1e9	-0.031968985
90	0x3e3db3cb	0.18525617
91	0x3cc06a48	0.023488179
92	0xbd27fb63	-0.041011225
93	0xbdb63f40	-0.08898783
94	0x3e4907d1	0.19631888
95	0x3cc97b49	0.02459492
96	0xbb965953	-0.004588285
97	0x3e2d51c5	0.16925724
98	0x3d1b126a	0.037859358
99	0xbcfb7124	-0.030693598
100	0x3de970ea	0.1139849
101	0xbdec4f5f	-0.11538576
102	0x3e2ab736	0.16671452
103	0x3cd398f3	0.025829768
104	0x3e42b235	0.19013293
105	0x3dbc8fd4	0.092071205
106	0x3dea9911	0.11454976
107	0x3d71335f	0.058886882
108	0x3e2d4d7c	0.16924089
109	0x3dbd6d5f	0.092493765
110	0x3dfe1a29	0.124073334
111	0xbcb2a3d2	-0.021806631
112	0x3e8cad5d	0.27476016
113	0x3d96852c	0.07349619
114	0x3caf01a3	0.021363085
115	0xbe354bc5	-0.17704685
116	0xbccfff92	-0.02539042
117	0xbe1f7a27	-0.15573941
118	0xbdd69122	-0.10476901
119	0x3dcc2b37	0.0996918
120	0x3e31a861	0.17349388
121	0x3d761ebf	0.060087916
122	0x3e2868f0	0.1644628
123	0xbca502af	-0.020142881
124	0xbe5b39fb	-0.21408837
125	0xbe5ca0be	-0.21545693
126	0x3d3c3ebf	0.045958277
127	0xbd069e4c	-0.032865807
128	0x3d803f95	0.06262127
129	0xbe100379	-0.14063825
130	0xbddf497f	-0.1090269
131	0xbd98dfde	-0.07464574
132	0xbd66b441	-0.056324247
133	0x3e382fde	0.1798701
134	0xbe7ffa22	-0.24997762
135	0x3dfa40cc	0.1221939
136	0xbe83b87e	-0.25726694
137	0x3e4fb0d9	0.20282306
138	0xbd012464	-0.031528845
139	0xbda8b890	-0.082383275
140	0x3e37ae57	0.17937599
141	0x3d7ef126	0.062241696
142	0x3d9e5ad3	0.07732167
143	0xbdda8924	-0.10670689
144	0x3d17fe54	0.03710778
145	0xbd9acdad	-0.07558761
146	0xbdf6bb93	-0.12047496
147	0xbe49d8bb	-0.19711582
148	0xbe367c5d	-0.17820878
149	0x3daa6b59	0.08321256
150	0xbe19acf7	-0.15007387
151	0xbd2652a7	-0.040606167
152	0xbe3730ab	-0.17889659
153	0xbd02b4ac	-0.031910583
154	0x3b8f04d2	0.0043645883
155	0xbdec6f1e	-0.115446314
156	0x3dbcb5a5	0.092143334
157	0xbe2f94bc	-0.17146581
158	0xbe29d49f	-0.16585015
159	0xbd09edc0	-0.033674
160	0xbdc96bb5	-0.098349966
161	0xbdd59832	-0.104294196
162	0xbded16f6	-0.11576645
163	0x3e3b8160	0.18311071
164	0xbd5223ed	-0.051303793
165	0x3d47c973	0.0487761
166	0x3d1f33e1	0.038867835
167	0x3df858bb	0.12126299
168	0xbe37f60d	-0.17964955
169	0xbcdf4963	-0.027256673
170	0xbe5dd80e	-0.2166445
171	0xb9356d42	-0.00017302207
172	0x3e82ade5	0.25523296
173	0xbbfb0d1c	-0.007661475
174	0xbe4788ed	-0.19485827
175	0x3e6851ae	0.22687408
176	0xbe02c5e2	-0.12770799
177	0xbdccac42	-0.09993793
178	0x3e26507f	0.16241644
179	0x3a55a147	0.00081493374
180	0xbe038b53	-0.12846117
181	0xbdf8103b	-0.12112471
182	0x3e004752	0.12527207
183	0x3ba1f3e1	0.0049424027
184	0xbe8ab8c0	-0.27094078
185	0xbd86657c	-0.06562325
186	0x3e3e2257	0.18567787
187	0xbe6d4c84	-0.2317372
188	0xbd0d88b8	-0.034554213
189	0xbe05d473	-0.13069324
190	0xbd346269	-0.044039164
191	0x3deb7457	0.114967994
192	0x3e9e4aaf	0.30916354
193	0xbcd749ab	-0.026280245
194	0xbe0fe6e1	-0.14052917
195	0xbe55be51	-0.20873381
196	0xbdf753d8	-0.12076539
197	0x3e660535	0.22462924
198	0x3e149522	0.14510015
199	0x3c2f9487	0.010716564
200	0x3e693e5e	0.22777697
201	0x3e3d1b21	0.1846738
202	0x3d6e99f0	0.058252275
203	0xbb9528ef	-0.004551999
204	0x3e42da04	0.19028479
205	0x3baa02e6	0.005188334
206	0x3e600ebd	0.21880622
207	0xbde538ec	-0.111924976
208	0x3e0faf74	0.14031774
209	0xbc687298	-0.0141874775
210	0x3d1d046b	0.03833429
211	0xbe00daf5	-0.12583525
212	0x3e07808b	0.13232629
213	0x3d412e81	0.04716349
214	0xbdf98f86	-0.12185578
215	0x3e48a826	0.19595394
216	0xbde69b3e	-0.11260079
217	0xbe858a2c	-0.2608198
218	0xbe329d58	-0.17442834
219	0x3d8b6ae1	0.06807495
220	0x3e0b20bb	0.13586704
221	0x3d9e131c	0.077184886
222	0x3e437869	0.19088902
223	0xbc876f8a	-0.016532678
224	0x3e1d6e0e	0.15374014
225	0x3d1e3038	0.038620204
226	0xbccde279	-0.025132405
227	0x3d607a42	0.054804094
228	0x3dd241e9	0.102664776
229	0x3dcdaa45	0.10042242
230	0x3e0aaf54	0.13543445
231	0xbe794545	-0.2434283
232	0xbdfa0556	-0.12208049
233	0x3e61a933	0.220372
234	0xbe7a210b	-0.24426667
235	0xbe207073	-0.15667896
236	0x3dcede2a	0.10100968
237	0x3e9df8aa	0.30853778
238	0x3deb40d4	0.11486974
239	0x3db317a3	0.08744743
240	0x3d3d63d7	0.046237793
241	0x3d611d59	0.05495963
242	0x3e052d90	0.13005662
243	0xbe4dffef	-0.20117162
244	0x3d36362c	0.044485256
245	0xbcb648c8	-0.022251502
246	0x3e276990	0.16348863
247	0xbdd54473	-0.10413446
248	0x3c24f70f	0.010068669
249	0xbd607cfd	-0.054806698
250	0x3c98b6c6	0.01864184
251	0xbdacee46	-0.084438846
252	0x3ddb6a12	0.10713591
253	0x3e675fa8	0.22595084
254	0x3d903a14	0.070423275
255	0xbe5a7059	-0.2133192

model/dense_3/MatMul;model/dense_3/Relu;model/dense_3/BiasAdd f4 [64]
0	0xbf2d3684	-0.6766131
1	0x3f714f9c	0.942621
2	0x3eb20a12	0.34773308
3	0xbcd0b953	-0.025478994
4	0x3e37e115	0.17956956
5	0x3ed8624d	0.42262498
6	0x3febbc73	1.8416885
7	0x3f4cf2bb	0.8005788
8	0x3e177b28	0.14793074
9	0xbf263d18	-0.6493697
10	0xbfaea848	-1.3645105
11	0xbeda9609	-0.42692593
12	0x3f29f834	0.6639435
13	0x3f7bab38	0.98308134
14	0x3f562b52	0.8365985
15	0x3f3bfba6	0.7343086
16	0x3f04a9fe	0.5182189
17	0x3f2a4b2d	0.6652096
18	0x3f40cf01	0.7531586
19	0x3fd6fc09	1.6795665
20	0x3eac8c47	0.33700773
21	0xbeb3696c	-0.35041368
22	0x3fa6265e	1.2980459
23	0x3f108d06	0.56465185
24	0x3ebbcc06	0.36679095
25	0x3f8076c0	1.003624
26	0x3e838451	0.25686887
27	0xbe0d9fd5	-0.13830502
28	0xbf01ae6c	-0.5065677
29	0xbf838a25	-1.0276533
30	0x3f2d7bbe	0.6776694
31	0x3e6070d6	0.21918043
32	0xbeeb9a89	-0.46016338
33	0xbe7e3a40	-0.24826908
34	0xbe1bffd0	-0.15234303
35	0xbf06ff10	-0.52732944
36	0x3efd8c1c	0.49520957
37	0x3f3a9b9d	0.728937
38	0xbe320531	-0.17384793
39	0x3e76981d	0.24081464
40	0xbed3e0fc	-0.41382587
41	0x3f95a002	1.1689456
42	0x3f5aeb13	0.85514945
43	0x3e75df62	0.24010995
44	0x3f618f58	0.8810935
45	0x400658c7	2.0991685
46	0x3f5419d7	0.8285193
47	0x3eaf7c9b	0.34274754
48	0xbee23375	-0.44179884
49	0x3f35775e	0.70885265
50	0xbf23326b	-0.63748807
51	0x3e120d2c	0.14262837
52	0x3e2ac219	0.16675605
53	0xbf6cac64	-0.9245055
54	0xbe8f6bb0	-0.28011847
55	0x3fd5b09f	1.6694525
56	0xbee49c04	-0.4465028
57	0xbe925ff3	-0.28588828
58	0x3f796f4c	0.9743545
59	0x3f420f72	0.7580482
60	0xbe75d0c3	-0.24005418
61	0x3ee45b34	0.44600832
62	0xbe07dca9	-0.13267769
63	0x3f51f306	0.8201145

model/batch_normalization_1/batchnorm/mul_1;model/batch_normalization_1/batchnorm/add_1;model/dense_3/MatMul;model/dense_3/Relu;model/dense_3/BiasAdd f4 [64, 64]
0	0xbd2a7113	-0.041611742
1	0xbca15906	-0.01969577
2	0xbe198d05	-0.14995201
3	0xbb42b01d	-0.0029707022
4	0x3dcd8e2d	0.100368835
5	0x3d897b2a	0.06712945
6	0x3dafad40	0.08577967
7	0x3d5a1476	0.05324217
8	0xbe261d3c	-0.1622209
9	0x3e9be8b1	0.30450967
10	0xbe1462ea	-0.14490858
11	0x3e1326ab	0.1437022
12	0xbc190aa7	-0.009340919
13	0x3e31f199	0.17377318
14	0xbe082873	-0.1329668
15	0x3e815840	0.25262642
16	0x3def1721	0.11674333
17	0xbe26a3f9	-0.16273488
18	0xbe621d0e	-0.22081396
19	0x3e2174b8	0.15767181
20	0xbe2af5ba	-0.166953
21	0xbdc30f3f	-0.09524392
22	0x3cdd781c	0.027034812
23	0xbde031ba	-0.109469846
24	0xbe45608d	-0.19275112
25	0x3dbad2f2	0.09122266
26	0xbc99aaac	-0.01875814
27	0xbe1f7c4a	-0.15574756
28	0x3d8f4f83	0.069975875
29	0xbe8080aa	-0.25098163
30	0x3e0aace6	0.13542518
31	0xbd48aba6	-0.04899182
32	0x3e41d422	0.18928578
33	0x3e730cc9	0.23735346
34	0x3e805b0f	0.25069472
35	0xbd0a379d	-0.033744443
36	0x3cabaad9	0.02095549
37	0x3d7d705a	0.061874725
38	0x3e0313a2	0.12800458
39	0x3cc86b96	0.024465363
40	0x3e3f8281	0.18702127
41	0x3df60240	0.12012148
42	0x3e55d753	0.20882921
43	0x3db53073	0.088471316
44	0xbc4848bc	-0.0122243725
45	0xbdcff16e	-0.10153471
46	0xbdd24544	-0.102671176
47	0xbaf7babe	-0.0018900258
48	0x3e8beef5	0.27330747
49	0x3e547460	0.20747519
50	0x3d7e8eda	0.062147953
51	0xbde17efe	-0.1101055
52	0xbe1cad9e	-0.15300605
53	0xbe5a4ad5	-0.21317609
54	0x3dc9370e	0.09824954
55	0x3dc3655e	0.09540819
56	0xbd6c2130	-0.057648838
57	0xbcdb9ad8	-0.026807234
58	0x3dc3bcc8	0.095574915
59	0x3dc1e60b	0.09467705
60	0x3e39f091	0.18158175
61	0xbde65e58	-0.112484634
62	0xbdb84c26	-0.08998899
63	0xbcca8115	-0.024719754
64	0xbeb46ea4	-0.35240662
65	0x3e3c848e	0.1840994
66	0xbe344af3	-0.17606716
67	0xbd7a6c60	-0.06113851
68	0x3dac2658	0.08405751
69	0x3e7c9251	0.2466519
70	0xbd04a831	-0.032386962
71	0xbdc0d714	-0.09416023
72	0xbd0f05ee	-0.034917764
73	0x3d6ec5ec	0.05829422
74	0xbeb2f606	-0.34953326
75	0xbc549a25	-0.012976204
76	0xbde85d79	-0.113459535
77	0x3dba2c2e	0.09090458
78	0x3e83646e	0.2566256
79	0xbe3388dd	-0.17532678
80	0xbe3ad7a2	-0.1824632
81	0x3e25f5af	0.16207002
82	0xbc21867f	-0.0098587265
83	0x3e16af22	0.14715245
84	0x3d700d03	0.05860616
85	0x3d8b346f	0.0679711
86	0xbdcbacef	-0.09945094
87	0xbd4b6bb7	-0.04966327
88	0x3c91a17c	0.017777197
89	0xbdfafcaa	-0.12255223
90	0x3e4a077f	0.19729422
91	0x3ddbace7	0.10726338
92	0xbe683b72	-0.22678927
93	0x3eb19f96	0.34692067
94	0xbe00a37a	-0.12562361
95	0x3c9e534d	0.01932683
96	0xbeaca93c	-0.33722866
97	0xbd4bf56e	-0.049794607
98	0xbe58f3c9	-0.21186747
99	0x3e761244	0.24030405
100	0xbca3ae76	-0.01998065
101	0xbd85ba7a	-0.06529708
102	0xbe8db0df	-0.27674004
103	0x3d0028d9	0.031288955
104	0x3dc33410	0.095314145
105	0xbd065f06	-0.032805465
106	0xbcf7f918	-0.030270144
107	0x3dfffa62	0.124989286
108	0xbdd23b8a	-0.102652624
109	0x3e46511e	0.19366881
110	0xbdaf47ba	-0.08558603
111	0xbe4e7534	-0.20161897
112	0xbe9bf3a0	-0.3045931
113	0xbe2832e4	-0.16425663
114	0x3e3bd292	0.18342045
115	0xbe36c9cf	-0.17850421
116	0xbe5e1173	-0.21686344
117	0xbe1d66bc	-0.15371221
118	0x3e330419	0.17482032
119	0x3d3b0eef	0.04566854
120	0xbdc75956	-0.09733836
121	0xbdd5585f	-0.10417246
122	0x3d520bdb	0.051280838
123	0x3dc8bb77	0.09801381
124	0xbe0bdad5	-0.13657697
125	0xbe36b8f2	-0.17843989
126	0x3ce864a1	0.028368296
127	0x3e4aa4bd	0.19789405
128	0xbddc0fe0	-0.107452154
129	0xbda086c2	-0.07838203
130	0x3e291d4b	0.1651508
131	0x3e797493	0.24360876
132	0xbd6afd75	-0.05737062
133	0xbea17107	-0.31531546
134	0xbe6d65ed	-0.23183413
135	0x3de57420	0.1120379
136	0xbdbd58fb	-0.09245487
137	0x3d94ec44	0.072716266
138	0xbda9c9e6	-0.08290462
139	0xbbabdf9d	-0.0052451626
140	0x3dfa0923	0.12208774
141	0xbd894afd	-0.06703756
142	0x3ca98b50	0.020696312
143	0xbe9e2173	-0.30884895
144	0xbd4c9338	-0.049945086
145	0x3d89e2a6	0.06732683
146	0xbdbb8ac3	-0.09157326
147	0xbdc1ec3a	-0.09468885
148	0xbd8bce2f	-0.06826436
149	0x3dc7b5a6	0.097514436
150	0x3cb87635	0.022517303
151	0xbd925b56	-0.07146327
152	0x3dd9b898	0.106309116
153	0x3d6caedb	0.057783943
154	0x3db70d57	0.08938091
155	0xbdcafd8c	-0.099116415
156	0x3e425957	0.18979393
157	0x3e618f7e	0.22027394
158	0xbca58646	-0.020205628
159	0x3e1c8893	0.15286474
160	0x3b96f441	0.004606754
161	0x3d94ca76	0.07265179
162	0xbe83fef6	-0.25780457
163	0x3e66bb7a	0.22532454
164	0xbe26c1b3	-0.16284828
165	0x3e831f48	0.25609803
166	0xbd17ffa5	-0.037109036
167	0xbe0a3b20	-0.13499117
168	0xbe3cb1c7	-0.18427192
169	0xbd94b390	-0.07260811
170	0x3dfaf189	0.122531004
171	0xbe0f3ec2	-0.13988784
172	0x3def45c0	0.11683226
173	0x3e5e8a25	0.21732385
174	0x3e573038	0.21014488
175	0x3bfb23cd	0.00766418
176	0xbe39995e	-0.18124911
177	0xbe6e199a	-0.23251954
178	0x3895ff04	7.152374e-05
179	0xbe59ce6b	-0.21270148
180	0xbdccf4ff	-0.10007667
181	0x3d8a81b2	0.06763019
182	0xbc2b5494	-0.010457177
183	0xbdef78d5	-0.11692969
184	0xbe465581	-0.19368555
185	0x3c2af1d1	0.01043363
186	0xbe25a3a9	-0.16175713
187	0x3e2ab118	0.16669118
188	0x3dbb8802	0.09156801
189	0xbe372f36	-0.17889103
190	0x3e4a0771	0.19729401
191	0xbd97db0e	-0.07414828
192	0xbe11b8a0	-0.14230585
193	0x3e44279f	0.19155739
194	0xbe0d3f3f	-0.13793658
195	0x3d362910	0.044472754
196	0x3e1f9960	0.15585852
197	0x3df49bd5	0.11943785
198	0x3e18d019	0.14923133
199	0x3d2ea753	0.04264004
200	0xbbf34708	-0.007424239
201	0x3e4a7c95	0.19774087
202	0xbe58c002	-0.21166995
203	0x3e16071c	0.1465115
204	0x3e65b5e5	0.22432669
205	0x3d7bc5df	0.061468
206	0x3d8a06ec	0.067396015
207	0xbe5146b7	-0.20437132
208	0x3d8702fc	0.06592366
209	0xbd5788b7	-0.052620616
210	0xbe91056f	-0.28324458
211	0xb933a27a	-0.00017131297
212	0xbd4b5142	-0.04963804
213	0xbd3d98c5	-0.04628827
214	0xbe55973f	-0.20858477
215	0x3dc5ddd7	0.09661453
216	0x3e3380ca	0.17529598
217	0xbd8d104d	-0.06887875
218	0x3e6aaf66	0.22918472
219	0x3e152221	0.145638
220	0x3d2f77ca	0.04283885
221	0xbe27ede4	-0.16399342
222	0xbe641ab3	-0.2227581
223	0x3baeafeb	0.0053310296
224	0xbd6f41ea	-0.05841247
225	0x3e90ae34	0.28257906
226	0x3d4f963d	0.050680388
227	0x3c8664fa	0.016405571
228	0xbc4c7df4	-0.012481201
229	0xbd2da552	-0.04239399
230	0x3dc06f8a	0.093962744
231	0xbe0380d6	-0.12842116
232	0xbd15e34e	-0.036593728
233	0xbe16484b	-0.14676015
234	0xbd54c84c	-0.05194883
235	0x3db14e83	0.08657553
236	0xbe63105d	-0.22174211
237	0xbea2354b	-0.31681284
238	0xbe6ac877	-0.22928034
239	0xbd22cc1b	-0.03974543
240	0x3e3e8587	0.18605624
241	0x3d83c927	0.06434851
242	0xbd63fdcf	-0.055661973
243	0x3e05e558	0.13075769
244	0x3db358ea	0.087571934
245	0xbcd60593	-0.026125705
246	0x3d1f1978	0.03884265
247	0x3dd5f789	0.10447604
248	0xbe2a83b3	-0.16651802
249	0x3e5411c4	0.20709902
250	0xbe5288e6	-0.20560035
251	0x3d649fae	0.055816345
252	0x3d16047e	0.036625378
253	0xbe05bcd2	-0.1306031
254	0x3d456d19	0.048199747
255	0x3ddbaeb1	0.10726679

model/dense_4/MatMul;model/dense_4/Relu;model/dense_4/BiasAdd f4 [64]
0	0x3f67727a	0.9040905
1	0xbf24e0ef	-0.6440572
2	0x3e986fbe	0.29772753
3	0xbe8d7496	-0.2762801
4	0x3ef5dcd5	0.48020044
5	0x3f294632	0.66122735
6	0xbe61851c	-0.22023433
7	0x3f7ac5fe	0.9795836
8	0x3f1a4518	0.6026168
9	0x3d06bdc4	0.03289582
10	0x3ee53b4c	0.44771802
11	0xbe75a6f4	-0.23989469
12	0x3eb644a5	0.35599247
13	0x3e8e508b	0.27795824
14	0x3ede597b	0.43427643
15	0x3e92e192	0.28687721
16	0x3ed080ef	0.4072337
17	0xbe996a5c	-0.29963958
18	0x3fcc885d	1.5979115
19	0xbcd97f3e	-0.026549932
20	0x3ee0057a	0.43754178
21	0x3f7da36a	0.99077475
22	0xbed63ea4	-0.41844666
23	0x3d781518	0.06056699
24	0xbf11e4c1	-0.56989676
25	0x3ef90811	0.48638967
26	0x3e0204c3	0.12697129
27	0x3e7584cc	0.23976439
28	0xbe7ec79b	-0.24880831
29	0x3f892bc1	1.0716478
30	0xbd28f7bb	-0.04125188
31	0x3f5b2691	0.8560572
32	0xbe713eba	-0.23559085
33	0x3e2f5661	0.17122795
34	0x3e27e60d	0.16396351
35	0x3eb9bc76	0.36276597
36	0x3fbefcf9	1.4920951
37	0xbdba743d	-0.09104202
38	0x3f88927d	1.0669705
39	0xbebb481f	-0.36578462
40	0x3f12a2c5	0.57279617
41	0x3f8883b6	1.0665195
42	0x3fa349c5	1.2756888
43	0x3f94dfa4	1.163075
44	0x3f25d778	0.64781904
45	0xbd8e5989	-0.06950671
46	0xbf1513b8	-0.58233213
47	0x3f5f37cd	0.8719452
48	0x3e480770	0.19534087
49	0x3e71ed31	0.23625638
50	0x3f00e707	0.5035252
51	0x3e6dc7fc	0.23220819
52	0x3f1c88c5	0.61146194
53	0x3f9c60d7	1.2217053
54	0x3f33fbfe	0.70306385
55	0x3eeac0c3	0.4585019
56	0xbf2df9a5	-0.6795905
57	0x3f1f653d	0.6226385
58	0x3f51443b	0.81744736
59	0x3fa91d1a	1.3212006
60	0x3f891d22	1.0712016
61	0x3f57d62b	0.8431117
62	0xbf7f18cb	-0.99647206
63	0x3f058dd7	0.52169555

model/batch_normalization_1/batchnorm/mul_1;model/batch_normalization_1/batchnorm/add_1;model/dense_4/MatMul;model/dense_4/Relu;model/dense_4/BiasAdd f4 [64, 64]
0	0xbcdd4da7	-0.027014567
1	0xbc965f96	-0.018356126
2	0xbd49930b	-0.049212497
3	0xbc4411ac	-0.011967104
4	0xbe20810d	-0.15674229
5	0x3e1cfa09	0.15329756
6	0xbd4f0300	-0.05053997
7	0xbd85a0fd	-0.06524847
8	0xbcb41663	-0.021983331
9	0xbdd473fb	-0.10373684
10	0x3de4e4e2	0.111764684
11	0xbddfb699	-0.109234996
12	0xbe249bdd	-0.16075082
13	0xbe3816df	-0.17977475
14	0x3db3f2af	0.087865226
15	0x3e49a0d9	0.19690265
16	0xbd608cfe	-0.05482196
17	0x3d81d369	0.063391514
18	0x3dccff19	0.100095935
19	0x3cae167c	0.021250956
20	0xbe92e026	-0.28686637
21	0xbe6f8c25	-0.23393305
22	0xbde1cac9	-0.11025006
23	0xbe4755d1	-0.1946633
24	0xbe3e2a33	-0.18570785
25	0xbd1295c3	-0.035787355
26	0x3bbcc7f5	0.0057611414
27	0x3b417676	0.002952007
28	0x3db86938	0.09004444
29	0xbe33a035	-0.17541583
30	0xbca8e1dc	-0.02061551
31	0xbd215a5c	-0.039392814
32	0x3d8bd2b0	0.06827295
33	0x3e81facd	0.25386658
34	0x3bd17670	0.0063922927
35	0xbd4b1fe0	-0.049590945
36	0x3d798428	0.06091705
37	0x3d8b01ff	0.0678749
38	0xbdd7e160	-0.10541034
39	0x3d4b81b2	0.049684234
40	0x3e294362	0.16529611
41	0x3d5fc11b	0.05462752
42	0x3c954881	0.01822305
43	0x3c64ab6b	0.013956885
44	0x3d9f1cfd	0.07769201
45	0xbd57ed19	-0.05271635
46	0x3c8f052c	0.01745852
47	0xbe6fc58f	-0.23415206
48	0xbdf9fb78	-0.12206167
49	0x3e2e3ca8	0.17015326
50	0xbd176486	-0.0369611
51	0xbdcf18d9	-0.10112161
52	0x3dd3422d	0.103153564
53	0xbb593748	-0.0033144522
54	0x3dbf8524	0.093515664
55	0x3da7f6c9	0.082013674
56	0x3cdbd713	0.026835954
57	0xbe6721f6	-0.22571549
58	0xbda1ed2c	-0.07906565
59	0xbdb5f424	-0.08884457
60	0xbdb33e01	-0.08752061
61	0xbd323b73	-0.043513726
62	0x3d0ce3f3	0.034397077
63	0xbe10f239	-0.141549
64	0x3dcb9926	0.0994132
65	0x3e0ec952	0.13943985
66	0x3e280924	0.16409737
67	0xbd985025	-0.07437161
68	0xbdb2edc3	-0.08736756
69	0xbd238e60	-0.0399307
70	0x3d7cbf74	0.06170602
71	0x3d7d3aa0	0.061823487
72	0x3e098cac	0.13432568
73	0xbea1ea1e	-0.3162393
74	0xbd6be3e3	-0.057590377
75	0xbc8346f2	-0.01602504
76	0x3dab6bd9	0.0837018
77	0xbd58ae9d	-0.0529009
78	0xbe21a048	-0.15783799
79	0x3ea4e159	0.32203177
80	0x3e488a9c	0.19584125
81	0xbdb55c1b	-0.08855458
82	0xbe33e517	-0.1756786
83	0x3a1b6c64	0.0005928932
84	0xbd0719b4	-0.032983497
85	0x3d8c1404	0.06839755
86	0x3e17c2c2	0.14820388
87	0x3de236ca	0.110456064
88	0xbe3ef73e	-0.18649003
89	0x3dcddca6	0.10051851
90	0xbd13831c	-0.036013708
91	0x3d994e4e	0.074856386
92	0x3df157d3	0.11784329
93	0xbe66931e	-0.22517058
94	0x3be263c6	0.0069088666
95	0x3d8c20f2	0.06842221
96	0xbd82402d	-0.06359897
97	0x3e2cb615	0.16866334
98	0x3da1cbe1	0.07900215
99	0xbdb87825	-0.09007291
100	0x3dd6fca1	0.10497404
101	0xbd59ce49	-0.053175244
102	0x3dc5f516	0.09665887
103	0xbd477361	-0.04869402
104	0xbd3e0bf7	-0.04639813
105	0x3e776480	0.24159431
106	0x3de3da04	0.111255676
107	0xbca67cc7	-0.02032317
108	0xbe53e059	-0.2069105
109	0x3e4b7aac	0.19871014
110	0x3ac934f9	0.001535087
111	0x3d651d6c	0.055936262
112	0x3ddf29b5	0.10896627
113	0x3e8591b3	0.26087722
114	0xbe38ea93	-0.18058233
115	0xbe535599	-0.20638122
116	0x3da5eb79	0.081015535
117	0xbdba8fa4	-0.091094285
118	0xbe023621	-0.12715961
119	0xbd7f6fcc	-0.062362477
120	0x3e27bd15	0.16380723
121	0x3dcbae2c	0.0994533
122	0x3e83cbff	0.25741574
123	0xbd162a4c	-0.03666143
124	0xbc45317f	-0.012035727
125	0xbdc5d989	-0.09660632
126	0x3dab2bee	0.08357988
127	0x3e78eeec	0.24309891
128	0x3d9e6473	0.07734003
129	0x3e787e0b	0.24266832
130	0x3e14b79c	0.14523166
131	0xbe287100	-0.16449356
132	0xbe3d4d89	-0.18486609
133	0xbdd53328	-0.10410148
134	0x3af5f075	0.0018763678
135	0x3e07071a	0.13186303
136	0xbe277811	-0.16354395
137	0x3e6c1643	0.23055367
138	0x3e06f164	0.1317802
139	0xbd1c3c72	-0.038143583
140	0xbc8c3e67	-0.0171196
141	0xbdebadd9	-0.11507768
142	0xbe24fd9f	-0.16112374
143	0xbe5d7c69	-0.2162949
144	0x3e377715	0.1791652
145	0xbe145549	-0.14485659
146	0x3e2cfc6f	0.16893171
147	0x3d6247e3	0.055244338
148	0x3cfb20ab	0.030655226
149	0xbe26c85f	-0.16287373
150	0x3d15df46	0.036589883
151	0x3d408856	0.04700502
152	0xbdb555de	-0.088542685
153	0x3d780f07	0.060561206
154	0x3e5338de	0.20627162
155	0x3d58136f	0.05275291
156	0xbd1bab97	-0.038005438
157	0xbe09bd8a	-0.1345121
158	0xbd047f5b	-0.03234802
159	0x3dae7240	0.08517885
160	0xbdd8c0f7	-0.1058368
161	0xbe9dbbd7	-0.30807373
162	0xbc79e7e9	-0.015253046
163	0xbe11e21f	-0.14246415
164	0xbad0fef9	-0.0015945128
165	0x3d9b6efc	0.07589528
166	0x3df9e74a	0.12202318
167	0x3c6767ca	0.014123866
168	0xbd3c1fd4	-0.04592879
169	0x3cdc40a2	0.026886288
170	0xbe2c1fbe	-0.16808984
171	0xbdf03eb6	-0.11730711
172	0x3df54d35	0.11977617
173	0xbe10561a	-0.14095345
174	0xbc8cec35	-0.017202476
175	0x3e05d8df	0.13071011
176	0x3c7693c7	0.015049881
177	0xbd6cfe76	-0.05785986
178	0xbe6e3cff	-0.23265456
179	0x3d99b9cb	0.0750614
180	0xbc8e2579	-0.017351853
181	0x3d2d2998	0.042275995
182	0x3d831311	0.06400121
183	0xbd972500	-0.07380104
184	0x3db42242	0.08795597
185	0x3e067167	0.13129197
186	0x3c7f750b	0.01559187
187	0x3dcdae37	0.100429945
188	0xbe3746d6	-0.17898116
189	0xbe3d76af	-0.18502305
190	0xbdfd4034	-0.123657614
191	0x3d3a7104	0.045517936
192	0xbdd7de80	-0.105404854
193	0xbdf6286d	-0.12019429
194	0x3e162fe2	0.14666703
195	0xbe2c56ac	-0.16829938
196	0x3e01f24a	0.12690082
197	0xbe4a5b38	-0.1976136
198	0xbe2f62f0	-0.17127585
199	0x3b50393b	0.0031772393
200	0x3d2e39c9	0.042535577
201	0xbe180cee	-0.14848682
202	0x3e2949c0	0.1653204
203	0x3e13cbfc	0.14433283
204	0xbda21cfa	-0.07915683
205	0x3da94940	0.082659245
206	0x3ce82249	0.028336661
207	0x3cab4f18	0.020911738
208	0x3dbec360	0.093146086
209	0xbe199b0e	-0.15000555
210	0x3e0a3da0	0.1350007
211	0x3e0bc600	0.1364975
212	0x3dab6303	0.08368494
213	0xbc490294	-0.012268681
214	0x3d423118	0.0474101
215	0x3d30f8b9	0.04320595
216	0x3d9b0740	0.07569742
217	0xbc545e14	-0.012961883
218	0x3b8678eb	0.00410377
219	0x3d44d3ed	0.04805367
220	0x3d15a9ff	0.036539074
221	0xba1d45ff	-0.0005999505
222	0xbd615380	-0.055011272
223	0x3d95c404	0.07312778
224	0xbb8a21f6	-0.0042154742
225	0x3e4d06ae	0.2002208
226	0xbb702f3e	-0.0036649252
227	0xbe4faaa1	-0.20279934
228	0xbdcd5171	-0.10025299
229	0xbba3329f	-0.0049803997
230	0x3deb4bb4	0.114890486
231	0xbdd84563	-0.105601095
232	0x3a9759a4	0.0011547101
233	0xbe880b9e	-0.26571363
234	0x3e19b900	0.15011978
235	0xbc8686ac	-0.016421638
236	0x3e0e0b32	0.13871458
237	0xbdb11342	-0.08646251
238	0x3e07cd8b	0.13262002
239	0xbca50733	-0.020145034
240	0xbe58b173	-0.21161442
241	0xbde05983	-0.10954573
242	0xbdef07d5	-0.11671416
243	0xbe464363	-0.19361643
244	0xbc336748	-0.010949917
245	0xbd6de4b9	-0.058079455
246	0x3e321073	0.17389087
247	0xbc7dd16a	-0.015491823
248	0x3d00bf00	0.03143215
249	0x3c4a83eb	0.012360553
250	0xbdbec963	-0.09315755
251	0xbbade167	-0.005306411
252	0x3dcd2c5d	0.10018227
253	0xbd8981f5	-0.067142405
254	0x3df73303	0.120702766
255	0x3e2f4793	0.17117147

model/position_output/BiasAdd/ReadVariableOp f4 [2]
0	0xbd4a4681	-0.049383644
1	0xbc7721c3	-0.015083733

model/floor_output/BiasAdd/ReadVariableOp f4 [5]
0	0xbd570f36	-0.05250474
1	0x3d29fe52	0.041502304
2	0x3d6914d1	0.056904618
3	0xbd5f91b9	-0.05458233
4	0xbd14d6bf	-0.03633761

model/dense/BiasAdd/ReadVariableOp f4 [128]
0	0x3da4adbe	0.08040951
1	0x3da51c40	0.08062029
2	0x3e6ba308	0.2301141
3	0x3d64eeb9	0.055891726
4	0x3e41b0df	0.18915127
5	0x3db9c268	0.09070283
6	0x3bdfc58d	0.00682897
7	0x3e181b93	0.14854269
8	0x3e27ddb5	0.16393168
9	0x3decc183	0.11560347
10	0x3ddb77aa	0.107161835
11	0xbd6596f4	-0.056052163
12	0x3dac1cd8	0.08403939
13	0x3d5cc746	0.05390098
14	0x3dc9f86c	0.09861836
15	0x3dfd1051	0.12356628
16	0x3e01cf47	0.12676726
17	0x3da66b6f	0.0812596
18	0x3db98555	0.09058634
19	0x3c2d0313	0.010559815
20	0x3dbef1c6	0.093234584
21	0x3df01d05	0.11724285
22	0x3d6e87a3	0.058234822
23	0x3d9f5230	0.07779348
24	0x3e1c3a47	0.15256606
25	0x3d6c371d	0.057669748
26	0x3ce0d46b	0.027445039
27	0x3dee5270	0.116368175
28	0x3e0274b2	0.12739828
29	0x3e0872b2	0.13325003
30	0x3e02c192	0.12769154
31	0x3e4c82b4	0.19971734
32	0x3d5bbb5a	0.05364547
33	0x3e04f058	0.12982309
34	0x3e08fad7	0.13376938
35	0x3ca9d1a7	0.020729853
36	0x3df2e2a9	0.11859638
37	0x3db11cd2	0.08648075
38	0x3de897c8	0.11357075
39	0x3d1e67ee	0.038673334
40	0x3e102925	0.14078195
41	0x3d7fccd3	0.062451195
42	0x3d65fb27	0.05614772
43	0x3e585e33	0.21129684
44	0x3d6a0431	0.057132903
45	0x3dfa2541	0.12214137
46	0x3da2243f	0.0791707
47	0x3d91764f	0.07102644
48	0x3d52953e	0.05141186
49	0x3cd5f54a	0.02611794
50	0x3be54fda	0.0069980444
51	0x3da063aa	0.078315094
52	0x3e422cf5	0.18962462
53	0x3e09975b	0.13436644
54	0x3e0b5222	0.1360555
55	0x3e223e25	0.15844019
56	0x3dd2fe2a	0.10302384
57	0x3cb8357a	0.022486437
58	0x3d436dea	0.047712244
59	0x3d9e22e3	0.07721498
60	0x3d4973a2	0.04918254
61	0x3dfe7bfa	0.124259904
62	0x3d4c967d	0.049948204
63	0x3d47f33b	0.048815947
64	0x3da652c9	0.08121259
65	0x3e26b794	0.16280967
66	0x3e4dd720	0.20101595
67	0x3e34e276	0.17664513
68	0x3e16e771	0.14736725
69	0x3dc86796	0.097853824
70	0x3d913291	0.07089723
71	0x3df7b6a1	0.120953806
72	0x3dd46f31	0.103727706
73	0x3d1968b1	0.037453357
74	0x3d587e55	0.052854855
75	0x3e1998a3	0.14999633
76	0x3d103868	0.035210043
77	0x3d94a5c3	0.07258179
78	0x3dd055cd	0.10172615
79	0x3e0a8dbb	0.13530628
80	0x3e010ff2	0.12603739
81	0x3d55936f	0.052142557
82	0x3d8ff164	0.070284635
83	0x3e0faa35	0.14029773
84	0x3dbc2211	0.09186185
85	0xbceb9ec3	-0.028762227
86	0x3e032fe4	0.12811238
87	0x3e01aa06	0.12662515
88	0x3db9aca7	0.09066134
89	0x3d17cae5	0.03705873
90	0x3ce46f05	0.02788497
91	0x3e138576	0.1440638
92	0x3d334895	0.04377039
93	0x3cac7a09	0.021054285
94	0x3d9d3a59	0.076771446
95	0xbd7c75c2	-0.06163574
96	0x3dd18f3d	0.10232399
97	0x3e1aceeb	0.15117995
98	0x3df6774c	0.12034473
99	0x3d8927b7	0.06697028
100	0x3d43018f	0.04760891
101	0x3c15892f	0.009126945
102	0x3e30d8c9	0.17270197
103	0x3d06a6e5	0.032874007
104	0x3d975b00	0.07390404
105	0x3e39fd6f	0.18163083
106	0x3d9db72b	0.07700952
107	0x3d4c2980	0.049844265
108	0x3e03bad9	0.12864245
109	0x3e3bdd30	0.18346095
110	0x3cde1d11	0.02711347
111	0x3d6494f9	0.055806134
112	0x3dda5ea1	0.1066258
113	0x3db05243	0.0860944
114	0x3dfd6d64	0.1237438
115	0x3da26c06	0.0793076
116	0x3d710ab2	0.05884809
117	0x3e1ccd46	0.1531268
118	0x3e016bbf	0.12638758
119	0x3e00aace	0.12565157
120	0x3dc5b165	0.09652976
121	0x3e248b6f	0.16068815
122	0x3d579570	0.05263275
123	0x3e14e81c	0.14541668
124	0x3e02f284	0.12787825
125	0x3e08afc4	0.133483
126	0x3e2b1a66	0.16709289
127	0x3e0703e0	0.13185072

model/building_output/BiasAdd/ReadVariableOp f4 [3]
0	0xbd1c4bf6	-0.03815838
1	0xbc32b0d4	-0.010906417
2	0x3d3d950f	0.04628473

model/dense/MatMul f4 [128, 556]
0	0x092728f5	2.0121152e-33
1	0x89338e2d	-2.1613192e-33
2	0x8911953a	-1.7523906e-33
3	0x092e6cf2	2.0995714e-33
4	0x3d65cfd5	0.056106407
5	0x3ce68934	0.028141595
6	0xbbaa8f04	-0.005205037
7	0xbd260ed0	-0.04054147
8	0x3c65cef8	0.014026396
9	0xba43c072	-0.0007467336
10	0x3d9f1bcc	0.07768974
11	0x3bf442d2	0.0074542547
12	0xbd3b4254	-0.045717552
13	0xbcaee5f7	-0.02134989
14	0xbce11301	-0.027474882
15	0xbb9436af	-0.0045231204
16	0x3b95f667	0.0045764926
17	0x3d2f126a	0.04274217
18	0xbb921e80	-0.0044592023
19	0x3d16260f	0.03665739
20	0xbcaa561d	-0.020793015
21	0x3c294630	0.010331675
22	0x3c9fe011	0.019516023
23	0x3d642b2d	0.055705238
24	0xbd4f36c2	-0.05058933
25	0xbd217ec8	-0.03942755
26	0xbc51cff6	-0.012805929
27	0x3c2f2abb	0.01069134
28	0x3b4f142d	0.003159772
29	0xbd044b93	-0.032298636
30	0xbb7293a3	-0.0037014268
31	0xbc79b2e2	-0.015240403
32	0x3d302edb	0.043013435
33	0x3c5b94c9	0.013402172
34	0x3c4e082b	0.01257519
35	0x095d87b2	2.6665711e-33
36	0xbb064c3c	-0.0020492217
37	0x3d279eb0	0.04092282
38	0x3cb81d6f	0.022474973
39	0x3d0e8b2f	0.034800705
40	0x3d65a534	0.056065753
41	0xbc3edb1a	-0.011648918
42	0x3d30db0e	0.043177657
43	0x3c7428cb	0.014902304
44	0x3ae02a9c	0.0017102542
45	0xbcf8b35c	-0.030358963
46	0x3d085f90	0.03329426
47	0x3c9101b3	0.017701006
48	0xbc885479	-0.016641842
49	0x3d3bc4eb	0.045842092
50	0xbcd5d183	-0.02610088
51	0xbc702042	-0.014656128
52	0x3bd248de	0.006417378
53	0x3d0a573f	0.03377461
54	0x3b029487	0.0019924955
55	0xbcd4af25	-0.025962422
56	0xbc0aca88	-0.008471139
57	0x3be1700d	0.0068798126
58	0x3d43d914	0.047814444
59	0xb96e9915	-0.00022754476
60	0x8985592a	-3.2102435e-33
61	0xbc1d403f	-0.009597837
62	0xbcd7d6a5	-0.026347468
63	0xbba662ba	-0.005077687
64	0x3ca0d2a9	0.0196317
65	0x8920f1ea	-1.9373047e-33
66	0x8934b688	-2.1752538e-33
67	0x09723d36	2.9158472e-33
68	0x88ff7c58	-1.5376487e-33
69	0xbc726812	-0.01479532
70	0xbbb56db3	-0.005536759
71	0xbcb7fab5	-0.022458414
72	0x3d05f44a	0.032703675
73	0xba45a5b4	-0.00075396453
74	0x3c263ce9	0.010146358
75	0xbc82a9c6	-0.015950095
76	0x3d86131f	0.06546616
77	0x3ce46227	0.027878834
78	0x3d09c2df	0.03363311
79	0xbc648a04	-0.013948921
80	0x3c3c4ec9	0.011493393
81	0x3be44ef6	0.0069674207
82	0xbca18103	-0.019714838
83	0xbbf29bad	-0.007403812
84	0x3c7a9a2c	0.0152955465
85	0x3c9f8dd7	0.019476814
86	0xbcc5a5ac	-0.02412685
87	0xbc11150e	-0.0088551175
88	0x3c8ffe12	0.017577205
89	0xbce3fb12	-0.02782968
90	0xbc6a0580	-0.014283538
91	0x3d174784	0.036933437
92	0x3c80a1b1	0.0157021
93	0xbcc85ffd	-0.024459833
94	0xbc44abfa	-0.012003893
95	0xbbb4d657	-0.0055187154
96	0xbc240cbe	-0.010012804
97	0x3d0b0bb1	0.033946697
98	0xbb02583e	-0.0019889022
99	0xbcc71a68	-0.024304584
100	0x3cd9d9aa	0.026593048
101	0x3ceb1a8f	0.028699188
102	0x3cde09c5	0.027104268
103	0xbc14ae9b	-0.009074832
104	0x3b5de456	0.0033858023
105	0xbb14442f	-0.0022623648
106	0x3c820f8b	0.015876552
107	0x3c885266	0.016640853
108	0xbcc555e5	-0.02408881
109	0xbd511bdb	-0.051051956
110	0xbb5899c2	-0.0033050631
111	0x3c197190	0.009365454
112	0x3cf87264	0.030327983
113	0x3ae5ea9c	0.0017541233
114	0x3cf3dae9	0.02976747
115	0x3d2ed20d	0.04268079
116	0x3988324d	0.00025977418
117	0xbb574d98	-0.0032852646
118	0xbcb756d1	-0.022380264
119	0x3be28d33	0.006913805
120	0x3c58564f	0.013204171
121	0x3d6f7acc	0.058466718
122	0xbca541b1	-0.020172926
123	0xbc256f47	-0.010097331
124	0xbd292524	-0.041295186
125	0xbc889b6c	-0.016675673
126	0x3ba1a98b	0.004933541
127	0x88cdbfc9	-1.2383077e-33
128	0xb9b94647	-0.0003533831
129	0x092dcb46	2.0919696e-33
130	0x3bd36cfc	0.006452201
131	0x3cc2285b	0.023700884
132	0x3c4b85bb	0.012422021
133	0x88768cd0	-7.4193457e-34
134	0x88e45fba	-1.3744756e-33
135	0x07c5e0b8	2.9773343e-34
136	0x88688f40	-6.998335e-34
137	0xbd05ee11	-0.03269774
138	0xbadcea80	-0.0016854554
139	0xbbe5eaa9	-0.007016499
140	0x3c155a0c	0.009115707
141	0x3c6d3782	0.014478566
142	0xbc89cc36	-0.016821008
143	0x3cc3d9b3	0.023907518
144	0x3be32241	0.0069315736
145	0x3c94e3af	0.018174974
146	0x3c372c3c	0.01117998
147	0xbcc71fad	-0.024307096
148	0xbc22ee5c	-0.009944525
149	0xbb7b06f2	-0.00383037
150	0x3d1789e8	0.036996752
151	0x3b9bac71	0.004750781
152	0x3cf003a9	0.02929862
153	0x3bc07e0d	0.0058744014
154	0x3d390c01	0.045177463
155	0x3d38eb8c	0.04514651
156	0x3cb889bb	0.022526613
157	0xbd6fd214	-0.058549955
158	0xbca7eca3	-0.02049858
159	0xbcfa982c	-0.03059014
160	0x3cb73bdb	0.022367408
161	0xbc8e69d3	-0.017384445
162	0xbd1f3951	-0.03887302
163	0xbb422e12	-0.002962951
164	0xbc899f36	-0.01679955
165	0x3bd905d4	0.006623009
166	0x3cae471f	0.021274148
167	0x3c666a05	0.014063363
168	0x890b8d08	-1.6797829e-33
169	0xbb6c81dc	-0.0036088144
170	0x3ce7ac3b	0.028280368
171	0x3c20dbe4	0.009818051
172	0x3d09f91c	0.033684835
173	0x3cd75e7d	0.026290173
174	0xbb9975f3	-0.00468325
175	0x3cbf13f6	0.023324948
176	0x3c1b21d4	0.0094685145
177	0x3b7b2116	0.0038319281
178	0xbcf37e18	-0.029723212
179	0x3d06878b	0.032844108
180	0x3c91028c	0.01770141
181	0xbcc0f447	-0.02355398
182	0xbbf5a0f3	-0.0074959933
183	0xbd2a567a	-0.041586377
184	0xbcdc0dd0	-0.026862055
185	0x3bf51c18	0.0074801557
186	0x3d2d8ae9	0.042368803
187	0x3bbba8a3	0.00572689
188	0xbc46cc17	-0.01213362
189	0x3b80e2e0	0.0039332956
190	0x3c5326f5	0.012887706
191	0x3d1c3a91	0.03814179
192	0x3c242dd4	0.010020692
193	0x3cf73129	0.030174809
194	0xbdaf9dee	-0.085750446
195	0xbc24b1fe	-0.010052202
196	0xbc36344b	-0.011120866
197	0xbc69e004	-0.014274601
198	0xbd4be545	-0.049779195
199	0xbd3843e7	-0.04498663
200	0x3d085dbd	0.03329252
201	0xbd013a56	-0.031549774
202	0xbc41f3ce	-0.011837913
203	0x3d30d35e	0.043170325
204	0x3d04e7b1	0.03244752
205	0xbcc3a6e3	-0.023883289
206	0xbca7b6fc	-0.020472996
207	0x3d2986ca	0.04138831
208	0xbd73be64	-0.059507743
209	0x3d5778fd	0.052605618
210	0x892a3ed6	-2.0492551e-33
211	0x3d1b575b	0.037925106
212	0xbcbf3f12	-0.023345504
213	0xbb8cbaf4	-0.0042947475
214	0xbc4f8117	-0.012665055
215	0x3c7f8806	0.015596395
216	0x872bf6b4	-1.293711e-34
217	0x8988c270	-3.2923657e-33
218	0xbbeaad25	-0.0071617537
219	0xbcc88de5	-0.024481723
220	0xbbd9758f	-0.0066363285
221	0x3c54d751	0.012990789
222	0xba98b30c	-0.001165004
223	0x3a103887	0.00055015873
224	0x3b26668d	0.0025390715
225	0xbcd61f7d	-0.026138062
226	0x3ce42fb5	0.02785478
227	0x3cae796f	0.021298138
228	0xbc42f03a	-0.011898095
229	0xbb1fb064	-0.0024366612
230	0x3c82682d	0.015918816
231	0x3cd55954	0.026043572
232	0xbc015a8a	-0.007895121
233	0x3d43ec77	0.047832932
234	0x3d00bfb9	0.03143284
235	0x3ca0fc5d	0.019651586
236	0x3c8b20b0	0.01698336
237	0x3adcdf2a	0.0016851176
238	0xbbe22d61	-0.0069023822
239	0xbaf0ca01	-0.0018370749
240	0x3cdeecdd	0.027212555
241	0xbd2a8b74	-0.0416369
242	0xbd032e29	-0.032026444
243	0xbd0b4a9e	-0.034006707
244	0xbbcb76d7	-0.006209235
245	0x3d2e6ad8	0.042582363
246	0x3c2ea316	0.010659
247	0x3cfae540	0.030626893
248	0x3d027f15	0.031859476
249	0xbd6bed96	-0.057599626
250	0x3a1ce828	0.0005985522
251	0x3c1ef00c	0.009700786
252	0x3d2366b0	0.039892852
253	0x3bff0439	0.007782486
254	0x3d1f2208	0.038850814
255	0x3cbc857c	0.023012869

model/building_output/MatMul f4 [3, 64]
0	0x3e81d07b	0.2535437
1	0x3e798e48	0.24370682
2	0xbda3bed3	-0.07995381
3	0xbe401470	-0.18757796
4	0xbe931ffd	-0.28735343
5	0xbe56fc71	-0.20994736
6	0x3e98c35b	0.29836544
7	0xbda4996b	-0.08037075
8	0xbd759764	-0.05995883
9	0xbc91bd45	-0.017790446
10	0x3df1651f	0.117868654
11	0x3d321aeb	0.043482702
12	0xba480586	-0.00076302176
13	0xbe481fec	-0.19543427
14	0xbe60a563	-0.2193809
15	0x3e402442	0.18763831
16	0xbd644c00	-0.05573654
17	0xbe2b230f	-0.16712593
18	0xbe8e0a45	-0.2774221
19	0xbc7a7f58	-0.01528915
20	0xbd0e8def	-0.034803327
21	0xbe91f69a	-0.28508455
22	0xbe57a543	-0.21059136
23	0x3e64bda3	0.22337966
24	0x3ea9c57a	0.33158475
25	0x3e2b60b3	0.16736107
26	0x3e0da1a4	0.13831192
27	0x3e2e29d8	0.1700815
28	0x3dd2e0f5	0.102968134
29	0xbdaf9bf5	-0.08574668
30	0x3e2536fb	0.16134255
31	0xbe671c70	-0.22569442
32	0x3d88fee9	0.06689245
33	0x3e17ec50	0.1483624
34	0xbe59a1e3	-0.21253161
35	0xbe60f9c6	-0.21970281
36	0x3e6488b3	0.22317772
37	0xbcb241ee	-0.021759953
38	0xbe733252	-0.23749664
39	0xbe8122dd	-0.2522191
40	0x3d9b1f99	0.07574386
41	0x3e2564ec	0.1615178
42	0x3e65f3ed	0.22456332
43	0xbd2bba2c	-0.041925594
44	0xbe1ad49f	-0.15120171
45	0x3e6e55f1	0.23274972
46	0xbdf17836	-0.117905065
47	0xbe18b305	-0.1491204
48	0xbdd31c61	-0.10308147
49	0x3e076bf0	0.13224769
50	0x3e11b049	0.14227404
51	0xbe507788	-0.20358098
52	0xbe56a96a	-0.20963064
53	0xbdf186e5	-0.11793307
54	0x3e887399	0.26650694
55	0x3e55e8b9	0.20889558
56	0x3e24f8f7	0.16110598
57	0x3e851586	0.25992984
58	0xbdfb8c52	-0.12282623
59	0xbe4db1d1	-0.20087363
60	0x3d604e1c	0.05476199
61	0x3d857d83	0.0651808
62	0xbdd32678	-0.10310072
63	0x3e18a1cd	0.14905472
64	0xbe02ef9b	-0.12786715
65	0xbe604026	-0.2189947
66	0x3dc58762	0.09644963
67	0x3dae12d3	0.08499684
68	0xbce6aa61	-0.028157415
69	0xbd54b13d	-0.05192684
70	0x3e4a5229	0.19757904
71	0x3e3fdebc	0.1873731
72	0xbd37a4e0	-0.04483497
73	0x3d9be554	0.076121
74	0x3d75d6d6	0.060019337
75	0x3e9516eb	0.29119048
76	0xbd887131	-0.066622145
77	0xbcdf0de8	-0.02722831
78	0xbe64fa36	-0.22361073
79	0xbddee311	-0.10883153
80	0xbd7abf8e	-0.061217837
81	0x3e16b9e6	0.14719352
82	0xbe7edd3e	-0.24889085
83	0x3c994567	0.018709851
84	0xbe58476f	-0.21121
85	0x3e1aafb0	0.15106082
86	0xbdebd509	-0.115152426
87	0x3e9bec72	0.3045383
88	0xbe95a064	-0.2922393
89	0xbd8be8ad	-0.06831489
90	0xbe376959	-0.1791128
91	0xbddff4d8	-0.10935372
92	0xbe739905	-0.23788841
93	0xbd9f019f	-0.07763981
94	0xbd9bcb1e	-0.07607101
95	0x3e63b4f2	0.22236994
96	0x3dbe0bdd	0.092796065
97	0x3dfda41a	0.123848155
98	0x3dcec0cf	0.10095369
99	0x3e13db6d	0.14439173
100	0xbe31c720	-0.17361116
101	0x3e61fa4d	0.22068138
102	0xbea04d0c	-0.31308782
103	0x3dd2b01f	0.10287499
104	0xbe6561d7	-0.22400604
105	0xbd6573ee	-0.056018762
106	0x3d017db0	0.031614006
107	0x3e278166	0.16357955
108	0xbe2bb9ae	-0.1677005
109	0x3a5d4773	0.0008441128
110	0xbdff12ad	-0.12454734
111	0x3e5a91e1	0.21344711
112	0xbea6769d	-0.3251237
113	0xbe14a716	-0.14516863
114	0xbe7f53bd	-0.24934287
115	0xbeb11505	-0.3458635
116	0xbdd940a7	-0.106080346
117	0x3e10145a	0.14070264
118	0xbcc38f33	-0.023871994
119	0xbe0fb764	-0.14034802
120	0xbcd50799	-0.0260046
121	0xbe531065	-0.20611723
122	0xbdcd7905	-0.10032848
123	0xbd69a1e7	-0.057039168
124	0x3e29f764	0.16598278
125	0x3da47412	0.08029951
126	0x3e5048b7	0.20340239
127	0xbe05a5eb	-0.13051574
128	0x3e37f5e5	0.17964895
129	0xbdd52992	-0.104083195
130	0xbe8e1d2e	-0.27756637
131	0x3c512fb6	0.012767723
132	0xbe89cc60	-0.26913738
133	0xbd800071	-0.06250084
134	0xbe2e68a1	-0.170321
135	0x3e40ffce	0.18847582
136	0xbe4ae79d	-0.19814916
137	0xbe244bc4	-0.16044527
138	0xbebb0417	-0.36526558
139	0xbe966b76	-0.2937886
140	0xbe258bc3	-0.16166596
141	0x3d414572	0.04718537
142	0xbd99a8eb	-0.07502922
143	0xbdb6998f	-0.08916008
144	0x3e38de54	0.18053561
145	0xbe575094	-0.21026832
146	0xbdd9b1dd	-0.10629628
147	0x3e935844	0.2877828
148	0x3e275783	0.16341977
149	0x3e2e46cb	0.17019193
150	0xbe96f25c	-0.2948178
151	0x3de2625c	0.11053917
152	0x3e85361a	0.2601784
153	0x3e68b9db	0.22727148
154	0x3d5ac24e	0.05340796
155	0xbeb68d35	-0.35654607
156	0x3e6db71b	0.2321438
157	0x3e923552	0.28556305
158	0x3e47c6ad	0.19509383
159	0x3e7da7fa	0.24771109
160	0x3e9849e4	0.29743874
161	0xbe55b9d1	-0.20871665
162	0xbe8936aa	-0.26799518
163	0x3e9b7914	0.30365813
164	0xbe1b7119	-0.15179862
165	0xbddd5af6	-0.10808365
166	0x3d0d3416	0.0344735
167	0xbe3f4b0e	-0.18680975
168	0xbe563f21	-0.2092252
169	0xbe4a1153	-0.19733171
170	0xbe173058	-0.14764535
171	0x3e7c40b5	0.24634059
172	0x3e4274e9	0.1898991
173	0xbe4f7e5c	-0.20263046
174	0xbecbe478	-0.39822745
175	0xbe0d71fd	-0.13813014
176	0xbe45cc1f	-0.19316147
177	0x3d89f61d	0.067363955
178	0x3dd362da	0.10321589
179	0xbdb3fd25	-0.08788518
180	0x3e8b50c1	0.27210048
181	0xbe06d038	-0.13165367
182	0xbe9ed444	-0.3102132
183	0x3d183fbe	0.037170164
184	0xbe610c9e	-0.2197747
185	0x3df69648	0.120403826
186	0x3dca5a71	0.098805316
187	0x3e4954cc	0.19661254
188	0x3e698611	0.22805049
189	0xbe82e6bd	-0.25566664
190	0xbe2878f6	-0.16452393
191	0xbe3df9ec	-0.18552369
