251008/models/mlp.tflite (tflite, 375856 bytes, 16 tensors)

model/dense_1/MatMul;model/dense_1/Relu;model/dense_1/BiasAdd f4 [64]
000000 dc 95 35 bf ba 1d 10 be 2f 77 37 3f 49 56 84 3e
       -0.7093179 -0.1407384 0.71666235 0.2584708
000010 2a 56 72 bf a6 4f 6c 3f c4 3c ed 3e 44 80 fb 3c
       -0.94662726 0.92309034 0.46335423 0.03070081
000020 16 dd 39 3f 0c e0 88 3e 12 9d 83 3f 05 fd 47 3f
       0.72602975 0.26733434 1.0282309 0.7812045
000030 19 fa fc 3e b9 41 25 3f 1d 1d 05 bd 3d ac e8 3e
       0.4940956 0.6455341 -0.032498468 0.45443907
000040 f8 6f ff 3e 2b 32 d7 3e 28 c9 87 3d f4 1e 51 3f
       0.49890113 0.42030463 0.066301644 0.81687856
000050 eb 65 81 3f 59 c2 6f 3f 97 6b 08 3f 1b 35 40 3f
       1.0109228 0.93655926 0.5328917 0.7508103
000060 1f 52 75 3f 91 83 fa 3e 28 20 08 bf 99 fb 45 bd
       0.9582843 0.48928502 -0.53174067 -0.048335645
000070 84 cf ae 3f 04 b7 4e 3f fd cb 5d 3f 2a 56 9a bd
       1.3657079 0.8074801 0.86639386 -0.07535966
000080 6f 50 b0 3e bc 8b 42 3f db 55 fd 3e dd 10 16 3e
       0.34436366 0.7599447 0.49479565 0.1465487
000090 fc 3d 36 3d 55 a1 9e bd bd e9 ab 3f 64 07 a1 3f
       0.044492707 -0.077456154 1.3430706 1.258038
0000a0 e8 0d 0c 3f 88 51 93 3f 8c 19 99 3f 6f 56 a3 3e
       0.5470872 1.1509256 1.1960921 0.3190188
0000b0 15 66 c2 3f 10 84 69 be 34 f2 4a 3f 83 07 72 3f
       1.5187403 -0.22804284 0.7927582 0.9454271
0000c0 f0 6a 11 bf e7 36 4c 3f 69 63 7f 3e d8 b2 83 3f
       -0.568038 0.79771274 0.24940266 1.0288954
0000d0 60 82 8b 3f 42 09 6a 3f dd 66 a5 be 33 db d1 3e
       1.0899162 0.91420376 -0.3230504 0.40987548
0000e0 38 69 89 3f bb 9f 0b 3f 3d d0 90 3f 5c fc 41 3f
       1.0735235 0.54540604 1.1313549 0.75775695
0000f0 92 fd 2c 3f 42 dc 6d bf c3 58 64 3f 1a e9 13 3f
       0.6757442 -0.9291421 0.8919794 0.5777756

model/batch_normalization/batchnorm/mul_1;model/batch_normalization/batchnorm/add_1;model/dense_1/MatMul;model/dense_1/Relu;model/dense_1/BiasAdd f4 [64, 128]
000000 cc 4d 81 3e 6d 0a 03 3d b9 03 26 bd 6e de a8 3d
       0.25254667 0.031992365 -0.040530894 0.0824555
000010 4f 7f c0 bc ac 09 19 3e 62 a7 6f 3c 9b 26 f3 3d
       -0.023498205 0.14945096 0.0146273095 0.11872598
000020 13 4b 63 3e e5 28 f6 3d a2 4a 38 3d 91 16 98 be
       0.22196607 0.12019519 0.04499305 -0.29704717
000030 d1 4f 21 be 67 3d 81 3e 94 3d 7a 3d 53 9e a0 bd
       -0.15753104 0.2524216 0.06109388 -0.07842698
000040 4b 32 f2 bd 5b aa f5 3d d6 b1 35 bd 3e 77 69 bd
       -0.11825999 0.11995383 -0.04435905 -0.056998484
000050 0f 07 ee bd d7 b6 47 bd 67 3c 47 3e c7 be 1c 3e
       -0.1162244 -0.048758354 0.19456635 0.15307151
000060 bf d2 57 bd 9b 0f 2d be 0f 80 92 bd 33 48 22 3e
       -0.052691218 -0.16900484 -0.071533315 0.15847854
000070 88 17 9e 3d 19 df 7e 3d c3 77 29 3e 59 f7 2e bd
       0.07719332 0.06222448 0.16549592 -0.042716358
000080 a6 f1 3c 3e bc c8 19 be fe b7 7f bc 93 da f0 3b
       0.18451557 -0.1501798 -0.015607832 0.007350275
000090 2d 66 92 be 66 42 1c be 9a c5 7b 3c 69 69 4b be
       -0.2859358 -0.15259704 0.015366936 -0.1986443
0000a0 ff 85 a2 bd e0 95 74 3e 96 ae ab bc c1 32 aa 3d
       -0.07935714 0.23885298 -0.020957272 0.08310462
0000b0 a0 64 52 3e cf de 84 3d f0 ed 36 be 7a 60 50 3b
       0.20546198 0.0648781 -0.17864203 0.0031795786
0000c0 5a 73 3d bd 5f 16 b1 3c d8 9c 87 be 79 b1 68 3e
       -0.046252586 0.021617113 -0.2648685 0.2272395
0000d0 eb 8a c2 bd 2a 95 08 3e bd b7 80 3e 1d 14 6c 3d
       -0.09499153 0.13338152 0.2514018 0.05763637
0000e0 d5 2d e4 3d 85 0e 21 bc 0f 87 83 bd e0 7c 1d bd
       0.11141554 -0.009830122 -0.06422245 -0.03844917
0000f0 d2 c5 46 bc b5 87 85 3d 2d 2c 0d 3e cb 00 45 3d
       -0.012132125 0.06520025 0.13786383 0.04809646
000100 22 f7 1a 3e 71 dd 5c 3e c7 54 da 3d 9e 66 5d bd
       0.15133336 0.21568848 0.10660701 -0.05405294
000110 d4 b3 b9 3e e9 ff 9d bd 04 b5 29 bd 09 6f 8e bd
       0.3627001 -0.077148266 -0.041432396 -0.06954772
000120 bb 03 d4 3d a6 72 9a 3d 1d b1 38 3b 70 87 ab bd
       0.10352274 0.07541399 0.002818174 -0.08375442
000130 86 47 20 be 70 60 fa bd 8f 59 f7 bd 1a f1 ca 3d
       -0.15652284 -0.12225425 -0.12077629 0.09909268
000140 a2 ff 28 3e a8 db b5 3c 45 8b 9b bc 20 f9 30 3d
       0.16503766 0.022199467 -0.018987307 0.043206334
000150 c4 9a 08 be 64 bc 32 3c 3b 0c 2d 3e 36 8c 20 3e
       -0.13340288 0.010909174 0.16899197 0.15678486
000160 f3 2f cd 3d 8b 05 9f bd 16 f1 9e 3d da 9d 2c be
       0.10018911 -0.07764729 0.07760827 -0.1685709
000170 9e 75 ee 3c e5 6e 5e bc a2 00 a7 bd 58 f3 e9 3d
       0.029108819 -0.013576244 -0.081544176 0.11423367
000180 1a 53 9a bd 3a 11 92 3c 62 5c 15 be 7a bf 46 3d
       -0.075353816 0.01783048 -0.14586022 0.04852245
000190 92 a1 36 3e 9b 44 d0 3d 51 d8 7e bd 8d 6b 5c be
       0.17835072 0.101693355 -0.062218014 -0.21525402
0001a0 d0 27 12 3d 9b cf 90 3d 4c e0 45 bc 9f 93 57 3e
       0.0356825 0.070708476 -0.012077402 0.21052407
0001b0 8d 59 4d 3d 1c e1 09 3e ce 3a 32 bd 23 27 d3 bd
       0.05013423 0.13464779 -0.04351311 -0.10310199
0001c0 3e 2f ac bd da 6f fd bd 3f 1c 87 bc bd c2 9d 3d
       -0.08407448 -0.123748496 -0.016492961 0.07703159
0001d0 8c 50 5d be 00 90 1b 3e 92 6a c8 3d b9 7e 54 bc
       -0.21612757 0.1519165 0.09785952 -0.012969666
0001e0 b9 e3 21 3e 3a fa 14 be 02 fb 51 be 80 87 ef 3d
       0.15809526 -0.14548579 -0.20505908 0.116957664
0001f0 d2 47 ab 3d 0e 6b e9 3d 1a dd d1 bc b8 79 c2 3c
       0.08363308 0.11397372 -0.025618125 0.02373968
000200 4f 33 06 3e 9f 61 8c 3d 65 ad 6d 3d b9 7a f7 bc
       0.1310551 0.06854557 0.05802669 -0.030209886
000210 25 3c 24 bd 60 ff 09 bc c0 87 2f be 2c d9 27 3e
       -0.04009642 -0.008422703 -0.17141628 0.16391438
000220 93 a9 8d bd 68 1c a5 3d 39 9c fa 3d ec 34 da bd
       -0.06917109 0.08062059 0.12236828 -0.10654625
000230 c5 81 55 3e 98 92 ca 3d 67 12 21 3d 65 48 9d be
       0.20850284 0.09891242 0.03932419 -0.30719295
000240 8c b4 8e be 0b c1 9c bd 9b 16 45 be bc 47 fb bd
       -0.2787212 -0.076540075 -0.19246905 -0.122695416
000250 e4 32 59 3c 3e fc 22 3e ce 95 02 be ca e3 51 bd
       0.013256762 0.15916535 -0.12752458 -0.051242627
000260 ed 36 ed bc f8 5c 2d bd b6 34 70 3c 63 64 b8 3e
       -0.028956855 -0.04232499 0.014661005 0.3601409
000270 3d 78 e4 bd e0 fe e3 bd 05 2f 8c 3c 61 ed 5f 3e
       -0.11155746 -0.11132598 0.017112264 0.21867897
000280 aa c0 c6 3c 7a d6 ac be 0c f1 df bd 30 fe 74 be
       0.024261791 -0.33757383 -0.10934648 -0.2392509
000290 4b 79 da 3c 7c 70 15 bd e7 93 1d 3e ac 94 a6 3e
       0.026669165 -0.036484227 0.15388452 0.32535303
0002a0 8d 34 31 3e 80 f0 19 bd 0f 5c fd bc b7 d3 88 bd
       0.17305203 -0.037582874 -0.030927686 -0.066810064
0002b0 36 aa be 3d 15 0a 49 3e 61 da d5 bd b8 b9 0d 3e
       0.09309809 0.19632752 -0.10442043 0.13840377
0002c0 82 9e 50 3e 5a 57 40 bd 5e 15 77 bd 8f e4 f4 3d
       0.20372966 -0.046958305 -0.06032311 0.119576566
0002d0 29 0c 08 be 88 59 78 bd ef 5b d8 bd 9c 2f 27 be
       -0.13285889 -0.06063226 -0.1056441 -0.16326755
0002e0 84 79 cc bc 4f fe 46 3d 1f fd c4 3d dc e2 b7 bd
       -0.024960287 0.04858237 0.096185915 -0.08978817
0002f0 1f 86 98 bd 4b 03 46 bd 40 71 94 bd 02 83 a7 3d
       -0.074474566 -0.048342984 -0.07248163 0.08179285
000300 81 39 02 3e 45 ad 13 3e 15 d8 da bd 2e 8a 44 3e
       0.12717248 0.14421566 -0.106857456 0.19193336
000310 be 24 b7 be 06 f0 6a bd ed 73 db bd 22 90 73 3d
       -0.3577022 -0.05735781 -0.107154705 0.059463628
000320 c6 9d 08 be 61 ed ef 3c bf b0 ce 3d ae 2c 4d bd
       -0.13341436 0.029287996 0.100923054 -0.050091438
000330 f6 bb 38 3e fc 7a fa bb 7d 27 c3 bd 13 6b eb 3d
       0.18040451 -0.0076440554 -0.09529016 0.11495032
000340 48 41 25 3d 3b da db 3d 46 a8 c7 bc 0e 9a 2a bd
       0.04034546 0.107349835 -0.024372231 -0.041650824
000350 38 50 10 3c aa 97 12 bd 12 8f 95 3d a1 37 c4 3d
       0.008808188 -0.03578917 0.07302679 0.09580923
000360 bc cb 25 3e 88 aa 05 3e 41 1e d4 3c 5c b5 a7 bd
       0.16191 0.13053334 0.025893332 -0.081888884
000370 b6 e2 cc 3d 8a 0b 7f 3d c3 f2 10 be 8d 42 cc 3d
       0.10004179 0.062266864 -0.14155106 0.09973631
000380 f3 e4 a1 bb ae b3 37 3d 90 8b 58 be 37 9a aa 3b
       -0.004940623 0.04484909 -0.21146989 0.005206372
000390 f6 59 4f bb 49 a2 25 bd f9 37 b3 bd 82 5d 8c bd
       -0.0031639314 -0.04043797 -0.0875091 -0.06853773
0003a0 c6 30 09 3d 53 93 1f be b7 0a 50 3d 93 90 35 3e
       0.03349378 -0.15583543 0.05079147 0.17730932
0003b0 de c9 8e bd 66 b5 9a bd da f9 b5 bd 89 80 0a 3e
       -0.06972097 -0.0755413 -0.08885546 0.13525595
0003c0 3f e6 b8 bd 83 b7 1c be ca c5 11 3d cf bc 84 be
       -0.09028291 -0.15304379 0.035589017 -0.259253
0003d0 cd 04 ae 3d 75 7c 55 3e e3 06 2a 3d d5 2c 21 be
       0.084970094 0.20848258 0.041510474 -0.15739758
0003e0 75 59 7a 3d 1b 8d ed bb 6d f6 be bd 62 56 b1 3d
       0.06112047 -0.007249487 -0.09324346 0.08659054
0003f0 0b 75 f4 3c 1e 9f bc bd 84 f3 38 3e 62 ca 14 3d
       0.029840967 -0.09210037 0.18061644 0.03632582

model/dense_2/MatMul;model/dense_2/Relu;model/dense_2/BiasAdd f4 [64]
000000 a4 2a 4c be ae 96 9b bf 71 73 2a 3f f9 57 80 3f
       -0.19938141 -1.2155359 0.665824 1.0026847
000010 c2 22 12 3f 59 87 90 be 0a ca c4 be f5 93 90 3e
       0.57084286 -0.28228262 -0.38435394 0.28237882
000020 24 8e 9e bf 1d bd 8a 3f dd 4d 76 3e 6e b0 4e 3f
       -1.2387128 1.0838963 0.2405314 0.8073796
000030 fb 3a db be 93 ff 38 3f cd 25 04 bf 28 bf 7c 3e
       -0.42818436 0.72264975 -0.5162018 0.24682295
000040 0b 1f bf be 6a a3 2c 3f 64 93 53 be d7 44 59 bf
       -0.3732837 0.6743685 -0.20661694 -0.84870666
000050 97 c4 1d be 24 35 11 bf d9 74 b6 bd 5b 9d 36 bf
       -0.15407024 -0.5672171 -0.08909006 -0.71333855
000060 f5 b5 0c be 29 53 81 3f 58 f6 cd 3c 52 72 2c bf
       -0.13741286 1.0103503 0.02514188 -0.6736194
000070 db 93 66 bf 8b 00 34 3f 0a d5 6d 3b 1e 6d 74 3f
       -0.9006936 0.7031333 0.0036290311 0.95479
000080 07 c3 46 3e e6 89 f5 be 68 18 54 3e 1f aa 21 3f
       0.19410335 -0.4795677 0.20712435 0.6315021
000090 49 8d 5f 3f 31 7b 0b 3f a3 f7 8c 3f c2 c3 9a 3e
       0.8732496 0.5448485 1.1013073 0.30227476
0000a0 a4 22 03 3f 8f f5 73 3f 04 fd ba be 07 a9 86 bf
       0.5122473 0.9529657 -0.3652116 -1.0520333
0000b0 07 95 67 be de a9 b1 3c 5c 0e 82 bf bb b1 03 40
       -0.22615443 0.021687444 -1.0160632 2.0577228
0000c0 ce 73 31 3e 9e 39 14 bf f0 6f 8f be b6 38 b7 3e
       0.17329332 -0.57900417 -0.2801509 0.35785455
0000d0 32 74 e2 3d 65 59 aa 3f eb 68 06 bf eb be 08 3f
       0.11057319 1.3308531 -0.5250384 0.5341632
0000e0 e4 98 9e 39 56 aa 64 3f 71 c3 63 3d 29 1e ea 3e
       0.0003025002 0.8932241 0.05560631 0.45726135
0000f0 cd 63 62 be ac 74 6e be bb 22 41 be c8 55 9a 3e
       -0.22108383 -0.23286694 -0.18860905 0.3014357

model/batch_normalization_1/batchnorm/mul_1;model/batch_normalization_1/batchnorm/add_1;model/dense_2/MatMul;model/dense_2/Relu;model/dense_2/BiasAdd f4 [64, 64]
000000 b1 6a 34 3e 18 ab af 3d 70 a0 69 be 1f d6 0e 3e
       0.17618825 0.085775554 -0.22815108 0.13948868
000010 ea 42 d2 bd ca 53 74 bd a8 c0 14 be 86 3a 82 3c
       -0.10266669 -0.05965022 -0.14526618 0.015897047
000020 87 6f e0 bd 36 d1 18 3e 50 bb 6a be dc 45 2f 3e
       -0.10958772 0.14923558 -0.22923017 0.17116493
000030 cf 97 8f 3d c2 00 a7 3d 89 8b d1 bc 66 ec 16 3e
       0.07011377 0.081544414 -0.02557923 0.14738616
000040 6c d4 2f 3e 7b cd 24 be 4a fb 92 bb 9b 46 11 bd
       0.17170876 -0.1609401 -0.0044855224 -0.035467725
000050 67 8c 18 be 8a 7b f1 bd 16 e7 03 3e 49 3a d2 3d
       -0.14897309 -0.11791141 0.12881121 0.10265023
000060 70 d7 ad 3d 51 83 24 3c fb aa 03 be 0a 19 d7 bd
       0.08488357 0.010041074 -0.12858193 -0.10502823
000070 1f c9 00 3e 88 7c 0c be a2 87 82 3d 78 5f 1f 3e
       0.12576722 -0.1371938 0.06373526 0.15563762
000080 21 8d b1 bd e4 8f e2 bd 87 b7 0e bc f0 74 8c 3d
       -0.08669496 -0.11062601 -0.0087107485 0.068582416
000090 0e 56 51 3e 38 45 70 bd 18 7a 01 be 45 27 5c be
       0.20442984 -0.058659762 -0.12644231 -0.21499355
0000a0 b8 0f d5 3d 8f e1 a4 3c 31 eb 13 3e 6e df 53 be
       0.10403389 0.020127086 0.14445187 -0.206907
0000b0 61 64 8d 3e da f3 11 be a1 58 ef 3c 46 2a 7d 3e
       0.27615646 -0.14253178 0.029217066 0.24723157
0000c0 05 c7 e9 3c 86 03 af 3d 52 05 3a 3b 4c b9 25 3e
       0.028537283 0.08545594 0.0028384519 0.16183966
0000d0 cf 6e 4c bc b1 33 b4 bd 21 15 d2 bd 01 ee 0c be
       -0.012477591 -0.08798922 -0.10257936 -0.13762666
0000e0 c2 fa 1b be 91 b2 99 bd 33 fb d8 bd f0 cc 2d 3e
       -0.15232375 -0.07504762 -0.105947874 0.16972709
0000f0 4a d1 3b 3d b9 6a 6c bc 62 2c 90 bd ab 0c 9b 3c
       0.04585389 -0.014429742 -0.07039715 0.018926939
000100 92 30 54 3d d8 34 49 bd 7d 6b d1 bd 8a 13 26 be
       0.051804133 -0.04912266 -0.1022558 -0.16218391
000110 0a cf 06 3e 8f cd ed 3d 12 3a 02 3e 78 d0 89 3d
       0.13164917 0.11611473 0.12717465 0.067292154
000120 16 6d 3a 3e 46 10 a7 bd 5b de 88 3d b0 78 84 3e
       0.18205675 -0.08157401 0.06683036 0.25873327
000130 dc cd fa 3d e6 69 f1 bc 0f 76 79 be 20 c5 70 be
       0.12246296 -0.029469442 -0.24361442 -0.23512697
000140 39 6f 13 3e 35 b1 fe bd 20 3a 24 3e a7 a9 ce bd
       0.14397897 -0.12436143 0.16037798 -0.10090952
000150 e2 ca 0f 3e 17 ea 6f be 2e 92 ed bc c8 85 53 3e
       0.14042237 -0.23429142 -0.029000368 0.20656502
000160 ee e4 4b 3d bf 9d 3c 3d d0 0b 8c bd 02 55 83 bd
       0.04977887 0.046048876 -0.068381906 -0.06412698
000170 f5 90 0b 3e a6 ea 8f 3d 6f e2 95 3c 5f 50 0f be
       0.13629515 0.070271775 0.018296449 -0.13995503
000180 89 1b ec bd 04 63 e7 3b 7d 09 a8 bd 0b 7d 15 3e
       -0.115286894 0.007061364 -0.08204935 0.14598481
000190 84 9e 37 3e 04 28 8b 3d fa ef d3 3d b2 c2 c8 bd
       0.17931563 0.06794742 0.10348506 -0.0980276
0001a0 0c d5 8e 3d 08 8d d3 3d e4 63 e5 bd 48 42 ba bc
       0.06974229 0.10329634 -0.11200693 -0.022736683
0001b0 98 9b 1e bc 63 c2 22 3e ac fc f9 bd cd 9f 8c 3e
       -0.009680651 0.15894465 -0.122063965 0.27465668
0001c0 43 50 b7 bb be 5a b8 3d fa 0c e6 bd 4f 5a 33 3e
       -0.0055942847 0.09001683 -0.11232944 0.17514919
0001d0 a1 c1 d2 3d bf 85 fa 3d 02 9b 35 be c9 0b d7 bd
       0.10290838 0.12232541 -0.17734912 -0.10500295
0001e0 b3 d6 8d 3d 6f dc 10 3e be 5c cc bd b4 c6 b7 3d
       0.06925716 0.14146589 -0.09978627 0.089734465
0001f0 5c 5d c5 3d 9b 11 39 3e 32 0e 47 3e 6b 26 ac 3d
       0.096369475 0.18073122 0.19439009 0.08405765
000200 91 13 1e be 60 76 e4 3d 08 a8 ac bd d1 54 db 3d
       -0.15437151 0.11155391 -0.08430487 0.10709537
000210 ea cc 44 3e 75 95 1b be bf 4b 86 bd b6 8a 2d 3d
       0.19218794 -0.15193732 -0.06557416 0.042368613
000220 86 0e 3f be 05 a0 d1 bd e1 fe 4a bd 70 a1 aa 3d
       -0.18657884 -0.102355994 -0.049559478 0.08331573
000230 4c 49 13 be c9 c0 11 3c ee 45 8c be a2 4a ab 3d
       -0.1438343 0.008896061 -0.27397102 0.083638445
000240 ed 2b 20 bd 6f 60 9a 3c 11 39 da 3c 09 3f 8c bd
       -0.03910439 0.018844811 0.02663854 -0.068479605
000250 0c 58 e1 bb 4a 0b 3c be 01 b0 6e bd 84 80 c4 bd
       -0.006876951 -0.18363681 -0.05827332 -0.09594825
000260 b6 96 bd bc 9e e7 13 bd 22 0e 67 bd e4 30 0b be
       -0.023143154 -0.03610956 -0.056409962 -0.13592869
000270 86 ea 36 3e 16 0c 3d 3e a3 fb 3a be d0 62 f3 bd
       0.17862901 0.18461642 -0.18260054 -0.11884081
000280 c6 be 42 be 33 db 3d 3e 1a 32 4f be bd b1 a7 3b
       -0.19018087 0.18540649 -0.20233956 0.0051176236
000290 88 19 68 bd e0 f9 7d bd 06 8c 47 3e c9 78 9e bd
       -0.056664973 -0.062005877 0.19487008 -0.07737882
0002a0 e9 77 03 be 43 7e 5d 3e 8a 6c 4f 3d 8b df 49 be
       -0.12838711 0.21630196 0.05064062 -0.19714181
0002b0 4f 14 a3 3d 2f 68 6a be 4a 54 90 3d 9d cf ec 3d
       0.07962858 -0.22891305 0.07047327 0.115630366
0002c0 fd 14 b8 bd 2d 0a 5c 3e e4 4c e9 3d 3d e6 3b 3e
       -0.08988378 0.21488257 0.11391619 0.18349548
0002d0 52 cf 73 bd 75 d3 95 3d af ff 30 be b6 36 7f 3d
       -0.059523888 0.07315723 -0.17285036 0.062308036
0002e0 fb 1f 7d 3d 62 72 01 be 2d df a1 3c 68 65 ed bd
       0.061798077 -0.1264129 0.019759739 -0.11591607
0002f0 bc 81 12 3e c2 24 70 3d 53 c3 ed bd 9f f7 12 3d
       0.14307302 0.058628805 -0.11609521 0.03588068
000300 2e b7 1d 3e 7f 1e 07 be 95 71 5d be 2c 9b 8e 3d
       0.15401909 -0.13195227 -0.2162536 0.069631904
000310 a4 2b 20 be 5e 21 54 3e 77 73 39 bd 23 8b 9c bd
       -0.15641648 0.20715854 -0.04527613 -0.07643726
000320 41 2d 92 3d 29 a7 58 3e ad 06 2c be 00 9e 40 3d
       0.07137538 0.21157517 -0.16799422 0.04702568
000330 3e 8e 33 3e 94 6c 72 bd e8 32 79 3e 50 08 62 3c
       0.1753473 -0.05918558 0.24335825 0.013795927
000340 ac 29 2a be 19 bf 38 3d 49 09 1e be 09 e8 90 be
       -0.16617459 0.04510412 -0.1543323 -0.2830203
000350 72 3a fa bd 5a 73 dc 3d a3 f5 40 3b b3 67 fc bd
       -0.12218179 0.10764189 0.0029443286 -0.123244666
000360 31 4e d6 bd 03 9d 24 be c2 65 b3 3b a4 38 da 3c
       -0.104641326 -0.1607552 0.005474777 0.026638336
000370 85 03 04 be 18 fb c8 bd bb 4a 14 be 13 94 11 be
       -0.12891968 -0.09813517 -0.14481632 -0.14216642
000380 9f 0d c6 3d 09 37 e9 bd ea cc 70 3d ee 46 9b 3e
       0.09670567 -0.1138745 0.05878917 0.30327553
000390 ec 17 73 bd 68 2a 37 be bc 09 01 be f4 2e 00 be
       -0.059348986 -0.1788727 -0.1260137 -0.12517911
0003a0 67 53 9a bd 64 d3 0b 3e c3 fe 0c be 9f 01 31 be
       -0.07535439 0.13654858 -0.13769059 -0.17285775
0003b0 19 ef 55 bd 47 95 b3 3d 47 7f f6 bd f8 40 a7 3c
       -0.052229974 0.08768707 -0.12035995 0.020416722
0003c0 e4 17 06 be 11 41 2c be e5 be c9 3d 7d 7d ed bd
       -0.13095051 -0.16821696 0.09850863 -0.115962006
0003d0 71 02 24 3e b4 26 a9 3d c6 7d 07 3e 77 8e a4 bc
       0.16016556 0.08259335 0.13231573 -0.020087464
0003e0 cd d6 2e be 9d 68 d8 bb 89 b3 31 bd 54 1f a2 3d
       -0.17074127 -0.0066042677 -0.04338411 0.079161316
0003f0 19 9e ba 3d ce a7 73 bc a7 0d 17 3e fd 85 4a be
       0.09112186 -0.014871551 0.14751302 -0.19777675

model/dense_3/MatMul;model/dense_3/Relu;model/dense_3/BiasAdd f4 [64]
000000 67 d0 6d be 08 6b 97 3e 3b 2d 4a 3e 13 78 81 3e
       -0.2322403 0.29573846 0.19743817 0.25286922
000010 fe 4b 81 3f a7 4b ac be 54 93 4b 3f 1e 20 7f 3d
       1.0101316 -0.33651468 0.7952168 0.06228649
000020 97 ec 39 3f c3 a8 2f 3e 57 e3 3f 3f a6 ef 75 3f
       0.7262663 0.17154221 0.7495627 0.960688
000030 b8 1a 9c 3f 5c 2c 8c 3e 22 61 87 3f 5e 56 40 3f
       1.2195654 0.27377594 1.0576518 0.75131786
000040 97 44 82 bf 0f 0d 86 3e e1 dc b1 3e 99 e6 05 bf
       -1.0177182 0.26181838 0.3473883 -0.5230499
000050 b7 53 88 3f 16 7e 1a 3f 70 f4 61 be 76 00 f2 bd
       1.0650548 0.6034864 -0.22065902 -0.11816494
000060 6d 34 3b be cd 8f 84 3f 7c 5f d1 3d 9d 7d d9 bd
       -0.18281718 1.0356385 0.1022329 -0.10619662
000070 8a 22 98 bf 2d 02 9e 3f 83 5b 24 3f 15 4f 28 bf
       -1.188554 1.2344414 0.64202136 -0.6574567
000080 6a 5e 63 3f 2c ae 24 3f 38 61 55 bf 6c c3 9c 3f
       0.8881594 0.64328265 -0.8335147 1.2247138
000090 e2 4a 7e bd 92 48 32 3f f3 80 14 3f 7e 34 9a be
       -0.062083133 0.69641984 0.5800926 -0.30118173
0000a0 b3 c9 89 3d c8 79 a3 be 68 0a 9e 3f 32 95 f9 3e
       0.06727924 -0.3192885 1.2346926 0.4874664
0000b0 45 d9 6a 3f c0 0d 88 3f 65 7f 81 be 65 4a 55 bf
       0.91737777 1.0629196 -0.25292507 -0.8331664
0000c0 c7 16 3e 3f 8a c7 a4 3f 0b ec 63 3f 25 f0 22 3f
       0.74253505 1.2873394 0.8903205 0.6364768
0000d0 a7 3c 5f 3e 94 23 12 3f d5 49 b6 bc 34 45 6f 3e
       0.21800481 0.5708554 -0.022252003 0.23366243
0000e0 8b 23 19 3f ad 3c f4 3e 41 7f dc 3e 98 49 d8 be
       0.5981986 0.47702542 0.43065837 -0.42243648
0000f0 e9 8e 10 3f 08 f8 45 bf 7c 42 34 3f ef d5 7b 3f
       0.56468064 -0.7733159 0.7041395 0.9837331

model/batch_normalization_1/batchnorm/mul_1;model/batch_normalization_1/batchnorm/add_1;model/dense_3/MatMul;model/dense_3/Relu;model/dense_3/BiasAdd f4 [64, 64]
000000 fa 83 0c 3e 04 6b eb bd a6 ed a4 bd 5d 21 da bd
       0.1372222 -0.11495021 -0.0805314 -0.10650895
000010 ca dd bb 3d 32 68 eb bc 53 ce ec 3d a8 f8 42 be
       0.09173162 -0.028736208 0.11562791 -0.19040167
000020 ae f5 a5 bc e0 77 2f 3e 64 f4 ae 3e ed 22 03 3e
       -0.02025875 0.17135572 0.3417083 0.12806292
000030 b9 12 9f 3d bf 73 55 be 3e 1e 19 be e9 16 8d be
       0.07767243 -0.20844935 -0.14952943 -0.27556542
000040 cd 6e 3f 3e 5b 94 60 be cf f8 36 3c 8c f8 30 3e
       0.18694611 -0.21931593 0.011167719 0.17282313
000050 8b 6d bd bd a8 c1 fc 3d ba 54 9a 3d ca 7b 10 bd
       -0.09249409 0.123416245 0.075356916 -0.035274304
000060 f0 f9 11 bd b5 75 c6 3d 10 70 d1 bc 0f ba 26 be
       -0.03563875 0.096904196 -0.02556613 -0.16281913
000070 17 74 93 bd c8 fe 38 bd ac de 84 bc d4 84 1c be
       -0.07199877 -0.045164853 -0.01621946 -0.15285045
000080 7d d9 63 be 83 1c 27 3e 36 e0 18 bd ca cf 26 be
       -0.22250934 0.1631947 -0.0373232 -0.16290203
000090 6c 7f a2 3d ac 0f 25 bc 8c 50 03 3e 30 bc 06 bd
       0.0793446 -0.010074537 0.12823695 -0.032894313
0000a0 de 57 e9 bb 90 da 77 3e fe dd 73 be 0e c5 5f be
       -0.0071210703 0.24204469 -0.23815152 -0.21852514
0000b0 25 5e d9 bd a0 60 a1 3d ae 86 01 3e ec ef 72 3e
       -0.1061366 0.07879758 0.12649032 0.23724335
0000c0 eb 5a b9 bc 4b dd 99 3d da 70 46 3c b6 ab cb 3d
       -0.02262636 0.075129114 0.012111867 0.09944861
0000d0 b6 e6 15 be a8 6a 4f 3d cd 3f e5 3d 8d eb 42 be
       -0.1463879 0.050638825 0.1119381 -0.19035168
0000e0 aa 24 4c 3e 95 a4 3f be 53 3f 9d 3e 70 01 01 3c
       0.19935861 -0.18715127 0.30712375 0.007873878
0000f0 a9 be 1e 3c a2 28 09 bd 43 e0 c1 3d c4 bf 89 3e
       0.009689012 -0.033486016 0.09466603 0.26904118
000100 7c 3c c4 3c 7b a6 85 bd 48 1e 3f be 5a a6 3e 3d
       0.023954622 -0.06525894 -0.18663895 0.046545364
000110 76 40 fd bd e1 f0 d8 3d 46 6d a5 3d e5 d0 76 be
       -0.123658106 0.10592819 0.08077483 -0.24103124
000120 39 08 1f 3d 8f ef c2 3d d3 ad 6b 3d 4d 60 53 be
       0.0388262 0.095183484 0.05753882 -0.20642205
000130 52 33 09 3e 36 df d9 3d ee 6f 4a be aa c5 02 be
       0.13398483 0.10638277 -0.1976926 -0.12770715
000140 94 ae 91 3d 8c 06 0f bd a3 fa 6b bd ea ea d3 3c
       0.07113376 -0.034918353 -0.057612073 0.025868852
000150 8b 0f 95 3e 4a 96 d1 bd 0e da 8e be d2 26 d0 3c
       0.2911342 -0.102337435 -0.27900738 0.025409136
000160 5f 88 1e 3e 40 d5 fe bd 53 b8 8d be e8 5f 83 bd
       0.15481709 -0.12443018 -0.2767969 -0.06414777
000170 a4 23 38 be 15 51 de 3d 00 11 9d 3d cb 05 3c bc
       -0.17982346 0.10855309 0.07669258 -0.0114759905
000180 35 1a 29 3e 57 0e e1 bd c9 eb 67 be 45 10 23 be
       0.16513903 -0.10989063 -0.22648539 -0.15924175
000190 59 f3 c7 bb f5 42 ef bd 90 a3 e7 3c d4 f7 45 3e
       -0.0061020073 -0.11682693 0.028276235 0.1933282
0001a0 2a 38 25 3d 88 9b 90 3d e4 f2 61 3d f9 1a 20 3c
       0.040336765 0.07060915 0.05516328 0.009772056
0001b0 ac 0f 95 3d d3 78 5f be cb 50 5b bd 67 5a 05 be
       0.0727838 -0.21823435 -0.053543847 -0.13022767
0001c0 27 8d b5 3d ad 05 72 3d 80 98 a1 bd 97 db fd 3d
       0.08864813 0.059087444 -0.07890415 0.12395399
0001d0 e1 c5 19 3e 3a 31 f0 bd b0 12 27 be ae 54 87 3e
       0.15016891 -0.11728139 -0.16315722 0.26431793
0001e0 95 06 87 3d e0 d5 db bc 46 e3 a1 3d 9a 2c 19 be
       0.06593052 -0.026835382 0.07904677 -0.1495842
0001f0 b5 a8 6d 3e 88 81 da 3d b4 10 cf 3c c1 45 01 be
       0.23208888 0.106692374 0.02527652 -0.12624265
000200 74 d6 1b be 02 92 22 bb 89 22 2b be c7 23 3f be
       -0.15218526 -0.0024806266 -0.16712393 -0.18665992
000210 93 fe 01 3e 4c 03 ce 3d 70 95 4f 3c 6a cb 09 3e
       0.12694769 0.100592226 0.012669906 0.13456503
000220 63 c0 85 be 67 9a dc 3d 79 e6 b0 3c 2f d6 0e be
       -0.26123342 0.107716374 0.021594273 -0.13948892
000230 f4 f0 67 be c1 33 9a 3d 25 3d 88 be 90 d8 2a bd
       -0.2265051 0.075294025 -0.2660915 -0.041710436
000240 57 6b 08 be 5f b3 00 3e bf 41 cd 3d ce b5 d2 3d
       -0.13322197 0.12568425 0.10022306 0.10288583
000250 b1 4f 50 3d 6a 8a 67 3e ad 97 08 be bd 72 25 be
       0.05085725 0.22611395 -0.1333911 -0.1615705
000260 37 b0 ee 3a fe 63 16 be e2 94 a2 3d 55 c8 6d 3e
       0.0018210475 -0.14686581 0.079385534 0.23220952
000270 aa 27 ad bd d7 ec 7b bd 11 d4 dc 3d 77 fd d0 bd
       -0.08454831 -0.061505165 0.10782636 -0.102045946
000280 b8 bf d2 3c f4 ff 33 be 39 36 3e bd 08 4d e7 3d
       0.025726184 -0.17578107 -0.04643843 0.112939894
000290 7e c7 e7 3d 59 34 ae bd ad e5 da 3d fa 41 b6 3d
       0.11317347 -0.08506078 0.106883384 0.08899303
0002a0 c2 9e 2d 3d d5 33 a3 bd 23 11 46 bd 4c b2 3e 3e
       0.04238773 -0.079688706 -0.048356187 0.18622702
0002b0 85 58 7e 3d 45 f6 4c 3d e1 67 8a 3d d2 cd b4 bc
       0.062096138 0.05003955 0.067580946 -0.022070799
0002c0 09 34 c6 bd 86 f4 2a be 78 de 20 be 3f 10 a4 bc
       -0.09677894 -0.16694841 -0.15709865 -0.020027278
0002d0 ab 93 e9 3d 0f 7d d6 bd 13 46 79 be c6 ed 4a 3e
       0.114051186 -0.10473072 -0.24343137 0.19817266
0002e0 06 92 7f 3d c7 94 64 3e e0 37 0d be a5 ac 5b 3d
       0.06239512 0.22322379 -0.13790846 0.053631444
0002f0 ac 22 ee 3d fe aa a7 3c a8 68 04 bc 8a 47 5b bc
       0.11627707 0.020467278 -0.008081593 -0.013383755
000300 ba 16 49 bd 86 d2 fe 3d 73 83 e1 3a c7 76 c5 3d
       -0.04909394 0.12442498 0.0017205313 0.096417956
000310 04 e2 ed bb 94 62 01 be c3 eb 88 3d f7 0c 96 be
       -0.007259609 -0.12635261 0.06685593 -0.29306766
000320 03 4c 25 3e 91 e9 97 bd f0 68 97 be 01 f2 cc 3b
       0.16142277 -0.07417596 -0.29572248 0.006254435
000330 4c 93 de bd 02 e5 58 3c c0 21 67 3d bc 8b 8d bd
       -0.108679384 0.0132381935 0.05642867 -0.06911418
000340 05 6d 34 3e 44 e6 54 3e 94 ea 19 3e 3b 60 1f 3c
       0.17619713 0.20790964 0.1503089 0.009727533
000350 69 7a a6 be 69 1c c6 bd 81 ed 9e bd 5f 7c 2c 3e
       -0.32515267 -0.096733876 -0.07760144 0.16844319
000360 e3 54 34 be 49 38 08 be fc 52 70 3d 14 cc e3 bd
       -0.17610507 -0.13302721 0.05867289 -0.11122909
000370 1a 3d 6a 3e 71 52 30 3e da 66 04 be bf d9 09 3e
       0.22874871 0.17218949 -0.1292986 0.1346197
000380 f0 bd 86 3d 73 b4 ba 3d c2 71 3e 3e f6 d9 3f 3e
       0.065791965 0.09116449 0.18598083 0.18735489
000390 04 12 a4 bd 57 28 42 3e 0b b8 b8 3d d4 aa 4f 3d
       -0.08011249 0.18960701 0.090194784 0.050700024
0003a0 46 91 3b be 9e aa e2 3d fa ba cd 3d 94 b9 21 3c
       -0.18317136 0.11067699 0.100454286 0.009870905
0003b0 f1 49 1d bd c4 e5 f8 3d d0 90 44 be b5 10 55 3e
       -0.038400594 0.12153199 -0.19195867 0.20807154
0003c0 b0 97 3f be 75 90 81 3d 72 ca 2e 3e 58 ef 00 be
       -0.18710208 0.06326381 0.17069414 -0.12591302
0003d0 bf 12 4e be 69 ec 92 bd bd 12 03 3e f4 cb 58 bd
       -0.20124339 -0.07173998 0.12800117 -0.05292888
0003e0 33 6d 8a bd fa 89 01 be c3 ec 3c 3c fd 8d 3f 3d
       -0.06759109 -0.1265029 0.011531058 0.04676627
0003f0 dc 52 3f be 32 1d 9e bc fb dd a7 be f9 22 38 3e
       -0.18683952 -0.01930103 -0.32786545 0.17982091

model/dense_4/MatMul;model/dense_4/Relu;model/dense_4/BiasAdd f4 [64]
000000 42 1a dc 3e af f2 86 3f 42 3b c2 bd d0 1d c7 3e
       0.42988783 1.0542811 -0.09483959 0.38889933
000010 29 52 b0 3f f9 45 38 3f b7 23 8b 3f de eb 88 bb
       1.3775073 0.7198177 1.0870274 -0.004178508
000020 78 ca 72 3f 5c 79 b1 3e e7 ec 0c 3f 32 d7 b2 be
       0.9484019 0.34662902 0.55048984 -0.34929806
000030 7b a0 a0 be 7e 79 af be f5 a0 72 bf e9 64 f7 be
       -0.31372437 -0.3427238 -0.9477685 -0.48319176
000040 83 8f e2 3e ee 6f 17 3f 96 fd dc 3e 3c 97 0a be
       0.44250116 0.59155166 0.4316222 -0.13534254
000050 76 d8 3c 3f 4e ce b2 3f 6e 95 61 3f 4c dd 0b be
       0.73767793 1.3969209 0.88118637 -0.13658637
000060 bf d2 15 bf ac 47 7d 3e de 08 74 3f 39 0b a6 3d
       -0.585247 0.24734372 0.9532603 0.08107609
000070 f0 69 81 3f e2 c5 cc 3f fe dc 23 3f b2 20 ea bc
       1.0110455 1.5997889 0.6400908 -0.028580043
000080 5e 72 87 3e 5c ba 1a 3f 9a 0c a0 be 65 89 ca bd
       0.26454443 0.6044061 -0.31259614 -0.09889487
000090 ee af 1e 3f 84 62 03 3f 0b 4b 9a 3f f3 0a 7d 3f
       0.619872 0.513222 1.2054151 0.9884483
0000a0 68 a3 0c bf 96 d6 fd 3e 21 d9 07 bf 5d 35 65 bf
       -0.5493684 0.4957778 -0.5306569 -0.8953455
0000b0 3b 57 14 40 12 88 51 3f ae f8 d3 3e 0d ac d5 3d
       2.3178241 0.8184825 0.41400665 0.10433207
0000c0 54 26 03 3f 79 f7 08 bf 03 a2 b3 3d 55 64 69 3e
       0.5123036 -0.53502613 0.08771136 0.2279218
0000d0 d5 44 35 be e0 d0 0b bf 19 42 ea 3f d2 76 75 3f
       -0.17702039 -0.5461559 1.8301421 0.9588443
0000e0 78 e3 22 3e a9 f3 d8 3f aa ce cf bd b5 88 26 be
       0.15907085 1.6949359 -0.1014684 -0.16263087
0000f0 5e a8 8d 3f 97 b5 e0 3c 16 77 60 3f 36 e3 41 3e
       1.1067007 0.027430339 0.8768171 0.1893433

model/batch_normalization_1/batchnorm/mul_1;model/batch_normalization_1/batchnorm/add_1;model/dense_4/MatMul;model/dense_4/Relu;model/dense_4/BiasAdd f4 [64, 64]
000000 51 9d 40 3d f9 42 c4 bd 73 e3 58 3e 61 9b 33 be
       0.04702503 -0.095830865 0.21180515 -0.17539741
000010 4d df 61 3d 28 cb fe 3c a1 67 97 3d cf db ac bd
       0.055144597 0.031102732 0.073928125 -0.08440363
000020 13 43 16 3d ec e6 98 bd da 17 2d 3d b8 ca 21 3c
       0.03668506 -0.0746592 0.042259075 0.009874992
000030 f6 0a 0a 3d e9 cf 81 3d 67 9f 4d 3d 66 de b5 bd
       0.03370186 0.06338484 0.050200846 -0.0888031
000040 d4 e4 7d 3d 1f ed 8d 3d 64 34 55 bd 51 30 59 3d
       0.061985806 0.06929993 -0.052051917 0.053024594
000050 54 8b b4 bd 26 86 33 bd cc a7 18 be 80 14 29 be
       -0.08815637 -0.043829106 -0.1490776 -0.16511726
000060 57 65 92 bd df 60 d5 3d 27 8b 55 bd e7 1b 80 bc
       -0.07148235 0.10418867 -0.05213466 -0.015638305
000070 ce c3 01 be e2 e0 34 bd eb 3f 0f 3e ee cd 0a be
       -0.1267235 -0.044159777 0.13989227 -0.13555118
000080 bd df 1d be 45 1b 85 bd 9c 2e 22 bd 8b ba d7 3d
       -0.1541738 -0.06499342 -0.03959523 0.10533627
000090 cf e7 af ba d5 48 0f 3e c8 a7 e3 bd 2b e6 1d 3d
       -0.0013420525 0.13992627 -0.11115986 0.038549583
0000a0 d7 c6 16 be 64 c7 e6 3d 05 9c cd bd 54 30 6a bc
       -0.14724289 0.112684995 -0.10039524 -0.014293749
0000b0 ca 9b f3 3c b5 14 8e bd c7 00 53 3d 04 e2 29 be
       0.029737372 -0.06937543 0.051514413 -0.16590124
0000c0 68 b7 38 be a6 38 0a be 1b 56 12 be 9f 92 f2 3c
       -0.18038714 -0.13498172 -0.14290659 0.02961093
0000d0 b2 24 8a 3e b1 e8 ce 3b 31 4a 91 3d ed 22 38 be
       0.2698112 0.00631436 0.07094229 -0.17982073
0000e0 66 c7 08 3e e0 90 10 be 92 88 cd bd f2 7f 1e 3e
       0.13357314 -0.14117765 -0.10035814 0.15478495
0000f0 2f 85 00 3e 19 ee 53 be 3a cd 15 3e df 32 7c bd
       0.12550806 -0.20696296 0.14629069 -0.061571952
000100 78 b3 1d be ec d7 96 3c 52 04 bb 3d e1 e3 51 3d
       -0.15400493 0.018413506 0.091316834 0.051242713
000110 f6 16 e3 bd 27 ff 59 be dd f9 83 3d c5 73 23 3e
       -0.11088364 -0.21288739 0.06444142 0.15962131
000120 90 1a 5d 3d 83 c4 5b 3c 77 2e 63 3c 69 a8 0d bd
       0.05398041 0.013413551 0.013866059 -0.034584437
000130 6d a5 21 bd 78 27 08 be b7 53 15 3e 91 bc 1a bd
       -0.039464403 -0.13296306 0.14582716 -0.037777487
000140 36 54 e6 bd fc 5b 43 bd bd 28 35 bd 72 c3 33 bd
       -0.11246531 -0.047695145 -0.044228304 -0.043887563
000150 73 c3 de 3d 8e fd 29 be 29 3b 70 be 26 88 0e be
       0.10877123 -0.1660063 -0.23460068 -0.13919124
000160 03 45 05 3d ed 23 29 3e 24 f1 2e be f3 ad ee bd
       0.032536518 0.16517611 -0.17084175 -0.11654272
000170 de e1 29 be 40 d3 bb bd 58 fe d6 bc f6 5d 60 bd
       -0.16590068 -0.09171152 -0.026244327 -0.054777108
000180 b7 c1 49 3e 87 2f 0d be da 99 58 3d 83 4c 1a be
       0.19702803 -0.13787661 0.0528811 -0.1506825
000190 50 ef 15 3e 7f 2c 27 be 5e 2d 53 be f7 c3 bc bd
       0.14642072 -0.16325568 -0.20622775 -0.09217065
0001a0 08 4e ac bc 77 ad 67 3b f0 d5 3d 3d 58 79 0f bc
       -0.021033302 0.0035351196 0.046346605 -0.008756958
0001b0 f9 20 12 be 83 12 b6 3d f0 31 04 bd af 4e 38 be
       -0.1427039 0.088902496 -0.032274187 -0.17998765
0001c0 38 02 01 be f5 f5 01 be 51 cc 92 3c de b2 83 3d
       -0.12598503 -0.12691481 0.017919691 0.064306006
0001d0 9d 62 0a 3e f0 3e 00 3e 95 4f 2d be fd 2d 4c 3d
       0.1351418 0.12524009 -0.1692489 0.049848545
0001e0 cb 83 ca bd d6 a1 fe 3b 00 63 72 bc 18 b1 39 be
       -0.09888419 0.007770757 -0.014794111 -0.18133962
0001f0 5e 8c 8f 3a 6c d7 2e 3d 22 7a 9a 3c ab 30 b0 3d
       0.0010951867 0.04268591 0.018857066 0.08603033
000200 e6 11 0f be 37 15 6d bc 94 42 e4 3c 3d e1 d5 bd
       -0.13971671 -0.01447039 0.027863778 -0.104433514
000210 8a 4d 05 bd a7 bb 5e 3d 3c e4 8d bc 21 a3 08 be
       -0.03254465 0.054378178 -0.017320745 -0.13343479
000220 a5 08 a0 3c 3c 6e 0d 3c 2e cb 4d be 50 ed 91 3d
       0.019535372 0.008632239 -0.20097038 0.07125342
000230 04 88 0b 3d d5 56 62 bd ed 5f 98 3d 04 a7 24 3e
       0.03406526 -0.05525859 0.074401714 0.16079336
000240 61 55 38 be 3f 21 48 3d 7e ec 22 be f7 79 e4 3d
       -0.1800132 0.04885983 -0.15910527 0.111560754
000250 54 0a 18 be 17 79 53 be bc d2 d5 bc 27 6f 09 3e
       -0.1484769 -0.20651661 -0.026101463 0.13421308
000260 a8 a9 91 3d 05 2d d2 3d 04 f3 7d 3e e0 1a 2e bd
       0.071124375 0.10262493 0.24799734 -0.0425061
000270 c8 50 02 3c d7 80 cb 3d 07 ae 08 3e f4 c3 4a bd
       0.00795383 0.099366836 0.13347636 -0.04950328
000280 30 1b 17 3e 60 00 9e bd 7e 76 b7 bd b2 e9 49 be
       0.14756465 -0.07714915 -0.089581475 -0.19718054
000290 21 ef 09 be 32 63 04 be e6 44 2d be f1 46 5c bd
       -0.13470127 -0.12928465 -0.16920814 -0.053778592
0002a0 d4 02 bd 3d 19 55 cc ba 77 52 d7 bd c9 cb 1f 3e
       0.09229055 -0.0015589326 -0.10513776 0.15605082
0002b0 a7 a7 38 3d d9 d6 97 3d e7 e6 a9 3d b9 d3 c3 3d
       0.04508176 0.07414026 0.08295994 0.09561867
0002c0 5f c3 b3 3d 3e ab 53 bd f9 18 13 be ac a1 93 3c
       0.087774985 -0.05167698 -0.14364995 0.018021427
0002d0 ec fe fd bc 7b 2f c9 3d 8d 31 b9 3c 8d df 57 3e
       -0.031005345 0.09823509 0.022606635 0.21081372
0002e0 5e 12 a2 3d f9 6b 76 bd ae 3f 1d 3e f6 a1 7d 3c
       0.079136595 -0.060161564 0.15356323 0.015480509
0002f0 ad 5f 9e 3d 3e 00 30 be 78 f3 04 3e 30 7b ca bd
       0.077330925 -0.17187592 0.12983501 -0.098867774
000300 a7 7d ff bd 9b 29 34 be 5e b4 64 be 0e 77 e9 bd
       -0.12475138 -0.17593996 -0.2233443 -0.11399661
000310 4f 14 a5 bd fa 94 3e bd 6e 1d de 3d fc da 1c b9
       -0.08060514 -0.046528794 0.10845457 -0.00014958897
000320 7a f9 39 3d 41 0a c4 bd 54 6e ad 3d d1 f1 bc bd
       0.045403935 -0.09572268 0.08468309 -0.0922581
000330 ec 0f 05 bd 02 75 80 be eb ee 24 3e ff c0 14 bb
       -0.032485887 -0.2508927 0.16106765 -0.0022698042
000340 0e 46 6a bd d9 ff dd 3d 22 db f0 3d b5 71 05 3e
       -0.057195716 0.10839815 0.11760546 0.13031657
000350 a8 e4 83 bd 29 52 e8 bd 39 fe 34 3e d7 84 05 bd
       -0.06440097 -0.11343796 0.17675103 -0.03259739
000360 e5 56 83 3d 40 c9 1f bd 4e 06 91 be 95 3c d7 3d
       0.06413058 -0.039010286 -0.28325123 0.10509602
000370 f8 a9 f8 bd db f3 ad bd a9 0e 2b 3e 25 4a 0f 3e
       -0.12141794 -0.08493777 0.16704811 0.13993128
000380 6d 36 1d 3c 05 6a 24 be 77 e4 01 3e 4a 66 65 bb
       0.009595496 -0.16056068 0.12684809 -0.0035003596
000390 6e 75 18 3e 30 c3 64 be dd 81 be 3d a4 ac d1 3c
       0.14888546 -0.22340083 0.09302113 0.025595017
0003a0 25 19 2c 3e 38 04 3d be f8 b6 6f be c7 88 7d 3d
       0.16806467 -0.1845864 -0.23409641 0.06189802
0003b0 f4 44 22 be cd dd c9 3d dc c0 c3 3d 1e 73 ae bd
       -0.15846616 0.09856758 0.095582694 -0.085180506
0003c0 3a 92 94 bc 54 d9 22 3e ca d4 1d 3d e9 4d c5 3d
       -0.018136133 0.15903217 0.03853301 0.09634001
0003d0 13 00 f6 3d e3 d4 e6 bd ec 41 49 bd d7 d0 27 3e
       0.12011733 -0.11271074 -0.049135134 0.1638826
0003e0 0f f1 95 be 32 01 f7 3d 17 c7 69 3e 37 5b fc bd
       -0.29285476 0.12060775 0.22829853 -0.12322085
0003f0 3d 2c 9e bd ca 56 10 3d 7a 2d 05 be 13 9f 54 3e
       -0.077232815 0.03523902 -0.13005629 0.20763807

model/position_output/BiasAdd/ReadVariableOp f4 [2]
000000 b0 33 20 3d 91 61 34 3d
       0.039111793 0.04403836

model/floor_output/BiasAdd/ReadVariableOp f4 [5]
000000 34 34 86 3b b3 30 50 3b 86 2e 2a 3d f6 74 1c 3d
       0.0040955786 0.0031767308 0.041548274 0.03819748
000010 ad f5 bf bd
       -0.09373031

model/dense/BiasAdd/ReadVariableOp f4 [128]
000000 28 4d bb 3c 73 e8 a3 3d e2 f2 9c 3d 8a c9 2c 3e
       0.02286394 0.080033205 0.07663514 0.16873756
000010 e4 a9 a6 3d b4 d0 12 3e d5 cf 17 3e b7 53 2e 3e
       0.08137873 0.14337426 0.14825375 0.17024122
000020 de 2f fe 3d 8d 6b b8 3d 56 02 62 3e a5 90 04 3e
       0.12411474 0.09004889 0.22071204 0.12945803
000030 e1 3e c4 3d 0e e9 49 3e 6d 83 f6 3d d0 35 20 3e
       0.09582306 0.1971781 0.12036786 0.15645528
000040 53 bc 03 3e e2 41 ee 3d 6d 20 55 3e c8 9f b7 3d
       0.12864809 0.1163366 0.2081315 0.08966023
000050 c3 49 7e 3d 89 c3 73 3d f2 8b 10 3e dc 33 28 3e
       0.062082063 0.05951265 0.14115885 0.16426033
000060 d3 a6 29 3e 09 26 2a 3e b5 c7 13 3e 05 fa 0c 3e
       0.16567545 0.16616072 0.14431651 0.1376725
000070 72 6a 87 3d 98 18 b6 3d 54 b5 00 3e c5 dd 90 3d
       0.066121 0.0889141 0.12569171 0.07073549
000080 dd 4f 1e 3e d4 73 1a 3e 2b 70 d7 3d 16 b1 df 3d
       0.15460153 0.15083247 0.10519441 0.10922448
000090 73 e6 39 3e 43 0a 6e 3b ff 07 85 3d d5 05 0e 3e
       0.18154316 0.0036322034 0.06495666 0.13869412
0000a0 a2 60 fd 3d 25 28 f8 3d 5a 9a 39 3e 14 d7 d0 3d
       0.12371947 0.12117032 0.18125287 0.10197273
0000b0 22 d5 3f 3e 35 e9 99 3d 3d 6f be 3d 01 6b 22 3e
       0.18733647 0.07515184 0.09298561 0.15861131
0000c0 39 7f a5 3d 82 88 89 3d 02 47 7f 3d 59 70 9b 3c
       0.080809064 0.0671549 0.062323578 0.01897447
0000d0 bb e4 10 3e 29 4d be 3d 53 f5 24 3e 7b c5 cb bc
       0.14149754 0.09292061 0.16109209 -0.02487444
0000e0 32 5f 91 3d d3 ba f0 3d 48 f5 02 3e 19 ed a0 bc
       0.07098235 0.11754384 0.1278888 -0.019644307
0000f0 6b 12 e1 3d 5a ce 0a 3d 5d 9b 97 3d 76 d1 05 3e
       0.10989841 0.0338882 0.0740268 0.13068184
000100 22 47 3c 3e 92 5b e4 3d 83 3c bc 3d 7b df 28 3e
       0.1838651 0.11150278 0.09191229 0.16491501
000110 b1 c1 1c 3e 01 fa 80 3d ee cb 83 3d 6d 19 92 3d
       0.15308262 0.062976845 0.06435381 0.07133756
000120 8b 67 6e 3d 89 4e f4 3d ac ba b2 3d 1d f2 23 3d
       0.058204215 0.11929042 0.08727011 0.04002582
000130 1f 0f 70 3d 55 0e 29 bd 8e 96 2f 3e d0 0f 05 3c
       0.05860817 -0.041273434 0.17147276 0.008121446
000140 e0 da f5 3d 31 00 40 3d c6 64 1c 3d e8 0f d7 3d
       0.12004638 0.046875183 0.038182043 0.10501081
000150 eb 5d 99 3d ae df 74 3d b8 64 f8 3c f6 e9 06 3e
       0.074886166 0.05978363 0.030321464 0.13175187
000160 f2 0b 23 3e bb 54 10 3e 27 c8 e5 3d 2b 96 86 3c
       0.15922526 0.14094822 0.11219817 0.016429028
000170 d7 0d 94 3d 12 ce e8 3d f5 a9 31 3d 76 cc 71 3d
       0.07229202 0.1136743 0.043374974 0.05903288
000180 32 1a 96 3d ff 59 d1 3c 76 9a 00 3e ac 56 1f 3e
       0.07329215 0.025555609 0.12558922 0.15560406
000190 9e 7d cb 3d 59 01 a0 3d 57 8e 74 3e a6 60 bc 3d
       0.09936069 0.07812757 0.23882423 0.09198122
0001a0 5f cf 17 3e 36 e5 0e 3e 13 fb 09 3c 2a 94 c7 3d
       0.148252 0.13954625 0.008421677 0.09745057
0001b0 e1 d7 ce 3d 4e 87 67 3c 0d e2 f6 3d 37 8a cf 3d
       0.100997694 0.01413138 0.120548345 0.10133784
0001c0 3b 1b 14 bc bd 7b 05 3e 24 8c 81 3d 5e 68 ce 3d
       -0.009039695 0.13035484 0.06325558 0.100785
0001d0 b2 01 f3 3d 90 23 f6 3d 5f b2 f6 3d f7 87 fd 3d
       0.11865558 0.12018502 0.1204574 0.12379449
0001e0 11 99 04 3e 13 5e 9a 3d 3a f3 a7 3d 49 89 d0 3c
       0.12949015 0.075374745 0.08200689 0.025456088
0001f0 45 76 71 3d 8e 8b c4 3d 8d 9c a3 3d ac 55 16 3e
       0.05895068 0.095969304 0.07988844 0.14681119

model/building_output/BiasAdd/ReadVariableOp f4 [3]
000000 70 ab 2e bd 39 9e 05 bd da 82 a2 3d
       -0.042643964 -0.032621596 0.07935114

model/dense/MatMul f4 [128, 556]
000000 02 01 bc 09 90 1e 6a 89 ce 5c 40 09 a8 63 89 88
       4.52603e-33 -2.8181096e-33 2.3154796e-33 -8.268817e-34
000010 1a f7 26 bc 56 1a e0 bb 56 ad 8a bb 9a 49 39 3d
       -0.01019075 -0.006839077 -0.004232089 0.045236208
000020 f4 ad aa bc 23 c1 59 3c 9a a0 57 bc a4 5c 6c bb
       -0.0208349 0.013290676 -0.013160849 -0.003606596
000030 a0 8b 05 3c 6a 22 01 b3 99 ce b6 bc 38 7c 93 bc
       0.008150965 -3.0066452e-08 -0.02231531 -0.018003568
000040 da 39 96 bd f7 8d 21 bb d5 50 15 bd 15 67 68 bd
       -0.07335253 -0.0024651268 -0.03645404 -0.05673893
000050 dc 36 99 bb a2 c0 e9 3c b0 1c 6d bc a1 c8 45 3c
       -0.004675729 0.028534237 -0.014472172 0.012071759
000060 0f 4b fe 3c 5d cc 36 bc 92 27 9e bc 76 28 af 3c
       0.03104165 -0.011157122 -0.019305978 0.021381598
000070 23 e2 00 bc 6f 60 cb bb 8d 19 55 3b 32 d4 f7 3c
       -0.007866415 -0.006206564 0.003251645 0.03025255
000080 db a1 84 bc 65 3a a8 bb 68 60 0c bd 0d 94 d2 3b
       -0.01619046 -0.0051339143 -0.034271628 0.0064263404
000090 b2 b4 8e 3c 98 2e 82 3d c7 b3 04 bc 07 bf bc 3c
       0.017420147 0.06356543 -0.008099503 0.023040308
0000a0 45 ed 1e bb c9 4d ab bc 0f 93 e1 3c 16 26 c6 3b
       -0.002425031 -0.020911114 0.027535943 0.0060470207
0000b0 02 3f c4 bc 21 7d 62 3c 50 d5 7a bc 1d db 4d b8
       -0.023955826 0.013823778 -0.015309647 -4.9079874e-05
0000c0 c7 10 b5 bc 4b bc 5f bc fd 55 2a bd cd 19 92 bc
       -0.022102727 -0.013655732 -0.04158591 -0.017834568
0000d0 3f 5e c6 3c df fc 93 bb d5 b0 8f bc e3 20 47 bd
       0.024214862 -0.0045162286 -0.017540375 -0.048615348
0000e0 3a dd 06 bd 2c 73 48 3c 75 b1 a6 bb 09 f7 97 3d
       -0.03292582 0.01223449 -0.0050870725 0.07420165
0000f0 fa 4f 8a 88 d0 13 93 bb 2f 23 ea bb 00 01 ad b9
       -8.324375e-34 -0.004488446 -0.0071453075 -0.00032997876
000100 98 4b b5 ba 0e 93 cc 09 70 46 b1 88 70 41 f2 89
       -0.0013831733 4.9249503e-33 -1.066936e-33 -5.8320918e-33
000110 74 c5 cf 07 d8 3d 86 3b 91 0d 49 34 ce b2 ee 09
       3.126195e-34 0.004096728 1.8724519e-07 5.7464563e-33
000120 85 7f 5d b7 73 16 3b b9 6d fb fc 3c 22 c4 7d bc
       -1.3202317e-05 -0.00017842073 0.030881608 -0.015488656
000130 d2 c7 ca 3c ba ec b3 3c 64 a7 44 bc 3b 00 86 3c
       0.024753485 0.021963466 -0.0120028 0.016357532
000140 5b 92 73 b9 5e 58 3b bc ba 3b 34 3b c4 cd 8d bd
       -0.00023228808 -0.011434643 0.002750142 -0.06924012
000150 2c 99 24 3a 0e 62 66 3b e4 c4 e7 bc 26 a9 a5 3d
       0.0006278928 0.003515366 -0.028292127 0.08088903
000160 79 ec 96 bd 9e 54 51 3d ef e9 ab bc e8 60 88 bd
       -0.07369322 0.051106088 -0.020985572 -0.066591084
000170 aa b6 85 3d 28 8f 36 bd 64 c2 83 bc 3b 2b 5c bd
       0.06528981 -0.04457012 -0.016083904 -0.053752165
000180 ab 49 b1 bc 54 56 f0 ba bd 53 9b bc c0 8d 3c bd
       -0.021641573 -0.0018336275 -0.018960828 -0.04603362
000190 ab 19 1f bd c3 e9 2f bd c5 71 94 bb 65 3e e0 bc
       -0.03884284 -0.042947542 -0.004530164 -0.027373502
0001a0 06 d5 09 3c d5 be a2 3b 5c 7e a1 3c c4 64 74 3c
       0.008412605 0.0049665966 0.019713573 0.0149166025
0001b0 0f 97 a2 3d 94 16 94 bd bf 87 ec 3c 57 19 6c bc
       0.079389684 -0.07230869 0.028873323 -0.014410338
0001c0 13 6e 09 3d 5b b1 b5 bc 1b 35 dd 3c fb 04 a0 3c
       0.03355224 -0.022179296 0.027002862 0.019533625
0001d0 91 25 c3 3d a6 a2 fd bc 26 8e 9e 3d 66 09 18 3d
       0.095286496 -0.030961346 0.077419564 0.037118338
0001e0 58 b3 90 3c c6 26 3a 3d 40 a5 32 bc 41 44 33 3c
       0.017663643 0.045447133 -0.0109036565 0.010941566
0001f0 5b 6d 66 bd f6 9c 9f 3d 22 d4 73 bc f4 d0 3e 09
       -0.056256633 0.0779361 -0.014882119 2.2968667e-33
000200 96 2b ab 87 1a 9b 4c 0a 26 36 8c bc 2b 8c 92 bb
       -2.5754838e-34 9.851414e-33 -0.017115664 -0.0044722757
000210 49 82 52 bd a8 cb 15 08 e6 54 84 88 e2 d9 ec 89
       -0.05139378 4.5077453e-34 -7.964421e-34 -5.701983e-33
000220 3c aa 6c 89 be 7b b3 bc 9a 98 f2 bb de 3a c4 bc
       -2.848751e-33 -0.02190959 -0.0074034454 -0.023953851
000230 d2 d7 8e bb 3e 7a 3e bd a0 b9 fd 08 a6 5f f1 bb
       -0.004359224 -0.046503298 1.5270524e-33 -0.0073661385
000240 fd 1d 01 3d 39 93 f3 bb 97 42 fb bc 51 86 15 bd
       0.03152274 -0.007433322 -0.030671401 -0.036505047
000250 cd ba 8b 3c 5e fc bf 3c 9e c9 2c 3c f8 b7 0e bc
       0.017056847 0.023435768 0.010546116 -0.008710854
000260 2d e9 65 bd 31 7a 03 bd 26 fb 86 bc a3 9e 6d bc
       -0.056130577 -0.032098953 -0.016477179 -0.014503154
000270 80 c0 53 3c c8 3a 0f 3d af 65 72 bc 72 cd 93 bc
       0.012924314 0.034968168 -0.014794751 -0.0180423
000280 29 43 08 b9 9b 97 fd 3c d4 a4 a5 bc 08 05 8b bc
       -0.0001299499 0.03095608 -0.020220198 -0.016970173
000290 f4 11 c0 bc 38 be a9 3c a0 ed a0 bb 7e 6c 11 bd
       -0.02344606 0.020720586 -0.0049111396 -0.035503857
0002a0 b1 b2 cd 3c 6a 4d 6c 3c 3d 24 39 3d b1 92 d5 bb
       0.02510962 0.014422754 0.045200575 -0.006517731
0002b0 1f 48 33 3c 3f 37 5c 3c 46 bc 04 bd 07 33 7d 3a
       0.010942488 0.013440906 -0.032406114 0.0009658788
0002c0 5c ca 69 3c 09 eb d7 bc b4 f3 27 bc b9 f5 6f bc
       0.014269438 -0.02635719 -0.010250974 -0.014645987
0002d0 b0 93 4e b8 9d 07 70 bc d7 ba 57 bc 0b 1b 88 bd
       -4.9251772e-05 -0.014650253 -0.013167105 -0.06645783
0002e0 1d c1 c2 3c 9e 8f d8 3c c2 76 08 bd 8c cb bb bc
       0.023773724 0.02643567 -0.03331638 -0.022924207
0002f0 f0 fa 2b bd b0 68 91 bb 83 b7 a6 3d 31 39 3a bd
       -0.04198736 -0.0044375286 0.08140471 -0.0454647
000300 6f 3c a5 3d 19 0c c0 3c cc 80 60 bd 31 bc 0e 3a
       0.080681674 0.023443269 -0.05481033 0.0005444913
000310 d0 08 97 bd 94 af 8a 3c 6d fc 08 bd 86 c4 8d bb
       -0.07374728 0.016929425 -0.033443857 -0.004326406
000320 bc 83 86 bd bf 5b 91 3d 09 e1 29 bd 77 87 9b bd
       -0.06568095 0.07097577 -0.041474376 -0.07594197
000330 9f 92 20 3d a0 a3 5e bd 3b 90 d4 bb 13 52 36 bc
       0.03920233 -0.054355264 -0.00648692 -0.011127966
000340 77 2d 05 bd db f0 75 3c a0 fe be 09 9b 32 c2 3c
       -0.03251406 0.015011038 4.5980284e-33 0.023705771
000350 3c b2 89 bb 8d 96 f3 b9 d8 3b 86 bb 7b 7f 98 bb
       -0.0042021554 -0.0004646074 -0.0040964894 -0.0046538687
000360 28 bc 46 88 91 e5 c7 8a de 04 17 bc 0d e4 f4 3c
       -5.9804634e-34 -1.9249356e-32 -0.009217469 0.0298939
000370 5e aa 3d 89 c7 52 8e b6 e3 68 1f bd 2f d6 6e bc
       -2.2830154e-33 -4.2415663e-06 -0.038918387 -0.014577433
000380 9f 55 79 3c a9 52 86 3b 75 5a 16 3c 0e af 56 bc
       0.015218168 0.0040992093 0.00917684 -0.01310326
000390 3a 99 0b 3c bb 97 02 bb 04 7a 02 ba 52 bb a0 3d
       0.008520419 -0.0019926864 -0.0004977288 0.078482285
0003a0 65 af 8e bc e9 af 8b bd 56 84 4e bd 5c 40 e1 3c
       -0.017417619 -0.068206616 -0.050419174 0.02749651
0003b0 9c 34 59 bd b4 19 47 3d 61 d5 1e bd c1 b7 aa 3a
       -0.053028688 0.048608497 -0.038777713 0.0013024734
0003c0 64 d3 55 3d 62 1c 3f bc 86 9d b5 bd 88 91 d4 3b
       0.05220355 -0.011664482 -0.08867936 0.0064870752
0003d0 16 cb 88 ba e2 fc 5c 3d 05 6c 12 bd 87 3f e4 3b
       -0.0010436501 0.053952105 -0.035747547 0.006965581
0003e0 b8 5e a7 bd 3d 99 6d 3d e1 94 ea 3d ad 00 fb b9
       -0.08172363 0.058007468 0.11454178 -0.00047874954
0003f0 2c 5b df 3c 5f 3c 5e bc 72 01 07 bd f5 40 29 3c
       0.027265154 -0.013564198 -0.032960363 0.010330428
