250607/models/hadnn_n_random_forest.tflite (tflite, 230584 bytes, 20 tensors)

model_1/dense_6/MatMul;model_1/dense_6/Relu;model_1/dense_6/BiasAdd f4 [64]
00000000: 2912 88bd 4718 6c3f f753 a03f 1910 ba3e
00000010: c952 83bd 9cd7 81bd 9ee4 9dbb 263e 7f3e
00000020: 7af0 733f 7b11 483d 2f7a 663f 2a77 c33f
00000030: a00b 813f 4bc0 5cbe 594b 9e3f 2427 393f
00000040: f034 513f 59b2 eebd 2cb0 debc 7251 2f3d
00000050: 8a68 6cbc eda3 e6b9 93cb 3f3f cd47 053f
00000060: af0e 0b3f fa93 953f eae3 b4be 9b7a c0bd
00000070: ab8b ea3e 8dec 813f 53fd 153d f255 943f
00000080: 89e0 cb3c 7fdb 103e 9863 4f3f 2fe2 5cbd
00000090: f1a8 68be 26ef 633f ff68 923f b410 523f
000000a0: 5ee0 69be 3149 c9bd e0a5 7d3d 8058 a93e
000000b0: 706a d0be 2e3e cbbe a0ea 16be 8577 e23e
000000c0: b849 40be b206 9b3f 06c0 9b3d 0af0 93bd
000000d0: ead1 babe c979 923b b057 a13f a502 3a3f
000000e0: ba32 b1bd 2a13 af3f 2d93 373e 2312 27bd
000000f0: 1b5e e53e 1ec5 313f 2bb2 763f e3bc 48be
-0.06644089 0.92224544 1.2525624 0.36340407 -0.064122744 -0.06339952 -0.004818513 0.24926051
0.95288813 0.048844796 0.9003019 1.5270741 1.0081673 -0.21557729 1.2366744 0.7232535
0.817214 -0.11655111 -0.027183615 0.04280228 -0.014429221 -0.00043991153 0.74920005 0.52062684
0.5431928 1.1685784 -0.35330135 -0.09398385 0.45809683 1.0150315 0.036618542 1.1588728
0.02488734 0.14146231 0.81011343 -0.053926643 -0.22720696 0.89036787 1.1438292 0.82056737
-0.22839496 -0.09828413 0.06192577 0.33075333 -0.40706205 -0.39695877 -0.1473794 0.4423181
-0.18778121 1.2111418 0.07604985 -0.07223518 -0.36488277 0.0044700843 1.2604885 0.72660285
-0.086522534 1.3677723 0.17927237 -0.04078878 0.4479836 0.694414 0.9636561 -0.19603305

model_1/batch_normalization_2/batchnorm/mul_1;model_1/batch_normalization_2/batchnorm/add_1;model_1/dense_6/MatMul;model_1/dense_6/Relu;model_1/dense_6/BiasAdd f4 [64, 128]
00000000: 4966 31be 5261 853e 32e9 6a3d c245 18bd
00000010: 5637 d1be b423 32bd 1819 2dbe e10b 673e
00000020: cd17 89bc 942e 793b 9092 f9be 4641 febd
00000030: 2962 383e 4e00 d93d a58a 183e 3861 8c3e
00000040: 1bd8 3d3d b333 d03d a34b f53d b605 46be
00000050: 6df1 06bd 14c2 b1bd 4cab 3ebe d9e8 123e
00000060: 4667 db3d a7cc 0cbe ceea 003c cf75 25be
00000070: 5b25 fe3c 09ed 793e d112 16bd a172 4e3c
00000080: 8fed 0b3e 7a87 4fbd 5ef2 a1bd 9bbe 02bd
00000090: 4c03 28be 908c bbbd 5d45 36bc 9f1f 39bd
000000a0: 657b 17be b4bb 263d e42c 503d e11f 333d
000000b0: 0c36 b03d e42b a83d 119a 3a3e 456d 0a3e
000000c0: 0d09 083e d194 82be d20d 993c 3928 3a3e
000000d0: b9d8 bcbb ef7c c83d dcb6 03be cc35 50be
000000e0: d3ef 933d 2e5e 91be 01a8 273d 23e2 e7bd
000000f0: f8dd e13c 5f7f 9abe 5afb 813d 5fa8 273c
00000100: 1c28 903c 6715 10be 9609 b5bd 988c d1bd
00000110: c71a 2b3e 3100 50be 400a d63d a4a2 dcbd
00000120: d507 b53e b971 03bd 4c4f 423f 7526 08be
00000130: 30ce 623d ba6f b9bd b933 843e eeb6 753e
00000140: 6749 99bd 6f44 03be 0a63 c63c 5dc2 4a3c
00000150: f06e 383e 538e 273f 4bbf 38be 56a1 1b3e
00000160: 2b15 21be d2a1 2b3e 00db 06be 6524 97bc
00000170: 8a09 023e 3d08 dc3d c0af 12bd f55f f23c
00000180: 4061 5bbe ead2 92bd a887 23be 2141 953d
00000190: 5bfe 023e bc20 6f3e 57cf 76bd 5b13 a8bd
000001a0: 7941 dfbd 454a a13d b18f fc3c 57b1 ddbd
000001b0: 6b8d a1bd 80e6 22bd c1d8 353e ce66 0a3e
000001c0: 5f9e 3fbe 2060 0ebc f2e1 3bbd 3324 6b3e
000001d0: e8ea 023f b69f 63bd 1e9b 893c d2ea 6fbd
000001e0: 6bfb a5bd 4686 96bd 131f b7bd b9e8 9cbb
000001f0: 8e06 573e 14ca 973e 0d4f 433e ed4d 29bd
00000200: f568 2ebe 5f40 7f3d 4fe3 79be cd4c 9e3d
00000210: cd5f bf3e d029 aabd dd93 893d 1e47 adbe
00000220: 0a84 1cbd 4035 ccbd 741c e2be 13b6 22be
00000230: b285 0dbe f841 933a 33f1 c3bd f6fd 993c
00000240: 6c35 9d3c 0a9b 6b3d fcdf 88be 30dd 53be
00000250: 7076 80be 871b c2bc 6a1b c43d 5656 65be
00000260: 5de1 1bbd c6ed 1dbe 93a5 2dbe ec9f a8bd
00000270: 0a6f 13be 6c11 91be e310 0cbd cc6d 9abd
00000280: 41c0 073e 8cc4 48be 4192 673e 684b e43c
00000290: 03c7 c73d 4884 183e 5e1a 78be 871b 0abe
000002a0: 4af1 4bbe a0de 67be 5834 1cbc 8a39 38bd
000002b0: eefe dcbd 3c10 49bb fb3e aa3d b0ff 83be
000002c0: 6d70 76be f823 27bf 07ca 1fbe 4311 d3bd
000002d0: e4e1 713c 3d8a 4abc 1846 043e 4240 413e
000002e0: 1256 443d 2a0b 8a3e a993 c1bd 0701 16bd
000002f0: 51eb 053e 2d36 d8bd 8b4f b03d a98a 88bd
00000300: 01f9 5fbd 6a6c b6bd b060 5b3d 3ee4 c23d
00000310: f22f 44be c975 903d 20f7 ddbe c753 a03b
00000320: b22c eebe 2162 e6bd 8dd8 67be b52e 11bf
00000330: 13c8 0dbd fe4d 403d 56c1 e83d 1a0d 46be
00000340: 162c ef3c 7cd5 93bc 3d85 1d3d a10b 3e3e
00000350: 7673 c1bd 29e9 9f3e a075 c93d 8024 64be
00000360: 9c76 823c 375c 12be cc2a 0f3d 591a 053e
00000370: 226b e4bd 585a 16be c031 1e3e a259 8d3c
00000380: 5c40 2abd b662 263d 9c15 213e 8824 7ebc
00000390: 1a66 10be 2e8e ddbd 5d18 a0bd 1f72 493d
000003a0: 54ed 8d3c 6df1 79be 33dd 423f 08f4 3fbc
000003b0: 36fa 6dbe 09c4 31be a272 f7bd 7b83 82bd
000003c0: e691 b33d 656c 7d3d 0adc 64be 0820 e93c
000003d0: 867b c2bd f077 4f3d c4a7 3c3d 7050 8b3d
000003e0: e5af e4bd a9c8 503d d5e7 a43d edfc 673d
000003f0: c407 b83d 9fb8 9dbe c999 10bd 6057 bfbe
-0.17324175 0.26050812 0.0573513 -0.0371759 -0.4086253 -0.04349108 -0.16904104 0.22563125
-0.016734982 0.0038022147 -0.4874463 -0.12414794 0.18006195 0.10595761 0.14896639 0.27417922
0.046348672 0.10166111 0.11977317 -0.19338116 -0.032945085 -0.086795956 -0.18620032 0.14346637
0.10713057 -0.13749944 0.007868482 -0.16158222 0.031023672 0.24406828 -0.03663904 0.012600572
0.1366484 -0.05066631 -0.07907556 -0.031920057 -0.16407508 -0.091576695 -0.011124936 -0.04519617
-0.14793165 0.04070635 0.05082406 0.043731574 0.086040586 0.082114965 0.18222834 0.13518246
0.13284703 -0.25504163 0.018683348 0.18179406 -0.00576314 0.09789454 -0.12862724 -0.20333022
0.07223477 -0.28392166 0.040931705 -0.11322429 0.027571663 -0.301753 0.0634677 0.010233014
0.01759725 -0.14070664 -0.08839719 -0.10231894 0.16709433 -0.20312573 0.10451174 -0.10773209
0.35357538 -0.032090876 0.7590225 -0.1329592 0.055372417 -0.09054513 0.2582071 0.23995563
-0.074847035 -0.12819074 0.024217147 0.012375441 0.1801107 0.65451545 -0.18041722 0.15198264
-0.15730731 0.16760948 -0.1316948 -0.018449971 0.12698951 0.10743759 -0.03581214 0.029586772
-0.21423817 -0.07169135 -0.15969718 0.07287813 0.12792341 0.23352331 -0.06025633 -0.08206817
-0.1090116 0.07875494 0.030830236 -0.108248405 -0.078883015 -0.039770603 0.17758466 0.1351578
-0.18712758 -0.00868991 -0.045869775 0.22963028 0.5113969 -0.055572234 0.016797598 -0.05857355
-0.08104595 -0.073498294 -0.08941474 -0.004788485 0.20998594 0.2964636 0.19073124 -0.04133408
-0.17032225 0.06231725 -0.24403118 0.07729492 0.37377778 -0.08308756 0.06717656 -0.3384332
-0.03821186 -0.09971094 -0.44162333 -0.15889768 -0.13820532 0.001123487 -0.095674895 0.018797856
0.019190513 0.057520904 -0.26733387 -0.20689845 -0.2509036 -0.023694767 0.09575541 -0.22396216
-0.03805672 -0.15422735 -0.16957693 -0.08233628 -0.14397827 -0.28333604 -0.034195792 -0.07540473
0.13256933 -0.19606227 0.22614385 0.027867988 0.09754755 0.14894211 -0.24228808 -0.13487063
-0.19916263 -0.22643518 -0.009533964 -0.04497675 -0.107908115 -0.0030679842 0.08312794 -0.25781012
-0.24066325 -0.6528926 -0.15604411 -0.10306027 0.014763329 -0.01236206 0.12917364 0.18872169
0.047933646 0.26961643 -0.09451992 -0.036622074 0.13078047 -0.10557208 0.086089216 -0.06667072
-0.054680828 -0.08907397 0.053559005 0.0951619 -0.19158915 0.07053716 -0.43352604 0.0048927995
-0.46518475 -0.11249185 -0.22641201 -0.56711894 -0.034614634 0.04694938 0.11365001 -0.19340935
0.029195827 -0.018046133 0.038457144 0.18559124 -0.094458506 0.31232575 0.09836888 -0.22279549
0.015925698 -0.1429299 0.034952924 0.12998332 -0.111532465 -0.14682901 0.15448666 0.017254654
-0.041565284 0.04062148 0.157309 -0.015511639 -0.14101449 -0.10818134 -0.07817147 0.0491811
0.01732508 -0.24408503 0.76118773 -0.011715896 -0.23239979 -0.17359938 -0.12082411 -0.06372734
0.08768062 0.06187095 -0.22349563 0.028457657 -0.094962165 0.05065149 0.04605843 0.068024516
-0.11166362 0.050972614 0.08052031 0.056637693 0.08985856 -0.30804917 -0.03530291 -0.3737135

model_1/batch_normalization_3/batchnorm/sub f4 [64]
00000000: 5edb 1bbf 89a4 dbbe 49bd 50bf 0b82 fdbe
00000010: ee05 e1be 96d2 07bf 87e2 12bf 2b20 0ebf
00000020: 7c74 20bf 121f 17bf a442 23bf 9c61 45bf
00000030: 3f89 47bf 2894 eabe e131 26bf a887 26bf
00000040: 3a32 5abf a7cc 01bf 94e6 0abf b4fe 1dbf
00000050: 6731 2fbf 0f52 32bf c2c4 49bf 83f2 31bf
00000060: 38ec 21bf 5b20 29bf b4e6 24bf 7e08 f3be
00000070: 6fe9 28bf ea56 4ebf 1589 3fbf 2f6e 22bf
00000080: 5e1a 2ebf fe00 35bf ab6e 51bf 488f c5be
00000090: c27a 1ebf 7540 4abf d8d0 42bf 9aef 04bf
000000a0: eb67 44bf 0b05 01bf b2f5 1dbf f9e5 3ebf
000000b0: b457 02bf 3e0b fbbe 66c3 29bf 2557 00bf
000000c0: 2cc6 2ebf 5300 18bf 29c0 42bf 1e0b 1bbf
000000d0: f738 2fbf 7a15 2ebf b576 43bf 4adc 41bf
000000e0: 5668 12bf 37cf 23bf 9d2b 4ebf 6f89 28bf
000000f0: e016 4cbf 28fb 34bf 9721 1abf 1d67 58bf
-0.608816 -0.42898968 -0.81538826 -0.49513277 -0.43949836 -0.53055704 -0.57376903 -0.55517834
-0.6267774 -0.59031785 -0.6377356 -0.77102065 -0.77943796 -0.4581616 -0.6491986 -0.65050745
-0.8523289 -0.507029 -0.54258084 -0.6171677 -0.68434757 -0.6965646 -0.78815854 -0.6951067
-0.63251066 -0.66064996 -0.64414525 -0.47467417 -0.6598119 -0.8060137 -0.74818546 -0.63449377
-0.68008983 -0.7070464 -0.8180949 -0.38585877 -0.61906064 -0.79004604 -0.7609992 -0.519281
-0.76721066 -0.5039832 -0.61703026 -0.7456966 -0.50915074 -0.49032015 -0.6631378 -0.5013297
-0.68271136 -0.59375495 -0.76074463 -0.6056384 -0.68446296 -0.6800152 -0.7635301 -0.7572676
-0.57190454 -0.6398806 -0.805353 -0.6583471 -0.79722404 -0.70695734 -0.60207504 -0.8453234

model_1/batch_normalization_3/batchnorm/mul f4 [64]
00000000: 1dd7 d13f 818a fa3f 1180 f63f d0c5 b03f
00000010: 2d5e cc3f 30ea bf3f 6612 ba3f 2dd8 c33f
00000020: 6261 e13f f675 da3f d264 cc3f a057 dc3f
00000030: 299c 0740 f2b7 ba3f b07a ce3f 6ce2 d03f
00000040: bd8a e83f e272 b13f 7161 eb3f 67dc af3f
00000050: ae2e f93f dab3 d73f 5e92 0240 3f59 c93f
00000060: 8a79 be3f 4e9f ec3f 454c fb3f 18e5 ef3f
00000070: 7250 be3f c365 a13f 1132 b23f 6764 cd3f
00000080: a690 c33f 2f78 e73f 2789 b03f 72d4 e33f
00000090: f8ad c73f c593 c93f f4b1 f03f ea95 cd3f
000000a0: 27ea c83f cfca c43f b513 e93f 0c02 d73f
000000b0: 5f59 cd3f 0898 0640 a506 e93f e3e3 da3f
000000c0: eafe d33f c397 ed3f bae4 d93f b298 c63f
000000d0: c6a4 bf3f 2d1a e23f b54d c43f 9d3a d03f
000000e0: 04b5 b33f 437b c93f 5a12 c83f bed3 cb3f
000000f0: 1013 d23f 054f b33f 913e fa3f f411 c03f
1.6393772 1.9573518 1.9257833 1.3810368 1.596624 1.4993343 1.4536865 1.5300347
1.7607844 1.7067249 1.5968268 1.7214241 2.1189063 1.4587386 1.6131191 1.6319098
1.816734 1.3863184 1.8389112 1.3739136 1.946737 1.6851761 2.0401835 1.5730361
1.4880841 1.8486116 1.9632651 1.8741789 1.48683 1.260918 1.3921529 1.6046265
1.5278518 1.8083552 1.3791856 1.7799208 1.5599966 1.5748221 1.8804307 1.6061375
1.5696458 1.5374392 1.8209139 1.67975 1.6042899 2.1030293 1.8205153 1.7100796
1.6562169 1.8561939 1.7022927 1.5515349 1.497216 1.7664238 1.5336214 1.6267887
1.4039617 1.5740741 1.56306 1.5923994 1.6412067 1.400849 1.9550344 1.5005479

model_1/position_output/BiasAdd/ReadVariableOp f4 [2]
00000000: e91d 87bd 3580 bebb
-0.06597502 -0.0058136233

model_1/floor_output/BiasAdd/ReadVariableOp f4 [5]
00000000: 0aa9 4e3d 8ab7 a03a f16a bb3c 98b5 143c
00000010: 56f3 6fbd
0.050454177 0.001226173 0.022878142 0.009076498 -0.058581673

model_1/dense_9/BiasAdd/ReadVariableOp f4 [64]
00000000: 6458 cdbd d66e dcbd f8c9 e5bd 5a82 9fbd
00000010: 0b00 c4bd c55c a8bd b1e7 9dbd 4cc8 f1bc
00000020: bc57 0bbe 4625 22be 5617 59bd 454f 93bd
00000030: 58c8 c5bc dc9e 94bd cefa c3bd 4ab6 85bd
00000040: 78c8 20bd d60f 80be b20a 69bd 2cf0 f0bd
00000050: 60b3 5ebd 80e0 efbd a003 87bd f2e5 55bd
00000060: a0ba 45bd 77c5 b1bd 2ad0 c0bd 0401 fabb
00000070: 9493 07bd cd6c a93b 2909 c8bd 4be6 11bd
00000080: 71c6 b5bd 392b 8abd 196c c3bd db8c a7bd
00000090: 8490 73bd 6ae0 11be c37b edbd 92a5 acbd
000000a0: 3fad 07be 6085 7dbe 1ea3 3dbe ae55 6ebd
000000b0: 184c 21be 5934 dfbd 251b 85bd f414 7dbc
000000c0: abdd c9bd 30fc ad3b 752f a5bc f573 2fbd
000000d0: 7d49 bbbd 3a09 6fbd 095b e0bd 2024 9ebd
000000e0: cdb6 5cbd 826c 05be cf93 cebd b218 1dbe
000000f0: dca5 dcbd 3191 08bc 5cff febc 4f6e 8bbd
-0.10026625 -0.10763328 -0.11220163 -0.077885345 -0.09570321 -0.082208194 -0.07710207 -0.029514454
-0.13607687 -0.15834531 -0.05300077 -0.07192854 -0.024143383 -0.072568625 -0.095693216 -0.065289095
-0.039253682 -0.25012082 -0.056894965 -0.11764559 -0.054370284 -0.11712742 -0.06592488 -0.052221246
-0.048273683 -0.086802416 -0.09414704 -0.0076295156 -0.033099726 0.0051704408 -0.09767372 -0.035620015
-0.0887574 -0.06746525 -0.09542102 -0.08181163 -0.059463993 -0.14245763 -0.11595871 -0.084300175
-0.13249682 -0.2475791 -0.18519256 -0.05818718 -0.15751684 -0.108986564 -0.06499318 -0.01544689
-0.09856733 0.005309604 -0.02016423 -0.042835195 -0.09144876 -0.05835841 -0.109548636 -0.07721734
-0.05388527 -0.13029674 -0.10086786 -0.15341452 -0.10773823 -0.008335398 -0.031127624 -0.06808149

model_1/dense_8/BiasAdd/ReadVariableOp f4 [64]
00000000: 6a4d b7b9 9e90 233e 17b5 6fbc cfd8 f53a
00000010: fc51 bb3c fbad e6bc e697 1e3c ff00 163e
00000020: 3ffe 783d 6c97 063e c723 913d b1ac 1cbd
00000030: e319 9f3b efef 133e 8d32 6b3d 1d29 343d
00000040: d081 cd3d c4f5 983d 89a4 0f3e 43cd 763d
00000050: 6826 783d d08c 32bc 1eb3 0a3e 4ff3 b73d
00000060: 6afa 223e dca9 ab3d 4d59 acbc 7b6a 55bc
00000070: 5be5 213d e60d 9e3d f48f d83d 5abc a53d
00000080: 3718 613d fd97 15bd 57d9 d63d 6f64 783c
00000090: 38c1 ec3c f1ff be3d cda7 593d e343 1a3e
000000a0: 6ca9 713d 646b 8d3d c477 9fbd 5f88 303e
000000b0: a913 b03d 6230 183e de41 7c3d 2e39 113e
000000c0: 1946 5d3c e350 b53d 8011 c73d 9b8f 1e3e
000000d0: 6378 1d3e 696e 3b3e b641 c33d 274a e73d
000000e0: 1526 b23d f647 113e 5b14 9c3d 0d67 ca3c
000000f0: da8c 883c e1c6 0e3d 1f33 9c3c f4d1 183e
-0.00034962158 0.15973136 -0.0146305775 0.0018756631 0.022866242 -0.028159132 0.00967977 0.14648817
0.060789343 0.131437 0.07086902 -0.03825063 0.004855381 0.14446996 0.057421256 0.04398452
0.100345254 0.07468751 0.14027609 0.060254347 0.060583502 -0.01089783 0.1354489 0.08981954
0.15915838 0.083820075 -0.021038676 -0.013025875 0.03952537 0.07717495 0.10574332 0.08092566
0.054954734 -0.0365219 0.10490673 0.015160664 0.028900728 0.09326161 0.053138543 0.15064959
0.058999464 0.06905249 -0.07786515 0.17239521 0.085975 0.14862207 0.061586253 0.14181969
0.013505482 0.088533185 0.09720135 0.15484469 0.15377955 0.18303837 0.09534018 0.1129344
0.0869867 0.14187607 0.0762107 0.024707342 0.016668726 0.034857634 0.019067345 0.14923841

model_1/dense_7/BiasAdd/ReadVariableOp f4 [64]
00000000: 564c 0e3d 9f7d 323d 0d51 223d 9503 b73c
00000010: 490f f4bc 967a 603e 9946 bf3d 9873 413e
00000020: 8410 243e 7ac5 273d cf52 1b3c 6f4d 203d
00000030: 4220 dfbc 48d0 7d3d 30a2 083e 8690 263e
00000040: f237 d63d ae50 9d3d ffe6 ff3c ca4c 47bc
00000050: 860c 143c 8153 c33b dcc1 043e c014 2c3e
00000060: 6e7b 493e 7691 3f3c a0a7 ac3d c7f1 743d
00000070: 6023 233e 5579 fdbc 2d2c 023e 0402 d03c
00000080: a435 463d 9bc2 e03d 62f2 d83d 0f50 9cbc
00000090: 4fef 9c3d b2e5 bb3d 8774 a8bd 3eee 36bc
000000a0: 9077 b93d 97d2 10bc 86b6 25bd a101 f9bc
000000b0: 8098 2b3d e3c1 8c3d 28e0 7d3d ce9b 143e
000000c0: 3e4e f4bb 7244 533e 2ebc 563d 47c9 7f39
000000d0: 4608 443d 84ef fe3d 17a5 a53d a480 95bc
000000e0: 8aa5 803d d266 c3bc 45d1 573d ee78 e03d
000000f0: b771 9e3d 3095 d23d 63d8 273e bd0c 0bbb
0.03474077 0.043576833 0.039628077 0.022340575 -0.029792445 0.21921763 0.09339637 0.18891752
0.16021925 0.040959813 0.009480192 0.039136346 -0.027237061 0.06196621 0.1334312 0.16266069
0.104598895 0.07681404 0.031238077 -0.012164304 0.009036189 0.005960882 0.12964576 0.1680479
0.19675991 0.011692395 0.084304094 0.05980089 0.15931463 -0.030941645 0.12712164 0.025391586
0.048391 0.10974618 0.10593106 -0.019081144 0.07662832 0.0917467 -0.08225351 -0.0111652
0.09056008 -0.008839271 -0.04045727 -0.030396285 0.041893482 0.068729185 0.06198135 0.1451256
-0.0074556163 0.20631579 0.052425556 0.00024393677 0.047859453 0.12448028 0.08088129 -0.018249817
0.06281574 -0.02385274 0.05268981 0.109605655 0.07736533 0.102823615 0.16391139 -0.002121731

model_1/dense_5/BiasAdd/ReadVariableOp f4 [128]
00000000: 4d81 c53d d407 733d 72a3 f23a b979 4a3d
00000010: ad9d c33c 0861 503b 43e2 e83c d391 f43b
00000020: 67c8 62bc 0fec 723d b566 233b 111e d93b
00000030: 5fc1 003c 2b7f 2e3d c062 963b fb1d 063d
00000040: a8b9 babb 14c9 dc3c f079 533d b2c1 643c
00000050: fdc5 3f3d 2768 9139 adab 223d cca2 bdba
00000060: 9bc7 8f3c e331 d73c 45ca 363c f093 193e
00000070: 8db2 6c3c 81c1 723d b5f3 843b eea1 863d
00000080: a0f4 8d3d 7738 693b 9a98 193e 06da 183d
00000090: 4672 a03d c79b 7dbc 7803 143d 8a36 1bbc
000000a0: f910 503b 53ee bf3d e343 b43d 4952 bd3c
000000b0: 3d1b 103c d9ee b03d 2a69 8d3c 2566 e63a
000000c0: 02a9 8a3b 2eb1 8937 3b13 743b 86ff 083d
000000d0: 9245 d23c 41e5 e33a 7101 523c f00a 1d3e
000000e0: f57c 56bc d93d e43d 5733 b23d d457 523d
000000f0: db19 9dbc 1cab c73c 42ba 863d 8837 0c3d
00000100: cf2f 1f3d 6604 ff3a 5f33 043e 13be 5e3d
00000110: 3653 883d 4d37 5f3d bc1f 6a3c 254c 43bd
00000120: 6fe8 783b dd40 6f3c 48b5 51bd 4346 84b9
00000130: f6f7 843d 0f2b 443d c38c 343c 3093 91bb
00000140: abce a03d d71b 863d cd87 8f3d 5791 f1ba
00000150: 87f3 f4ba 344d f8bc 3aea 033e 4af3 923d
00000160: 7b77 c13c 6536 573d ef0c cf3d c415 53bb
00000170: 063e 92bc d512 683d 6e0f 9a3d c308 0c3e
00000180: a69e bb3d 926b a73d 41bd ad3d 4fbd ba3d
00000190: cdcb 943a 446f 233d 4658 283d 93c5 073b
000001a0: fddf 573d 84c9 9d3d 41ae b03d 9dd2 673d
000001b0: 2943 053c a3da 233c 1f4c 2d3c 3ab9 ac3d
000001c0: 74e9 4f3d bfe2 f63d 0147 143d 53b8 483b
000001d0: 2871 463b bec7 153d 50c9 023c 7e8b 983d
000001e0: a8ee 863d 136d ab3d c013 173d b783 c13c
000001f0: ca0b dc3c e2a2 7fbc 3df9 543d 1327 47bb
0.09643803 0.059333637 0.0018511845 0.04943249 0.023878897 0.0031796116 0.028428202 0.0074636727
-0.013841725 0.059307154 0.0024933044 0.0066258986 0.007858603 0.042601746 0.0045894086 0.032743435
-0.0056984015 0.02695135 0.05162996 0.013962196 0.046819676 0.00027734155 0.039714504 -0.0014468073
0.017551234 0.026268905 0.011156623 0.1499784 0.014446867 0.05926657 0.0040573725 0.065738544
0.06931424 0.0035586634 0.14999619 0.0373173 0.07834296 -0.015479035 0.03613612 -0.009473452
0.0031748398 0.093716286 0.08802011 0.023110526 0.008795557 0.086393066 0.01726206 0.0017578049
0.004231573 1.6414178e-05 0.0037242908 0.03344681 0.02566794 0.0017387049 0.0128177265 0.15336204
-0.0130913155 0.11144609 0.087011985 0.05135329 -0.019177368 0.024373583 0.065784946 0.034232646
0.038863953 0.0019456267 0.12910222 0.054380488 0.06656496 0.0544961 0.014289793 -0.04768004
0.0037980338 0.014602867 -0.051198274 -0.0002522935 0.06492607 0.047892626 0.011019888 -0.004442595
0.07851919 0.06548279 0.07008324 -0.0018430155 -0.00186883 -0.03031025 0.12882319 0.0717531
0.023616543 0.05254211 0.10109889 -0.0032209018 -0.01785184 0.056658585 0.07522474 0.13675217
0.09161119 0.08174814 0.08483363 0.09118139 0.0011352241 0.039901033 0.04109981 0.0020717129
0.052703846 0.07704452 0.08626986 0.05659734 0.008133688 0.0100008575 0.010577231 0.08433767
0.050759748 0.12054967 0.036200527 0.0030627444 0.0030279849 0.036567442 0.007982567 0.07448481
0.06588489 0.08370414 0.03688407 0.023622377 0.02686109 -0.015602799 0.051995505 -0.003038828

model_1/building_output/BiasAdd/ReadVariableOp f4 [3]
00000000: 4b3c 38bd 965d 08bd 5463 513d
-0.044979375 -0.033292376 0.051120117

model_1/dense_5/MatMul f4 [128, 237]
00000000: 62ff 33bb 6442 b1bb 0e1a 81bb 1341 0a3d
00000010: 931b 51ba afc0 0fbb f7d5 85bb ec3f 81bc
00000020: 081d d83b 00d6 2f3b cf6c 8a3c 904e f43b
00000030: 6476 a03c cca3 2f3c 4f8b 013d ec93 67bc
00000040: 49f1 babb 1e69 823c c41d d8bc d5c1 0fbc
00000050: d1a3 21bc 1dd4 bb3c 2423 413d ca9e 86bc
00000060: 656d b3bc 9754 d23b ea91 013d 56f3 93bb
00000070: fa0c 65ba 7999 20bd 1fcf 103d f15d 10bc
00000080: 8f50 2c3c 160d e9bb 1d10 ca3c 0fb8 913b
00000090: 7c6d 85b9 3086 223b fdbc 74ba 148f 1ebc
000000a0: 6982 e43b 08f9 c5bc f4b1 f0bb 08c1 8f3c
000000b0: 2daa 2c3c 4600 213c c969 973d 4729 7cbd
000000c0: 08b5 65ba 98e8 8ebb 4e34 a13b cbf7 103c
000000d0: 8dec edbb 2867 e237 5b9f 113d b2b3 69bc
000000e0: fef9 fcbb dc8a a1bb fb4e 06bc f285 5dbc
000000f0: 4932 243c 0278 1fbc e7ee 5fbc 611c 09bc
00000100: 39be b7bc 49a8 8abc c4dc 483a 02b1 ee3c
00000110: a28c 6e3b e5dc c7bb 7616 cf39 fbc1 873c
00000120: 09ac 503c 028d a8bb 660e 44bc 57ee ecbb
00000130: a38d 58bc 3883 163c 4669 c2bb e053 aaba
00000140: 93c1 31bb 32d8 b0bb eb5b 83bb 67a7 32bc
00000150: ad8c e339 1cc6 96bb 6536 8cbc 35c1 cebc
00000160: 1f7e ad39 89b5 773c bff6 293c 6091 cb3b
00000170: 48e5 503c 8379 b93c 3bf9 4bbb cf48 abbb
00000180: 3e5f a73c 0282 4dbc 928c 26bc 0691 b8bb
00000190: 10d4 c13c 3dff 263b 3143 04ba 4de7 07bd
000001a0: 33db e33b a83a 5abc 86cd 78bb 8804 eabb
000001b0: 2075 6b3b d27e 88bb 847d a23a e06b 293b
000001c0: 2761 93ba 32b9 4fbc 70dc b13b 53c5 a9bc
000001d0: 8f97 3fbc 2fdd 8e3c 6473 2d3c 45e9 273b
000001e0: f829 f53c 7720 e93c ae1c ad3c 9a9d 09bb
000001f0: 536b 1fbc 7443 533c c990 00bd fe09 14bc
00000200: 0c3d de3a aef7 d13b a6f8 b93b 2969 2eba
00000210: fb37 4739 e123 fc3c a0f8 6abc b484 19bc
00000220: 5634 8abc 7aa3 12bc 1561 5ebc 3f61 173c
00000230: 28a7 1dbc a57d 5fbc ea3f fabb cdf6 bebc
00000240: f6ce 59bc 3c10 d73b 081e eb3c 8bdc 0cb9
00000250: d83c 2cbc 4ef4 4cbb cb94 8f3c c650 4c3c
00000260: 3f3b b9bb 3448 46bc 8e00 63bc 7cf9 53bc
00000270: b1ae e53b f6b5 bdbb 3d86 aaba 615d 23bb
00000280: 64ec afbb dc7d 80bb d53f f439 67c8 51ba
00000290: 12c6 26bb b09d 85bb 780c 89bc 3962 163c
000002a0: 9232 cc3b da25 2abd bbe6 333c 634d 83ba
000002b0: f21c 813c 00c0 db3c ee34 12ba 5197 b2bb
000002c0: 26c0 2e3c d2f7 d4ba 2c9e 05bc c880 d93c
000002d0: 3fcd 39bb b626 163d 9bd1 f4bc 1aa5 0bbd
000002e0: 76ed e13c b49f 9abb 67ff 92bb 414b 8c3c
000002f0: 3db6 1dbb 1bf1 6c3a 2511 363b 3075 84ba
00000300: 92a7 0bbc 8fe8 dc3b 7804 b0bc 9275 1ebc
00000310: 001e 823c 277b 283c 7380 0f3c 7f2b 7b3d
00000320: 5b46 be3c 1d02 ff3c 27f6 84bb 7123 233c
00000330: bd36 e83b 57d1 eabb 9138 7fb9 ca05 033d
00000340: ee3d 6bbc 3aa6 13bc f5ab 86bc dd84 0dbc
00000350: fe5a 5cbc 9348 203c 1be3 1fbc 4ff7 10bc
00000360: a8fa 06bc 2464 b1bc 17f3 83bc 84bf 813b
00000370: ee67 d43c d3a0 d53b be64 bbbb 7542 39ba
00000380: c0e9 443b 2047 2e3c 1a14 cdbb 4228 5abc
00000390: c2c6 38bc 6eae 4bbc e7b7 ea3b 78fe 98bb
000003a0: c9b0 66ba 675e 2f3d f653 2ebd ab8c 10bc
000003b0: 1932 503c cfc1 bd3c 11e0 993c 2b0d 763b
000003c0: f40a e3bb 6350 d93c b9f1 8c3a 0c92 a03b
000003d0: bffa 42bc 4d43 07bb a2b1 48bc bf65 99bc
000003e0: 45fc bdbb 0906 3ebc 60a3 bf3c 5517 1b3c
000003f0: 6fcb 4ebd d89c dd3b 38f6 dc3c 2f82 7c3c
-0.0027465452 -0.0054095257 -0.0039398735 0.033753466 -0.0007976826 -0.0021934917 -0.0040843445 -0.01577755
0.0065952577 0.0026830435 0.016897587 0.0074556544 0.019587703 0.010720205 0.031626996 -0.014134388
-0.005705033 0.015919264 -0.02638138 -0.0087742405 -0.009865717 0.022928292 0.047152653 -0.016433138
-0.02190275 0.0064187753 0.031633295 -0.004515092 -0.00087375904 -0.039208863 0.035353776 -0.00881146
0.010517254 -0.0071121557 0.024665887 0.0044469903 -0.0002544931 0.002479922 -0.0009336023 -0.009677667
0.006973554 -0.024166599 -0.0073454324 0.0175481 0.01053862 0.009826725 0.07393224 -0.061562803
-0.00087626325 -0.0043612234 0.0049195653 0.008848141 -0.007260865 2.6989335e-05 0.035552364 -0.014264034
-0.007720231 -0.0049298834 -0.008197541 -0.013520705 0.010021755 -0.009733202 -0.013667799 -0.008368582
-0.022429572 -0.016925948 0.0007662291 0.029137138 0.0036399742 -0.0060993307 0.0003949885 0.01657199
0.012736329 -0.0051437626 -0.0119663235 -0.0072305608 -0.013217363 0.009186558 -0.0059329597 -0.0012994967
-0.0027123436 -0.0053968662 -0.00400876 -0.01090417 0.00043401626 -0.004601253 -0.017115781 -0.025238613
0.000330911 0.015118965 0.01037377 0.0062123984 0.012749977 0.02264095 -0.0031123895 -0.0052271853
0.020431157 -0.012543203 -0.0101653505 -0.0056325225 0.02366069 0.0025481724 -0.00050454127 -0.03317957
0.006953621 -0.013319649 -0.0037964298 -0.0071416534 0.0035927966 -0.004165509 0.0012397026 0.0025851652
-0.0011244164 -0.012678431 0.0054278895 -0.020723974 -0.011693849 0.017439453 0.010586593 0.0025621217
0.029927239 0.028457863 0.02113184 -0.002099848 -0.009730178 0.0128945 -0.031388078 -0.009035585
0.0016955449 0.0064076995 0.005675393 -0.00066532433 0.00018998973 0.030778827 -0.014341503 -0.009370018
-0.016870659 -0.008950109 -0.013572951 0.009239494 -0.009622373 -0.013640796 -0.0076370137 -0.023311043
-0.013293972 0.0065632146 0.028700843 -0.00013433599 -0.010512553 -0.0031273547 0.017527005 0.01247043
-0.0056528146 -0.0121021755 -0.013855113 -0.0129379 0.00700935 -0.0057895137 -0.0013009977 -0.0024927484
-0.005368756 -0.0039212536 0.00046586865 -0.00080025796 -0.002544765 -0.0040776357 -0.016729578 0.009178692
0.0062316144 -0.041540004 0.010980303 -0.001001757 0.015760873 0.026824951 -0.0005577345 -0.005450167
0.010665929 -0.0016248173 -0.008155387 0.026550665 -0.0028351096 0.03665801 -0.029885104 -0.034093
0.02757905 -0.004718745 -0.0044860127 0.017125728 -0.0024064921 0.0009038613 0.0027781215 -0.0010105725
-0.008523839 0.0067415903 -0.021486506 -0.009671586 0.015883446 0.010283268 0.008758652 0.061320778
0.023226907 0.031128937 -0.004057664 0.00995718 0.0070866034 -0.0071660685 -0.00024339768 0.031987943
-0.014358027 -0.0090117995 -0.016439417 -0.008637634 -0.013449429 0.009782928 -0.009758736 -0.008848025
-0.008238472 -0.021654196 -0.016107125 0.003959598 0.025928464 0.006519416 -0.0057187965 -0.0007067093
0.0030046552 0.010637075 -0.0062585 -0.013315262 -0.011277856 -0.012431724 0.007163036 -0.004669007
-0.0008800147 0.04281464 -0.04256054 -0.0088226 0.012707257 0.023163704 0.018783601 0.003754447
-0.006928796 0.02652759 0.0010753191 0.0049002226 -0.011900603 -0.002063948 -0.012249382 -0.018725274
-0.005797895 -0.011598119 0.023393333 0.009466012 -0.05048698 0.006763082 0.026972875 0.015411898

model_1/attention_layer_1/MatMul f4 [64, 64]
00000000: 2836 43be bbb3 083e d57a 563e 56a0 19be
00000010: 26e8 ce3d a5a6 4d3e 4034 bebb 081d 7cbd
00000020: 0870 2abd e021 f7bc f0a4 87bd a226 953d
00000030: 3f75 56be 1799 1abe 57fa 583e 342b a8bd
00000040: 20ce abbd f449 3a3d 2128 3cbe 2abc ae3d
00000050: 5cef 7c3d 907a 00bc 2ac1 e93d 5a65 cd3d
00000060: aca9 2d3d 1502 0ebe 8270 ca3d d534 4bbe
00000070: c0a5 4fbe f6e4 f43d 564a 903d c64e f63d
00000080: 9052 9fbc 5484 413d 00d8 ee3b 5693 b63d
00000090: 935a 08be c649 a6bd b59c 13be 7069 99bd
000000a0: a144 573e fb97 56be 9cdc 41bd 06e4 f03d
000000b0: 0de5 2b3e 2ca7 19be 80f0 7ebb 9223 cc3d
000000c0: 091e 163e 13fa 423e 884e 55bd 5ae1 c03d
000000d0: b16b 49be 8d06 1c3e 3933 46be 9c8e 15bd
000000e0: b3fd 10be c557 383e 9535 0b3e 97e5 35be
000000f0: b092 51bc 30d3 593c d2ca 0dbe afc7 20be
00000100: c87c 4ebe 9d4d 2f3e 65e7 0d3e e046 4cbe
00000110: a419 3dbe b10c 163e 9420 51be 8cd8 6f3d
00000120: ede8 58be 03c9 4c3e 43a3 2ebe 7c05 673d
00000130: 03d5 423e 7c9a 113d b93f 043e 72d5 b0bd
00000140: d443 4dbd 5448 363d 32bd 863d 35fa edbd
00000150: 2c8f 423d 2482 f2bd 1621 8d3d 2730 3f3e
00000160: 3423 7fbd a26e fc3d 2a81 a73d 0bfb 05be
00000170: b42c 30bd e137 d8bd cab9 d13d 9fca 133e
00000180: 74a5 9ebd 2c29 c9bd c36a 083e 419b 553e
00000190: ca5e 9ebd ec71 013d 57b5 0a3e b7b5 f6bd
000001a0: b780 403e 687b 1fbd 2bf0 393e 886a cbbc
000001b0: f9b2 303e ca78 d63d a13c 34be 1ffe 373e
000001c0: e87e c9bd c44f 2a3d 7c48 1d3d 4001 923b
000001d0: c231 9d3d 7874 dbbc 10cb 5dbd e347 c9bd
000001e0: 538d 573e a51b 11be 8b04 3abe cc5c 6e3d
000001f0: 37b8 49be 0617 2fbe c287 8f3d 80bb 7bbb
00000200: f6be 1ebe 5e16 c13d 61f3 213e fbbf 4c3e
00000210: 3039 cb3c c613 1cbe 28fd e0bd 2cb3 2bbe
00000220: 98be b73c e65a 843d a23e f93d 2732 553e
00000230: b66b 47be f424 35be 60e8 f3bb e01e 68bd
00000240: 3b98 263e 807c 15be d7ed 53be 863c 0ebe
00000250: 7c9b 553d 3f32 0f3e c487 683d 8c1d 22be
00000260: 0054 20b9 00cb bebb 7ea2 1fbe db67 2e3e
00000270: aa4f a43d ecbc 3cbe a08c e13c 10a4 5fbc
00000280: 7a44 c6bd 5634 ef3d 030c 393e 6fc3 323e
00000290: 7275 d53d 661d a83d 1e73 c43d 3cfb 383d
000002a0: d927 443e 5cab 16bd 63af 173e 4095 0e3b
000002b0: 844e 4bbe 12e0 01be 706c 86bd c8a6 29be
000002c0: 7081 1bbc 2642 ddbd 9d4b c7bd 1ed9 9ebd
000002d0: ecd6 6e3d b349 0b3e 9297 ecbd 1ddc 393e
000002e0: 004d e93b 5c57 733d 7fd8 31be 0a7b 8bbd
000002f0: 90ba 363c 2085 8abb f7ff 203e ec86 773d
00000300: 1c9f 26bd 6078 1b3c 4220 c43d acc4 513d
00000310: fe71 853d 5792 bfbd c0cf 0ebe 3097 1bbe
00000320: 9401 41be 60c5 a0bb fcd5 1bbe 20d9 ba3b
00000330: 0c19 63bd 1e72 ec3d b661 e53d 2829 93bd
00000340: 3c00 033d 5d37 023e fb7c 503e 1cd0 613d
00000350: 6b22 3e3e 564b 31be 3a89 50be 3073 a7bc
00000360: c0ba 713b b895 a83c 1694 a63d bb3a 3d3e
00000370: cc45 7c3d 7c93 fcbd eace bc3d 7256 813d
00000380: 9ab0 c83d 5492 6b3d 3242 04be ae97 12be
00000390: 6a1d c4bd 27a7 5b3e 6521 cabd 2ce4 2c3d
000003a0: 0000 a93b e44f d4bd a790 543e 520c ac3d
000003b0: 902e 07be 229b 49be adbd 523e 5fc0 5a3e
000003c0: 34c3 13be 00f9 683c 3476 0fbe ceec 0fbe
000003d0: 3c2d 46bd 0da3 0bbe b4eb 69bd 5f0b 0c3e
000003e0: 040c 4abe acce 3c3d be21 ef3d 50ac 49bc
000003f0: ff75 11be 4058 aabd 5886 d63c d475 19bd
-0.19063628 0.13349812 0.20945294 -0.1500257 0.101028726 0.20083101 -0.0058045685 -0.061551124
-0.041610748 -0.03016752 -0.06623256 0.07282759 -0.20943163 -0.15097462 0.21189247 -0.08211365
-0.083889246 0.045480683 -0.18374683 0.08531983 0.06175171 -0.007841721 0.11413796 0.10029097
0.04239814 -0.13867982 0.098847404 -0.19844373 -0.20278072 0.11957733 0.070454285 0.120267436
-0.019448549 0.04724534 0.007288933 0.08914821 -0.13315801 -0.0811954 -0.14415248 -0.07490814
0.21022274 -0.20956413 -0.04732953 0.11762242 0.16786595 -0.15005177 -0.0038900673 0.09967722
0.14659895 0.19040708 -0.052076846 0.094179824 -0.19669987 0.15236874 -0.19355477 -0.036512956
-0.14159279 0.18002231 0.13594659 -0.17763363 -0.012791321 0.01329498 -0.13846901 -0.15701173
-0.20164788 0.17119451 0.13857801 -0.19948912 -0.18466812 0.14653279 -0.20422584 0.058556125
-0.21182604 0.19998555 -0.17054467 0.056401715 0.1902657 0.03554772 0.12914933 -0.086344615
-0.050113514 0.04450257 0.06579055 -0.11619989 0.04749982 -0.118412286 0.06891076 0.18670712
-0.06228943 0.12325789 0.08178933 -0.13084047 -0.043011382 -0.10557533 0.102405146 0.14432763
-0.077464014 -0.09822306 0.13321976 0.20860006 -0.07732923 0.031602785 0.13545738 -0.12046378
0.18799101 -0.03893605 0.18158023 -0.024831071 0.17255773 0.104722574 -0.17601253 0.17968033
-0.098386586 0.041579977 0.038399205 0.0044557154 0.07675506 -0.026788935 -0.054148734 -0.098281644
0.21050005 -0.14170702 -0.18165796 0.058193967 -0.19699179 -0.17098626 0.070083156 -0.003841132
-0.15502533 0.09428094 0.15815498 0.1999511 0.024807543 -0.15241918 -0.10985786 -0.16767567
0.02242975 0.0646265 0.121701494 0.20819913 -0.19474682 -0.17689878 -0.0074434727 -0.05667007
0.16269009 -0.14598274 -0.20696197 -0.13890275 0.052150235 0.13984011 0.0567701 -0.15831584
-0.00015290082 -0.0058225393 -0.1558933 0.17031805 0.08023007 -0.18431443 0.027532876 -0.013649955
-0.096810296 0.11679904 0.18070988 0.17457364 0.104227915 0.08208732 0.09592269 0.04516147
0.19155826 -0.036784515 0.14812998 0.002175644 -0.1985417 -0.12683132 -0.065636516 -0.16567528
-0.0094913095 -0.108036324 -0.09731219 -0.077562556 0.058310434 0.13602333 -0.11552347 0.18150373
0.007119775 0.059409484 -0.17367743 -0.06810577 0.011152878 -0.0042272955 0.15722643 0.060431406
-0.040679082 0.009489149 0.09576465 0.05121295 0.06515883 -0.09354084 -0.13946438 -0.15194392
-0.18848258 -0.0049063414 -0.15218347 0.005702153 -0.05544381 0.115452036 0.112002775 -0.07185584
0.031982645 0.12716432 0.20360176 0.05513011 0.18567817 -0.17313895 -0.20364848 -0.020440668
0.0036884993 0.020579204 0.08133714 0.18479435 0.06159 -0.12332818 0.09219153 0.06315316
0.09799309 0.057512596 -0.12915877 -0.14315674 -0.09575923 0.21450482 -0.09869651 0.04220979
0.0051574707 -0.103668004 0.20758305 0.084007874 -0.13201356 -0.19688085 0.20580168 0.21362446
-0.14429933 0.0142195225 -0.14009935 -0.14055178 -0.048382983 -0.13636418 -0.05710955 0.13676213
-0.19731146 0.046095535 0.11676358 -0.012309149 -0.14205168 -0.083176136 0.026187107 -0.037465885

model_1/attention_layer_1/MatMul_1 f4 [1, 64]
00000000: 5996 24be 7c20 893d e868 553e 374e 84be
00000010: 0875 873e ac7a 6b3e f060 d43c 8839 f6bd
00000020: d04b 2b3e 6020 06bc d372 0cbe 5cad 6e3e
00000030: 88a2 713e 4da5 1bbe 194b 46be 2419 543e
00000040: d434 973d 4c56 76be 96c2 103e 42e6 413e
00000050: 1852 483d f881 d1bd 984a 4c3e 983d 7f3d
00000060: 1026 9a3e 0cbf 113e 38fa 7e3d 8f70 15be
00000070: 7cf6 95be 1ebf 0e3e b043 15be 0ccd 83bd
00000080: f3d1 56be bc68 b33d 7c12 433e a0eb abbc
00000090: 1cd8 5a3e 002d 9b3d e894 3c3d 70c7 13bd
000000a0: f85e 993d 7001 5a3e 67f5 26be 9e12 67be
000000b0: 6b86 87be 9256 5cbe 9c29 99be 5011 99be
000000c0: 7557 9abe 6085 3abe 3cd3 de3d b66a 13be
000000d0: 7876 2c3d e87b 673e b487 7dbe de54 39be
000000e0: 6fd1 87be 36f3 27be c0c0 003e e06b a2bd
000000f0: 3e41 edbd a488 c1bd a855 683e a0f9 333e
-0.16072978 0.06695649 0.208408 -0.25840923 0.26456475 0.22996014 0.02592513 -0.12022692
0.16728139 -0.00818643 -0.13715677 0.23308319 0.23597157 -0.15199776 -0.19364585 0.20712715
0.07383123 -0.24056357 0.14136729 0.18935493 0.048906416 -0.10229868 0.1995033 0.0623146
0.30107164 0.14233035 0.062250346 -0.14593719 -0.29289615 0.13940093 -0.14576602 -0.06435594
-0.20978527 0.08760211 0.1905002 -0.020986378 0.21371502 0.075769424 0.046040446 -0.03607887
0.07488817 0.21289611 -0.16304551 -0.22565696 -0.2646974 -0.21517399 -0.29914558 -0.2989602
-0.3014485 -0.18214941 0.108801335 -0.14396176 0.042105168 0.2260586 -0.24758798 -0.1809878
-0.26526973 -0.16401371 0.12573528 -0.07930732 -0.115847096 -0.0944989 0.22688925 0.17575693

model_1/dense_7/MatMul f4 [64, 64]
00000000: e6bd 323e 2785 53be 7513 5c3e 93e2 46bb
00000010: 72db 413c 8b6e fb3d 2620 273d a96e 683d
00000020: 228f 013e d24a 0a3a 2e95 7fbc a74d 173d
00000030: d822 94bd 5ca2 513e 1d76 013e c258 38be
00000040: f732 b13d e9aa e53b afd3 6fbd 2e8c 2bbc
00000050: 2e51 3fbe 56c2 303e 02b9 cbbd 8de2 cd3d
00000060: f150 a0bc 84ad c13d bbd5 503d d17e 42be
00000070: 78fe 993d 737d a33c 4fcd 39be b3b5 05be
00000080: 1f81 2dbe f4a6 443d 8858 8d3c 6f56 89bd
00000090: 399e 5dbe 1576 89bb 4dc6 fb3d d734 cd3c
000000a0: 145c 07be 4eec b5bc a874 043e 8f07 653d
000000b0: 23d2 853d 5327 ee3d 0b2c 253e fa65 20bd
000000c0: 9ab3 6d3d 8822 df3c 8f9d 24be 55b0 d1bd
000000d0: cba5 3e39 7e3c 503e ce9c 0dbe 9512 4ebe
000000e0: 7ec8 213e fddb 8abe 993a 19be 6b8a 733c
000000f0: 86fc e2bd e597 5cbe 5505 d13d 867c acbc
00000100: 3bb9 7d3e d9be a0bd 4691 89be c6dc 59be
00000110: b669 df3c 47e0 21bd 62ac 13be 2ab9 ad3d
00000120: ba00 fb3d 1006 813d 9854 983e 8d7f fabd
00000130: 4fbe 46be 6ea0 f1bd a8b7 3fbd c362 1a3e
00000140: 7988 123d 08e1 38be 14cc 01be 6b35 c53d
00000150: 4055 9f3d ba0d 903c 1bf0 4c3d f917 c83d
00000160: efe8 623d 09e2 86bd bda9 853e b0c8 da3d
00000170: b604 31bd 1a50 6f3d 14e8 7a3e 7ad1 9abd
00000180: 70d5 4cbe c010 abbb defb 8d3e 9e15 5a3e
00000190: 7d76 723d 811f b9be 43f8 113e b64f d73d
000001a0: d359 3ebe a8c3 163e 48bb e93d c4c1 fabc
000001b0: b50b 633e 3adc 913d a130 fe3d dece abbd
000001c0: e4bc 623e c51b 423d 3a0d 0fbe 1725 f2bd
000001d0: 87b3 c1bd 0946 66be cc62 143e 8477 12be
000001e0: c363 023e 50ed cd3d 3bc7 1bbe 087f f7bd
000001f0: 6bbd 0dbe 8ee1 863e 1df2 263e 7780 37bc
00000200: 8c28 8abd 4029 48bd 0cf3 15be 2835 d0bd
00000210: a513 6abd 0291 133e 0e5b 41be 9163 203e
00000220: 3601 ce3d 1ac4 e53d 5425 97bd 858b c1bb
00000230: bddc 49be 1fe4 a6bd 59a5 1c3e 0b3f a5bd
00000240: 2497 73be e310 24be ba68 babd 7ebc 2abe
00000250: 6d2b 613e 7377 403e 9f52 353e 293f 263e
00000260: 96b0 833d 0478 aebc 9ef8 3cbe b199 13be
00000270: e930 33be f6f9 07be e501 14be 3e07 c83b
00000280: 2f80 7abd 828f 2f3e 5588 2bbe ec83 88bd
00000290: ba6c 9b3b f3f0 fe3d 3db5 393d 72b2 67be
000002a0: 91ab 353d e82d 7b3d f5f7 393e 68e0 623e
000002b0: 1500 49be 06f2 0dbe e530 ff3d b897 32bd
000002c0: 3c3f 95bd 377c 003d 6998 d3bd cb34 943e
000002d0: acfb e3bd 43ba 343c 7357 063d 3715 b93d
000002e0: e4dc 01bc c9e2 e33d 5d58 cfbc 0441 c13d
000002f0: d455 213e 06ea 33be 1ab6 2fbc fd81 d9bd
00000300: d3cd b5bd 73dc fb3d 9096 573e 1d6f d5bd
00000310: 0c30 253e 9b20 7e3b b0ef cfbd aca9 22be
00000320: 1b1e 01be 0b1b 48be 4b2c 35be 5152 dbbd
00000330: b5cc 033d 2120 82be 9f16 14bd d246 133e
00000340: ae4f 0a3e c1ac 51be d077 20bc ce1f 303d
00000350: c7eb 113e 672b 413a 6173 4dbd d0ac 7a3b
00000360: 2c6b d9bd f6ee 7b3d 2afe d63d 2ae7 8ebd
00000370: b3f3 d73d 78e5 29be 2a7f 67be 1971 503e
00000380: 300b 58bd df00 44be 82f4 453e e8cf dabd
00000390: 124d d63d 3f4e 103c ca49 d0ba 6014 973e
000003a0: 68bf 6d3c dc55 e0bb 3d0c 013e 2d1e 0cbe
000003b0: 51fc c73d 3763 bbbc 9a36 25be 349d 383e
000003c0: 3c7c 0bbe 1ea1 473e 84d3 13be f996 c9bd
000003d0: a367 08be 7d23 fe3b ec79 85bd 8e60 253e
000003e0: d996 51be f103 7e3e 2522 1abe 8088 5d3d
000003f0: c5c0 303e 9ea5 263e 08fb 793a 62a3 0cbe
0.17455253 -0.20656262 0.21491797 -0.003034745 0.011832105 0.12276944 0.040802144 0.05674616
0.12652257 0.00052754313 -0.015599532 0.03693929 -0.072332084 0.20472091 0.12642713 -0.18002608
0.08652299 0.0070088995 -0.058551487 -0.010470433 -0.18683311 0.17261633 -0.09947397 0.10052977
-0.019569846 0.094569236 0.05098508 -0.18993689 0.07519239 0.01995728 -0.18144725 -0.13057594
-0.16943787 0.04801078 0.017254129 -0.06705939 -0.21642388 -0.0041949847 0.12293682 0.02504961
-0.13218719 -0.022207405 0.12935126 0.05591541 0.06534221 0.11628594 0.16130082 -0.039159752
0.05803261 0.027238145 -0.16075729 -0.10238711 0.00018181575 0.20335576 -0.13829347 -0.20124276
0.15799138 -0.27120963 -0.1496376 0.014864544 -0.11083321 -0.21542318 0.10206095 -0.021055471
0.24777691 -0.07848901 -0.26868647 -0.21275625 0.027272087 -0.03952053 -0.14421228 0.08482583
0.12255998 0.062999845 0.2975204 -0.1223136 -0.19408534 -0.11798178 -0.046806008 0.15076737
0.03577468 -0.18054593 -0.12675506 0.09629329 0.07779932 0.01758467 0.05003367 0.097701974
0.055397924 -0.065860815 0.26106063 0.10682809 -0.043217383 0.058426 0.24502593 -0.07559486
-0.20003295 -0.0052205026 0.27731222 0.21297309 0.05919503 -0.36156848 0.1425486 0.105132505
-0.18588953 0.14723074 0.11412674 -0.030609973 0.22172435 0.07122083 0.12411619 -0.08389066
0.22142369 0.047389764 -0.1396989 -0.118234806 -0.0945807 -0.22487654 0.14490813 -0.14303404
0.12733369 0.100550294 -0.15212719 -0.12084776 -0.13841788 0.2634396 0.16303296 -0.011200062
-0.06746015 -0.048867464 -0.14643496 -0.10166389 -0.05714764 0.14410785 -0.18882391 0.15662982
0.10058825 0.11219044 -0.07380167 -0.0059065246 -0.19713111 -0.081489794 0.1529745 -0.08068665
-0.23788124 -0.16022067 -0.09102006 -0.16673467 0.21989222 0.18795566 0.17707299 0.16235031
0.064301655 -0.021297462 -0.18454215 -0.14414097 -0.17499126 -0.13278946 -0.14453848 0.006104379
-0.0611574 0.17144588 -0.16751225 -0.06665787 0.004743186 0.12448301 0.045338858 -0.22626665
0.04435307 0.061323076 0.18160994 0.22155917 -0.19628938 -0.13861856 0.12460498 -0.04360172
-0.072874516 0.03136846 -0.10331804 0.28946528 -0.11131987 0.011030736 0.03279824 0.090372495
-0.0079262 0.1112724 -0.02531069 0.09436229 0.15755397 -0.17569742 -0.010724569 -0.106204964
-0.088771485 0.12297907 0.21053529 -0.10421584 0.1613161 0.0038776759 -0.10153139 -0.15885037
-0.1260914 -0.19541566 -0.17692678 -0.1070906 0.032177646 -0.25415137 -0.036154386 0.14382485
0.13506958 -0.20476057 -0.0097941905 0.04299908 0.14250098 0.0007368833 -0.050158862 0.0038249977
-0.106161445 0.061507188 0.10497697 -0.06977685 0.10544529 -0.16591442 -0.22607103 0.20355643
-0.052745044 -0.19140957 0.19331554 -0.10684186 0.10463919 0.008807718 -0.0015891131 0.29507732
0.014510967 -0.0068461727 0.12602325 -0.13683386 0.097649224 -0.022874458 -0.1613411 0.18028718
-0.1362161 0.19495055 -0.14436156 -0.09843249 -0.13320784 0.0077556954 -0.065173954 0.16150114
-0.204677 0.24806191 -0.15052088 0.054085255 0.17261036 0.16274115 0.0009536003 -0.137342

model_1/building_output/MatMul f4 [3, 64]
00000000: 9795 9cbe a4c8 a1bd 1b21 9cbe c70e a63e
00000010: 53d0 9f3e 9e75 edbd 991d a4be 0d15 61be
00000020: 8814 6dbe 342b c8be a34d 13be b7cd 71bd
00000030: 8004 253e 72d8 643e c1dd 8a3e e17d 8cbe
00000040: 9a40 a7bc bd65 92be 7feb 9abe df50 5a3e
00000050: f01e 4ebe 3670 8c3e 9daf c5bd 22b5 aebd
00000060: a522 4f3b c775 173d df83 a1bd 64be 89be
00000070: 260a 2bbe f242 053e 5d88 2d3e fe49 3f3e
00000080: b7f8 3bbe e933 09be 9541 4bbe e007 26be
00000090: 9834 a1be 657a 49be ba2b 833e a1a3 0cbd
000000a0: b94f 5abe 21a2 6c3e 4c49 4c3e 2e33 303e
000000b0: 2479 9abe 4dec 0e3d 0c1e 35be a298 9dbe
000000c0: b735 463e ef88 a73d eb16 813e e930 ae3e
000000d0: 6e4c 96bd 0729 53be 7d13 f9bd c4df 973e
000000e0: e1c5 4d3e de08 6b3e 9239 01be 2459 a5be
000000f0: 23de 99be f276 94be 09e4 433d 28bc af3e
00000100: 4724 923d 1cfa 0a3e 20e4 afbd b76c 9abd
00000110: db3a 8fbe cb28 dd3c d2fe 983e 270d 4cbe
00000120: 734d b7be be2b 013d e61c d13e 329f 6a3e
00000130: f5f9 87be 9167 3c3d b147 b7be 30da dc3d
00000140: a36f 17be bd28 2b3d 60cc ad3e 2b27 99be
00000150: 14de d93d 3f4b 763e 104e 3d3d c181 763c
00000160: 3423 febd 693a b93c 1e9a 5a3e aed7 903e
00000170: bc04 a23e d08a a6bd 579b a23e a71c 19be
00000180: 0294 9dbe 59cc 20be c8b9 0fbe 208b 9abc
00000190: 0df4 14be 7174 f2bd 23e9 14be 652e 913e
000001a0: 69db 9a3e 4341 b8bc 18b1 1bbe e917 acbe
000001b0: 3f9e 823e 057c 9ebe 657f 823c f501 bcbd
000001c0: 059b 3ebe 0fa6 1e3e c90a b8be a3a0 7fbe
000001d0: 80dc 9e3e cc01 ecbd afa0 a8be 3522 97bd
000001e0: 6a2f b3be 3cee 27bc 71f8 c0be 6b3a 74be
000001f0: c02f ad3e bc14 093e 5c42 013e 2366 57be
00000200: 6634 913e 1b60 4fbe eaf4 c13e 5e54 a83d
00000210: 41c0 14be cc78 bb3e 95bd 3a3e 0dc4 053e
00000220: 757b 903d c73d 0dbe fc88 e0bd 7b28 4abe
00000230: b52a 9cbe 683e 1f3e e7d0 8d3e d2dd d73e
00000240: 1d4a 6a3e e63d 1a3d 18c7 40bd 696f 733e
00000250: 6c0f 41be c2fe b2bd f4d4 453e 1c16 313e
00000260: c32d 6c3e 81a1 083d ae11 38be 71ef 36be
00000270: 9717 de3d d38e 7bbe 76b9 cbbe 9856 85bd
00000280: 45bc 8d3e 15ff 6a3e d347 983e a7d6 6bbe
00000290: 78ff e63d e2fe 98be c31b 90be 4ac0 49be
000002a0: 6351 643e 7d9c afbc 0a95 55be 3a67 48be
000002b0: 8d42 bcbd 7653 093e ebf1 253e 9602 813e
000002c0: c748 ddbd e3f6 ab3e aaad e13d da8f 33bd
000002d0: fc60 b4be fcc0 c53e ce27 b63e 21fa 0b3d
000002e0: 3c1c 183e 32ef c3bd beab f13c d2ed b83e
000002f0: 1183 c63b ec14 ba3d b4e4 e43e ee4a 40bc
-0.30582878 -0.07899597 -0.30494007 0.3243315 0.31213626 -0.11594699 -0.3205383 -0.21980686
-0.23152363 -0.3909546 -0.14385085 -0.059034076 0.16114998 0.22348192 0.2712231 -0.27439788
-0.020416547 -0.28593245 -0.30257794 0.21319912 -0.20128989 0.2742936 -0.09652636 -0.08530642
0.0031606343 0.036977556 -0.078864805 -0.2690307 -0.1670309 0.13013819 0.1694655 0.1868057
-0.18356596 -0.13398708 -0.19849236 -0.16213942 -0.31485438 -0.19675596 0.25619298 -0.034335736
-0.21319474 0.23108722 0.19949836 0.17207024 -0.30170548 0.034893323 -0.17687243 -0.30780512
0.19356428 0.08180415 0.25212798 0.3402169 -0.073387966 -0.2062112 -0.1216192 0.29662907
0.20095016 0.22952601 -0.12619618 -0.3229457 -0.3005229 -0.28996998 0.047824893 0.3432324
0.071358256 0.13571972 -0.08588433 -0.07540267 -0.2797459 0.02699699 0.29881912 -0.19926892
-0.35801277 0.031535856 0.4084236 0.2291229 -0.2655789 0.045997206 -0.35796884 0.107838035
-0.1478868 0.041786898 0.33944988 -0.29912695 0.10638061 0.24052142 0.046217024 0.015045584
-0.12409058 0.02261086 0.21347854 0.2828955 0.31644237 -0.08131945 0.3175914 -0.14952336
-0.30776983 -0.15702952 -0.14035714 -0.018865168 -0.14546223 -0.11838616 -0.1454206 0.2835571
0.30245522 -0.022492057 -0.15204275 -0.33611992 0.25511357 -0.30953994 0.015929887 -0.09180061
-0.18613823 0.15493034 -0.35945728 -0.24963622 0.31027603 -0.1152378 -0.32935092 -0.07379571
-0.34997112 -0.010249671 -0.37689546 -0.2385041 0.33825493 0.13386816 0.1262297 -0.21035056
0.2836029 -0.20251505 0.37882167 0.08219217 -0.14526464 0.36615598 0.18236382 0.13063069
0.070547976 -0.13793097 -0.10963628 -0.19742005 -0.30501333 0.1555115 0.27698442 0.42161423
0.22879834 0.037656687 -0.04706487 0.23772968 -0.18853539 -0.087399974 0.19319516 0.1729359
0.23064332 0.033357147 -0.17975494 -0.17864777 0.10844343 -0.24566202 -0.39789933 -0.06510657
0.276827 0.22948869 0.29742298 -0.23031102 0.112791955 -0.2988196 -0.2814618 -0.19702259
0.22296672 -0.021436924 -0.20857635 -0.19570628 -0.09192381 0.13410744 0.16205566 0.25197285
-0.10804897 0.33586797 0.11019452 -0.04383836 -0.35230243 0.38623798 0.35577244 0.03417409
0.1485452 -0.09567107 0.029500838 0.36118942 0.006058105 0.09086022 0.44705737 -0.011736615

model_1/dense_8/MatMul f4 [64, 64]
00000000: 73b7 263e fb44 1f3e 50a3 2bbd f827 23be
00000010: 9995 e2bd 1a99 8e3d 0070 64bd e936 b0bd
00000020: fd96 da3d 286d e5bd d1dd d0bd 34c1 99be
00000030: e32e 8d3d f2f2 b0bd ed03 bdbd 7c5f 533e
00000040: 449c 16bd 1f85 18be 48bb 583e 0289 583d
00000050: 9677 9f3c 09f7 62be f9e9 693c a288 30bd
00000060: f099 fb3d 0ad8 acbd 9b52 ca3d 0815 643e
00000070: 6f8e 0ebe de76 88be 9f79 0b3e a503 3ebe
00000080: 95f5 94bd 0c88 0f3e e439 3dbe a866 85be
00000090: f356 833e 71b0 c33d 8813 95be c324 e33d
000000a0: 8401 003e 524e 16be f8a1 b8bd 07c6 63bc
000000b0: df54 593d 7fdb 003d 8748 afbc 14aa fa3c
000000c0: 4a82 293e fd3c 043e 0e38 d83d c1c9 44be
000000d0: 869b 863c eafd 09be 40d8 073c 47fa 093c
000000e0: 404a 04be a3ba 4e3d 0154 82be 39cc ca3d
000000f0: e4b6 d53b fd67 1abd 6d00 883d f89b 083e
00000100: ca7a 3b3e c3d1 48be 0632 133d 0a69 1c3d
00000110: c811 acbd 7eb3 b13d aab4 12bc 93c6 f7bd
00000120: 6c4b f1bc e74f 1bbe 4702 1d3e b12e 3dbe
00000130: ff3b 6ebd 1b70 893e 94e6 07bd d349 a43d
00000140: f22f 5ebe 3ceb a33d 9c27 37be 55e5 703e
00000150: 0465 083e b20f 71be f5c6 bfbd e58b bcbe
00000160: 6aee 603c 79f5 39be 1639 6f3d 8837 ebbd
00000170: 4e26 d9bd 97d0 d43c d951 0fbe 1fff 1ebe
00000180: 7559 303e e20c 10be e7da c03d 1f4b 6bbe
00000190: ce69 883e 2b5a a4be 6838 c2bd 4d87 f83d
000001a0: 4d54 473e 2f82 103e ba2c 42be 7781 72be
000001b0: 39d4 5a3e 53a4 34be 3974 12be 4ceb 42bd
000001c0: ecfb 0dbe a4c3 993d 0136 e43d db55 09be
000001d0: 7bb9 1b3e 0033 fb3d 04fa 513e 5f05 40be
000001e0: 2c93 bf3d 876a 40be fc5d 233e 161a 45be
000001f0: 757e 29be d64a 51be 420e 60be 95f7 a53e
00000200: 23c0 59bd dde4 8b3d 34fb 4cbe fcd7 773d
00000210: e211 6fbe a5b8 043e 9620 7fbe d191 003d
00000220: 6269 d33d 4c32 cdbd 2dd0 f2bd 5359 9b3d
00000230: 8c64 c6bd 7dff 713e 5011 423d 799c 02bd
00000240: 024e 3f3d a35c af3d 02ab d63d 51d9 ab3d
00000250: c7c3 a6bd 8d06 803d 1f44 943d d200 c1bd
00000260: 3f81 6cbe 118c 88bd f326 59be ecfe 87bd
00000270: b6a8 0d3d d6af e0bd 37ff 04be e739 283e
00000280: 9821 863e 4993 1f3d 0cff 15bd fee7 12bc
00000290: 802b 6d3e 453e 01be 561a 8a3e 129e 2a3e
000002a0: 6c86 05bc ad04 d1bc 371e a7bd d946 4fbd
000002b0: 61ff aebe 79a6 353e f637 59be 1596 083e
000002c0: db02 61be ef42 7cbe 8e76 e0bc ec10 393d
000002d0: 2816 0bbd 481d 683e 4162 3a3e 12f6 9a3b
000002e0: e75e d93d ef30 e1bd 857a 8a3e 5e8a 1bbd
000002f0: b02c 40be a6b5 3b3e fa79 5fbe 1a12 f63d
00000300: d2ff 993d e180 30be ba91 0ebc d8f1 583c
00000310: 7596 3d3b a19d 0bbe 1a71 153e 393f babd
00000320: 4d15 173e 6286 c53c 9469 1ebe 22ea 79be
00000330: f7ba 243e a029 503d cd40 7f3d 45e7 2e3e
00000340: 1cf5 52be 6ff7 19be 41ef bd3c 790c 03bb
00000350: 5a96 d63d 0b7a ffbd b525 423d 09d5 97be
00000360: 764c 52bd dd2d d23d 297d 11be 6846 0a3d
00000370: 04e3 a53b 3201 42bd 2135 73be d8d3 2cbe
00000380: c64a 9d3d 108e c33d adba 1ebd a8d2 823d
00000390: be8c 173e 35c9 0abe 4fef 0dbe e55f cfbd
000003a0: e6a9 82bd 8fa5 363d ac2b d93d b9b8 d5bc
000003b0: 8cce 853d 4189 fa3d 3a56 c73c 4778 edbd
000003c0: 17e0 37bd d9f2 48be 2a9a 3ebe 2e25 853d
000003d0: ce34 863d 2403 bcbd dce3 12bd 6d52 f1bc
000003e0: c13a 6c3e 0966 413d 16c8 5d3e c4f4 563b
000003f0: b061 f3bd e8d6 2dbe ac62 0cbe fc54 9cbc
0.16280918 0.15553658 -0.041903794 -0.15933216 -0.1106369 0.069627956 -0.055770874 -0.08604223
0.1067333 -0.112024605 -0.10198558 -0.30030215 0.068937086 -0.08640088 -0.092292644 0.20641893
-0.03677012 -0.14894532 0.21165192 0.052865036 0.019466203 -0.22164549 0.014276975 -0.043099053
0.122852206 -0.08439644 0.09879037 0.22273648 -0.13921522 -0.26653188 0.13620614 -0.18556078
-0.072734036 0.14016742 -0.18479115 -0.26054883 0.25652274 0.09555138 -0.29116464 0.11090996
0.12500578 -0.14678314 -0.09015268 -0.013902194 0.053059455 0.031459328 -0.021396888 0.030598678
0.16553608 0.1291389 0.105575666 -0.19217588 0.016431581 -0.13475767 0.008291304 0.008421487
-0.12918949 0.05047096 -0.25454715 0.09902234 0.0065220464 -0.037696827 0.06640706 0.13340747
0.18308559 -0.19611268 0.035936378 0.03818611 -0.08401829 0.086768135 -0.0089542065 -0.12098422
-0.02945491 -0.15167199 0.153329 -0.18474843 -0.058162685 0.26843342 -0.03317888 0.08021893
-0.21697977 0.08003852 -0.17886204 0.23524983 0.13319784 -0.23541144 -0.0936412 -0.3682548
0.013728717 -0.18160047 0.05840405 -0.11485201 -0.10603009 0.02597837 -0.13996066 -0.15527008
0.17221625 -0.14067414 0.09416752 -0.22977875 0.26643223 -0.32100043 -0.09483415 0.121351816
0.19465752 0.14112161 -0.18962374 -0.236822 0.21370019 -0.1764081 -0.14302148 -0.047587678
-0.13865632 0.075080186 0.11143113 -0.13411658 0.15207474 0.12265587 0.2050553 -0.18752049
0.09354243 -0.18790637 0.15953821 -0.19248232 -0.16552146 -0.20438704 -0.21880439 0.32415453
-0.05316175 0.068307616 -0.20017701 0.060508713 -0.23346666 0.12961061 -0.24914774 0.03138906
0.103228346 -0.10019359 -0.11856113 0.075853966 -0.096871465 0.23632617 0.04737979 -0.031887505
0.046705253 0.08562591 0.10481836 0.08391059 -0.0814281 0.062512495 0.072395556 -0.094239846
-0.23096178 -0.066673405 -0.21206264 -0.06640419 0.034584723 -0.10971038 -0.12987982 0.16428338
0.26197505 0.03895882 -0.036620185 -0.008966444 0.23161125 -0.1262141 0.26973218 0.16661862
-0.008149724 -0.025514925 -0.0816006 -0.050604675 -0.34179214 0.17739286 -0.21212754 0.13338502
-0.21973746 -0.24634908 -0.027400281 0.045182154 -0.033956677 0.2266742 0.18201543 0.004729041
0.10613804 -0.109956615 0.270466 -0.037973754 -0.18767047 0.18331012 -0.21823874 0.12015171
0.07519497 -0.17236663 -0.008701736 0.013241254 0.002892879 -0.1363435 0.14593926 -0.0909409
0.1475422 0.02411193 -0.15469962 -0.24405721 0.16086946 0.050820947 0.06231766 0.1708041
-0.20601314 -0.15035795 0.023185374 -0.0019996448 0.10477896 -0.1247445 0.04739924 -0.2965472
-0.05134245 0.10262654 -0.14207901 0.03375855 0.0050624628 -0.04736442 -0.23750736 -0.16877687
0.076802775 0.09548581 -0.038752247 0.06387836 0.14799783 -0.13553317 -0.1386082 -0.10125712
-0.06380062 0.044591483 0.10604033 -0.02608906 0.06533536 0.1223321 0.024333108 -0.11595207
-0.044891443 -0.19623889 -0.18613496 0.06501232 0.065530404 -0.091802865 -0.035861835 -0.029458249
0.23069288 0.04721645 0.21658358 0.00327997 -0.11883867 -0.16976511 -0.13709515 -0.019083492
