250607/models/mlp.tflite (tflite, 212520 bytes, 16 tensors)

model/dense_1/MatMul;model/dense_1/Relu;model/dense_1/BiasAdd f4 [64]
0	0xbe0980e0	-0.13428068
1	0x3e8ebbb6	0.27877587
2	0x3fb7875c	1.4338183
3	0x3f3ee4db	0.74567956
4	0xbeb29216	-0.3487708
5	0x3ea27c04	0.3173524
6	0x3f735794	0.9505551
7	0x3ed824c4	0.4221555
8	0x3eb08c17	0.3448188
9	0x3ec2c403	0.3804017
10	0x3e93ca6d	0.28865376
11	0x3d3c0afe	0.04590892
12	0x3f8f657d	1.1202847
13	0x3fbb4b68	1.4632387
14	0x3ea8a234	0.3293625
15	0x3ea4f06c	0.32214677
16	0x3d5e2a7c	0.054239735
17	0x3f4b460a	0.79403746
18	0x3cfeace7	0.031088306
19	0x3d5da016	0.054107748
20	0x3f8511b3	1.0396026
21	0x3e049590	0.12947679
22	0x3d54fba3	0.051997792
23	0x3d1a359b	0.03764878
24	0xbeb0ada6	-0.34507483
25	0xbe5716ff	-0.21004866
26	0x3f541a61	0.8285275
27	0xbe1493fe	-0.1450958
28	0x3ec3a05c	0.38208282
29	0x3e834c91	0.25644353
30	0x3caf60c3	0.021408444
31	0x3f9df73c	1.2341075
32	0x3f78cc3a	0.97186625
33	0x3f8184ce	1.0118654
34	0xbc5107ff	-0.012758254
35	0xbd150fa4	-0.03639187
36	0x3f1bfd3c	0.6093328
37	0x3d3dfc80	0.04638338
38	0xbe6a94b2	-0.22908285
39	0x3d8f9995	0.07011715
40	0x3d48810c	0.048951194
41	0x3f3eaf62	0.7448636
42	0x3f495938	0.7865176
43	0x3f95f150	1.1714268
44	0x3f8de7fb	1.108642
45	0xbc1fb9dd	-0.009748903
46	0x3f7392fd	0.9514616
47	0x3f8d2212	1.1026022
48	0xbc05e3ab	-0.008171956
49	0xbd4a9f04	-0.049468055
50	0x3f9b18eb	1.2116979
51	0x3e715f23	0.23571448
52	0xbc7af57b	-0.015317316
53	0x3eac0a98	0.33601832
54	0xbeacb92a	-0.3373502
55	0x3f82e484	1.0225987
56	0xbe26e8b6	-0.1629971
57	0x3e19a7c7	0.15005408
58	0xbc2b336c	-0.010449272
59	0x3f7177a1	0.94323164
60	0x3f8c0f46	1.0942161
61	0x3e1f60eb	0.15564315
62	0x3f246c8f	0.6422815
63	0x3f617a1e	0.8807696

model/batch_normalization/batchnorm/mul_1;model/batch_normalization/batchnorm/add_1;model/dense_1/MatMul;model/dense_1/Relu;model/dense_1/BiasAdd f4 [64, 128]
0	0xbdeb09d4	-0.11476484
1	0x3c4b51ad	0.01240961
2	0xbe3988c0	-0.18118572
3	0x3d27683e	0.040870897
4	0xbd81b181	-0.06332684
5	0xbdd63525	-0.10459355
6	0xbe41c763	-0.18923716
7	0x3e931a2c	0.28730905
8	0x3e38add3	0.18035059
9	0x3e086b4c	0.1332218
10	0xbe2ac717	-0.16677509
11	0xbe762267	-0.24036561
12	0x3d4dd4f6	0.050251924
13	0x3daf3047	0.0855413
14	0x3e84ca10	0.2593541
15	0x3e084930	0.13309169
16	0x3bd6342a	0.00653698
17	0xbe044871	-0.12918259
18	0x3df68250	0.12036574
19	0x3de5f2b1	0.1122793
20	0xbd887b92	-0.06664194
21	0x3dd31db0	0.10308397
22	0x3d8e2fae	0.06942688
23	0xbbeae6d9	-0.0071686325
24	0x3e8b762f	0.27238604
25	0x3e1d6d7b	0.15373795
26	0x3d389a2a	0.045068897
27	0xbe733d25	-0.23753794
28	0x3e14f16c	0.1454522
29	0xbdf0a802	-0.11750795
30	0x3e863f09	0.26219967
31	0x3e4e51c8	0.20148385
32	0x3e5f0ede	0.21783015
33	0x3c87c5a1	0.016573729
34	0x3d9905b6	0.074717924
35	0xbeb6a256	-0.35670727
36	0x3e8291f7	0.25501987
37	0x3d08063c	0.03320907
38	0xbe10e536	-0.14149937
39	0x3e1dee7c	0.15423006
40	0xbe3ab4d0	-0.18233037
41	0xbc26674c	-0.010156464
42	0xbde4f369	-0.11179239
43	0xbe810e92	-0.2520643
44	0x3d1cc3af	0.038272556
45	0x3cb511d7	0.022103233
46	0xbda3f762	-0.08006169
47	0xbd8502ef	-0.064947
48	0xbcc0ba79	-0.023526417
49	0xbe30fa52	-0.1728299
50	0x3c9fa703	0.019488817
51	0x3e8065d0	0.25077677
52	0x3d549a58	0.051905006
53	0x3ccbc453	0.024873888
54	0x3e1d64b2	0.15370443
55	0xbadba4c4	-0.0016757478
56	0x3c39678d	0.011316192
57	0x3d5816a4	0.052755967
58	0xbd8dcfc2	-0.06924392
59	0x3e3334be	0.17500588
60	0x3e2d26fb	0.16909401
61	0x3e939256	0.28822583
62	0xbe56ebf1	-0.20988442
63	0xbd832857	-0.064041786
64	0x3e920409	0.28518704
65	0x3d7bfecc	0.06152229
66	0x3e07b39b	0.13252108
67	0x3b1b832c	0.0023729308
68	0x3e24ac93	0.16081457
69	0x3ea3d984	0.3200189
70	0xbdfad82f	-0.12248265
71	0xbd4e7567	-0.050404932
72	0xbd004bee	-0.031322412
73	0x3d709e97	0.058744993
74	0xbe195856	-0.14975104
75	0xbe1d7076	-0.15374932
76	0x3dae81b6	0.08520834
77	0x3e1f6672	0.15566424
78	0xbd34f547	-0.044179227
79	0xbe860682	-0.2617684
80	0xbe36c91e	-0.17850158
81	0x3f003ead	0.50095636
82	0x3d7107cc	0.058845326
83	0xbdc5f827	-0.09666472
84	0x3e8b59e6	0.27217025
85	0x3e3366b2	0.17519644
86	0xbe549972	-0.2076166
87	0x3e3898d9	0.18027057
88	0xbdb99f09	-0.09063537
89	0x3bb3a54f	0.005482353
90	0xbc34acf2	-0.0110275615
91	0x3e37296c	0.17886895
92	0x3db74af9	0.08949847
93	0xbd559bbd	-0.052150477
94	0x3dd50d50	0.1040293
95	0x3cc555cc	0.024088763
96	0x3e8cd716	0.27507848
97	0x3df65c97	0.12029379
98	0xbe5460b1	-0.2074001
99	0x3e2db70a	0.16964355
100	0xbdc27b29	-0.09496147
101	0x3d3197c3	0.043357622
102	0xbc247cb0	-0.010039493
103	0x3e9500ee	0.29102272
104	0x3e2992c0	0.16559887
105	0x3d8815ca	0.06644781
106	0x3dbae580	0.09125805
107	0xbd43923b	-0.047746878
108	0x3e23626a	0.1595551
109	0xbdf2fbef	-0.11864459
110	0xbd1d953e	-0.038472407
111	0xbd9b4b2e	-0.07582699
112	0xbda67439	-0.081276365
113	0xbb89094c	-0.0041820165
114	0x3e08f87b	0.13376038
115	0xbe6e537e	-0.23274037
116	0x3c155fd1	0.009117083
117	0x3e17e2c0	0.14832592
118	0xbda5b02f	-0.08090245
119	0x3d27abc7	0.040935304
120	0xbdf0bba2	-0.11754538
121	0xbca19c9b	-0.019727996
122	0x3e886d02	0.26645666
123	0xbd491ccf	-0.04909974
124	0xbb5b90ae	-0.0033502984
125	0xbc390042	-0.011291565
126	0xbc8173a4	-0.015802212
127	0xbe3561c9	-0.17713083
128	0xbcf3d5cf	-0.029765038
129	0xbe374ec0	-0.17901134
130	0xbd469fb5	-0.048492152
131	0x3c624752	0.013810949
132	0x3d9255d7	0.07145279
133	0xbe6f8343	-0.23389916
134	0xbe87bb71	-0.26510194
135	0xbc9d31f9	-0.019188868
136	0x3e153814	0.14572173
137	0x3d50fce6	0.051022433
138	0xbc346dd4	-0.011012513
139	0xbe4e7f59	-0.20165767
140	0x3d1f6fdf	0.038925048
141	0xbd0d861f	-0.034551736
142	0x3a50465d	0.0007945055
143	0x3d871c23	0.065971635
144	0x3e082449	0.13295092
145	0xbdc9fe46	-0.09862952
146	0x3d287bba	0.04113362
147	0x3e115454	0.14192325
148	0x3e2ee6b6	0.17080197
149	0xbdb3a21b	-0.087711535
150	0x3d9e628c	0.0773364
151	0xbe1f9ddb	-0.15587561
152	0x3dcda2fe	0.10040854
153	0x3d79878b	0.06092028
154	0x3c3a66df	0.011377065
155	0xbe7a8b52	-0.24467209
156	0x3b9ce056	0.004787485
157	0xbdd5d136	-0.104402944
158	0xbd9fb661	-0.07798458
159	0xbe58f9e4	-0.21189076
160	0xbe87ca82	-0.2652169
161	0x3d3abd27	0.045590546
162	0xbd3c07ee	-0.045906
163	0xbf0a0ef4	-0.53929067
164	0xbd2bd114	-0.04194744
165	0x3dc02248	0.09381539
166	0xbc935b73	-0.017987942
167	0x3e400cd7	0.18754898
168	0x3dffe043	0.124939464
169	0x3dc33041	0.09530688
170	0xbd7513ca	-0.059833325
171	0x3d88dd5d	0.06682847
172	0xbda9ada2	-0.08285071
173	0x3e059eb2	0.13048819
174	0x3ddee376	0.108832285
175	0xbe16c06f	-0.14721845
176	0x3dcc9d60	0.099909544
177	0x3c59b0d0	0.013286784
178	0x3e42fb43	0.19041161
179	0xbe11433e	-0.14185807
180	0xbd623e5e	-0.05523526
181	0x3dd3e2a1	0.103459604
182	0x3d8b8a3e	0.06813477
183	0xbda059a5	-0.07829598
184	0xbdd240d3	-0.102662705
185	0x3d460b58	0.048350662
186	0xbe1263d8	-0.142959
187	0xbd679a7e	-0.05654382
188	0xbdd7c6c1	-0.10535956
189	0xbdcc0671	-0.09962166
190	0x3dc27b29	0.09496147
191	0xbcf64141	-0.030060412
192	0xbdf54edc	-0.11977932
193	0x3dcfd9d6	0.10148971
194	0xbc7a7918	-0.01528766
195	0xbd8ba845	-0.06819204
196	0xbcba593a	-0.022747625
197	0x3cf97c73	0.03045485
198	0x3c527334	0.012844849
199	0xbe6c4b50	-0.23075604
200	0xbdb50e69	-0.08840639
201	0xbdd18937	-0.1023125
202	0xbea89e5b	-0.32933316
203	0xbc0862b9	-0.008324319
204	0xbe373a76	-0.17893395
205	0xbd25a305	-0.04043867
206	0x3a07f683	0.00051865744
207	0xbe44d335	-0.19221194
208	0xbdfcbb75	-0.12340442
209	0xbd39d2f7	-0.045367207
210	0x3d1144dc	0.03546606
211	0x3ed41e0d	0.41429177
212	0x3dfc5b70	0.12322128
213	0x3d72fc93	0.059322905
214	0xbd5f5938	-0.054528445
215	0xbdd0bf35	-0.1019272
216	0x3e794cd5	0.24345715
217	0x3dc3a748	0.09553391
218	0x3d8ae9da	0.06782885
219	0x3e2a767f	0.16646765
220	0xbe45ee90	-0.19329286
221	0x3d62f2aa	0.055407204
222	0x3f03a74e	0.5142716
223	0xbe67815d	-0.22607942
224	0x3d4fdab7	0.050745692
225	0x3dd76fe0	0.10519385
226	0xbe6f3486	-0.2335988
227	0xbe840d07	-0.2579119
228	0xbd38144e	-0.04494124
229	0xbe6116b6	-0.2198132
230	0xbc879dbd	-0.016554708
231	0x3df0901d	0.117462374
232	0x3f0645a7	0.5245003
233	0x39f5a853	0.00046855453
234	0x3de16d1a	0.110071376
235	0x3d38476a	0.04498998
236	0x3f18522e	0.59500396
237	0xbcc860b4	-0.024460174
238	0x3e4a6b04	0.19767386
239	0xbdf8be94	-0.12145725
240	0xbe1a2c5a	-0.15055981
241	0x3ad26d0c	0.0016054227
242	0xbe4182cb	-0.1889755
243	0xbe00eb08	-0.12589657
244	0x3d6c5821	0.057701234
245	0x3da765ae	0.08173691
246	0x3dbff649	0.09373147
247	0xbd84a6b1	-0.06477106
248	0x3e7067ac	0.23477048
249	0x3e8b6999	0.27229002
250	0x3e26da09	0.16294111
251	0xbb4ccc44	-0.0031249681
252	0x3eec6d17	0.4617698
253	0x3e92251f	0.28543946
254	0xbc77463e	-0.015092431
255	0xbce3ff81	-0.027831795

model/dense_2/MatMul;model/dense_2/Relu;model/dense_2/BiasAdd f4 [64]
0	0xbf174f0f	-0.5910501
1	0x3ed4b895	0.41547075
2	0x3e49fa34	0.19724351
3	0xbef6bc2a	-0.48190433
4	0x3d3e5041	0.046463255
5	0x3f052838	0.52014494
6	0x3f1565cc	0.58358455
7	0x3fa038c9	1.251733
8	0x3f83d3f7	1.0299062
9	0x3fef2dbd	1.8685833
10	0x3fe4f84a	1.7888272
11	0x3f04c909	0.51869255
12	0xbf602473	-0.8755562
13	0xbf582090	-0.84424686
14	0x3ef690ef	0.4815745
15	0x3f8e7bec	1.1131568
16	0x3f7f521a	0.9973465
17	0xbe6cc28f	-0.23121093
18	0xbd9a123c	-0.07523009
19	0x400b4fff	2.1767576
20	0xbf78a4a1	-0.97126204
21	0xbeb641d2	-0.35597092
22	0x3ecf8b47	0.40535948
23	0xbf1c36d0	-0.6102114
24	0x3fa96012	1.3232443
25	0x3f10a595	0.5650266
26	0x401f3be1	2.4880297
27	0x3f1a3560	0.60237694
28	0x3f9a5ae9	1.2058994
29	0x3f3d23ae	0.7388257
30	0x3ff63779	1.9235679
31	0xbeb6c582	-0.35697562
32	0x3f23da7d	0.6400526
33	0xbdd9a55e	-0.106272444
34	0x3e31c97b	0.17362015
35	0x3f8e183b	1.1101145
36	0x3fcc9ba3	1.5984997
37	0xbe77a4e9	-0.24184002
38	0x3ea44df9	0.32090738
39	0x3f802274	1.0010514
40	0x3f373ffa	0.71581995
41	0x3e2810a9	0.16412605
42	0x3e13ba8c	0.1442663
43	0x3d08a45e	0.033359878
44	0xbec68b33	-0.38778076
45	0x3faf810a	1.3711255
46	0x3f4c188c	0.79724956
47	0x3edc2394	0.42995894
48	0xbf1e36a8	-0.6180215
49	0x3f31e8ab	0.6949565
50	0xbf50d1ad	-0.8156994
51	0xbf8911f5	-1.0708605
52	0x3fa3e189	1.2803203
53	0x3f53564d	0.8255356
54	0xbf93b386	-1.1539161
55	0x3eabdcbe	0.3356685
56	0x3ff90e87	1.9457558
57	0x3f08cb15	0.5343488
58	0x3fc795e7	1.5592622
59	0xbf96c6c6	-1.1779411
60	0x3e870608	0.2637179
61	0x3f8b7070	1.0893688
62	0x3fa40f7b	1.2817224
63	0xbf53eaf5	-0.8278039

model/batch_normalization_1/batchnorm/mul_1;model/batch_normalization_1/batchnorm/add_1;model/dense_2/MatMul;model/dense_2/Relu;model/dense_2/BiasAdd f4 [64, 64]
0	0x3e38fe53	0.18065767
1	0x3cd8e495	0.026476184
2	0xbdfd48de	-0.12367414
3	0x3eb652b5	0.35609975
4	0xbbf031ec	-0.00733017
5	0x3d478d93	0.048719
6	0xbe65d2e6	-0.22443733
7	0xbd876e2f	-0.06612813
8	0x3ecf4e10	0.40489244
9	0xbe083d45	-0.13304622
10	0x3e166631	0.1468742
11	0xbed76feb	-0.42077574
12	0xbf0d0eed	-0.551009
13	0xbe7c47f4	-0.24636823
14	0xbed6f838	-0.4198625
15	0xbd5d934c	-0.05409555
16	0x3c16de1e	0.00920823
17	0xbe63bb06	-0.22239313
18	0x3e23e3c6	0.16004857
19	0xbc03567b	-0.008016224
20	0xbdccfe64	-0.10009459
21	0x3eac5a6f	0.33662745
22	0x3e5cc6d6	0.21560225
23	0x3ea7c63f	0.32768437
24	0x3dc1d087	0.094636016
25	0xbd12c2fe	-0.03583049
26	0x3f460059	0.7734428
27	0xbd08fedb	-0.033446174
28	0x3e98cc25	0.2984325
29	0xbdd0ff00	-0.102048874
30	0xbc029ef5	-0.007972469
31	0xbef54afd	-0.47908774
32	0x3ec0357e	0.3754081
33	0x3eb975ad	0.36222592
34	0x3de0ad76	0.10970585
35	0x3e2726a1	0.1632333
36	0xbe63b93e	-0.22238633
37	0xbea54d75	-0.32285658
38	0xbed9cde2	-0.4253989
39	0x3d034b90	0.032054484
40	0xbefe6c3d	-0.49691954
41	0x3ec444ad	0.38333645
42	0x3e1db2b4	0.15400201
43	0x3eb38988	0.35065866
44	0xbe703843	-0.23458962
45	0xbdf7e98b	-0.12105092
46	0xbeaaca48	-0.33357453
47	0x3e184765	0.14870985
48	0x3eb147fc	0.34625232
49	0x3ec2231b	0.37917408
50	0x3df7ccfb	0.12099644
51	0x3c14aa00	0.009073734
52	0x3e57f270	0.21088576
53	0x3e38a889	0.18033041
54	0xbe2687ec	-0.16262788
55	0xbddf2793	-0.1089622
56	0xbdeff9dc	-0.11717579
57	0x3e2fbee3	0.17162661
58	0x3e2edd39	0.17076577
59	0x3f058578	0.5215678
60	0x3df12e62	0.11776425
61	0xbdfdc97b	-0.12391945
62	0xbf015f38	-0.5053592
63	0xbe93df0f	-0.28881118
64	0x3bc8063a	0.006104258
65	0x3e54f43e	0.20796296
66	0x3e9050eb	0.28186736
67	0xbef7deb8	-0.48412108
68	0xbdbe9d64	-0.09307364
69	0xbdc6bf8b	-0.09704503
70	0xbb8f2d53	-0.0043694167
71	0x3d5460a4	0.051849976
72	0xbed0ca38	-0.4077928
73	0x3e7e2520	0.2481885
74	0xbe373735	-0.17892154
75	0x3eb282f1	0.34865525
76	0x3ec531f1	0.38514665
77	0x3d910734	0.07081452
78	0xbd8e0ac9	-0.06935651
79	0xbe6dacbe	-0.23210427
80	0xbea43bbe	-0.3207683
81	0xbe656bbe	-0.22404382
82	0xbc680002	-0.014160158
83	0xbe25d1b4	-0.16193277
84	0x3cfb6640	0.030688405
85	0x3e2037a0	0.15646219
86	0xbe742d86	-0.23845491
87	0x3e9969e9	0.29963616
88	0xbe810d8d	-0.2520565
89	0xbdfe4b66	-0.12416725
90	0x3d14b7ec	0.036308214
91	0x3ea34e0c	0.31895483
92	0x3ec7d751	0.3903146
93	0x3e969e55	0.29417673
94	0xbe4cf9cc	-0.20017165
95	0x3f0682f7	0.52543586
96	0xbe9c7cc6	-0.30563945
97	0x3d923554	0.07139078
98	0x3e8df4eb	0.2772592
99	0x3e4eba76	0.20188317
100	0xbdd9fe4b	-0.10644206
101	0xbe2a2f4f	-0.1661961
102	0x3edd5e36	0.4323594
103	0xbe626ab3	-0.22111015
104	0x3e8dc484	0.27688992
105	0xbeb5383f	-0.35394475
106	0xbd57e9e7	-0.0527133
107	0xbef509e7	-0.47859117
108	0xbd68f336	-0.05687257
109	0xbdfc04ae	-0.1230558
110	0xbdeea28e	-0.116520986
111	0x3e187ec3	0.14892106
112	0x3e80f792	0.2518888
113	0xbd47d55d	-0.048787463
114	0xbea2a254	-0.31764472
115	0x3c841176	0.016121607
116	0x3d486edc	0.04893385
117	0x3d1cdba7	0.038295414
118	0x3eae69ce	0.34065098
119	0x3e01ee25	0.12688501
120	0x3ee96112	0.4558187
121	0x3ea62d2a	0.32456332
122	0xbc953a55	-0.018216291
123	0xbf1bc8de	-0.60853374
124	0xbdff9e5b	-0.12481376
125	0x3d510658	0.05103144
126	0xbd46da71	-0.048548166
127	0xbe4a3c92	-0.19749668
128	0x3e060470	0.1308763
129	0xbd8f35d0	-0.06992686
130	0xbd4d316c	-0.05009596
131	0x3e960c59	0.29306296
132	0xbe80830f	-0.2509999
133	0xbe8ef92d	-0.2792448
134	0x3e3b0773	0.1826456
135	0xbde74e25	-0.11294202
136	0x3ebdcc37	0.37069866
137	0xbe59453c	-0.21217817
138	0x3e0aa83d	0.1354074
139	0xbe8560a5	-0.26050296
140	0xbe51507e	-0.20440862
141	0x3e347b9b	0.17625277
142	0xbdc8df50	-0.098082185
143	0x3c96fd43	0.018431311
144	0x3e2ee007	0.17077647
145	0xbeb29d23	-0.3488551
146	0xbd7d0b7c	-0.06177853
147	0xbe1e49d7	-0.15457855
148	0xbe74356c	-0.23848504
149	0x3f124c31	0.5714751
150	0x3eb38bfc	0.35067737
151	0x3d47a748	0.048743516
152	0xbe8b41a6	-0.27198523
153	0xbedc6dd3	-0.4305254
154	0xbe37e752	-0.17959335
155	0x3e698485	0.22804458
156	0xbe5004d1	-0.20314337
157	0x3edac9b8	0.42732024
158	0xbdc044d6	-0.093881294
159	0xbf079f7b	-0.5297772
160	0xbe79ec74	-0.24406606
161	0x3eccf186	0.40028018
162	0xbe69dc0a	-0.22837844
163	0xbced1d0b	-0.028944513
164	0x3e1c533f	0.15266131
165	0x3e2d215c	0.16907257
166	0xbebbbcb0	-0.36667395
167	0x3e1e25d2	0.15444115
168	0xbf1aaa25	-0.6041587
169	0x3d094c27	0.03351989
170	0xbe8e84ee	-0.27835792
171	0x3e567b02	0.20945361
172	0xbdb3f758	-0.087874115
173	0xbe651395	-0.22370751
174	0xbcb14b29	-0.021642284
175	0x3e7d7edf	0.24755429
176	0x3df1b077	0.11801236
177	0xbc0759d9	-0.008261167
178	0xbe5f2c1b	-0.21794169
179	0x3d96aedc	0.073575705
180	0x3eac73e7	0.33682176
181	0x3e812df3	0.2523037
182	0xbceb5c4f	-0.02873054
183	0xbd565e34	-0.052335933
184	0xbe834718	-0.25640178
185	0x3e50bcb5	0.20384486
186	0x3d734f5e	0.059401862
187	0x3db0d515	0.08634392
188	0x3e4349f7	0.19071184
189	0xbddc52e9	-0.10758001
190	0xbd044374	-0.03229089
191	0xbe855d50	-0.26047754
192	0x3dcdae3a	0.10042997
193	0xbea12593	-0.3147398
194	0xbc8925ba	-0.016741622
195	0x3ea3c43a	0.31985646
196	0xbd455da9	-0.048185024
197	0x3ca575d1	0.02019778
198	0x3e3d3b3f	0.18479632
199	0xbbe476e8	-0.0069721825
200	0x3ecb76ef	0.39739177
201	0xbeb7410e	-0.3579182
202	0x3e20f26e	0.1571748
203	0xbecf5051	-0.40490964
204	0xbe9119f4	-0.28340113
205	0xbf10a1ba	-0.56496775
206	0xbe4be76c	-0.19912499
207	0x3e78a1e1	0.24280502
208	0xbdf2d9d9	-0.118579574
209	0xbea4fcbd	-0.32224074
210	0x3dad4a98	0.08461493
211	0xbc3d2767	-0.011545039
212	0x3e859cc7	0.26096174
213	0x3e7e373c	0.24825758
214	0x3e8b0105	0.27149215
215	0x3e79979c	0.2437424
216	0x3d279f3e	0.04092335
217	0xbdcc4303	-0.09973719
218	0x3e06b50f	0.13155006
219	0x3e7d0de9	0.24712338
220	0xbdebabcb	-0.11507376
221	0xbe06945f	-0.13142537
222	0xbeaf4cc3	-0.34238252
223	0xbebeb625	-0.3724834
224	0xbe138243	-0.1440516
225	0x3e964fa9	0.2935765
226	0xbcec1cc1	-0.028822305
227	0x3eb6c6e7	0.35698625
228	0xbe29bee6	-0.16576728
229	0x3d1372b6	0.03599807
230	0x3d1982c5	0.037478227
231	0xbc5ff4d2	-0.01366921
232	0xbf34a9a6	-0.7057136
233	0x3ebb5239	0.36586168
234	0x3e26c9d5	0.1628793
235	0xbcc5ac52	-0.02413002
236	0x3ded50b5	0.11587659
237	0xbe2329c5	-0.15933903
238	0xbf236baa	-0.6383616
239	0xbccf26ed	-0.025287116
240	0x3e12dae5	0.14341314
241	0x3e945a36	0.28975075
242	0x3e5b44ed	0.21413012
243	0x3e833988	0.2562983
244	0x3ebb4b31	0.36580804
245	0x3ecfad22	0.40561777
246	0xbe0f87ea	-0.14016691
247	0x3e52e7d1	0.20596243
248	0xbed47849	-0.4149802
249	0x3ea28d04	0.3174821
250	0xbe5f9475	-0.21833976
251	0xbdf432fb	-0.11923786
252	0xbd1e24b4	-0.03860922
253	0x3e667f65	0.22509535
254	0xbeaa198a	-0.3322261
255	0x3dd753cd	0.105140306

model/dense_3/MatMul;model/dense_3/Relu;model/dense_3/BiasAdd f4 [64]
0	0x3e7ee879	0.24893369
1	0xbf81a5d9	-1.0128738
2	0x3ef3a316	0.47585362
3	0xba7add1c	-0.0009569691
4	0x3fa15820	1.2605019
5	0x3fda808d	1.707048
6	0x3f949d8e	1.1610582
7	0xbd12276e	-0.035682134
8	0x3e3d503e	0.18487641
9	0x3e189f3e	0.14904496
10	0x3f7314e3	0.94953746
11	0x3f22c4ac	0.6358135
12	0x3fc47aeb	1.5350012
13	0xbe755731	-0.23959042
14	0x3f567445	0.83771163
15	0x3f2cbc81	0.67475134
16	0xbe238089	-0.15967001
17	0x3fa8e35f	1.3194388
18	0x4024c487	2.574495
19	0x3f3c4c1d	0.7355364
20	0x3fba12b9	1.4536964
21	0x3fb03695	1.3766657
22	0xbe0b6b7a	-0.13615218
23	0xbf3a9a8b	-0.72892064
24	0xbf818c55	-1.0120951
25	0x3e8d1041	0.27551463
26	0x3e21d224	0.15802819
27	0x3fc145f0	1.5099468
28	0xbf0cef30	-0.5505247
29	0xbf145c14	-0.57953
30	0xbeb920d2	-0.36157852
31	0xbf36eaea	-0.714522
32	0xbd240d3d	-0.040051688
33	0x3c752f9a	0.014964962
34	0x3b7cfde4	0.003860348
35	0x3f8f4aa2	1.1194651
36	0xbeef930e	-0.4679188
37	0x3eda985d	0.4269437
38	0x3f166ee0	0.5876293
39	0x3eec3aae	0.4613852
40	0x401e6bf6	2.4753394
41	0xbebc44dd	-0.3677129
42	0x3efe0fac	0.49621332
43	0xbefd8b1d	-0.49520198
44	0x3f83ba27	1.0291184
45	0xbd9a62fc	-0.07538411
46	0x3f6471f5	0.89236385
47	0x3fbda33f	1.4815444
48	0x3fbaf3e2	1.4605677
49	0xbf69b742	-0.91295254
50	0x40371c42	2.8610997
51	0x3d585664	0.052816764
52	0x3f7fb1a8	0.99880457
53	0x3e98dcea	0.29856044
54	0x3f71828f	0.9433984
55	0x3f04b5cf	0.5183992
56	0x3ee9f877	0.45697376
57	0x3eed5965	0.46357265
58	0xbeea53d4	-0.4576708
59	0x3fd5e802	1.6711428
60	0x3f9656b0	1.1745205
61	0x3fe5086e	1.7893198
62	0x3f703efe	0.9384612
63	0x4008a533	2.135083

model/batch_normalization_1/batchnorm/mul_1;model/batch_normalization_1/batchnorm/add_1;model/dense_3/MatMul;model/dense_3/Relu;model/dense_3/BiasAdd f4 [64, 64]
0	0x3e0bda03	0.13657384
1	0x3e6c346a	0.2306687
2	0x3eab8f8f	0.33507964
3	0x3e3debde	0.18547007
4	0xbf1ef1d0	-0.62087727
5	0x3d53b667	0.051687624
6	0x3ea5a53a	0.3235262
7	0xbd8d0291	-0.06885255
8	0xbe0bd379	-0.13654889
9	0x3d4f69e0	0.05063808
10	0xbef75884	-0.4830972
11	0xbe0340e5	-0.12817724
12	0x3e0d1457	0.1377729
13	0x3ef0360f	0.46916243
14	0xbeeca2ac	-0.4621786
15	0xbd66f241	-0.056383375
16	0xbf14a0aa	-0.58057654
17	0xbe632d67	-0.22185288
18	0x3d134802	0.035957344
19	0x3e2e916f	0.17047666
20	0x3eb54403	0.3540345
21	0xbe407632	-0.18795088
22	0x3e760aff	0.24027632
23	0x3dbb511f	0.09146332
24	0xbf0f5d49	-0.56001717
25	0xbea299cf	-0.31757972
26	0x3eb26f56	0.34850568
27	0xbe27c371	-0.16383149
28	0x3e68887c	0.22708315
29	0xbf19eab1	-0.60123736
30	0xbd96b57f	-0.073588364
31	0x3f099033	0.53735656
32	0xbe423f5d	-0.18969484
33	0x3d884121	0.06653047
34	0xbd5c2bcb	-0.0537527
35	0x3eed72e1	0.46376708
36	0x3e0905ee	0.13381168
37	0x3e8c20d6	0.27368802
38	0x3f08cff0	0.5344229
39	0xbd7f24f8	-0.062291116
40	0x3e1b8403	0.15187077
41	0x3d0d8c31	0.034557525
42	0xbdff2466	-0.12458114
43	0x3e16b5d2	0.14717796
44	0xbe5cf162	-0.21576455
45	0x3e222cae	0.15837356
46	0x3a692341	0.0008893498
47	0xbe80ffad	-0.25195065
48	0xbd6da4bc	-0.05801843
49	0xbda6e4c4	-0.08149102
50	0x3e4163ac	0.18885678
51	0x3db38708	0.087659895
52	0xbe8b2666	-0.27177733
53	0xbe27cdf7	-0.16387163
54	0x3e887f2c	0.26659524
55	0x3ef51a98	0.47871852
56	0x3ed6dddb	0.41966137
57	0xbdcfd94a	-0.101488665
58	0xbeb29b6c	-0.34884202
59	0xbea10bb1	-0.31454232
60	0xbd40611c	-0.04696761
61	0x3c2a88e2	0.010408612
62	0xbcca4ba4	-0.024694271
63	0xbdf138f3	-0.1177844
64	0x3e2ee518	0.1707958
65	0xbf0e8672	-0.556739
66	0x3d14411e	0.036194913
67	0xbe89a6ef	-0.26885173
68	0xbe7ba43f	-0.24574374
69	0x3e13a754	0.144193
70	0x3db3fbb2	0.087882414
71	0x3e1f1ad2	0.15537575
72	0x3deb5dbe	0.11492489
73	0x3de7a813	0.113113545
74	0x3d4412e1	0.047869567
75	0xbeef3b12	-0.46724755
76	0x3ebdd1d2	0.37074143
77	0x3d929716	0.071577236
78	0x3d370854	0.044685677
79	0xbe8e88ea	-0.27838832
80	0x3ec50444	0.38479817
81	0xbabb52b6	-0.0014291618
82	0x3e802a8d	0.25032464
83	0x3dfdaa77	0.12386029
84	0xbd3027f6	-0.04300686
85	0x3e80246d	0.2502779
86	0x3da2dc41	0.07952166
87	0x3e1c36f7	0.15255342
88	0xbdaa35f2	-0.083110705
89	0x3e9b8377	0.30373737
90	0xbeba07a8	-0.36333966
91	0x3e052214	0.13001281
92	0xbe50714c	-0.2035572
93	0x3e91b952	0.284617
94	0x3de540d4	0.111940056
95	0xbea22cf9	-0.31674936
96	0x3ec642a6	0.38722724
97	0x3d7adcd5	0.061245758
98	0xbe479a6e	-0.19492504
99	0xbe4678ae	-0.19381973
100	0x3ecf688e	0.40509456
101	0x3d0b3b0f	0.03399187
102	0xbdae3973	-0.08507051
103	0xbebfdd72	-0.37473637
104	0x3da61eaa	0.081113175
105	0x3e8ade45	0.27122703
106	0x3e327f06	0.17431268
107	0xbdaae6e0	-0.08344817
108	0x3df811f8	0.12112802
109	0x3e651004	0.2236939
110	0x3da388c4	0.0798507
111	0x3e5a910e	0.21344396
112	0x3ecc2051	0.39868405
113	0x3e283e27	0.16429959
114	0x3e05537d	0.1302013
115	0xbe0dcc5b	-0.13847487
116	0xbecf1acf	-0.4045014
117	0xbdd06a5b	-0.10176536
118	0x3e95444a	0.29153663
119	0x3e8c8bab	0.27450308
120	0x3e4dc4b8	0.20094573
121	0xbd039d15	-0.032132227
122	0x3de9c414	0.11414352
123	0x3d4e9635	0.050436217
124	0x3e9631c2	0.29334837
125	0xbe5dc58d	-0.21657391
126	0x3edcacbb	0.43100533
127	0x3c9477ce	0.018123534
128	0xbe0ca2de	-0.13734004
129	0x3c21b211	0.0098691145
130	0xbea4f4ab	-0.32217917
131	0x3e01d011	0.12677027
132	0xbdae9445	-0.08524374
133	0xbeb79f81	-0.3586388
134	0xbef1de87	-0.47240087
135	0x3ec4ce2e	0.38438553
136	0xbd07768b	-0.033072036
137	0x3b86f413	0.0041184514
138	0x3e942aa5	0.28938785
139	0x3e192fda	0.1495966
140	0x3e6a3eff	0.22875594
141	0xbe852672	-0.26005894
142	0xbe62c7b3	-0.22146492
143	0xbe838730	-0.25689077
144	0x3ee935e6	0.45548934
145	0xbe3003ad	-0.17188902
146	0xbe2e785f	-0.17038105
147	0x3f01f036	0.5075716
148	0x3e85cc78	0.2613256
149	0xbeb6e1d7	-0.35719177
150	0xbda0a8cc	-0.078446954
151	0x3e697f18	0.22802389
152	0xbde2c4fc	-0.11072728
153	0x3ea5ec76	0.32406968
154	0x3e162769	0.14663471
155	0x3e136095	0.14392312
156	0xbdc4b016	-0.09603898
157	0xbf08adfb	-0.53390473
158	0x3e4512ee	0.19245502
159	0x3cd28cfd	0.025701994
160	0x3ec16ae1	0.37776855
161	0xbee119d5	-0.4396502
162	0x3e3a1e94	0.18175727
163	0x3c2e4a26	0.010637796
164	0xbd67ff9d	-0.056640256
165	0xbd75bb67	-0.059993174
166	0x3e60c532	0.21950224
167	0x3e1af116	0.1513103
168	0x3d36de6a	0.044645704
169	0x3e90eb6a	0.28304607
170	0x3d9f1acc	0.07768783
171	0xbf02bbb2	-0.5106765
172	0x3e969899	0.29413298
173	0xbe83562e	-0.25651687
174	0x3e1139cf	0.14182208
175	0x3eba0b66	0.3633682
176	0xbdc73825	-0.097275056
177	0xbdfea76c	-0.12434277
178	0xbeaedcaf	-0.34152743
179	0xbe86a946	-0.2630102
180	0xbd80943a	-0.06278272
181	0xbe2f9c21	-0.17149402
182	0xbe160039	-0.14648522
183	0x3e41ef5f	0.18938969
184	0x3e9d5642	0.30729872
185	0xbe166cd2	-0.14689949
186	0xbe043faa	-0.12914911
187	0xbe40d50f	-0.18831275
188	0xbefc8ff5	-0.4932858
189	0x3ef93075	0.48669782
190	0xbf028c46	-0.5099529
191	0x3e3b4dbc	0.18291372
192	0x3da0a703	0.07844355
193	0x3e1e8fc9	0.15484537
194	0x3ddaae3c	0.10677764
195	0x3e54bbf2	0.2077482
196	0x3e40c9b9	0.18826951
197	0xbcb44c14	-0.022008933
198	0xbeef59b6	-0.46748132
199	0xbe95975e	-0.29217046
200	0x3e5ec623	0.2175527
201	0xbe12cf3b	-0.14336865
202	0x3da77ed8	0.081784904
203	0xbe7dd835	-0.24789508
204	0x3eda7f82	0.42675406
205	0x3d8d0ddf	0.06887411
206	0xbe12f3d0	-0.1435082
207	0xbea77db3	-0.32713088
208	0xbe243017	-0.1603397
209	0xbe3bbc8d	-0.18333645
210	0x3eb19736	0.34685677
211	0x3e3667ae	0.17812988
212	0xbe38407d	-0.1799335
213	0x3e053840	0.13009739
214	0x3e0d4158	0.13794458
215	0x3e35af0c	0.17742556
216	0xbcfc30d2	-0.030784998
217	0x3d321821	0.043480042
218	0xbe9d6e19	-0.3074806
219	0xbe2738b1	-0.1633022
220	0x3ddf9b7f	0.109183304
221	0xbe877b63	-0.26461324
222	0xbe0fddee	-0.14049503
223	0x3e5eb729	0.21749558
224	0x3d484659	0.048895214
225	0x3e2f137b	0.17097275
226	0xbd63693c	-0.05552028
227	0xbe44e6ea	-0.19228712
228	0xbc3642f6	-0.011124363
229	0xbe08281c	-0.1329655
230	0xbe5a484b	-0.2131664
231	0x3d13a095	0.036041815
232	0xbe0ce40e	-0.13758871
233	0x3e47ebe1	0.19523574
234	0xbdf7adb1	-0.12093676
235	0xbe74688c	-0.23868006
236	0xbd58389d	-0.052788366
237	0x3edb211a	0.42798692
238	0x3e6621b2	0.22473791
239	0xbe0409a0	-0.12894297
240	0xbe3779d4	-0.17917567
241	0x3df23ecb	0.11828383
242	0xbe95341c	-0.2914132
243	0x3d9ef744	0.07762006
244	0xbd81ede3	-0.063442014
245	0xbd9a657a	-0.07538886
246	0xbceb3039	-0.028709518
247	0x3e91b9b2	0.28461987
248	0x3b9e1ab7	0.004824962
249	0xbe299fce	-0.16564867
250	0xbd7cfe2f	-0.061765846
251	0x3e9fe3ad	0.3122839
252	0x3e46c7bb	0.19412129
253	0x3e52e6cf	0.20595859
254	0x3eeb159b	0.4591492
255	0xbe6f3977	-0.23361765

model/dense_4/MatMul;model/dense_4/Relu;model/dense_4/BiasAdd f4 [64]
0	0x3eff87e5	0.49908367
1	0x3f93b0b2	1.1538298
2	0xbe96c047	-0.2944357
3	0x3d088e00	0.033338547
4	0x3ef7f350	0.4842782
5	0x3fb5b9da	1.4197342
6	0x3fc24cc8	1.5179682
7	0x3f1f5f06	0.6225437
8	0xbdac7df7	-0.084224634
9	0x400d6da2	2.2098165
10	0xbf840ae2	-1.0315821
11	0x3f9476d0	1.1598759
12	0x3f411d26	0.754351
13	0x3d797ace	0.06090813
14	0xbe37a050	-0.17932248
15	0x3f49c3d0	0.7881441
16	0x403ebe83	2.980378
17	0x3f3aba6b	0.729407
18	0x3f0eda7f	0.5580215
19	0x3ec40d29	0.3829129
20	0xbf326f10	-0.6970072
21	0x3f35803d	0.708988
22	0x3f116fc4	0.56811166
23	0x3faed1ed	1.3657814
24	0x3f9072ab	1.1284994
25	0x3f97f75a	1.1872361
26	0x3e9b110f	0.30286452
27	0xbf5625a9	-0.83651215
28	0x3f0a2576	0.5396341
29	0x3fa0efb2	1.2573149
30	0x3fef1445	1.8678061
31	0xbf26519d	-0.6496828
32	0x3f798619	0.9747024
33	0x3f7a3c9d	0.9774874
34	0x3fe1ec0b	1.765016
35	0x3c320564	0.010865543
36	0x3e9709c5	0.2949964
37	0x3f018855	0.5059865
38	0xbeb0d3bd	-0.34536543
39	0x403fefbb	2.999007
40	0x3f609116	0.87721384
41	0x3f7c8c1d	0.98651296
42	0x3f87a67b	1.0597681
43	0x3fcd6b2b	1.604833
44	0x3fa20a53	1.2659401
45	0x3f2d8d9f	0.6779422
46	0x3fbf06fa	1.4924004
47	0x3fd48be5	1.6605192
48	0x3e88164c	0.2657951
49	0xbee98fa2	-0.45617396
50	0x3eee4f48	0.46544862
51	0x3f83a9ac	1.0286155
52	0x3ea312cf	0.31850287
53	0x3f0053d1	0.50127894
54	0x3f611ec0	0.87937546
55	0xbf1f5d78	-0.62251997
56	0x3f95f089	1.171403
57	0xbee81dfd	-0.4533538
58	0x3ffdfb8f	1.9842395
59	0x40073177	2.112394
60	0x3edf72a8	0.43642163
61	0x3eee30cc	0.46521604
62	0xbf75921d	-0.95926076
63	0x3f20843e	0.62701786

model/batch_normalization_1/batchnorm/mul_1;model/batch_normalization_1/batchnorm/add_1;model/dense_4/MatMul;model/dense_4/Relu;model/dense_4/BiasAdd f4 [64, 64]
0	0xbd741380	-0.05958891
1	0xbb55381d	-0.0032534667
2	0xbe6ef256	-0.23334631
3	0x3e79f600	0.24410248
4	0x3e884e4d	0.2662224
5	0xbe93bcae	-0.2885489
6	0xbdccae4e	-0.099941835
7	0xbebbf095	-0.36706987
8	0x3e83f4e2	0.25772768
9	0xbd8bb618	-0.06821841
10	0x3e88c22c	0.2671064
11	0xbe79d063	-0.243959
12	0x3e58dcd1	0.21177985
13	0xbe38bfcb	-0.18041913
14	0xbe8770e4	-0.26453316
15	0xbd3c305c	-0.045944557
16	0xbcdc7f15	-0.026916066
17	0xba1fd3fd	-0.00060969574
18	0xbdded2e7	-0.1088007
19	0xbe8c282e	-0.27374405
20	0x3d0276fa	0.031851746
21	0x3d852bed	0.06502519
22	0x3e462ebb	0.19353764
23	0xbec19f8a	-0.3781703
24	0x3ddcc6c4	0.10780099
25	0x3e034d9f	0.12822579
26	0xbef33658	-0.47502398
27	0x3e59a0c4	0.21252733
28	0x3e7b7617	0.24556766
29	0xbede4c25	-0.4341747
30	0xbe1c33e2	-0.15254167
31	0x3e7476ec	0.2387349
32	0xbdbdc3be	-0.092658505
33	0xbe6bbf8b	-0.23022287
34	0x3d072840	0.03299737
35	0x3daa8929	0.083269425
36	0x3e6d0a77	0.23148523
37	0xbdc4955c	-0.095988005
38	0x3e50bc7a	0.20384398
39	0x3d3031bf	0.04301619
40	0xbeb9831d	-0.36232844
41	0xbeb296b6	-0.34880608
42	0x3e2e3edb	0.17016165
43	0x3c3e657e	0.011620877
44	0xb9f8dd28	-0.0004746702
45	0xbe7e74b4	-0.24849206
46	0xbea1407b	-0.31494507
47	0x3e0139cb	0.12619703
48	0xbde9a1e8	-0.11407834
49	0x3e119a3a	0.14218989
50	0x3e6a5b74	0.22886449
51	0x3db4f1b7	0.08835166
52	0xbdda2aa4	-0.10652664
53	0x3e3eb1b0	0.1862247
54	0xbe3d8121	-0.1850629
55	0xbc34a8a4	-0.011026535
56	0xbdf100d8	-0.11767739
57	0xbe591319	-0.21198691
58	0x3e19af8a	0.15008369
59	0xbe1f19e7	-0.15537225
60	0x3d8f6d53	0.07003274
61	0x3e316290	0.17322755
62	0xbe9a2f66	-0.30114287
63	0x3e784e44	0.24248606
64	0x3d0efa7c	0.03490685
65	0x3da40df6	0.08010475
66	0xbe1d7830	-0.15377879
67	0x3d451c1f	0.04812252
68	0xbe3b4e24	-0.18291527
69	0xbdefc60c	-0.11707696
70	0x3e354c4e	0.17704889
71	0xbe819072	-0.25305516
72	0xbc4d9773	-0.012548315
73	0x3e91e1f3	0.28492698
74	0x3dc682b5	0.09692899
75	0xbd51e369	-0.051242266
76	0xbe793cf7	-0.24339662
77	0xbe1af64e	-0.1513302
78	0xbdf90bb0	-0.12160432
79	0xbe9649f0	-0.29353285
80	0xbc3ca4b7	-0.01151388
81	0xbe9cb86a	-0.30609447
82	0xbe911ee0	-0.28343868
83	0xbd966901	-0.07344247
84	0x3daca00b	0.08428963
85	0xbe3de346	-0.18543729
86	0x3ea38e40	0.31944466
87	0x3d6577f1	0.05602259
88	0x3dfc0288	0.1230517
89	0x3c63b4e1	0.013898105
90	0x3d074819	0.033027742
91	0x3dd25ceb	0.10271629
92	0xbe530249	-0.2060634
93	0x3d5e2e8d	0.054243613
94	0xbd6261a6	-0.055268906
95	0x3e1efb78	0.15525615
96	0xbe98ca43	-0.29841813
97	0x3da8937e	0.08231257
98	0x3c92ce2f	0.017920582
99	0x3d95199d	0.07280276
100	0xbe93e0b8	-0.28882384
101	0xbe367964	-0.17819744
102	0x3d901978	0.07036108
103	0xbe0eee7b	-0.1395816
104	0xbe7d7df5	-0.2475508
105	0xbc3e9805	-0.011632924
106	0xbd88a198	-0.066714466
107	0xbbe46c62	-0.006970928
108	0x3d34a699	0.044104192
109	0xbe53b4ac	-0.2067439
110	0x3ead2048	0.3381369
111	0xbe966ec0	-0.2938137
112	0xbe8d3085	-0.2757608
113	0xbd33a135	-0.04385491
114	0xbe24d98d	-0.16098614
115	0x3e51df7e	0.20495412
116	0xbe639322	-0.22224095
117	0xbec647cf	-0.3872666
118	0xbe236436	-0.15956196
119	0xbd963ba7	-0.073355965
120	0x3e8d758c	0.27628744
121	0x3e28940b	0.16462724
122	0xbe63ec6a	-0.22258154
123	0x3d0f73da	0.035022594
124	0xbeb26701	-0.3484421
125	0x3c079174	0.008274425
126	0x3e587124	0.2113691
127	0xbd140aea	-0.03614322
128	0x3d0f84ad	0.03503864
129	0x3eb0a2c6	0.34499186
130	0x3ce99c23	0.028516835
131	0xbebe770d	-0.37200204
132	0x3e49cb77	0.19706522
133	0x3ed3ccc9	0.41367176
134	0x3e9e175d	0.308772
135	0xbd9ef4e6	-0.077615544
136	0x3daf6d6a	0.08565791
137	0xbcc5db1e	-0.024152335
138	0x3e98505c	0.2974881
139	0x3e8988a0	0.2686205
140	0x3e9087fb	0.28228745
141	0x3e890a38	0.2676561
142	0xbe0a04f4	-0.13478452
143	0xbe7ba539	-0.24574746
144	0xbe14e848	-0.14541733
145	0x3dddab13	0.108236454
146	0xbe586965	-0.21133955
147	0xbdae3fca	-0.085082605
148	0x3b988643	0.004654677
149	0x3e5128d1	0.20425726
150	0xbdf0d8d2	-0.11760105
151	0xbea6abd3	-0.32552966
152	0x3e9ad8b3	0.30243453
153	0xbe1bf33d	-0.15229507
154	0xbe83c25c	-0.25734222
155	0x3e327a09	0.17429365
156	0xbe68cca8	-0.2273432
157	0xbd8a46ac	-0.06751761
158	0x3d66dfa4	0.056365624
159	0x3d587f20	0.05285561
160	0xbc923af6	-0.01785038
161	0x3d49f7be	0.04930853
162	0xbe0076a5	-0.1254526
163	0x3e429c04	0.19004828
164	0x3e5c121b	0.21491282
165	0xbeb3fb95	-0.3515288
166	0x3d194aae	0.037424736
167	0x3e25c48a	0.16188255
168	0xbe810957	-0.25202438
169	0x3dd20f8b	0.10256871
170	0xbe4b62db	-0.19861929
171	0x3e41e33a	0.18934336
172	0x3e52b520	0.20576906
173	0xbd92e621	-0.071728
174	0x3ed4a3f8	0.41531348
175	0xbebb4a25	-0.36580005
176	0xbd94c7e1	-0.072646864
177	0x3de4acdf	0.11165785
178	0xbe450ac9	-0.19242395
179	0xbd319f89	-0.043365035
180	0xbdeb1997	-0.1147949
181	0xbe9f5ef4	-0.3112713
182	0x3d18782e	0.037223987
183	0x3e0dcbd6	0.13847288
184	0xbe49908f	-0.19684051
185	0x3e202dd8	0.15642488
186	0x3e0e9d2c	0.13927144
187	0xbea63888	-0.32465005
188	0xbecab8a6	-0.39594
189	0x3e54c888	0.20779622
190	0xbd05f61e	-0.03270542
191	0xbcf24a87	-0.029576553
192	0x3e1d27aa	0.15347162
193	0x3e4cda09	0.20005049
194	0xbe2c8bca	-0.168502
195	0xbe986341	-0.29763225
196	0xbe3e7b78	-0.18601787
197	0x3dad4f9b	0.08462449
198	0xbccaadca	-0.024741072
199	0x3ec4c426	0.384309
200	0xbe843c83	-0.25827417
201	0x3d2a0a74	0.041513875
202	0xbe85cc85	-0.261326
203	0xbe78deb8	-0.2430371
204	0x3ec586cb	0.385794
205	0x3e8e6738	0.27813125
206	0x3e008333	0.12550049
207	0x3e70ca42	0.23514655
208	0xbdee6a7d	-0.11641405
209	0x3e885e87	0.2663462
210	0xbd7af95b	-0.06127296
211	0x3e14c013	0.14526395
212	0xbe7c1ba3	-0.24619918
213	0x3e1e26fc	0.15444559
214	0xbd1b5c2a	-0.03792969
215	0xbe58e6ff	-0.21181868
216	0xbe9f1dd1	-0.31077436
217	0x3d52b3f2	0.05144114
218	0x3ed1bdbb	0.40965065
219	0x3e307875	0.1723345
220	0xbe4c8e87	-0.19976245
221	0xbe82f652	-0.25578552
222	0x3d073794	0.033011988
223	0x3d2b4557	0.041814175
224	0xbe87b6f9	-0.26506785
225	0x3e3444d2	0.17604378
226	0xbe3587b5	-0.1772755
227	0xbd5edc47	-0.05440929
228	0x3d89e209	0.06732566
229	0x3e7f2695	0.24917062
230	0x3dbe1d41	0.092829235
231	0x3d7e745a	0.06212268
232	0xbe4be2e6	-0.19910774
233	0xbd868828	-0.065689385
234	0x3c30cab1	0.010790513
235	0xbd890d6a	-0.06692012
236	0xbe751620	-0.23934221
237	0x3d599f6d	0.053130556
238	0xbefa7583	-0.4891778
239	0x3e75f16a	0.24017873
240	0xbdf9cc08	-0.12197119
241	0x3e4d7e9c	0.20067829
242	0xbd6700dc	-0.056397304
243	0x39cfe308	0.00039651268
244	0x3e8059db	0.25068554
245	0xbce424d8	-0.0278496
246	0x3dcf28ff	0.10115241
247	0xbe3b5a38	-0.18296134
248	0xbed26523	-0.41092786
249	0xbe82f5b9	-0.25578097
250	0x3e2d20b3	0.16907005
251	0x3eb241e9	0.3481591
252	0xbc854afb	-0.016271105
253	0x3e3005d1	0.17189719
254	0x3dee8aeb	0.1164759
255	0xbec340d3	-0.38135394

model/position_output/BiasAdd/ReadVariableOp f4 [2]
0	0xbd3e59f4	-0.046472505
1	0xbd0681b2	-0.03283853

model/floor_output/BiasAdd/ReadVariableOp f4 [5]
0	0x3d2fc880	0.04291582
1	0x3d074da9	0.033033047
2	0x3d3efd97	0.04662856
3	0xbaa9cf55	-0.0012955467
4	0xbd9100fc	-0.07080266

model/dense/BiasAdd/ReadVariableOp f4 [128]
0	0x3d878b60	0.066183805
1	0x3d83486b	0.06410297
2	0x3c92035b	0.017823866
3	0x3d908f59	0.070585914
4	0x3d32ed90	0.04368359
5	0x3c1ddbce	0.009634925
6	0x3d322599	0.043492887
7	0x3de64321	0.112432726
8	0xba8395d0	-0.0010039154
9	0x3e2c33c5	0.16816624
10	0x3dcf2a1b	0.10115453
11	0x3db8ade9	0.09017546
12	0xbb1f0ea2	-0.0024270196
13	0x3dc90b0b	0.098165594
14	0x3c031c10	0.008002296
15	0xbaadb20c	-0.0013251915
16	0x3bc3375c	0.005957527
17	0x3db207b3	0.08692875
18	0x3c7acf12	0.0153081585
19	0x3df5c75b	0.12000915
20	0xbaca8ed3	-0.0015453942
21	0x3d81f908	0.06346327
22	0x3c24b2ac	0.010052364
23	0x3de9ae20	0.11410165
24	0xbbf37602	-0.007429839
25	0x3cad5f67	0.021163655
26	0x3d70fb87	0.058833625
27	0x3bd6adbb	0.006551472
28	0x3c641dcf	0.013923123
29	0xbb16d674	-0.0023016008
30	0x3c4429b2	0.011972832
31	0xbc68e59c	-0.014214899
32	0x3d1a666b	0.03769533
33	0x3de35357	0.1109988
34	0x3d865446	0.06559043
35	0x3e160579	0.14650525
36	0x3b22041f	0.0024721695
37	0x3dc2304a	0.09481867
38	0x3bbd04bb	0.005768386
39	0x3cf05552	0.029337559
40	0x3de63345	0.11240248
41	0x3d95e139	0.073183484
42	0x3d9adb32	0.075613394
43	0x3be0eb4f	0.0068639885
44	0x3d980951	0.07423652
45	0x3dc3a0de	0.09552167
46	0x3db04dd0	0.086085916
47	0x3dca7aa3	0.09886672
48	0x3e0e41b3	0.1389225
49	0xbc0adbc0	-0.008475244
50	0x3e1389b0	0.14407992
51	0x3d25d855	0.040489513
52	0x3db1d35d	0.086828925
53	0xb9bacc38	-0.0003562884
54	0x3c3f0197	0.011658094
55	0x3e0122e6	0.12610969
56	0x3d866b0e	0.06563388
57	0x3cf99fb8	0.030471668
58	0x3cf27eaa	0.029601414
59	0x3d932497	0.07184713
60	0xbbc34861	-0.005959556
61	0xbb0fff2f	-0.002197217
62	0x3a8dad2b	0.0010809054
63	0x3cbfd820	0.023418486
64	0xbc15ab31	-0.0091350535
65	0x3d81e3cc	0.06342277
66	0x3b88d7cd	0.004176116
67	0x3dd2dc4b	0.10295924
68	0xbbb9501f	-0.005655303
69	0xba221a78	-0.0006183754
70	0x3cbbb340	0.022912621
71	0x3d7b9d13	0.061429095
72	0x3d6431ad	0.055711437
73	0xb7a10670	-1.9195693e-05
74	0x3d82cb64	0.0638645
75	0x3ac06df1	0.0014681203
76	0x3b62ecff	0.0034626124
77	0x3da3381b	0.07969686
78	0x3e47a99d	0.19498296
79	0x3d4a9b5e	0.049464576
80	0x3d07af60	0.033126235
81	0x3ac9d930	0.001539981
82	0x3cd9e2be	0.026597377
83	0x3c6fb667	0.01463089
84	0x3e066cdf	0.13127469
85	0x3d995ac4	0.07488015
86	0xba31f096	-0.0006787864
87	0x3dbe69d8	0.09297532
88	0x3c889dfd	0.016676897
89	0xbca658ae	-0.020305958
90	0x3d932ca1	0.07186247
91	0x3d0cc483	0.034367096
92	0x3d207c30	0.039180934
93	0x3d83ef9d	0.06442187
94	0x3d99338c	0.07480535
95	0x3d7e5567	0.062093165
96	0x3ccd2b3c	0.02504503
97	0x3bdc8770	0.0067300126
98	0x3e2db080	0.1696186
99	0x3dfb6287	0.12274652
100	0x3ce97235	0.028496841
101	0x3d9a456b	0.07532772
102	0xbc0d2af5	-0.008616199
103	0xbb8f3429	-0.0043702316
104	0x3bca478a	0.006173079
105	0x3dba6ff2	0.09103383
106	0xbc9ef92a	-0.01940592
107	0x3d168698	0.036749452
108	0xbc501f5f	-0.012702792
109	0x3c86e68c	0.016467355
110	0x3ba0c3ac	0.0049061384
111	0xbca975f4	-0.020686127
112	0x3e00e9cd	0.12589188
113	0x3e0e0229	0.13868012
114	0xbc67cf7b	-0.014148588
115	0x3de62079	0.112366624
116	0x3d8c9ab8	0.06865448
117	0x3c0039bc	0.007826265
118	0x3dd9bb38	0.10631412
119	0x3e1604a5	0.14650209
120	0xbb45eabf	-0.0030199734
121	0xba18aace	-0.0005823792
122	0x3cca5d5e	0.024702724
123	0x3d68cc1e	0.056835286
124	0xba893486	-0.0010467924
125	0x3aff3488	0.0019470612
126	0x3d632942	0.05545927
127	0xbc02f387	-0.007992632

model/building_output/BiasAdd/ReadVariableOp f4 [3]
0	0xbd58637f	-0.052829262
1	0xbd8d694f	-0.06904852
2	0x3d992241	0.074772365

model/dense/MatMul f4 [128, 237]
0	0x3c7b08dc	0.015321936
1	0x3b4c17cd	0.0031142116
2	0x3cf016b6	0.029307704
3	0x3d14728b	0.03624205
4	0x3d1731b8	0.03691265
5	0x3c7b1ee7	0.015327192
6	0x3ca24d49	0.019812243
7	0xbbe1297d	-0.006871401
8	0x3c015951	0.00789483
9	0x3d029a73	0.031885576
10	0xbc726302	-0.014794113
11	0x3caf8868	0.021427348
12	0x3b8d12dd	0.004305227
13	0x3c2360a4	0.009971771
14	0x3cb4ae64	0.022055812
15	0xbbfcc894	-0.0077143405
16	0x3cbf5a81	0.023358585
17	0x3cdbbae1	0.02682251
18	0x3c93046e	0.017946448
19	0x3ba33aa8	0.0049813576
20	0xbc1058c4	-0.008810226
21	0xbac0f2e0	-0.001472082
22	0x3d6fdb67	0.058558848
23	0x3c88d100	0.016701221
24	0x3c89014a	0.016724247
25	0x3bea0bbf	0.0071425135
26	0x3b419dc3	0.0029543496
27	0x3ce4e4b9	0.027941095
28	0x3c854984	0.016270407
29	0xb9d15010	-0.00039923238
30	0xb9d158be	-0.00039929705
31	0x3bb8f0d1	0.005643942
32	0x3cd7772b	0.02630194
33	0x3b4823ec	0.003053899
34	0x3d552855	0.052040417
35	0x3c87b563	0.016565984
36	0x3bccf68c	0.0062549766
37	0x3b6b8f32	0.0035943505
38	0x3bdc9d8e	0.006732649
39	0x3ab510fd	0.0013814267
40	0x3cf08008	0.029357925
41	0xbc7595a1	-0.014989288
42	0x3b53653d	0.0032256388
43	0xba3fd43b	-0.00073176966
44	0xbbcf501d	-0.006326689
45	0x3c671c25	0.014105831
46	0xbc03d253	-0.008045751
47	0xbc51fb5f	-0.012816279
48	0x3b17f473	0.0023186475
49	0xbb3d3c78	-0.0028875154
50	0x3c1e4bae	0.009661598
51	0x3a9dad9e	0.0012029891
52	0xbafdd68a	-0.0019366306
53	0x3c5e5c55	0.013571818
54	0xbca78a7f	-0.020451782
55	0xbc9ef5a1	-0.019404234
56	0x3c8533f8	0.016260132
57	0x3d305419	0.04304895
58	0xbca1c8ab	-0.019749006
59	0xbad714b7	-0.0016409372
60	0xbc788b64	-0.015169952
61	0x3a533bfa	0.00080579484
62	0xbc41d708	-0.011831053
63	0xbba09cd4	-0.004901508
64	0xbbbe4d77	-0.0058075744
65	0xbbf36c21	-0.0074286615
66	0xbc26f670	-0.010190591
67	0xbcb86111	-0.022507222
68	0xbc7bc745	-0.015367334
69	0x3d0e0b53	0.03467877
70	0xbb62f997	-0.003463363
71	0xbc779db8	-0.015113287
72	0xbc9aaafd	-0.018880362
73	0x3c3e5879	0.011617773
74	0xbbee9883	-0.0072813644
75	0x3c150a7e	0.00909674
76	0x3c8b5a57	0.01701085
77	0x3c2be15d	0.0104907425
78	0x3cc4ea4b	0.0240375
79	0x3b55e43d	0.0032637261
80	0x3c7cbcf2	0.015425907
81	0x3b288796	0.002571558
82	0x3cee3bae	0.029081192
83	0x3c4505b1	0.012025283
84	0x3c5becbc	0.013423141
85	0x3c94ca25	0.018162796
86	0xbc093458	-0.008374296
87	0x3c011d33	0.007880497
88	0x3d0039af	0.03130501
89	0x3933fbea	0.00017164616
90	0x3c9d9a28	0.019238546
91	0x3c5c55db	0.013448204
92	0x3c51030a	0.012757072
93	0x3cbbe56c	0.022936545
94	0xbb86934b	-0.004106914
95	0xba9a4037	-0.0011768405
96	0x3cab4a48	0.020909443
97	0x3c97b018	0.018516585
98	0x3c049e39	0.008094364
99	0xbc0a60dc	-0.008445945
100	0x3babea01	0.0052464013
101	0x3cfcb096	0.030845921
102	0x3c0641f3	0.008194434
103	0x3c8b1a10	0.016980201
104	0xbb417849	-0.0029521158
105	0x3c2565c0	0.01009506
106	0x3ce39682	0.027781729
107	0x3b18f105	0.0023337018
108	0xbca3722c	-0.019951902
109	0x3c9e8f29	0.019355373
110	0x3a1cba6a	0.00059787056
111	0x3b956858	0.004559558
112	0x3b9d94ae	0.0048089838
113	0x3a04d577	0.0005067209
114	0x3d07c05c	0.033142433
115	0xbc66bfab	-0.014083783
116	0x3b6b3244	0.0035888115
117	0xba2c3d2e	-0.0006570396
118	0xbbe77247	-0.0070631835
119	0x3c6c31b3	0.014416146
120	0x3ca99678	0.020701632
121	0xbc6296ba	-0.013829881
122	0x3d42a018	0.04751596
123	0x3c2f970e	0.010717167
124	0xbc1d1f62	-0.009590002
125	0xb9d1507a	-0.00039923546
126	0xb9d15099	-0.00039923636
127	0x3bb4e8e6	0.0055209277
128	0x3c2bdb25	0.01048926
129	0x3ca16508	0.019701496
130	0x3ae16624	0.0017196578
131	0x3cb525c1	0.022112729
132	0x3c5020da	0.012703145
133	0xbce361f3	-0.027756667
134	0xbcb39638	-0.021922216
135	0x3c99662b	0.018725475
136	0x3c6c9041	0.01443869
137	0xbc9099a4	-0.017651387
138	0xbbbbf449	-0.005735908
139	0xbc2fcc39	-0.010729843
140	0x3d02d74e	0.03194361
141	0xbc09da72	-0.008413898
142	0xbba4dac6	-0.0050309626
143	0xbbf31cb4	-0.007419193
144	0xbbddfa33	-0.006774211
145	0xbc23edbe	-0.010005413
146	0xbcd71232	-0.026253793
147	0xbc117660	-0.00887832
148	0x3d18eb61	0.03733385
149	0xbb9746f5	-0.004616613
150	0xbccda4a2	-0.025102917
151	0xbc3f22c6	-0.0116660055
152	0x3c490c8e	0.01227106
153	0xbbed7413	-0.007246503
154	0x3ce5aedc	0.028037481
155	0x3c7ca65c	0.015420523
156	0x3c18b351	0.009320096
157	0x3ce18b56	0.02753226
158	0x3b5662cd	0.0032712698
159	0x3c74c29d	0.014938978
160	0x3b3a2d38	0.00284083
161	0x3cee2f25	0.029075215
162	0xbc231d13	-0.009955662
163	0xbc0a364d	-0.008435798
164	0x3c063b61	0.008192868
165	0x3ca0e9e1	0.019642772
166	0xbb8036b8	-0.003912773
167	0x3c015af0	0.007895216
168	0x3d009460	0.0313915
169	0x3bf051fd	0.0073339925
170	0x3cbe5d69	0.0232379
171	0x3c2bced6	0.010486325
172	0x3c15b0cc	0.00913639
173	0x3cf2565f	0.0295822
174	0xbb700c67	-0.0036628486
175	0x3d1ef88b	0.038811248
176	0x3cb74d53	0.022375738
177	0x3c95f829	0.018306809
178	0x3bc3c9b1	0.005974971
179	0xbc13f57b	-0.009030695
180	0x3d07e166	0.03317394
181	0x3d522822	0.051307805
182	0x3c87e782	0.016589884
183	0x3c76e469	0.015069106
184	0x3b0e2647	0.0021690296
185	0x3ce5c83d	0.028049583
186	0x39ad95cc	0.0003310874
187	0x3c9813d2	0.018564139
188	0x3bda3f48	0.0066603757
189	0x3aaf7ade	0.0013388058
190	0x3b77959f	0.003777839
191	0x3b9f431b	0.0048602945
192	0x3c21afee	0.009868605
193	0x3d18be26	0.037290715
194	0xbc6bd617	-0.014394305
195	0x3b804eb9	0.0039156345
196	0xbb7ac059	-0.003826162
197	0xbbf69c3d	-0.0075259493
198	0x3c6b7dc2	0.014373245
199	0xbc7cd43e	-0.015431462
200	0xbc41dc2c	-0.011832278
201	0x3ce3a116	0.027786773
202	0x3836a04e	4.3541477e-05
203	0xbcb1d9cd	-0.0217103
204	0xbae515b0	-0.0017477777
205	0x3c94a942	0.018147115
206	0x3beacfcb	0.007165884
207	0xbaa6048c	-0.001266615
208	0xbcb509eb	-0.022099456
209	0x3c2c4989	0.010515579
210	0x3cabebaf	0.020986406
211	0xbc9dcb65	-0.019262025
212	0xbbf366db	-0.007428033
213	0xbb9127e7	-0.0044298056
214	0x3d1d49cb	0.038400453
215	0xbc1b1ccb	-0.009467314
216	0xbb977d19	-0.004623067
217	0xbc0ed878	-0.008718602
218	0xbbf82315	-0.0075725415
219	0xbc1f1917	-0.009710572
220	0xbc80c275	-0.015717724
221	0xbbf4c0b4	-0.007469261
222	0x3d2a71b4	0.041612342
223	0xbb8f99be	-0.004382341
224	0x3d148c21	0.03626645
225	0xbc49808d	-0.012298715
226	0x3c6647a9	0.014055171
227	0xbb6f8538	-0.003654791
228	0x3c50d702	0.012746574
229	0x3c70e1c7	0.014702267
230	0x3c397c62	0.011321159
231	0x3cc6b561	0.02425641
232	0x3c8d45f7	0.017245276
233	0xbcaea6c0	-0.021319747
234	0xb9d30ce0	-0.0004025465
235	0x3babcdbb	0.005243031
236	0x3cd3e394	0.025865354
237	0xbc95da6e	-0.018292632
238	0xbc629245	-0.013828819
239	0xbcbcc283	-0.02304197
240	0xbd0e217f	-0.034699913
241	0xbba9825b	-0.0051730103
242	0xbb445adc	-0.0029961383
243	0xbc65197b	-0.013983126
244	0x3bb3768e	0.0054767793
245	0xbc68f3e5	-0.014218305
246	0x3c86e9aa	0.016468842
247	0xbcde23b9	-0.027116643
248	0xba4bb8de	-0.0007771383
249	0xbb35d5c7	-0.002774583
250	0x3c3ce375	0.011528839
251	0x3ca235e1	0.019801082
252	0xbc9027a2	-0.017597023
253	0xbd47e2c1	-0.048800234
254	0x3ce95f1a	0.02848773
255	0x3c8ff9ea	0.017575223

model/building_output/MatMul f4 [3, 64]
0	0xbe196135	-0.14978488
1	0xbd5022a0	-0.05081427
2	0xbebb6f95	-0.36608568
3	0xbe215599	-0.15755309
4	0x3e5079c5	0.20358951
5	0xbec44c78	-0.3833959
6	0x3df43543	0.11924221
7	0xbebdd915	-0.37079683
8	0x3d941c5f	0.07231974
9	0xbede9e7a	-0.43480283
10	0xbe03e7ff	-0.12881468
11	0x3e8f13fc	0.27944934
12	0x3e4b7621	0.19869281
13	0xbe95b4c0	-0.29239464
14	0x3e786358	0.24256647
15	0xbde1bb13	-0.1102201
16	0xbe999bc6	-0.30001658
17	0x3bcf60a5	0.0063286596
18	0xbe9152ff	-0.28383633
19	0x3d54c22d	0.051942993
20	0xbca1e784	-0.019763716
21	0xbe3e8021	-0.18603565
22	0x3e873700	0.2640915
23	0x3e95639d	0.2917756
24	0xbe0d5f85	-0.13805969
25	0x3e663d9d	0.22484441
26	0xbedcc6e2	-0.43120486
27	0x3d6ac287	0.057314422
28	0xbe86a56a	-0.26298076
29	0x3cf3d6b6	0.029765468
30	0xbe9674ff	-0.29386136
31	0xbe12f881	-0.14352609
32	0x3e386f91	0.18011309
33	0x3ea5c07c	0.32373416
34	0xbe759747	-0.23983489
35	0xbd501121	-0.050797585
36	0xbdd01851	-0.10160888
37	0xbeaf054a	-0.34183723
38	0xbda0ce74	-0.07851878
39	0x3bfdefb4	0.007749522
40	0x3e16c356	0.14722952
41	0xbe8cbf65	-0.27489772
42	0x3e9e53be	0.30923265
43	0xbe6ddad3	-0.23228006
44	0x3e86d1ee	0.2633204
45	0x3e7988c9	0.24368586
46	0xbdc1cb13	-0.094625615
47	0x3e9882f9	0.29787424
48	0x3e72d6df	0.2371478
49	0x3e2b82ac	0.16749066
50	0x3e71f416	0.23628268
51	0xbea6fa7f	-0.32612988
52	0xbe97823d	-0.2959155
53	0xbde0fa0b	-0.10985192
54	0x3e7effe3	0.249023
55	0x3e871693	0.2638441
56	0xbe10bfb9	-0.14135636
57	0xbeb8e8e5	-0.36115184
58	0xbe015db0	-0.12633395
59	0xbe0843bd	-0.1330709
60	0xbeaa33ff	-0.33242795
61	0xbbdd4b6e	-0.0067533767
62	0x3e54dd9c	0.20787662
63	0x3e9e093e	0.30866426
64	0x3bf14a85	0.0073636197
65	0xbe0242ec	-0.12720841
66	0x3d504a8e	0.05085235
67	0x3e393ad6	0.1808885
68	0x3e5fd4b6	0.21858487
69	0xbe2c4904	-0.16824728
70	0xbecf8a17	-0.40535042
71	0xbe93da95	-0.28877702
72	0xbe83c14d	-0.25733414
73	0xbe43d602	-0.19124606
74	0xbe9700c4	-0.29492772
75	0xbed3788b	-0.41302904
76	0x3d5e2d7f	0.054242607
77	0x3e834715	0.2564017
78	0x3ded06f4	0.11573592
79	0x3dcf038b	0.10108098
80	0x3e8b3565	0.27189174
81	0x3e82e3e3	0.2556449
82	0x3e716314	0.23572952
83	0xbebc69b4	-0.36799395
84	0x3dc3dad0	0.095632195
85	0x3e873911	0.26410726
86	0xbd978a3c	-0.07399413
87	0x3e4b8339	0.19874276
88	0x3e3fda24	0.18735558
89	0xbe629176	-0.22125801
90	0xbe8bee18	-0.2733009
91	0xbee2b562	-0.4427901
92	0x3e51c34d	0.20484658
93	0xbcc626e4	-0.024188466
94	0x3d09c020	0.03363049
95	0x3dd64fb8	0.10464424
96	0x3cb9c7cc	0.022678278
97	0x3d9e150a	0.07718857
98	0x3d8ae82b	0.06782564
99	0x3e27ebb6	0.1639851
100	0xbec10fab	-0.37707266
101	0x3da1e5b4	0.079051405
102	0x3e9487ea	0.29009944
103	0x3e93385d	0.2875394
104	0xbe818e5f	-0.25303933
105	0xbe497537	-0.1967362
106	0x3d2f259c	0.042760476
107	0x3e69dfe6	0.22839317
108	0x3e87efa5	0.26550022
109	0xbcfaf98e	-0.030636575
110	0x3e2bf7d0	0.16793752
111	0xbe10ab57	-0.14127861
112	0xbdc4a5ab	-0.09601911
113	0xbdd0e49f	-0.10199856
114	0x3ddeef45	0.10885481
115	0x3ea50fab	0.32238516
116	0xbd1ab550	-0.03777057
117	0xbeb3f16b	-0.35145125
118	0xbd9c2bf5	-0.07625572
119	0xbe38b843	-0.1803904
120	0xbe8d83e7	-0.27639696
121	0x3d30d3a5	0.04317059
122	0x3cfca87a	0.030842055
123	0x3dc2f45e	0.095192656
124	0xbdb9ca84	-0.0907183
125	0x3bded3df	0.0068001593
126	0xbe5519fe	-0.20810696
127	0xbcb1eae6	-0.021718454
128	0xbeab595d	-0.33466616
129	0x3ea88dba	0.3292063
130	0xbdfd7bee	-0.12377153
131	0xbd37fcae	-0.04491871
132	0xbe1a1dbf	-0.1505041
133	0xbd0537e0	-0.03252399
134	0x3d972625	0.07380322
135	0x3e2b2914	0.16714889
136	0xbda586be	-0.08082341
137	0xbdebcd7c	-0.115138024
138	0x3eb4c1d5	0.35304132
139	0x3eb9fef4	0.36327326
140	0x3d1b0104	0.037842765
141	0x3e982030	0.29712057
142	0xbdcb35f9	-0.09922404
143	0xbdebb12e	-0.11508404
144	0xbdffd56a	-0.124918774
145	0xbdf87dc9	-0.121333666
146	0xbdcc32f9	-0.0997066
147	0x3ec54d89	0.38535717
148	0xbe40f852	-0.18844727
149	0x3d7b0c7e	0.06129121
150	0x3db9d686	0.0907412
151	0xbe170c12	-0.14750698
152	0x3e8336e0	0.25627804
153	0xbd912ddf	-0.07088827
154	0x3e43e2f2	0.19129542
155	0xbc6f6885	-0.014612322
156	0x3e616e84	0.22014815
157	0x3e127bfa	0.14305106
158	0x3ec31dee	0.38108772
159	0x3de77009	0.11300666
160	0x3eae962a	0.3409894
161	0xbe09ec9f	-0.1346917
162	0xbd04fed5	-0.03246959
163	0x3e84999e	0.2589845
164	0x3ecb6662	0.3972655
165	0xbde76ca7	-0.11300021
166	0x3d294907	0.04132941
167	0xbe4ad897	-0.19809185
168	0xbd25c7b3	-0.04047365
169	0xbe304c19	-0.17216529
170	0xbe6f42c7	-0.23365317
171	0x3dceb266	0.100926206
172	0xbde19096	-0.11013906
173	0x3d8a6a63	0.06758573
174	0xbdf2afbf	-0.11849927
175	0xbe95297b	-0.2913321
176	0xbe257b35	-0.16160281
177	0x3ea7be14	0.32762206
178	0xbd824d0a	-0.0636235
179	0xbe249891	-0.16073824
180	0x3e834065	0.25635067
181	0x3d32b6e8	0.043631464
182	0xbd8a2409	-0.067451544
183	0x3e9e07eb	0.30865416
184	0x3e8e3458	0.2777431
185	0xbe8df4ae	-0.27725738
186	0x3ed4a7dc	0.41534317
187	0xbe13aaa4	-0.14420563
188	0x3e7a018d	0.24414654
189	0x3eaed7fb	0.34149155
190	0x3eb50fff	0.35363767
191	0xbd090aa5	-0.033457417
