250607/models/original_hadnn.tflite (tflite, 324456 bytes, 26 tensors)

model/position_output/MatMul f4 [2, 64]
0.12507895 -0.024716636 0.055213425 -0.049660936 -0.0479964 -0.07027557 -0.060944106 0.04275416
0.037849057 0.026073135 0.00922672 -0.04805723 0.10039678 0.057606097 0.07049109 0.032727808
0.11231907 0.12986836 0.068058826 0.10005947 0.03968499 -0.14790012 -0.10057691 -0.023776501
-0.08741985 0.008398272 -0.0056916606 -0.068984814 0.1452645 0.036599357 0.0818364 -0.13075271
-0.03516747 0.093961924 -0.019701177 -0.02864062 -0.028456984 0.026149256 -0.054013148 -0.028893683
0.017551916 -0.023383576 0.015234315 0.06463815 0.092358954 -0.024514774 -0.15743633 -0.078697294
-0.005603445 -0.14323597 -0.14133507 -0.12119455 -0.048607673 0.030772885 -0.15199609 -0.039749656
0.075064644 -0.080394596 0.07943452 -0.01204232 -0.059184186 0.065835774 0.16697517 0.06911329
0.017136535 -0.13664119 0.16474374 0.026936976 0.051155224 -0.023143128 0.029333334 0.11830591
0.19909203 0.046643104 0.11130192 0.0011684495 0.015594253 -0.028118022 0.049454015 0.041256953
0.012200506 -0.056963217 -0.1428052 -0.042730663 0.0027851723 0.013536355 -0.038458884 -0.091281146
-0.037192814 -0.07753657 -0.049177293 0.019127259 0.043579355 0.022042245 0.0028079236 -0.19680892
-0.016919505 -0.0454688 0.16055404 0.10167602 -0.21565092 0.047760777 -0.032970283 0.0642257
0.07479784 -0.03764284 0.050945763 -0.046478186 -0.16738918 -0.052069332 0.028003717 -0.007436623
0.069439314 0.0024403383 0.017953888 0.039572068 -0.03918256 0.041787367 -0.28901073 0.02788762
0.051217277 0.015248786 -0.0035719106 -0.063024834 -0.0053067473 0.01790782 -0.027876407 0.007613549
00000000: b214 003e 8b7a cabc 7927 623d 4469 4bbd
00000010: e097 44bd a3ec 8fbd 87a0 79bd fc1e 2f3d
00000020: 9d07 1b3d 5497 d53c ab2b 173c a8d7 44bd
00000030: d49c cd3d 5ff4 6b3d a25d 903d 980d 063d
00000040: 8a07 e63d 36fc 043e 6d62 8b3d fbeb cc3d
00000050: ba8c 223d 2173 17be 44fb cdbd f0c6 c2bc
00000060: 2e09 b3bd e898 093c 1c81 babb e947 8dbd
00000070: 38c0 143e 35e9 153d d899 a73d 0ae4 05be
00000080: c40b 10bd 1c6f c03d 5d64 a1bc bc9f eabc
00000090: 9f1e e9bc f736 d63c e43c 5dbd 72b2 ecbc
000000a0: 09c9 8f3c ea8e bfbc 5999 793c 0261 843d
000000b0: b126 bd3d 35d3 c8bc fd36 21be 0c2c a1bd
000000c0: 1b9d b7bb 73ac 12be 24ba 10be d934 f8bd
000000d0: d718 47bd 6b17 fc3c dda4 1bbe 89d0 22bd
000000e0: 7ebb 993d eca5 a4bd 91ae a23d 274d 45bc
000000f0: 1e6b 72bd e8d4 863d 8afb 2a3e 458b 8d3d
00000100: eb61 8c3c abeb 0bbe 95b2 283e efaa dc3c
00000110: 2488 513d a896 bdbc 764c f03c 5e4a f23d
00000120: c8de 4b3e d70c 3f3d 43f2 e33d a926 993a
00000130: 0a7f 7f3c c457 e6bc 4b90 4a3d 0dfd 283d
00000140: a2e4 473c 4352 69bd 873b 12be 5906 2fbd
00000150: 7087 363b 97c7 5d3c 1087 1dbd 9cf1 babd
00000160: 7e57 18bd 7ecb 9ebd 216e 49bd c5b0 9c3c
00000170: 4480 323d f091 b43c 2405 383b 4788 49be
00000180: c69a 8abc 7e3d 3abd 4768 243e 843b d03d
00000190: 98d3 5cbe cea0 433d d90b 07bd c488 833d
000001a0: 9c2f 993d 612f 1abd 81ac 503d e95f 3ebd
000001b0: 1268 2bbe a746 55bd 0d68 e53c eaae f3bb
000001c0: 3336 8e3d 15ee 1f3b 0814 933c 5216 223d
000001d0: e47d 20bd 3b29 2b3d 37f9 93be 9474 e43c
000001e0: 35c9 513d 0bd6 793c b716 6abb 2a13 81bd
000001f0: 39e4 adbb 6cb3 923c 105d e4bc 147b f93b

model/floor_output/MatMul f4 [5, 64]
-0.055414956 0.073447004 -0.25863582 -0.07441611 0.10388275 0.21520202 0.2825603 -0.34765974
-0.2613399 0.087132275 0.14189209 -0.31105292 -0.098263316 -0.16070007 -0.26898074 0.3669117
0.2237546 -0.27879462 0.11370034 -0.12763564 0.022031376 -0.10694485 0.40853623 -0.025708992
0.12922558 0.12659326 -0.091734976 0.014257492 -0.34507686 -0.23155732 -0.056864396 -0.14907448
0.09907712 -0.113762036 -0.2206064 -0.23372574 0.1002462 -0.079557166 -0.025399394 0.050674025
-0.30456212 -0.28543928 0.091570325 0.05852041 -0.10281246 -0.03169301 0.12340716 -0.13535927
-0.062434446 0.2544377 -0.30508107 -0.055788558 -0.2748447 -0.11797511 0.30347928 0.12979206
-0.075679205 0.4178904 -0.38004 0.26784113 -0.03904256 0.31318885 0.30758354 -0.19395874
0.16607238 -0.23579761 0.29443195 -0.006601159 -0.2689949 0.06761903 0.067719705 -0.08647798
0.3643644 0.35719994 0.14492752 -0.17844082 0.057696287 0.33843496 0.26105317 -0.2342954
0.091501884 -0.17957896 0.12229742 0.42378962 0.31421027 -0.23351035 0.28489715 0.10417333
-0.07198707 -0.40179828 0.25916907 -0.24160807 -0.17052862 -0.24334244 0.17008412 -0.023189923
0.30436587 0.0052208826 -0.11401805 -0.13241275 0.117991544 0.32599416 -0.039902475 0.014163315
0.27435076 -0.07918075 0.34013364 0.35029197 0.017963827 -0.025952956 -0.086284846 -0.23661064
0.23630889 -0.26201707 -0.25849995 0.21906543 0.058092035 0.052297723 -0.15536189 -0.007458333
-0.23594199 -0.26381165 -0.042462647 -0.19569452 0.1175673 -0.23661403 -0.19482127 -0.24147683
0.02974011 0.2565956 -0.14940506 0.1555075 -0.03641127 -0.18572533 -0.36948067 0.17755474
-0.18567875 0.15684116 0.10625345 0.20896445 0.11157441 -0.21295221 -0.3117847 -0.3903994
-0.1321044 0.36028802 0.045871165 -0.026478443 0.24096899 0.05772115 -0.1841833 -0.22229242
0.17945503 -0.43481424 0.13511686 0.20589632 0.14409514 0.10775377 -0.30004683 0.18658434
-0.3102974 -0.15625519 0.24132569 0.42785472 -0.35756943 -0.25080273 0.047381762 0.26055872
0.13541119 0.34648636 0.21584868 0.084413156 0.266544 0.21083885 0.35475266 0.24186228
0.16369398 0.18212138 0.10815975 -0.20301987 -0.30307683 0.017452504 -0.06078224 0.13211326
-0.37806854 0.1835092 0.19094273 -0.19857767 -0.17155185 0.17841993 -0.29274148 -0.3552804
-0.21117987 -0.1147025 -0.2126977 0.15071267 -0.30234754 -0.5239776 -0.19043504 0.23170674
0.1820312 -0.28043994 0.19257444 -0.18355903 -0.18836701 0.031299 0.31191117 -0.41296306
-0.48079693 -0.2221592 0.03731764 -0.11530089 -0.23093988 -0.40186173 -0.34103167 0.3700192
0.021308169 0.29452032 -0.12689632 0.22412217 0.23220824 0.11280997 -0.38450515 -0.055588357
-0.09703288 0.3992564 -0.09003887 -0.0027139164 -0.031880938 -0.020441856 0.21708262 -0.11423339
-0.11800674 0.14289878 -0.3595424 0.15002768 -0.1543139 -0.17778543 -0.07312069 -0.2951043
-0.4800696 -0.07006937 0.28265467 0.057375386 0.3711614 -0.437252 -0.3568081 0.2396964
-0.12627299 -0.16586605 0.17751934 0.16879843 -0.18024446 0.101513945 -0.027859174 0.2147828
00000000: cbfa 62bd 626b 963d ea6b 84be 7967 98bd
00000010: 7bc0 d43d eb5d 5c3e beab 903e 7500 b2be
00000020: 58ce 85be 6872 b23d 294c 113e 5442 9fbe
00000030: 473e c9bd 8f8e 24be d8b7 89be dadb bb3e
00000040: ed1f 653e 2bbe 8ebe b9db e83d ebb2 02be
00000050: 257b b43c e705 dbbd a92b d13e aa9b d2bc
00000060: b653 043e aaa1 013e 8cdf bbbd 4198 693c
00000070: eaad b0be 5d1d 6dbe a4ea 68bd fba6 18be
00000080: f2e8 ca3d 12fc e8bd a5e6 61be cd55 6fbe
00000090: e14d cd3d deee a2bd 6412 d0bc 918f 4f3d
000000a0: 91ef 9bbe 1925 92be 3989 bb3d 19b3 6f3d
000000b0: 578f d2bd 88d0 01bd e5bc fc3d 9f9b 0abe
000000c0: 43bb 7fbd a945 823e 9633 9cbe 8b82 64bd
000000d0: 72b8 8cbe ef9c f1bd a361 9b3e 36e8 043e
000000e0: b3fd 9abd bbf5 d53e 9a94 c2be 7922 893e
000000f0: 17eb 1fbd 4a5a a03e 977b 9d3e 1f9d 46be
00000100: e10e 2a3e ee74 71be c9bf 963e 894e d8bb
00000110: b3b9 89be d97b 8a3d a1b0 8a3d 5e1b b1bd
00000120: f88d ba3e e9e2 b63e e167 143e 31b9 36be
00000130: f152 6c3d 5947 ad3e c3a8 853e 22eb 6fbe
00000140: 5765 bb3d 8ce3 37be 1277 fa3d f4fa d83e
00000150: 2be0 a03e 561d 6fbe 0ade 913e d458 d53d
00000160: f56d 93bd 81b8 cdbe cfb1 843e 1b68 77be
00000170: 0e9f 2ebe c32e 79be 882a 2e3e cbf8 bdbc
00000180: d8d5 9b3e f013 ab3b 4c82 e9bd 3597 07be
00000190: 8da5 f13d b5e8 a63e c770 23bd 400d 683c
000001a0: b477 8c3e 8429 a2bd ff25 ae3e 7859 b33e
000001b0: e028 933c 4b9b d4bc 1cb6 b0bd 0f4a 72be
000001c0: f5fa 713e 1a27 86be 1b5a 84be b052 603e
000001d0: eaf1 6d3d 2336 563d 3017 1fbe 0865 f4bb
000001e0: c79a 71be 5212 87be 50ed 2dbd 2564 48be
000001f0: 20c7 f03d f34a 72be 3a7f 47be b445 77be
00000200: 88a1 f33c 8060 833e a4fd 18be 5c3d 1f3e
00000210: fc23 15bd c82e 3ebe 922c bdbe e9d0 353e
00000220: 9222 3ebe f89a 203e 699b d93d c7fa 553e
00000230: 2081 e43d 2510 5abe 3fa2 9fbe 6ee2 c7be
00000240: 6046 07be ac77 b83e 67e3 3b3d 52e9 d8bc
00000250: 93c0 763e 036d 6c3d 8c9a 3cbe a0a0 63be
00000260: 0fc3 373e f99f debe 135c 0a3e 7cd6 523e
00000270: ad8d 133e 02ae dc3d bd9f 99be f70f 3f3e
00000280: 4ddf 9ebe 5c01 20be 151e 773e c60f db3e
00000290: 5713 b7be 3769 80be 6113 423d f467 853e
000002a0: 3ba9 0a3e a966 b13e 7007 5d3e cee0 ac3d
000002b0: 7578 883e 24e6 573e 24a2 b53e bfaa 773e
000002c0: 659f 273e 077e 3a3e dc82 dd3d 71e4 4fbe
000002d0: e32c 9bbe 8ef8 8e3c ccf6 78bd b348 073e
000002e0: 3392 c1be d6e9 3b3e 7e86 433e f257 4bbe
000002f0: 4aab 2fbe b7b3 363e 36e2 95be 50e7 b5be
00000300: 893f 58be 25e9 eabd 6dcd 59be 6c54 1a3e
00000310: 4ccd 9abe 6523 06bf 6701 43be 8844 6d3e
00000320: 6366 3a3e d395 8fbe 3c32 453e e6f6 3bbe
00000330: 48e3 40be 6133 003d d2b2 9f3e e56f d3be
00000340: 042b f6be b47d 63be 62da 183d df22 ecbd
00000350: 817b 6cbe d2c0 cdbe b49b aebe 2873 bd3e
00000360: 788e ae3c 5ecb 963e 1cf1 01be 4880 653e
00000370: ffc7 6d3e ea08 e73d dcdd c4be 9eb0 63bd
00000380: 2db9 c6bd 566b cc3e 4d66 b8bd f6db 31bb
00000390: 9695 02bd ae75 a7bc e84a 5e3e 32f3 e9bd
000003a0: 85ad f1bd 0f54 123e f115 b8be dba0 193e
000003b0: 7704 1ebe 620d 36be 4dc0 95bd e917 97be
000003c0: afcb f5be 8880 8fbd 1db8 903e 7402 6b3d
000003d0: de08 be3e 7fdf dfbe 8daf b6be f972 753e
000003e0: b54d 01be cad8 29be a1c7 353e 7fd9 2c3e
000003f0: 0192 38be 8be6 cf3d ec38 e4bc 06f0 5b3e

model/building_output/MatMul f4 [3, 64]
-0.112064935 0.25950813 -0.21086787 -0.36912912 -0.102079906 0.033132315 0.30060735 0.13289453
-0.27649856 -0.107222006 -0.2805622 -0.02920611 -0.5556173 -0.22160587 -0.0011060637 0.17401582
0.32332766 -0.32059523 -0.12284647 -0.39784172 -0.28314164 0.14127648 0.013367155 -0.5594184
-0.035308536 -0.39572963 -0.32229647 -0.3872267 -0.05290862 -0.17699605 -0.5108002 0.25424415
0.07293344 0.31037185 -0.36091074 0.09471814 0.049967777 -0.36622265 0.021264466 -0.25088075
0.3404249 -0.12365393 -0.07071167 -0.44169167 0.47096956 0.006114707 -0.3668703 0.3793061
0.022918755 0.22171615 0.039072964 -0.47270188 0.3538402 0.077534534 -0.13814603 -0.3892996
-0.05623778 -0.46882102 -0.08743791 0.22980414 0.16064255 0.24155103 -0.4263903 -0.3136242
0.2463351 0.10851193 0.08867908 -0.2067258 -0.32542756 -0.46971515 -0.09620248 -0.25929227
-0.35357675 -0.37548664 0.07055199 -0.36964324 0.3773403 0.09628339 -0.37674943 0.053862706
-0.3455686 -0.2981289 -0.117366165 0.0993479 -0.10650329 0.43974605 0.15863293 -0.17546612
0.14160639 0.25958243 0.201781 0.039382737 -0.0057191355 -0.24671802 0.22186728 -0.41472933
0.04373791 -0.33858263 -0.36799157 -0.34428447 0.27358592 -0.101291746 -0.21893668 0.2584598
0.20049399 -0.23847733 0.09671069 -0.021663334 -0.105062164 0.10314534 0.24832739 -0.12921436
-0.1037546 0.25688446 0.26722345 0.031224007 -0.14343134 -0.13036682 -0.31349623 -0.122129686
0.41253138 -0.33405027 -0.23417601 -0.3555793 -0.09312792 -0.13943386 -0.20870626 0.099554144
0.24561284 -0.24401785 -0.13125518 0.043512687 0.14108051 -0.13048099 -0.30325377 0.030331817
0.3016284 -0.14741625 -0.26753145 0.042289417 -0.17191175 0.3415657 0.4062687 -0.29605973
-0.4064119 0.33541515 -0.095913045 0.2915676 0.24119872 -0.06522583 -0.12176315 0.24473806
0.26296228 -0.28362456 0.14408447 -0.06183916 0.35452694 0.29832515 0.16767225 -0.14913917
-0.0381734 -0.012913023 0.10371015 -0.0017993246 -0.03639439 0.13326825 0.4197101 0.06533153
-0.12950125 0.4816886 -0.42041418 0.23081109 -0.055299968 0.25458825 -0.24176498 0.010228292
0.34704465 -0.45210978 -0.2743694 -0.030002873 -0.12634808 0.006420188 0.35596 0.26795724
-0.08809485 0.20091105 -0.1700045 0.30180204 0.021523189 0.09160786 0.22391455 -0.17112616
00000000: 4d82 e5bd 40de 843e bfed 57be 7efe bcbe
00000010: 450f d1bd c0b5 073d 35e9 993e 8115 083e
00000020: 3891 8dbe 3697 dbbd d9a5 8fbe a741 efbc
00000030: ef3c 0ebf a6ec 62be 57f9 90ba 3431 323e
00000040: 348b a53e 0f25 a4be ee96 fbbd e9b1 cbbe
00000050: f1f7 90be c8aa 103e e901 5b3c 0b36 0fbf
00000060: af9f 10bd 139d cabe 0b04 a5be 9442 c6be
00000070: b6b6 58bd 743e 35be cdc3 02bf 4a2c 823e
00000080: 215e 953d 0fe9 9e3e 4bc9 b8be 96fb c13d
00000090: 03ab 4c3d 8981 bbbe d132 ae3c 7173 80be
000000a0: 2c4c ae3e 463e fdbd 48d1 90bd 6925 e2be
000000b0: ec22 f13e e15d c83b 6dd6 bbbe 6934 c23e
000000c0: 1dc0 bb3c 8f09 633e f90a 203d fb05 f2be
000000d0: 8b2a b53e 6dca 9e3d 2776 0dbe 4752 c7be
000000e0: 9659 66bd 4f09 f0be a612 b3bd c751 6b3e
000000f0: 7b7f 243e 2759 773e d44f dabe 5a93 a0be
00000100: 453f 7c3e 813b de3d 619d b53d eeaf 53be
00000110: 719e a6be 817e f0be ce05 c5bd f5c1 84be
00000120: 0308 b5be c93f c0be 907d 903d e141 bdbe
00000130: bf32 c13e 3a30 c53d 4de5 c0be 249f 5c3d
00000140: 5eee b0be 5aa4 98be ac5d f0bd e976 cb3d
00000150: 661e dabd 6526 e13e ac70 223e 64ad 33be
00000160: 4401 113e fde7 843e ae9f 4e3e cb4f 213d
00000170: 9667 bbbb a6a3 7cbe 2d31 633e 6757 d4be
00000180: 8626 333d b45a adbe 6469 bcbe 0e46 b0be
00000190: 7413 8c3e 0c72 cfbd f030 60be d854 843e
000001a0: 4c4e 4d3e 6733 74be 4110 c63d 4e77 b1bc
000001b0: d52a d7bd dd3d d33d 8949 7e3e c550 04be
000001c0: 4b7d d4bd 5c86 833e 83d1 883e 7dc9 ff3c
000001d0: aadf 12be e17e 05be 9482 a0be 211f fabd
000001e0: 5037 d33e a308 abbe d6cb 6fbe 7d0e b6be
000001f0: dab9 bebd c0c7 0ebe 18b7 55be 0be3 cb3d
00000200: ef81 7b3e d1df 79be c267 06be 5c3a 323d
00000210: 6977 103e cf9c 05be 1444 9bbe 6e7a f83c
00000220: 0a6f 9a3e 49f4 16be e2f9 88be ab37 2d3d
00000230: a209 30be b3e1 ae3e 7302 d03e 2495 97be
00000240: 3815 d0be 89bb ab3e 0f6e c4bd 5948 953e
00000250: ccfc 763e 1f95 85bd f55e f9bd 9d9c 7a3e
00000260: fea2 863e 3d37 91be e18a 133e 0f4b 7dbd
00000270: 8e84 b53e 13be 983e 46b2 2b3e f0b7 18be
00000280: b65b 1cbd 2591 53bc fd65 d43d 51d7 ebba
00000290: 4912 15bd 7977 083e 3ee4 d63e 8acc 853d
000002a0: fa9b 04be e39f f63e 8740 d7be be59 6c3e
000002b0: 3882 62bd 6459 823e 3d91 77be 9194 273c
000002c0: d6af b13e ef7a e7be 257a 8cbe 96c8 f5bc
000002d0: 6461 01be 7160 d23b 6440 b63e b131 893e
000002e0: 136b b4bd a0bb 4d3e a915 2ebe cc85 9a3e
000002f0: 6651 b03c e79c bb3d db49 653e b23b 2fbe

model/attention_layer/MatMul_1 f4 [1, 128]
0.15214425 -0.083194435 -0.1761686 0.10018554 0.19553494 0.19073129 -0.1082542 -0.03677216
0.024620086 -0.1270445 0.04768476 -0.15362573 -0.04913774 0.046258032 0.026278123 -0.13797775
0.06498498 0.14840391 -0.16440627 0.16334894 0.12717494 -0.14491624 0.18694764 -0.035250068
-0.09081381 -0.21314634 -0.06108986 -0.20590942 -0.18614161 0.14380935 0.20397383 -0.012516335
-0.08546236 -0.17026944 -0.067171395 0.05582437 0.043948203 -0.01959525 0.090839505 -0.016888872
-0.07336287 -0.08843641 -0.15693623 0.09893641 -0.15618041 -0.058094367 -0.07259339 -0.13324527
-0.09737751 0.1296269 -0.20028839 0.05762562 -0.08238429 0.10518581 -0.107855655 -0.044423208
-0.08656241 -0.2004085 0.06213084 0.0596433 0.20986429 0.17761162 -0.20350504 0.09633869
-0.15262014 -0.029686153 0.18234861 0.066378206 0.10559031 -0.06960113 -0.0760946 -0.18911362
0.10208565 0.093571335 -0.20021008 0.19439134 -0.11555607 -0.12494928 0.09544277 -0.04020822
-0.07520783 0.0822508 0.15453199 0.047097713 0.12503421 0.14957914 -0.08550422 0.18681994
0.16898617 -0.08596189 0.07800388 -0.08158673 0.015915468 -0.1559552 -0.20865688 0.17078358
0.0012438744 0.14162919 0.06374681 0.1793276 0.20929924 -0.023526102 0.06933248 -0.12002702
-0.19314612 0.16570285 0.13332799 0.16713649 -0.1037599 -0.017548993 -0.15912892 0.015676737
0.21459469 0.15267557 0.09249145 0.15591809 -0.17334248 0.17046931 0.13946733 0.20581567
-0.15570182 -0.02634564 0.10991424 0.10940823 -0.20954606 0.029604092 -0.017809212 -0.09285246
00000000: b4cb 1b3e d861 aabd 8b65 34be 142e cd3d
00000010: 503a 483e 104f 433e 61b4 ddbd 689e 16bd
00000020: 10b0 c93c f417 02be 1851 433d 1050 1dbe
00000030: a844 49bd 1079 3d3d 3845 d73c 0a4a 0dbe
00000040: d816 853d 32f7 173e 1e5a 28be f244 273e
00000050: 263a 023e ec64 14be 346f 3f3e 6062 10bd
00000060: 97fc b9bd 0943 5abe 5c39 7abd ebd9 52be
00000070: e89b 3ebe c242 133e 84de 503e 5011 4dbc
00000080: e406 afbd 1d5b 2ebe 2891 89bd 18a8 643d
00000090: 0803 343d 3886 a0bc 100a ba3d 885a 8abc
000000a0: 463f 96bd 261e b5bd e4b3 20be 2c9f ca3d
000000b0: c2ed 1fbe 5cf4 6dbd d8ab 94bd 7371 08be
000000c0: dc6d c7bd eabc 043e 6618 4dbe d808 6c3d
000000d0: 18b9 a8bd a86b d73d 6de3 dcbd 1cf5 35bd
000000e0: a247 b1bd e337 4dbe e87c 7e3d 884c 743d
000000f0: aae6 563e d2df 353e a063 50be 384d c53d
00000100: 7448 1cbe 6030 f3bc 98b9 3a3e 4cf1 873d
00000110: bc3f d83d 0a8b 8ebd 7cd7 9bbd 00a7 41be
00000120: 4812 d13d 54a2 bf3d df03 4dbe 860e 473e
00000130: a9a8 ecbd 68e5 ffbd 8077 c33d 60b1 24bd
00000140: 9006 9abd 1c73 a83d a23d 1e3e 88e9 403d
00000150: f808 003e 462b 193e d61c afbd ba4d 3f3e
00000160: b60a 2d3e ca0c b0bd 80c0 9f3d f216 a7bd
00000170: 2861 823c b8b2 1fbe 26aa 55be e4e1 2e3e
00000180: 8009 a33a 3e07 113e b08d 823d a8a1 373e
00000190: 8a52 563e d0b9 c0bc 30fe 8d3d bad0 f5bd
000001a0: 19c8 45be 02ae 293e 2287 083e d425 2b3e
000001b0: 1280 d4bd e8c2 8fbc b1f2 22be 806c 803c
000001c0: b6be 5b3e fc56 1c3e 286c bd3d fea8 1f3e
000001d0: b180 31be 828f 2e3e 86d0 0e3e 58c1 523e
000001e0: 4c70 1fbe d0d2 d7bc b81a e13d 6c11 e03d
000001f0: 3e93 56be 4884 f23c a0e4 91bc 6e29 bebd

model/building_output/BiasAdd/ReadVariableOp f4 [3]
-0.048898008 -0.021019774 0.060803823
00000000: 4749 48bd a931 acbc 6e0d 793d

model/dense_2/BiasAdd/ReadVariableOp f4 [128]
-0.109018244 0.030850995 -0.021839757 0.014621562 -0.07133497 -0.06398636 -0.15033913 0.11901505
-0.021557424 -0.015008547 -0.090094514 -0.013144068 0.08308667 -0.032997526 -0.105435014 -0.04864392
-0.008136073 -0.015015774 0.013428623 -0.007294438 -0.1099473 -0.0061972016 0.15468653 -0.12928642
-0.08380129 -0.09765438 0.10660192 0.019126086 0.04157822 0.08598687 0.01886038 0.039090298
-0.08511886 -0.09974359 -0.021639176 0.12275861 -0.0720641 -0.043708418 0.018927537 0.037225217
0.044699825 0.05677551 -0.07236457 0.017630506 -0.06613236 0.018033436 -0.06510435 -0.04444845
-0.13155591 -0.10666359 -0.007944094 0.009881689 -0.031511277 -0.07923028 0.14612703 0.012617205
-0.014466694 -0.13213485 -0.1488523 -0.018354703 -0.13530044 0.11703578 -0.17348923 -0.0629945
0.045996495 -0.068992466 -0.092825405 0.016204426 0.019650452 0.01351717 0.045198694 0.091614604
0.030437084 0.004788272 0.004300032 -0.1341453 0.015044526 0.10657604 -0.14305992 0.06811014
-0.1223615 0.06372746 0.026844863 -0.0905512 -0.041780833 -0.07653397 -0.044147264 0.16495532
-0.045827053 0.017930124 0.06758782 -0.07883086 0.051274855 -0.15034935 -0.018889293 -0.010221941
-0.11336667 0.07767261 -0.05417826 0.064197436 0.07037555 0.02245557 -0.015044815 -0.034715913
0.017524594 -0.036002982 -0.0994798 0.044428043 -0.065278195 -0.076326266 0.029978558 -0.040260226
0.12672861 -0.08527303 -0.0019214054 -0.13077438 -0.15270253 -0.0653608 -0.03464991 -0.17042732
-0.05171048 -0.10413515 0.098392144 -0.06746027 0.08475872 -0.043093126 -0.020996446 0.019100938
00000000: f544 dfbd 3abb fc3c 4ae9 b2bc 478f 6f3c
00000010: 1218 92bd 480b 83bd 80f2 19be 2abe f33d
00000020: 3299 b0bc 69e6 75bc 7983 b8bd 385a 57bc
00000030: 5829 aa3d 6a28 07bd 50ee d7bd d93e 47bd
00000040: 2a4d 05bc b904 76bc ba03 5c3c 2e06 efbb
00000050: 0d2c e1bd e511 cbbb 2566 1e3e a963 04be
00000060: 03a0 abbd 05ff c7bd 1c52 da3d 4fae 9c3c
00000070: ec4d 2a3d e219 b03d 1581 9a3c 261d 203d
00000080: cc52 aebd 5e46 ccbd a444 b1bc de68 fb3d
00000090: 5896 93bd 9907 33bd ec0d 9b3c 7879 183d
000000a0: 2a17 373d 708d 683d e033 94bd da6d 903c
000000b0: 6770 87bd dbba 933c 6e55 85bd 940f 36bd
000000c0: 98b6 06be 7172 dabd f227 02bc cfe6 213c
000000d0: f811 01bd 7c43 a2bd 53a2 153e 65b8 4e3c
000000e0: b605 6dbc 5c4e 07be bd6c 18be 9a5c 96bc
000000f0: 338c 0abe 74b0 ef3d 29a7 31be 4303 81bd
00000100: d266 3c3d ec4b 8dbd 3f1b bebd 25bf 843c
00000110: fcf9 a03c 1f77 5d3c 4422 393d 70a0 bb3d
00000120: 3157 f93c f0e6 9c3b 48e7 8c3b 635d 09be
00000130: 517d 763c 8a44 da3d 4d7e 12be 547d 8b3d
00000140: ab98 fabd 8b83 823d c2e9 db3c e872 b9bd
00000150: 6122 2bbd d8bd 9cbd c3d3 34bd 0cea 283e
00000160: 26b5 3bbd 32e2 923c 7c6b 8a3d 1372 a1bd
00000170: 9505 523d 2ef5 19be b8bd 9abc ee79 27bc
00000180: c92c e8bd d112 9f3d 06ea 5dbd f279 833d
00000190: 0e21 903d bef4 b73c 877e 76bc 4632 0ebd
000001a0: bd8f 8f3c dd77 13bd 11bc cbbd 2efa 353d
000001b0: 93b0 85bd f250 9cbd 9895 f53c e8e7 24bd
000001c0: 25c5 013e a0a3 aebd abd7 fbba b8e9 05be
000001d0: 0d5e 1cbe e2db 85bd 10ed 0dbd 8084 2ebe
000001e0: 5ece 53bd cf44 d5bd d281 c93d 9c28 8abd
000001f0: fb95 ad3d 6b82 30bd bd00 acbc 9279 9c3c

model/dense_4/BiasAdd/ReadVariableOp f4 [128]
0.019929128 0.05280374 0.046839733 -0.111145064 0.061325192 -0.004052004 0.009524452 -0.08877186
0.03378223 -0.017830845 -0.041161418 -0.0432718 0.042926453 -0.03592239 -0.006083775 0.03705008
0.030326521 0.016569497 0.05729873 0.078143865 -0.063364066 0.056192186 -2.0709362e-05 0.05591258
0.092563674 -0.030478058 -0.023333667 0.12175908 0.009522069 0.0044284156 0.13558936 0.024203919
0.0020211467 0.18698737 0.12246863 0.19790924 -0.019039659 -0.019383678 -0.013595423 0.018003253
-0.040281378 -0.045256354 0.0484452 -0.018164922 -0.04614984 0.038733147 -0.034783475 0.13369235
0.02503569 -0.010312315 -0.005138445 0.1767169 0.009351233 -0.06721607 0.06513704 0.024072822
-0.0595002 0.010548343 0.03643338 -0.08197825 -0.003306953 0.008304394 -0.06781249 0.078697495
0.060158037 -0.0047178613 -0.020796753 -0.021781392 -0.007630474 0.104847826 0.079776965 -0.083838284
0.056174286 0.054724768 0.10247597 0.048281968 0.10035481 0.058901414 0.09660893 0.12502247
0.009161381 0.014570756 -0.06437648 0.05712716 -0.056410827 0.0690943 0.021674456 -0.034082588
0.060952198 0.008682484 0.07063537 0.093685076 -0.038598225 -0.016652884 -0.029995926 0.119044535
0.021034893 0.09987607 -0.01314187 -0.0398071 0.07479354 -0.05343003 0.089849986 0.027436856
0.05705052 0.040710803 -0.09400538 0.05556397 0.015420944 0.061703157 0.060800146 0.05709492
-0.012818105 0.029723367 0.00794727 0.12940589 0.0020453203 -0.0013987495 0.029193208 -0.010945306
-0.06777465 -0.013586573 0.016192865 0.017187282 -0.07598075 0.09994987 -0.0035423583 0.08846254
00000000: 6942 a33c bc48 583d 05db 3f3d 06a0 e3bd
00000010: 2030 7b3d acc6 84bb 720c 1c3c 05ce b5bd
00000020: 3c5f 0a3d fe11 92bc e098 28bd c53d 31bd
00000030: a6d3 2f3d 5b23 13bd 675a c7bb d3c1 173d
00000040: 536f f83c c1bc 873c 13b2 6a3d e409 a03d
00000050: 05c5 81bd c729 663d 04b9 adb7 9704 653d
00000060: 0692 bd3d 1fad f9bc 3f26 bfbc d35c f93d
00000070: 7402 1c3c 3e1c 913b f0d7 0a3e 4c47 c63c
00000080: 3775 043b 9e79 3f3e d5d0 fa3d b8a8 4a3e
00000090: 0ff9 9bbc 85ca 9ebc 56bf 5ebc 8f7b 933c
000000a0: 16fe 24bd ba5e 39bd 796e 463d 9ace 94bc
000000b0: 9d07 3dbd a6a6 1e3d 1e79 0ebd a6e6 083e
000000c0: a617 cd3c fcf4 28bc 6760 a8bb 46f5 343e
000000d0: ea35 193c 94a8 89bd 9266 853d 5e34 c53c
000000e0: 7bb6 73bd f5d2 2c3c 2b3b 153d 36e4 a7bd
000000f0: 77b9 58bb 270f 083c 46e1 8abd 272c a13d
00000100: 4668 763d 4a98 9abb f45d aabc e46e b2bc
00000110: 0e09 fabb 75ba d63d 1b62 a33d 68b3 abbd
00000120: 0217 663d 1427 603d ecde d13d 50c3 453d
00000130: d386 cd3d 9c42 713d e7da c53d e405 003e
00000140: 9e19 163c 2eba 6e3c d1d7 83bd 2bfe 693d
00000150: 0a0f 67bd 5081 8d3d a18e b13c 2f9a 0bbd
00000160: 03a9 793d fa40 0e3c 47a9 903d f6dd bf3d
00000170: 2c19 1ebd a16b 88bc 04ba f5bc 9fcd f33d
00000180: 5e51 ac3c d38b cc3d ff50 57bc c50c 23bd
00000190: 5b2d 993d 72d9 5abd 4503 b83d 42c3 e03c
000001a0: cead 693d 5fc0 263d e585 c0bd 0c97 633d
000001b0: 21a8 7c3c 73bc 7c3d 9309 793d 5ddc 693d
000001c0: 0703 52bc 6b7e f33c 4435 023c fa82 043e
000001d0: c80a 063b 3f56 b7ba 9826 ef3c f153 33bc
000001e0: 70cd 8abd 389a 5ebc e6a6 843c 58cc 8c3c
000001f0: cc9b 9bbd 84b2 cc3d e926 68bb d92b b53d

model/dense_6/BiasAdd/ReadVariableOp f4 [128]
0.07536963 0.08208891 -0.009124596 0.05130098 0.07279269 0.19400157 -0.108898565 -0.016077423
0.04284954 -0.015734471 0.08414744 0.021484884 0.052109968 0.00977094 0.09777155 0.070733435
0.074077494 0.08092744 0.0022379477 0.06850378 0.0047715716 0.06236802 0.017736135 0.13899198
-0.039246384 0.075489685 0.04602817 0.1514553 -0.055049647 0.25351986 0.0696486 0.16819006
0.06838037 0.033559203 0.24484394 0.20692654 0.09344929 0.052767698 0.0557183 0.11435677
0.18354876 0.117585175 0.07580223 0.15842292 0.020713108 0.063539565 0.07459069 0.10862109
0.042262074 0.121986955 0.03153352 0.034435753 0.08702987 0.0712673 -0.027633205 0.019181581
0.08620627 0.037962448 0.15116957 0.029954683 0.045895886 0.13238002 0.092058755 0.01969629
0.037977748 0.07881551 0.012850093 0.050235365 -0.015376343 0.033751097 0.06974142 -0.046688367
-0.051805284 0.005188567 0.05766009 0.06894401 0.06904242 0.27761546 0.15881144 0.17329845
0.10206367 0.086392164 0.08019648 -0.024207963 0.08853038 0.06778013 0.064665966 0.024619436
0.0412442 0.050850276 -0.011691608 -0.010195578 0.016091255 0.44061643 0.07475129 0.08745652
0.09153121 -0.009721512 -0.04531404 0.024077341 0.08080885 0.041912414 -0.02219135 -0.012847463
0.017856162 0.05048928 -0.019488748 0.009376591 0.0801085 -0.0039047038 0.050344203 0.0023045158
0.09638651 0.107878976 0.13070017 0.045647327 0.11028187 0.086165525 0.07307512 0.05990475
0.123026825 0.12160696 0.0021075213 -0.016495427 0.0978647 -0.035785247 -0.0060442835 -0.000800783
00000000: 645b 9a3d 3b1e a83d 547f 15bc fa20 523d
00000010: 5514 953d 59a8 463e 3606 dfbd cdb4 83bc
00000020: 0083 2f3d 94e5 80bc 7e55 ac3d 1101 b03c
00000030: 4371 553d 4b16 203c 733c c83d b1dc 903d
00000040: f1b5 973d 49bd a53d 88aa 123b b64b 8c3d
00000050: d85a 9c3b 9c75 7f3d 5f4b 913c ea53 0e3e
00000060: d1c0 20bd 569a 9a3d 0988 3c3d 1917 1b3e
00000070: bd7b 61bd 5bcd 813e eda3 8e3d 043a 2c3e
00000080: 020b 8c3d 6075 093d 5fb8 7a3e 8de4 533e
00000090: 5762 bf3d f122 583d df38 643d e233 ea3d
000000a0: 35f4 3b3e 7fd0 f03d 333e 9b3d 9e39 223e
000000b0: 89ae a93c 0821 823d 01c3 983d bc74 de3d
000000c0: ff1a 2d3d 4cd4 f93d 4b29 013d 810c 0d3d
000000d0: b73c b23d 97f4 913d 085f e2bc b122 9d3c
000000e0: ea8c b03d 837e 1b3d 32cc 1a3e 8663 f53c
000000f0: 53fd 3b3d a18e 073e 4d89 bc3d 1d5a a13c
00000100: 8e8e 1b3d 076a a13d 3289 523c 99c3 4d3d
00000110: 0fed 7bbc 973e 0a3d 97d4 8e3d 4d3c 3fbd
00000120: c731 54bd db04 aa3b fd2c 6c3d 8432 8d3d
00000130: 1d66 8d3d 9d23 8e3e 779f 223e 2675 313e
00000140: c206 d13d 60ee b03d 0d3e a43d c74f c6bc
00000150: 6a4f b53d 4fd0 8a3d 976f 843d b3ae c93c
00000160: aeef 283d 6148 503d 288e 3fbc 5b0b 27bc
00000170: cfd1 833c 7a98 e13e 3417 993d 671c b33d
00000180: b774 bb3d fa46 1fbc 379b 39bd d83d c53c
00000190: 1c7f a53d 5aac 2b3d a2ca b5bc 2a7e 52bc
000001a0: 1647 923c d9cd 4e3d dea6 9fbc 46a0 193c
000001b0: ed0f a43d 0fe6 7fbb b935 4e3d 5c07 173b
000001c0: 4a66 c53d a7ef dc3d 44d6 053e b1f8 3a3d
000001d0: 76db e13d 8d77 b03d 69a8 953d af5e 753d
000001e0: 7df5 fb3d 120d f93d 571e 0a3b 6b21 87bc
000001f0: 4a6d c83d 8d93 12bd 200f c6bb a3eb 51ba

model/dense/BiasAdd/ReadVariableOp f4 [256]
0.0014754122 0.272568 0.030604508 0.07632675 0.12433641 0.09803862 0.11888325 0.19088767
0.013750491 0.007489547 0.115412965 0.02162369 0.0010290043 -0.04622392 0.032339565 0.05767994
-0.07985422 0.22313124 0.005895428 -0.014670491 0.00080755504 -0.15869449 -0.036736436 0.16053165
0.08485571 0.14698379 -0.029376904 -0.002089592 0.0028161802 0.011939266 0.13147406 0.07362201
0.020527046 0.06184131 0.0004439227 0.18225643 0.07834166 0.04866285 0.011801157 0.1332208
0.04791182 0.03485174 0.094988085 0.002113903 0.07739957 0.09947789 0.0075770323 0.0870255
0.2271589 -0.0009248591 -0.026330797 0.14879993 0.056638427 0.006574345 0.21811517 -0.06826866
0.042358607 0.11472557 -0.049382087 0.0383342 0.28941184 0.009317647 -0.010246271 0.00023630758
0.041164488 -0.071826756 0.0024258476 0.02274467 -0.022889933 0.0010247962 0.004433113 0.064907216
0.022641176 0.030486254 0.14334095 0.005410631 0.11782432 0.016014947 0.1104572 0.074788205
0.16408089 0.061599214 0.002879931 0.08031286 0.086240284 0.0032796992 0.008871578 0.0069138454
0.017535927 0.011667602 -0.024228502 0.012452738 0.16314925 0.0077944617 -0.00039401956 0.15370725
-0.007901182 0.11149195 -0.09416793 0.05815648 0.03760545 0.09644152 0.015780501 0.0019544947
0.08205193 0.1669163 0.046857577 0.07680455 0.048795212 0.19987148 0.0053395084 -0.032346345
0.15031892 0.090835854 0.0036949874 0.050528664 -0.0051631257 -0.02832491 0.09527646 0.044379238
0.014529955 0.0029386564 0.05007152 0.090141416 0.019259056 0.042807586 0.023587085 -0.0007309014
0.081585385 0.03327232 -0.11436609 0.015405357 0.0038584878 0.21505937 0.004541614 -0.10486578
0.022280533 0.1381566 0.0007898764 0.07412863 0.07710768 0.05084065 0.23088777 0.10173925
0.06453241 0.1736156 0.036303326 0.002416936 -0.06479058 0.0011521562 0.016029958 0.18828645
0.014219391 0.058485497 -0.05513653 -0.0021859084 0.31766862 -0.07421672 0.23584993 0.008508981
0.08100057 0.10877611 0.16913119 0.0013943941 0.07287902 0.022493564 0.0043988777 0.00015036222
0.21054792 0.25500664 0.113345444 0.0002467262 0.029730694 0.005094845 0.0015731836 -0.15319589
0.008339398 0.15099595 0.010268424 -0.119334936 0.02037603 0.017534904 -0.038739715 0.04943409
0.0366631 -0.001992002 0.0043301885 0.020411635 -0.07403785 0.1765964 0.0010974312 0.02837392
-0.03356956 0.061853882 0.052632518 0.21041882 -0.105041824 0.21147588 0.025945613 0.024952581
0.082088836 0.0012077708 -0.0003870004 0.13899553 0.16176693 0.02928301 -0.014570963 0.007986135
0.03138266 0.03499146 0.13182901 0.14136969 -0.008174369 0.16944797 0.02163708 0.17754965
0.009069537 0.22947574 0.048389383 0.16393036 0.15059726 -0.0036755495 0.12635629 0.14585547
-0.082814224 0.12401198 -0.08855722 0.009538179 0.0812422 0.080612995 -0.122374535 0.044799365
0.1316181 0.08804314 0.0589675 -0.0042857598 0.0019211626 -0.0001348271 -0.008943493 0.059314
-0.00022405843 0.021302333 0.0942497 0.20904094 0.004447065 0.05676328 0.012665609 0.09431552
0.13580456 0.16959505 0.0028095029 0.24114566 0.044334974 0.026153026 0.09015578 0.0073694037
00000000: 9e62 c13a 088e 8b3e 4eb6 fa3c 3351 9c3d
00000010: 16a4 fe3d 79c8 c83d 1079 f33d 0f78 433e
00000020: bd49 613c e06a f53b a25d ec3d 2a24 b13c
00000030: a8df 863a 4b55 3dbd 7e76 043d cd41 6c3d
00000040: 9c8a a3bd 847c 643e 6f2e c13b 805c 70bc
00000050: 1ab2 533a cf80 22be f278 16bd 6962 243e
00000060: d5c8 ad3d eb82 163e d5a7 f0bc 89f1 08bb
00000070: aa8f 383b e99c 433c 23a1 063e 23c7 963d
00000080: 5628 a83c 504d 7d3d 4cbe e839 6ea1 3a3e
00000090: 9871 a03d b252 473d a459 413c 096b 083e
000000a0: 2f3f 443d b3c0 0e3d 1d89 c23d 6889 0a3b
000000b0: aa83 9e3d 10bb cb3d c148 f83b 6d3a b23d
000000c0: 589c 683e 3e72 72ba afb3 d7bc 025f 183e
000000d0: b2fd 673d 9a6d d73b 9559 5f3e 70d0 8bbd
000000e0: 3880 2d3d 3df5 ea3d df44 4abd 5204 1d3d
000000f0: ca2d 943e 0ba9 183c fadf 27bc 55c9 7739
00000100: 189c 283d e819 93bd f8fa 1e3b 0853 ba3c
00000110: ab83 bbbc 7452 863a a643 913b 13ee 843d
00000120: fd79 b93c 4fbe f93c f8c7 123e aa4b b13b
00000130: e14d f13d c731 833c 6237 e23d 8f2a 993d
00000140: d204 283e 754f 7c3d 39bd 3c3b 127b a43d
00000150: bf9e b03d 39f0 563b 185a 113c 8a8d e23b
00000160: 81a7 8f3c 7829 3f3c da7a c6bc 9206 4c3c
00000170: 9910 273e af68 ff3b 6994 ceb9 6f65 1d3e
00000180: f673 01bc e455 e43d 1edb c0bd 7d35 6e3d
00000190: 2c08 1a3d 2283 c53d 1c46 813c fb16 003b
000001a0: d80a a83d 1bec 2a3e bbed 3f3d b44b 9d3d
000001b0: 7ddd 473d 1cab 4c3e 0bf7 ae3b 9a7d 04bd
000001c0: 34ed 193e 2608 ba3d 9a27 723b 25f7 4e3d
000001d0: 702f a9bb a409 e8bc 4e20 c33d 01c7 353d
000001e0: 0c0f 6e3c 7996 403b cb17 4d3d 109c b83d
000001f0: 2bc5 9d3c 0257 2f3d b439 c13c f699 3fba
00000200: 3d16 a73d 8e48 083d c538 eabd c066 7c3c
00000210: afde 7c3b 8638 5c3e d2d1 943b dfc3 d6bd
00000220: aa85 b63c ec78 0d3e b50f 4f3a c0d0 973d
00000230: a2ea 9d3d 493e 503d d86d 6c3e ab5c d03d
00000240: 9129 843d 4ac8 313e ccb2 143d 7565 1e3b
00000250: ecb0 84bd f203 973a 4251 833c 2ace 403e
00000260: 73f8 683c 7d8e 6f3d d8d6 61bd 7541 0fbb
00000270: 76a5 a23e f0fe 97bd a582 713e 4169 0b3c
00000280: a0e3 a53d 02c6 de3d ba30 2d3e 1ac4 b63a
00000290: 9841 953d 6c44 b83c 7624 903b 8daa 1d39
000002a0: e099 573e 3b90 823e a821 e83d 085b 8139
000002b0: c98d f33c a8f2 a63b 4833 ce3a 62df 1cbe
000002c0: f8a1 083c af9e 1a3e e43c 283c e065 f4bd
000002d0: a2eb a63c 5ca5 8f3c 89ad 1ebd 667b 4a3d
000002e0: 0c2c 163d 3f8c 02bb 41e4 8d3b 4d36 a73c
000002f0: 28a1 97bd b0d5 343e aed7 8f3a 6c70 e83c
00000300: 3c80 09bd 7f5a 7d3d 3295 573d 0878 573e
00000310: 2b20 d7bd 228d 583e e58b d43c 5b69 cc3c
00000320: 311e a83d 104e 9e3a 50e6 cab9 d854 0e3e
00000330: 3ba6 253e ece2 ef3c 0cbb 6ebc 47d8 023c
00000340: 1b8b 003d 3553 0f3d 2ffe 063e 37c3 103e
00000350: caed 05bc c583 2d3e 3f40 b13c 93cf 353e
00000360: 6598 143c b0fb 6a3e f233 463d 5cdd 273e
00000370: 2b36 1a3e 7de1 70bb 8b63 013e 235b 153e
00000380: 819a a9bd fef9 fd3d 7d5d b5bd 0646 1c3c
00000390: 5062 a63d 6d18 a53d 809f fabd 8a7f 373d
000003a0: e5c6 063e f64f b43d e887 713d 8f6f 8cbb
000003b0: 85cf fb3a 6060 0db9 ba87 12bc 3df3 723d
000003c0: 3af1 6ab9 3b82 ae3c fd05 c13d d40e 563e
000003d0: afb8 913b 9d80 683d 6a83 4f3c 7f28 c13d
000003e0: 5a10 0b3e 53aa 2d3e a31f 383b e3ee 763e
000003f0: 9798 353d df3e d63c 98a3 b83d 0a7b f13b

model/floor_output/BiasAdd/ReadVariableOp f4 [5]
0.0720606 0.040449943 -0.034535654 -0.055545244 -0.08041682
00000000: 8294 933d d7ae 253d 4275 0dbd 6983 63bd
00000010: 93b1 a4bd

model/position_output/BiasAdd/ReadVariableOp f4 [2]
-0.010412126 -0.06643019
00000000: 9f97 2abc 8d0c 88bd

model/batch_normalization_1/batchnorm/mul f4 [256]
21.635578 24.068516 26.714428 22.784096 19.050344 30.392551 24.445976 20.240927
23.26077 19.305838 21.2519 20.968245 20.003504 23.446774 27.560915 23.067532
21.618996 21.486847 23.145119 22.070229 33.2296 19.86276 20.709108 26.314102
24.978558 26.415125 31.964172 23.31638 22.331411 28.757376 22.032001 27.886614
22.459236 20.20588 28.00404 19.721848 19.201422 30.172838 28.610622 20.629087
23.390038 22.412687 20.408445 31.044748 22.464874 23.94266 28.185734 20.293097
30.00446 22.108446 24.440231 28.993635 27.069195 25.301561 25.65032 23.084536
24.71962 23.444435 22.969704 26.428366 20.64092 26.114098 22.2305 20.830921
24.688383 21.376637 23.733635 27.82421 26.296204 22.112164 21.773014 20.404408
24.199106 21.156395 22.291582 21.50953 21.899918 20.131193 18.818666 27.158556
23.992167 31.993118 22.97018 24.43692 22.551653 19.089653 27.07196 20.203175
25.802391 26.664171 27.4374 24.70072 24.91409 25.31565 30.044035 23.426691
23.394487 32.5543 26.242563 22.196432 23.733465 24.868235 24.825287 18.623833
22.095978 23.18627 22.946278 21.730164 22.352911 25.20143 34.211277 20.397507
21.79025 25.382282 26.597069 23.826542 27.728676 21.300219 18.149166 24.312685
19.878859 25.760023 25.080854 19.825598 26.371372 26.14885 27.482452 21.00328
24.886532 20.895855 25.759827 20.27195 21.12248 21.97074 24.351826 24.197933
19.199356 29.990337 21.484163 23.157425 22.621319 21.03762 23.44012 17.288357
29.521183 26.81723 21.760641 27.347406 22.271023 23.906765 24.850563 24.376522
20.214256 23.354647 22.95227 21.66244 23.448034 22.41962 29.800755 29.578508
25.844744 21.718725 22.697498 24.140827 24.222157 28.9254 20.846245 28.32283
22.79372 20.20854 29.878271 22.47276 28.45998 23.418362 21.077032 20.575308
22.391964 20.522598 21.521072 29.391056 23.222271 23.759953 32.612453 21.110401
29.702883 20.432564 28.039413 29.783289 20.921824 23.398823 21.109491 18.761793
18.2123 23.404636 21.357016 27.673983 21.27587 29.47818 23.789978 28.448677
21.711681 26.579243 28.741375 20.238312 24.677244 23.64426 27.036974 21.855515
23.058638 27.494581 25.740152 25.1865 21.549393 20.110445 22.509256 21.936451
20.017208 28.110645 20.96231 25.981974 27.150969 22.183092 20.894266 19.70061
20.706518 22.732813 27.016338 30.477705 21.822304 30.083883 26.00535 26.958654
22.343594 21.451189 22.18873 30.173939 21.338108 29.726772 22.897188 21.030483
21.685448 23.093683 24.127266 25.483992 21.86036 23.128443 23.376755 25.499525
20.727144 22.824219 20.953804 26.222721 25.091602 25.68047 20.706335 29.78351
00000000: aa15 ad41 528c c041 26b7 d541 d445 b641
00000010: 1b67 9841 f223 f341 5c91 c341 6bed a141
00000020: 0f16 ba41 5b72 9a41 e403 aa41 f7be a741
00000030: 2d07 a041 fe92 bb41 c17c dc41 4e8a b841
00000040: b4f3 ac41 10e5 ab41 3429 b941 d48f b041
00000050: 1ceb 0442 efe6 9e41 41ac a541 4883 d241
00000060: 16d4 c741 2d52 d341 a0b6 ff41 f287 ba41
00000070: bba6 b241 1b0f e641 8a41 b041 c917 df41
00000080: 84ac b341 a4a5 a141 4608 e041 58c6 9d41
00000090: 839c 9941 f961 f141 8ee2 e441 5f08 a541
000000a0: cc1e bb41 2f4d b341 7f44 a341 a55b f841
000000b0: 10b8 b341 918a bf41 627c e141 4358 a241
000000c0: 2209 f041 19de b041 9885 c341 f7f2 e741
000000d0: b68d d841 9969 ca41 db33 cd41 21ad b841
000000e0: c8c1 c541 348e bb41 f4c1 b741 4b6d d341
000000f0: 9b20 a541 ace9 d041 10d8 b141 baa5 a641
00000100: cf81 c541 5a03 ab41 7cde bd41 fb97 de41
00000110: a05e d241 b6e5 b041 222f ae41 3a3c a341
00000120: c597 c141 4c40 a941 2955 b241 8413 ac41
00000130: 0833 af41 af0c a141 a18c 9641 b944 d941
00000140: f5ef bf41 e8f1 ff41 eec2 b741 d07e c341
00000150: c969 b441 9cb7 9841 6093 d841 1aa0 a141
00000160: 4c6b ce41 3950 d541 cc7f db41 139b c541
00000170: 0e50 c741 7486 ca41 2f5a f041 dd69 bb41
00000180: e927 bb41 9a37 0242 c5f0 d141 4b92 b141
00000190: 23de bd41 25f2 c641 309a c641 9cfd 9441
000001a0: 90c4 b041 7b7d b941 fa91 b741 60d7 ad41
000001b0: c3d2 b241 879c c941 59d8 0842 182e a341
000001c0: 6f52 ae41 ea0e cb41 ccc6 d441 c29c be41
000001d0: 54d4 dd41 d966 aa41 7e31 9141 6180 c241
000001e0: e707 9f41 8714 ce41 97a5 c841 d39a 9e41
000001f0: 92f8 d241 d830 d141 10dc db41 b806 a841
00000200: 9e17 c741 b62a a741 2014 ce41 f42c a241
00000210: d7fa a841 13c4 af41 8ad0 c241 5e95 c141
00000220: 4898 9941 36ec ef41 91df ab41 6842 b941
00000230: 76f8 b441 0c4d a841 5e85 bb41 8e4e 8a41
00000240: 622b ec41 b089 d641 cb15 ae41 7dc7 da41
00000250: 0e2b b241 0e41 bf41 f4cd c641 1e03 c341
00000260: ccb6 a141 51d6 ba41 409e b741 ad4c ad41
00000270: 9395 bb41 625b b341 f267 ee41 c9a0 ec41
00000280: 09c2 ce41 f3bf ad41 7a94 b541 6a20 c141
00000290: fac6 c141 3867 e741 1cc5 a641 2895 e241
000002a0: 8a59 b641 17ab a141 b306 ef41 36c8 b341
000002b0: 0aae e341 ce58 bb41 c39d a841 3b9a a441
000002c0: be22 b341 482e a441 282b ac41 e220 eb41
000002d0: 36c7 b941 6214 be41 2773 0242 1ae2 a841
000002e0: 819f ed41 e475 a341 b850 e041 2d44 ee41
000002f0: e55f a741 ca30 bb41 3de0 a841 2718 9641
00000300: cab2 9141 b23c bb41 2bdb aa41 5164 dd41
00000310: fb34 aa41 50d3 eb41 e051 be41 e496 e341
00000320: 86b1 ad41 4aa2 d441 56ee e541 10e8 a141
00000330: ff6a c541 7227 bd41 b94b d841 18d8 ae41
00000340: 1778 b841 e7f4 db41 d5eb cd41 f47d c941
00000350: 2865 ac41 31e2 a041 f512 b441 da7d af41
00000360: 3e23 a041 9ae2 e041 d0b2 a741 15db cf41
00000370: 2f35 d941 f976 b141 7527 a741 d99a 9d41
00000380: f3a6 a541 cddc b541 7621 d841 57d2 f341
00000390: 1494 ae41 cbab f041 f50a d041 53ab d741
000003a0: aebf b241 099c ab41 8582 b141 3a64 f141
000003b0: 72b4 aa41 6ed0 ed41 712d b741 6e3e a841
000003c0: cc7b ad41 ddbf b841 a404 c141 37df cb41
000003d0: 04e2 ae41 0d07 b941 9803 bb41 07ff cb41
000003e0: 31d1 a541 0098 b641 64a1 a741 22c8 d141
000003f0: 9abb c841 9a71 cd41 93a6 a541 a144 ee41

model/batch_normalization_1/batchnorm/sub f4 [256]
-0.5348962 -6.8803415 -0.3602318 -0.8327497 -1.4039044 -0.062881984 -4.665808 -1.0434312
-0.6114747 -1.3521191 -1.7001623 -0.73341614 -1.1993676 -3.024221 -0.27591306 -1.1170734
-0.8969669 -0.6504279 -1.4383091 -0.7432332 -0.26795703 -1.1873702 -0.81097156 -0.86488974
-0.41372538 -0.311449 -0.35378116 -2.1920674 -2.107333 -0.50427336 -1.0625186 -0.35110208
-2.802778 -4.1822004 -0.28286114 -0.7852734 -0.6239593 -0.45327735 -0.5118857 -1.1716534
-0.98046464 -0.38943344 -1.8629341 -0.3434764 -3.6141539 -0.5587213 -0.7081645 -1.0405549
-0.1512559 -0.6145545 -2.2979114 -0.37245953 -0.49049783 -0.5327403 -0.23611945 -0.94626725
-0.94520503 -0.22675031 -4.5188046 -0.21965878 -3.0089185 -0.29433832 -2.0358348 -3.124586
-0.30256695 -1.7785858 -3.0395675 -0.6046111 -0.30802965 -1.1804543 -2.2391613 -2.4379764
-0.43001112 -0.66031706 -4.966441 -2.7572868 -4.496066 -1.1618049 -3.2786255 -0.56298745
-0.90394443 -0.3498109 -0.905892 -0.56503147 -0.6543278 -0.86702466 -0.36750856 -0.7365667
-0.52147317 -0.66856754 -0.35750893 -0.48260382 -0.58021134 -0.6270165 -0.23034236 -3.1504285
-0.56154156 -0.42141318 -0.59313524 -0.83808947 -7.852301 -0.63029754 -1.472922 -1.0517105
-3.169003 -0.4512083 -4.5012827 -0.9272065 -0.55766684 -0.56002456 -0.070881575 -1.5816845
-2.5954783 -0.50952953 -0.1367444 -3.1863258 -0.24461645 -3.009979 -0.9596533 -0.5498682
-1.1601324 -0.60917246 -0.748793 -2.0336244 -0.6168556 -6.181241 -0.3793783 -1.5575482
-0.46497253 -1.2158204 -0.4815223 -0.6081598 -1.1130921 -2.1156504 -0.48412067 -0.49963212
-1.2252337 -0.30701455 -0.67263794 -4.718348 -1.1063409 -2.2302291 -0.86264133 -2.3454757
-0.23714678 -0.44843844 -2.0978348 -0.2662757 -2.2246869 -4.6774807 -0.6516012 -0.32523504
-2.4530847 -0.70350224 -0.41370863 -3.2453685 -3.792253 -5.6555953 -0.26446185 -0.04433229
-0.45266986 -0.8391985 -0.8018558 -2.1941147 -0.6905 -0.305659 -1.927875 -0.39770782
-0.96824497 -1.5221268 -0.31900173 -3.256815 -0.57856965 -0.80297047 -1.1731026 -3.1075065
-0.52354395 -2.0330875 -6.7434454 -0.8279482 -0.41099304 -0.43456328 0.028628744 -1.0249254
-0.3979692 -2.289612 -0.48632342 -0.16317329 -2.3324053 -0.9893008 -4.100021 -1.204133
-2.396361 -0.7478332 -1.1972091 -0.52204037 -0.93489313 -0.20943049 -0.7231178 -0.31193393
-3.1512847 -0.36934185 -0.2521185 -1.0127918 -0.51114297 -3.250734 -0.4516288 -1.3729489
-2.7720025 -0.5209187 -0.31354362 -0.7222842 -3.4519155 -1.1599909 -0.92508745 -0.7118783
-1.0561811 -0.42276645 -1.4171014 -2.0136645 -0.6693791 -0.9158928 -4.827539 -3.0964286
-0.9297038 -3.5976152 -0.8609145 -0.38310316 -2.5795097 -0.29953995 -0.4974361 -0.6413853
-1.3346668 -2.904466 -1.636442 -0.31733578 -0.6849146 -0.35640907 -0.782349 -2.85779
-0.92706364 -0.57327956 -3.2657769 -0.5288246 -0.6149981 -4.559647 -0.9843198 -0.43381327
-1.243432 -0.8557528 -2.7301903 -0.3890198 -0.47130316 -0.47210032 -0.4289577 -0.35632682
00000000: f5ee 08bf c22b dcc0 4d70 b8be 162f 55bf
00000010: 24b3 b3bf 45c8 80bd 4d4e 95c0 278f 85bf
00000020: 9b89 1cbf 3d12 adbf eb9e d9bf 29c1 3bbf
00000030: e184 99bf d68c 41c0 7a44 8dbe 43fc 8ebf
00000040: 9f9f 65bf 7182 26bf 831a b8bf 8844 3ebf
00000050: aa31 89be bffb 97bf d59b 4fbf 6a69 5dbf
00000060: d0d3 d3be 3e76 9fbe ce22 b5be d54a 0cc0
00000070: 8bde 06c0 0f18 01bf 9c00 88bf a7c3 b3be
00000080: b760 33c0 96d4 85c0 2dd3 90be ad07 49bf
00000090: ccbb 1fbf f813 e8be f10a 03bf bdf8 95bf
000000a0: bbff 7abf d263 c7be a074 eebf 24dc afbe
000000b0: 4c4e 67c0 5c08 0fbf 454a 35bf e730 85bf
000000c0: d4e2 1abe 7253 1dbf fb10 13c0 04b3 bebe
000000d0: 8822 fbbe ab61 08bf 4cc9 71be 923e 72bf
000000e0: f5f8 71bf 3c31 68be 0c9a 90c0 3bee 60be
000000f0: 1f92 40c0 83b3 96be 1e4b 02c0 38f9 47c0
00000100: 0eea 9abe b3a8 e3bf 4688 42c0 cbc7 1abf
00000110: 10b6 9dbe 2019 97bf 6b4e 0fc0 ce07 1cc0
00000120: 6b2a dcbe 8a0a 29bf 16ed 9ec0 6377 30c0
00000130: c6df 8fc0 06b6 94bf 00d5 51c0 f21f 10bf
00000140: e768 67bf 6a1a b3be 8ae8 67bf e7a5 10bf
00000150: 0782 27bf 54f5 5dbf 152a bcbe a38f 3cbf
00000160: 447f 05bf 3e27 2bbf 690b b7be d917 f7be
00000170: bb88 14bf 2784 20bf dede 6bbe 9fa0 49c0
00000180: 30c1 0fbf 78c3 d7be b6d7 17bf 088d 56bf
00000190: 0d46 fbc0 2e5b 21bf b588 bcbf 739e 86bf
000001a0: f2d0 4ac0 c604 e7be 820a 90c0 685d 6dbf
000001b0: 41c3 0ebf c55d 0fbf 5c2a 91bd a374 cabf
000001c0: 511c 26c0 8770 02bf b906 0cbe c3ec 4bc0
000001d0: bc7c 7abe 7fa3 40c0 d7ab 75bf 2ac4 0cbf
000001e0: 387f 94bf baf2 1bbf e6b0 3fbf e726 02c0
000001f0: 40ea 1dbf bacc c5c0 df3d c2be bd5d c7bf
00000200: e110 eebe 01a0 9bbf 178a f6be 5cb0 1bbf
00000210: cd79 8ebf d166 07c0 aade f7be c8cf ffbe
00000220: 75d4 9cbf 0331 9dbe 0032 2cbf b5fc 96c0
00000230: 949c 8dbf 13bc 0ec0 10d6 5cbf 461c 16c0
00000240: 9bd6 72be b999 e5be ed42 06c0 4a55 88be
00000250: 4561 0ec0 ecad 95c0 56cf 26bf 3585 a6be
00000260: 57ff 1cc0 b918 34bf 9ed1 d3be 1eb4 4fc0
00000270: 46b4 72c0 a3fa b4c0 8b67 87be c695 35bd
00000280: 58c4 e7be b7d5 56bf 6c46 4dbf 606c 0cc0
00000290: 9cc4 30bf 567f 9cbe 9cc4 f6bf 5ca0 cbbe
000002a0: e7de 77bf 0dd5 c2bf 3254 a3be a86f 50c0
000002b0: 241d 14bf 798f 4dbf 3a28 96bf 63e1 46c0
000002c0: fa06 06bf 1b1e 02c0 4eca d7c0 6af4 53bf
000002d0: ae6d d2be 147f debe d486 ea3c c130 83bf
000002e0: 9ec2 cbbe 0189 12c0 62ff f8be e616 27be
000002f0: 2146 15c0 d142 7dbf 5f33 83c0 0821 9abf
00000300: fb5d 19c0 ff71 3fbf 263e 99bf 70a4 05bf
00000310: 2855 6fbf f274 56be 401e 39bf ceb5 9fbe
00000320: a6ae 49c0 601a bdbe ad15 81be 29a3 81bf
00000330: 44da 02bf 070c 50c0 e43b e7be cabc afbf
00000340: 7d68 31c0 ee5a 05bf ca88 a0be 9ee7 38bf
00000350: 2fec 5cc0 957a 94bf 88d2 6cbf a83d 36bf
00000360: f130 87bf d874 d8be 9463 b5bf e1df 00c0
00000370: 6e5c 2bbf f377 6abf 337b 9ac0 e32b 46c0
00000380: 1101 6ebf 543f 66c0 e564 5cbf 1926 c4be
00000390: b016 25c0 4d5d 99be f2af febe d431 24bf
000003a0: 5dd6 aabf c5e2 39c0 ee76 d1bf d679 a2be
000003b0: 9056 2fbf 407b b6be 0648 48bf 08e6 36c0
000003c0: 0b54 6dbf 73c2 12bf 7d02 51c0 0d61 07bf
000003d0: 8470 1dbf a1e8 91c0 62fc 7bbf c61c debe
000003e0: c828 9fbf 9e12 5bbf 70bb 2ec0 9a2d c7be
000003f0: a64e f1be 22b7 f1be 58a0 dbbe 7870 b6be

model/dense_7/MatMul;model/dense_7/Relu;model/dense_7/BiasAdd f4 [64]
2.0202217 -1.5002433 -1.7233269 -0.1302367 1.3666933 0.55609393 1.9882032 -1.1209874
1.8187484 -0.53071636 1.6740766 0.8977019 0.9406664 -0.8184859 -0.06140656 0.25227594
1.3163954 3.0853555 1.5115305 1.1071013 1.4480677 1.6445917 2.2133067 2.1670952
2.2347848 -0.28968444 1.360326 2.2974992 2.1837502 -0.66450596 0.19072731 1.364148
-0.7035201 2.035991 1.711733 0.67052233 -1.0580406 -0.5964247 -0.27896756 0.6986192
-1.3082685 1.9398685 0.40186736 0.7247267 1.5059391 1.8143748 1.5735128 -1.6988825
0.6702653 2.0836198 2.0960991 1.0083331 1.3657931 2.7750483 2.116186 -2.429111
1.3272142 1.1198856 -1.7092738 2.3350697 0.43589205 1.0298197 2.314346 1.7374239
00000000: 504b 0140 f907 c0bf fa95 dcbf c55c 05be
00000010: ceef ae3f 2c5c 0e3f 717d fe3f 847c 8fbf
00000020: bfcc e83f 07dd 07bf 2448 d63f cbcf 653f
00000030: 83cf 703f 4b88 51bf 7285 7bbd 502a 813e
00000040: a57f a83f 7776 4540 d579 c13f 7fb5 8d3f
00000050: 485a b93f fb81 d23f d1a6 0d40 b0b1 0a40
00000060: b706 0f40 8551 94be 2a1f ae3f 3a0a 1340
00000070: 90c2 0b40 101d 2abf 054e 433e 679c ae3f
00000080: e519 34bf ad4d 0240 111a db3f 5aa7 2b3f
00000090: e06d 87bf 4aaf 18bf d6d4 8ebe b5d8 323f
000000a0: 5875 a7bf 9c4d f83f 8fc1 cd3e b087 393f
000000b0: 9dc2 c03f 6f3d e83f de68 c93f fb74 d9bf
000000c0: 8296 2b3f 075a 0540 7d26 0640 0f11 813f
000000d0: 4fd2 ae3f 649a 3140 976f 0740 8e76 1bc0
000000e0: 28e2 a93f 6958 8f3f 7cc9 dabf c871 1540
000000f0: 3e2d df3e 22d1 833f 3f1e 1440 e863 de3f

model/dense_5/MatMul;model/dense_5/Relu;model/dense_5/BiasAdd f4 [64]
-0.4237062 3.381252 0.9354376 -2.048345 1.7062241 0.38742912 0.89915764 1.4143431
0.3315782 4.5122633 -5.8612742 -0.3703963 0.50968987 -1.720012 2.3405004 2.495258
-0.8692679 0.8913153 4.5956273 0.82288724 -0.14276096 0.3801064 1.0572472 2.0051415
-2.0412595 1.5744724 4.1128592 2.2701476 3.0203347 1.6793985 1.8728894 -0.11694048
1.4367703 3.1723597 1.6093179 -1.0195644 3.5630975 -1.7008946 4.5034266 -1.8643953
1.871985 -0.3386835 0.6319542 0.8092735 0.81138015 0.80410266 -1.0985078 2.2149312
3.0345116 3.7202272 1.8629589 3.2665133 2.5740204 6.0313225 3.0266151 6.996871
-2.903199 0.9472928 0.89979756 4.7169304 -1.7162967 0.7196624 0.41403225 0.7532535
00000000: 05f0 d8be 6f66 5840 d778 6f3f 1618 03c0
00000010: 8d65 da3f 1c5d c63e 322f 663f 3209 b53f
00000020: 9ec4 a93e 7664 9040 8f8f bbc0 95a4 bdbe
00000030: 097b 023f 5a29 dcbf c2ca 1540 4fb2 1f40
00000040: 5788 5ebf 3d2d 643f 610f 9340 bda8 523f
00000050: ee2f 12be 4e9d c23e e053 873f 3d54 0040
00000060: ffa3 02c0 5088 c93f 8b9c 8340 194a 1140
00000070: 2a4d 4140 88f6 d63f d7ba ef3f 7e7e efbd
00000080: 17e8 b73f f107 4b40 21fe cd3f 1681 82bf
00000090: ca09 6440 eab6 d9bf 121c 9040 81a4 eebf
000000a0: 349d ef3f ec67 adbe c0c7 213f 8c2c 4f3f
000000b0: 9cb6 4f3f acd9 4d3f e79b 8cbf 6fc1 0d40
000000c0: 7035 4240 3418 6e40 7075 ee3f 8e0e 5140
000000d0: c0bc 2440 9800 c140 10b4 4140 5ee6 df40
000000e0: 03ce 39c0 c881 723f 2259 663f 18f1 9640
000000f0: 9caf dbbf cc3b 383f 09fc d33e 39d5 403f

model/dense_3/MatMul;model/dense_3/Relu;model/dense_3/BiasAdd f4 [64]
2.009392 0.7897423 0.7532783 0.12403178 -2.5827398 0.2768904 -0.752194 3.6286712
1.504464 4.240462 2.5521874 -2.6936455 -0.6188799 -0.65997344 -0.50609624 -0.0974738
-0.174476 1.2983153 -2.2922611 1.5257937 2.1822767 0.044645496 -1.2478471 -0.39538482
1.6140449 2.1038795 0.3940041 0.023584347 1.0826728 -0.5477641 2.1088681 -0.310902
0.14976017 1.8500667 1.9715092 0.25863498 1.5921377 -0.6368334 -0.12458973 1.7019118
0.38124356 -0.43527493 1.3971252 0.83301127 2.2597938 -2.0329614 3.4509559 1.5091147
3.1801026 1.5456403 1.344674 0.62754864 -0.4171864 -3.7607603 0.35766807 -0.5207064
3.2759614 2.2071593 -2.7662756 2.2957993 -1.6928926 1.5342803 -0.4511786 2.2738101
00000000: e199 0040 8d2c 4a3f d9d6 403f 6004 fe3d
00000010: 9c4b 25c0 94c4 8d3e c98f 40bf 263c 6840
00000020: 4792 c03f ddb1 8740 0a57 2340 b064 2cc0
00000030: ea6e 1ebf 05f4 28bf 868f 01bf 58a0 c7bd
00000040: d6a9 32be 322f a63f 68b4 12c0 354d c33f
00000050: 6caa 0b40 32de 363d 74b9 9fbf e16f cabe
00000060: 0699 ce3f f6a5 0640 e8ba c93e f633 c13c
00000070: 0695 8a3f 453a 0cbf b2f7 0640 8c2e 9fbe
00000080: bb5a 193e fcce ec3f 6a5a fc3f ce6b 843e
00000090: 2bcb cb3f 8407 23bf e628 ffbd 3fd8 d93f
000000a0: 5b32 c33e 5bdc debe 00d5 b23f 3a40 553f
000000b0: 76a0 1040 0a1c 02c0 76dc 5c40 ac2a c13f
000000c0: cd86 4b40 8bd7 c53f 471e ac3f 07a7 203f
000000d0: 7599 d5be 4cb0 70c0 4520 b73e 044d 05bf
000000e0: 5aa9 5140 1942 0d40 a90a 31c0 60ee 1240
000000f0: b4b0 d8bf 4c63 c43f e200 e7be 1b86 1140
