250713/models/hadnn_n_random_forest.tflite (tflite, 306360 bytes, 20 tensors)

model_1/dense_6/MatMul;model_1/dense_6/Relu;model_1/dense_6/BiasAdd f4 [64]
000000 8d b4 73 3e 3e 04 e7 be 42 b6 65 3e cf 7e 26 bc
       0.23799343 -0.45120424 0.22432807 -0.010162069
000010 0e a8 80 be 4d f4 a5 3e ea f4 6a 3e 24 b4 ef 3d
       -0.25128216 0.3241295 0.2294499 0.11704281
000020 aa f2 5f bd 41 41 b4 be 04 b4 2f 3e 68 8c 30 3d
       -0.05467478 -0.35206035 0.17158514 0.04310265
000030 54 d9 05 3d d8 45 ff 3e 70 fb 09 3f 69 45 e9 bd
       0.032677963 0.49857974 0.5389929 -0.11390192
000040 c6 f2 00 3f 1f 2b bf 3e fe 53 fb 3d 12 48 c7 bd
       0.5037044 0.37337586 0.122718796 -0.09730543
000050 c8 8d d7 be 97 d4 43 be 31 75 ca bc d4 c5 37 3f
       -0.42100358 -0.19124065 -0.024714084 0.71786237
000060 e5 e9 19 bd 71 d1 c2 bb 81 b6 0a be ec 16 0f be
       -0.037576575 -0.0059453775 -0.13546182 -0.13973588
000070 a1 92 6d 3b cc 6f 55 3e 2d e3 85 be cd 67 d8 3d
       0.0036250728 0.20843428 -0.26149884 0.105666734
000080 c2 fe 32 bd c0 3e ca bc 3c 7d 37 be bb 75 fa 3e
       -0.043699987 -0.024688125 -0.17918867 0.48917946
000090 7b ec 56 3d 3f 4c 4d be ca 87 95 bd 9f c7 93 bd
       0.05247162 -0.20048617 -0.0730129 -0.07215809
0000a0 fb 4e d9 bc 9a 54 96 be 81 26 8c 3c b0 ae 55 be
       -0.026526919 -0.2936142 0.017108204 -0.20867419
0000b0 56 dd 28 3d 14 f3 9e 3e 27 40 88 3e b5 bb 7d bd
       0.041226707 0.3104483 0.26611444 -0.06194659
0000c0 47 ff b4 3d f7 38 d6 3e 1d fb f6 be 1e d3 8e 3d
       0.08837753 0.41840336 -0.4823846 0.06973861
0000d0 4f bf 2c be d4 08 c3 be cc 2d 0c 3e ab b4 04 3c
       -0.16869853 -0.38092673 0.13689345 0.008099715
0000e0 ed b3 1e be 4a 54 35 3e 5d 80 e0 3e cf 92 b1 3e
       -0.15498324 0.17707935 0.43847933 0.3468232
0000f0 0c e2 88 bd 62 b7 89 3e 8a c5 74 be a8 f5 a1 bd
       -0.0668374 0.26897722 -0.2390348 -0.07908183

model_1/batch_normalization_2/batchnorm/mul_1;model_1/batch_normalization_2/batchnorm/add_1;model_1/dense_6/MatMul;model_1/dense_6/Relu;model_1/dense_6/BiasAdd f4 [64, 128]
000000 18 b7 21 be e7 1e f9 bd a8 e8 82 bd ed ad 8c bd
       -0.15792501 -0.12164097 -0.06392032 -0.06869111
000010 7b 29 0e bb 2c c2 fc 3c f0 36 3d be 94 ee 1d 3e
       -0.0021692205 0.030854307 -0.18477988 0.15423042
000020 94 cb d2 3d b7 ca 72 be 47 4f a6 bd c7 f4 16 3e
       0.10292736 -0.23710142 -0.0812059 0.14741813
000030 1f a4 01 3e bd f7 63 3e 68 ee 04 be 36 e0 f9 bd
       0.12660263 0.22262473 -0.1298157 -0.12200968
000040 b0 fc 77 be 1a 28 d9 3d 24 73 ab bd cd 32 b9 bd
       -0.24217486 0.10603352 -0.08371571 -0.090428926
000050 f6 1d 47 be f8 fa 40 be f0 a1 05 3e a3 df 29 be
       -0.19445023 -0.18845737 0.13050056 -0.16589217
000060 7a a2 55 be ae 05 1b be 05 22 bc 3d 5c f7 92 3d
       -0.20862761 -0.15138885 0.09186176 0.07176086
000070 85 c8 28 3e 45 a8 14 be 57 f6 15 3e 73 7c 1f bd
       0.16482742 -0.14517315 0.14644752 -0.038937043
000080 55 6f aa 3d 51 82 09 3e ba 2a 6c 3d 3b af 61 3d
       0.08322016 0.13428618 0.057657935 0.055098753
000090 aa 19 74 3d 7e 01 8c bd 7e f1 0e bd 4c c0 93 bd
       0.059594788 -0.06836222 -0.034898274 -0.07214412
0000a0 15 0f 8d 3c 57 45 d2 bd 7c 0a 98 3b 4a 33 31 3e
       0.017219106 -0.10267132 0.0046399217 0.17304721
0000b0 96 bd 92 3c 57 05 d0 3d 83 30 50 be b0 91 16 3c
       0.017912667 0.101572685 -0.20331006 0.009190008
0000c0 b7 e8 6d bd 06 77 13 3e af d3 0a be 9f a2 bf 3d
       -0.058083262 0.14400873 -0.13557313 0.093571894
0000d0 b3 38 14 bc 4b e5 67 3d e8 93 bb 3d fe b5 2c 3e
       -0.009046721 0.056615155 0.0915907 0.168663
0000e0 12 32 c5 3d 3d 07 33 3e 11 ca 11 3e ee 62 34 3e
       0.09628691 0.1748323 0.14237238 0.17615864
0000f0 75 af d1 3d 3e 54 32 bc 26 95 3a 3e 6b 3d 0a be
       0.10238544 -0.010884343 0.18220958 -0.13499992
000100 40 5b 7e 3d e5 26 2e be 50 c8 1c 3e 0d 69 e3 bd
       0.06209874 -0.17007025 0.15310788 -0.11104021
000110 e9 5b 4b bc f8 01 97 3c 98 a1 ed bd 70 f7 96 bd
       -0.01241205 0.018433556 -0.11603087 -0.07371414
000120 cf fb 15 bc 66 4f ea 3d 2a bb e6 bd ad fc 2f 3e
       -0.009154274 0.11440925 -0.112661675 0.17186232
000130 8a 82 75 bd b8 b1 96 3d 82 0d 8f bd 25 7e 26 be
       -0.059938945 0.07358116 -0.06984998 -0.16259058
000140 5c 8f 7a bd 2d d3 2e 3e 80 ac e1 bd 36 6e 04 3d
       -0.061171874 0.17072745 -0.1101923 0.032331668
000150 d4 1d 3f be e5 e6 03 be 37 26 d1 bd 29 43 59 bd
       -0.18663722 -0.12881048 -0.10212367 -0.053042565
000160 29 24 6c be b4 35 5e 3e fe 88 1d 3c 6f c9 06 be
       -0.23060669 0.21700174 0.009615181 -0.13162778
000170 5e 97 26 3d 91 5f 28 3e 64 d3 60 bc 77 e5 dd 3c
       0.0406717 0.16442706 -0.013722274 0.027086956
000180 ce c8 c6 bc 55 75 1f bd aa 5d 0f bd e2 34 a1 3d
       -0.024265673 -0.038930256 -0.035001434 0.07871415
000190 7b 96 8b bc f6 d5 1d 3a 28 58 fd 3d 6a a2 03 be
       -0.017039528 0.00060209574 0.1237033 -0.12854925
0001a0 88 14 3a 3e 2b d6 0a 3e 42 53 05 3e 48 37 25 be
       0.18171895 0.13558261 0.13020042 -0.1613437
0001b0 3a 29 78 3c a8 28 02 be 7d 79 54 be cc eb 01 be
       0.015146548 -0.12710822 -0.20749469 -0.12687606
0001c0 25 02 58 be 7b c5 46 be 64 99 45 be 4b b4 48 be
       -0.21094568 -0.1941127 -0.19296795 -0.19600026
0001d0 24 cb 2f be 67 42 01 be b0 6f 39 3e 9a 17 03 be
       -0.17167336 -0.12622987 0.18109012 -0.12801972
0001e0 5a 5a 30 bd 2e 02 4a be eb eb 62 bd a2 2f 1e 3e
       -0.043054916 -0.19727394 -0.05540077 0.15447858
0001f0 ec 1e f1 bd d1 b6 4c 3e f3 e0 3c be 64 7e 19 3e
       -0.11773476 0.19991614 -0.18445186 0.1498962
000200 61 58 1c 3d 55 9c 10 3e 96 bc 12 bd 2f e6 0a 3e
       0.038170222 0.14122136 -0.03582438 0.1356437
000210 72 73 4d 3e da 91 cd 3d e3 7d ed bd dc 99 6c bd
       0.2006357 0.100375846 -0.115962766 -0.05776392
000220 36 8e 2d be 19 67 1c 3e 31 61 06 3e 79 e7 35 3e
       -0.1694878 0.15273704 0.13123013 0.17764081
000230 3c 37 dd bd 47 5f 84 3b 6d 3d 37 be 31 e0 dd bd
       -0.10801551 0.0040396783 -0.17894526 -0.10833777
000240 dc 2d a8 3d 23 38 5e 3e 02 3b 5a be 10 f0 34 3e
       0.08211872 0.21701102 -0.21311572 0.17669702
000250 c2 fa 7e bd 13 7d 6a 3e d0 64 16 3e 0b 21 08 3e
       -0.06225086 0.22899275 0.14686894 0.13293855
000260 d0 5f 80 bc b1 e9 57 be 98 90 30 be 1e c4 85 3c
       -0.015670687 -0.2108524 -0.17242658 0.016328868
000270 64 6e af 3c 45 58 17 be 33 e4 d6 3d 0b f7 8f bc
       0.021414943 -0.14779766 0.10492744 -0.017573854
000280 e3 aa f3 3c 2c f6 21 be 47 56 8d 3d 0e d4 40 3e
       0.029744571 -0.15816563 0.06901222 0.18830892
000290 5f 32 73 3d de 4f 55 3d b3 56 b9 bd d7 cb 31 be
       0.05937421 0.05207812 -0.0904974 -0.17362915
0002a0 b1 dc 09 be a8 4e a9 bd fa c1 2e 3e 7d ce 3e 3e
       -0.13463093 -0.082669556 0.17066184 0.18633457
0002b0 b4 43 12 be f8 f1 c7 bd af dc 38 3c ce f4 b8 3d
       -0.14283639 -0.09762949 0.011283084 0.09031068
0002c0 1d ac 17 3e 21 df 18 bd 1f a4 a9 3d 52 28 3b 3e
       0.1481175 -0.037322167 0.08283257 0.182771
0002d0 33 90 06 3e 03 18 42 be 80 d0 5a bc 04 66 ba bd
       0.13140945 -0.18954472 -0.013355374 -0.09101489
0002e0 39 1c 2e 3e 56 11 a7 3d 60 32 1c 3e 37 de 3a be
       0.17002954 0.081576034 0.15253592 -0.1824883
0002f0 a1 6c 97 3d ef 83 df bc c1 d9 2b 3c fd b8 31 3e
       0.07393766 -0.02728459 0.010488928 0.17355724
000300 c3 89 b7 3c f2 fb 03 be 45 f7 ac bd d5 b2 9b bd
       0.022404557 -0.12889078 -0.084456004 -0.07602469
000310 87 ee 0a 3e 7a bd 47 be 4c 74 73 bc c2 58 82 bd
       0.13567553 -0.19505873 -0.01485927 -0.063645855
000320 1f cf ff 3d c3 c1 2e 3e d5 8f 4c be 0a 25 c1 3d
       0.12490677 0.17066102 -0.19976743 0.09430893
000330 1f d2 2f 3d 95 b0 0e 3e 76 93 b5 3d 86 9c 3b be
       0.042924996 0.13934548 0.088660166 -0.18321428
000340 7c 68 1e 3e b1 5c 01 3e f5 d1 81 ba 3e 1a e9 3d
       0.15469545 0.12633015 -0.0009904491 0.113819584
000350 1b f6 c4 bd 75 53 25 3e da d9 8f 3d 8f c7 81 3d
       -0.096172534 0.16145118 0.07023974 0.06336891
000360 c8 62 0a 3d ea ff 9f bd 7e f6 27 3e 03 f1 8d 3b
       0.03378561 -0.078124836 0.16402623 0.0043317094
000370 c2 32 14 be 63 32 fe 3d d0 4c f3 bd 90 df 0e 3e
       -0.14472488 0.12411954 -0.11879885 0.1395247
000380 cf 59 0c 3e d1 47 08 3d 59 92 a1 3c 61 b6 80 3d
       0.13706134 0.033271614 0.019723104 0.06284786
000390 39 10 e3 bd 42 c0 08 be fb fe 47 3d ac 28 9e 3d
       -0.110870786 -0.1335459 0.048827153 0.07722601
0003a0 16 7c 30 3e 5f 0d f5 3c b8 8b d4 3c 3b 36 72 bd
       0.17234835 0.029913602 0.02594553 -0.05913375
0003b0 39 df 21 3d bc d0 55 be b2 3c 51 3e 31 81 fd 3d
       0.039519522 -0.20880407 0.2043331 0.12378157
0003c0 bc 55 e1 bc ec 21 8a bd 87 55 32 be 17 da 47 3e
       -0.027506702 -0.06744751 -0.17415439 0.19516788
0003d0 f9 7d 80 bd 69 85 82 bd bc c8 72 3e 7e 54 1c be
       -0.062740274 -0.06373102 0.23709387 -0.15266606
0003e0 27 46 4c be 89 ae b3 3d 81 68 0b bd 46 47 e0 3c
       -0.19948636 0.08773524 -0.03403521 0.027377736
0003f0 45 1f fe 3d 3b 1e 6b 3e 40 ab 1a 3d 1a 7d d5 3d
       0.12408308 0.22960751 0.037760973 0.10424252

model_1/batch_normalization_3/batchnorm/sub f4 [64]
000000 84 10 8a be 69 7b 82 be 13 5a 93 be 05 e6 8a be
       -0.26965725 -0.2548478 -0.2877966 -0.27128616
000010 3a 2c a1 be 7c 2f 8f be 3c 39 99 be 47 91 83 be
       -0.31479055 -0.27965915 -0.2992648 -0.25696775
000020 ef 87 60 be d1 31 89 be b4 23 99 be a6 9c 71 be
       -0.21926855 -0.2679582 -0.29910052 -0.23594913
000030 8b b7 6d be 17 cd 99 be d9 92 a9 be 03 74 81 be
       -0.23214547 -0.30039284 -0.33119848 -0.25283822
000040 43 0d b4 be 2f 15 9b be 1c f6 69 be b8 c6 42 be
       -0.35166368 -0.302896 -0.2284779 -0.19021118
000050 ae 00 8f be 5f be 86 be f1 64 83 be 20 6d c2 be
       -0.27930206 -0.26317117 -0.2566295 -0.3797388
000060 1d 05 8a be 15 dc 87 be 38 36 84 be 5b 47 87 be
       -0.26957026 -0.26535097 -0.25822616 -0.26421627
000070 c5 38 67 be a5 c3 89 be e7 23 89 be a8 c6 98 be
       -0.2258025 -0.26907077 -0.26785204 -0.29839063
000080 92 4f 70 be ca a4 67 be 6e 06 89 be 8c 4d a0 be
       -0.23467854 -0.22621456 -0.26762718 -0.31309164
000090 66 cf 8d be d0 6c 87 be 0b a7 67 be dc 4c 73 be
       -0.27697295 -0.26450205 -0.22622316 -0.23759788
0000a0 b2 84 61 be fc 3d 80 be 7e 63 89 be 14 cc 8d be
       -0.22023275 -0.2504729 -0.2683372 -0.27694762
0000b0 11 01 74 be c3 37 b7 be c8 47 9e be 85 c6 9e be
       -0.23828532 -0.3578473 -0.3091414 -0.31010833
0000c0 68 79 8c be 6c 0e 9c be 53 d4 7b be b4 aa 6b be
       -0.27436376 -0.30479753 -0.24592714 -0.23014337
0000d0 80 c5 7e be c0 75 94 be ca ea ac be 84 df 7b be
       -0.24880028 -0.28996086 -0.3377288 -0.24596983
0000e0 53 13 84 be a1 97 8f be a9 c3 b5 be 6c 05 93 be
       -0.25795993 -0.2804537 -0.3550084 -0.28715074
0000f0 e8 59 80 be 53 6a 91 be 10 05 81 be 94 21 5a be
       -0.25068593 -0.2840143 -0.25199175 -0.21301872

model_1/batch_normalization_3/batchnorm/mul f4 [64]
000000 88 b0 77 3f 27 56 52 3f 1d c0 65 3f 3e 4e 8d 3f
       0.9675374 0.8216271 0.89746267 1.1039503
000010 00 0d 6d 3f 69 45 8e 3f fd 75 7e 3f 77 db 7c 3f
       0.9259796 1.1114932 0.99398786 0.98772377
000020 d7 d5 80 3f 65 fc 5f 3f 7b 0d 8f 3f 44 65 90 3f
       1.0065259 0.874945 1.1175989 1.1280904
000030 2b 3b 87 3f 83 b6 93 3f 87 fa 8a 3f 8e c5 65 3f
       1.0564932 1.1540073 1.0857705 0.8975457
000040 bd 7a 85 3f 3f ab 86 3f 27 6f 88 3f 7d 70 80 3f
       1.0428082 1.052101 1.0658921 1.0034329
000050 48 ac 67 3f 8b 48 74 3f 17 ec 74 3f 0c 9b 88 3f
       0.90497255 0.9542319 0.95672745 1.0672317
000060 62 78 7f 3f d7 fb 89 3f 94 e0 86 3f 30 a8 81 3f
       0.99793065 1.077998 1.0537286 1.0129452
000070 b3 51 7e 3f 62 cd 88 3f 0b bc 74 3f 78 14 7d 3f
       0.99343413 1.0687678 0.9559943 0.9885936
000080 1e 88 7c 3f 14 99 87 3f 22 2a 72 3f 17 72 8f 3f
       0.986452 1.0593591 0.9459554 1.1206692
000090 a1 a5 83 3f 71 d7 5f 3f e9 14 83 3f a6 ea 79 3f
       1.0284921 0.8743811 1.0240756 0.9762367
0000a0 c4 5a 67 3f 8a fc 74 3f 79 36 6e 3f 49 57 87 3f
       0.9037287 0.95697844 0.9305187 1.0573512
0000b0 d9 6b 84 3f 13 58 8a 3f 8a c4 85 3f d2 1c 6f 3f
       1.0345412 1.0808128 1.0450604 0.9340335
0000c0 5e 68 84 3f 71 dc 86 3f 76 ac 69 3f b3 56 8a 3f
       1.034435 1.0536023 0.9127878 1.0807709
0000d0 0b 75 71 3f 02 8c 6e 3f b3 4b 84 3f 15 60 6d 3f
       0.9431922 0.93182385 1.0335602 0.92724735
0000e0 7a d7 6a 3f 82 36 89 3f 5d d3 89 3f 63 ff 88 3f
       0.9173504 1.071976 1.0767628 1.0702938
0000f0 3c 06 81 3f 19 ab 88 3f 99 3d 72 3f 77 2a 7c 3f
       1.0080028 1.0677215 0.9462524 0.98502296

model_1/position_output/BiasAdd/ReadVariableOp f4 [2]
000000 99 db 24 3c cc 54 05 bd
       0.010062122 -0.03255157

model_1/floor_output/BiasAdd/ReadVariableOp f4 [5]
000000 4f 7d eb 3c 49 ea fc bc 7d 8a 01 bd e2 82 88 3c
       0.028746275 -0.030873435 -0.031626213 0.016663972
000010 57 24 d2 3c
       0.025652094

model_1/dense_9/BiasAdd/ReadVariableOp f4 [64]
000000 3b 28 53 3c c8 04 db bc 9b a7 1a bd e4 4f 77 bb
       0.01288801 -0.026735678 -0.037757497 -0.0037736828
000010 0a f9 fa bc a4 51 be 3c 26 5a 6a 3c 67 c5 06 bd
       -0.03063633 0.023232289 0.01430372 -0.0329031
000020 61 b6 05 bd 59 89 04 bd 06 d2 1d 3c 34 e6 c3 bc
       -0.032644633 -0.032357547 0.009632593 -0.02391348
000030 ce 97 dd bc 20 63 0b bc 87 e8 bb bc ec 31 e5 3c
       -0.027049925 -0.00850752 -0.022938026 0.027977906
000040 f3 10 00 bd ff 23 17 bd ca e5 03 bd 7c 4f af 3c
       -0.031266164 -0.036899563 -0.032201566 0.021400206
000050 8a 62 be bc 7f 81 ef bc 7a 81 ea 3c 0f 93 d7 bc
       -0.023240346 -0.029236553 0.028626192 -0.02631524
000060 79 a0 cb 3c d2 6e 0f bd 2a 14 0c 3d 76 94 e5 3c
       0.024856793 -0.035017796 0.034198917 0.028024893
000070 a2 a8 fb bc b1 56 0c bd 82 c4 f7 3b 36 33 ac bc
       -0.030720059 -0.034262363 0.0075612674 -0.021020513
000080 e0 0b b5 bc 8d 40 0f bd 13 5a e4 bc f8 17 4c 3c
       -0.022100389 -0.03497367 -0.027874982 0.0124568865
000090 63 17 df bc 22 74 0d bd 78 16 14 bd 7b 94 1a bd
       -0.027232831 -0.03453458 -0.03615424 -0.03773926
0000a0 ce 13 ca bc bc 07 fa bc 52 0c 0f bd a5 08 11 bd
       -0.024667647 -0.030521266 -0.03492386 -0.035408635
0000b0 6b 3c ba 3c 84 11 fb 3c 28 2d e7 bc 45 f0 fa 3c
       0.022733888 0.030648 -0.028219774 0.030632148
0000c0 59 c1 01 bd 98 a9 f8 bc 86 d7 95 3c 98 e4 c4 bb
       -0.03167853 -0.030354306 0.018291246 -0.006008696
0000d0 77 a0 10 bd 57 27 f8 bc 3e 93 e8 bc ad 28 cc 3c
       -0.03530928 -0.030292196 -0.028390523 0.02492174
0000e0 f9 62 cb bc c2 e8 17 bd 4b 4d 95 3c 93 da b9 3c
       -0.024827467 -0.03708721 0.018225333 0.022687232
0000f0 e2 d4 d0 bc 55 2c 2f bc ca 38 a4 3c 5f b0 86 3c
       -0.025492135 -0.010691722 0.02004661 0.016441522

model_1/dense_8/BiasAdd/ReadVariableOp f4 [64]
000000 0e ba ac bc 32 70 10 bd e7 2a b7 bc cb d9 51 3d
       -0.021084812 -0.035263248 -0.022359325 0.051233094
000010 30 93 1c 3c 70 4c 7d bc 61 28 61 3c d7 a8 1a 3d
       0.009556577 -0.015460119 0.013742537 0.037758674
000020 8d 6e c5 3c 3e 32 14 3d 48 86 e9 3c ec fd 56 bc
       0.024100566 0.036180727 0.028506413 -0.013122063
000030 b6 dc d0 3c 96 de 0f bd c4 53 1e bc fb 3e a5 bc
       0.025495868 -0.035124384 -0.009663526 -0.020171633
000040 0e a8 20 3d 79 e2 6a bc 5b e5 9d 39 a6 c5 b4 3c
       0.03922277 -0.014336222 0.00030116257 0.022066902
000050 78 f5 10 bc 2b 9e d8 3c f8 b2 c7 bb 76 5f 07 3d
       -0.008847587 0.026442608 -0.006094333 0.033050023
000060 e4 f0 f1 3c 0a 24 11 3d c4 5d f7 bc 39 0a 18 3c
       0.02953381 0.03543476 -0.030196078 0.009279781
000070 0b 12 27 3d ad fb 54 3c 4a a4 e2 3c 20 a9 3b 3d
       0.04078869 0.012999457 0.02766623 0.045815587
000080 8b c2 00 bc ec d7 1e 3b d4 8b 9e bb 36 a9 14 3d
       -0.007858883 0.0024237586 -0.004838446 0.036294185
000090 6d 0e d7 bc 1b a6 c7 bc ce 15 d9 bc 93 3a 1f 3d
       -0.026251996 -0.024371197 -0.026499655 0.03887422
0000a0 f1 e0 83 bc 73 ab 7c bc 7f 18 0e 3d e9 54 7c 3c
       -0.016098471 -0.015421736 0.03469133 0.0154011035
0000b0 e5 7f b2 bc 33 12 b4 3c ce 63 7f 3b d3 8f ae bc
       -0.0217895 0.021981334 0.00389694 -0.021308815
0000c0 68 c4 92 bc 09 61 d4 bb 3a 36 c5 bb af 3f 53 3c
       -0.01791592 -0.006481294 -0.006018427 0.012893601
0000d0 a8 49 1e 3d 5b 5a ff 3c 86 66 1d 3c d7 5f 81 3b
       0.038644463 0.031171015 0.009606963 0.0039481926
0000e0 8c 3b dd bc 27 5d cb 3c 90 77 51 3c 70 ea 4c 3c
       -0.027005933 0.024824692 0.012784854 0.012507066
0000f0 28 4e 7c bc 3f 84 f8 3c c3 bf 17 3d cd 10 8c bc
       -0.015399493 0.030336497 0.037048113 -0.017097855

model_1/dense_7/BiasAdd/ReadVariableOp f4 [64]
000000 74 56 48 ba a0 f9 ae 3c 93 15 ab 3c 94 cf 93 b8
       -0.0007642277 0.021359265 0.02088431 -7.048171e-05
000010 70 cf 56 bc 3e ca 05 bc 76 f1 12 bc 73 d1 03 bd
       -0.01311098 -0.008165894 -0.008968702 -0.03218217
000020 00 df 9f bc 18 78 c7 3c ab e4 fb bc 22 e2 df bb
       -0.019515514 0.024349257 -0.030748686 -0.006832377
000030 b7 6e a9 bc 80 d0 15 3d e4 fe 6b bb 69 a4 20 3d
       -0.020682676 0.036575794 -0.003601008 0.039219294
000040 87 f2 a3 bb 06 7e 9f bb 44 59 15 3d e5 76 ac bc
       -0.0050032767 -0.004867318 0.036462083 -0.021052787
000050 dc 25 ae bc 6b e4 12 3d b1 a5 39 3b 84 51 2a bc
       -0.021258287 0.035862368 0.002832752 -0.010395411
000060 78 81 e9 3b 57 40 15 3d c5 79 15 3d ee c3 04 3d
       0.0071260296 0.036438312 0.03649308 0.032413416
000070 0e c9 05 bb fc a0 8d bc 1d 54 37 3c 3f 44 03 3d
       -0.0020414027 -0.017288677 0.011189488 0.032047506
000080 35 0f 0d 3d ec ca 64 3c 8b 0d 8e 3b a5 f0 9e bc
       0.03443833 0.013964396 0.0043351105 -0.019401858
000090 60 0b 1d 3d a0 07 e8 b7 84 a0 60 bc ad b1 1a 3d
       0.038340926 -2.7660106e-05 -0.013710145 0.0377671
0000a0 b0 93 bf 3c 0e 70 0f bb 10 e2 e5 bb 99 30 0a 3d
       0.023385853 -0.0021886858 -0.007015474 0.033737753
0000b0 51 a7 8a bb 22 cd 26 3d 95 c2 fd bb 7b 22 6d bc
       -0.0042313715 0.040722974 -0.0077441433 -0.014473553
0000c0 7d 5d 14 3d 11 bf d4 bb 88 d2 9d bc c5 56 3c bc
       0.03622197 -0.0064925035 -0.019265428 -0.011495297
0000d0 2c 24 77 bc 81 4c d4 bc 71 7d bb bc e8 a8 e1 3a
       -0.015084308 -0.025915386 -0.022886964 0.0017216476
0000e0 66 7c 2c bb f6 39 eb bc 61 e0 7a bc f5 af 0b 3d
       -0.0026319264 -0.028714161 -0.015312285 0.034103353
0000f0 7d 8b f2 3c 92 16 d4 3c c8 b7 01 3d 3f 08 85 bc
       0.029607529 0.025889669 0.031669408 -0.016239284

model_1/dense_5/BiasAdd/ReadVariableOp f4 [128]
000000 01 3b 15 3c 35 db 85 3c be 7f 4f b9 e5 c4 00 3c
       0.009108306 0.016339878 -0.00019788646 0.007859443
000010 16 53 eb 3c 52 92 ca bb 4e 54 a7 3c 18 f2 0d 3c
       0.028726142 -0.0061819935 0.020425942 0.008663677
000020 27 3d 89 ba b9 8f fe bc da ca 8e 3c dc be 14 3c
       -0.0010470495 -0.031074392 0.017430712 0.009078708
000030 eb 3c 12 3c ec 91 8b 3c 87 41 8a 3b fd ec 88 3c
       0.008925657 0.017037354 0.0042192372 0.016714567
000040 c9 7c f8 3c 60 e9 58 3c b7 00 36 3b c4 bf 8b bb
       0.03033294 0.013239235 0.0027771422 -0.0042648036
000050 58 a2 78 3c fa 69 d6 3b 8c ff 0f 3d 54 10 c6 3c
       0.0151754245 0.006543395 0.035155818 0.024177708
000060 2f b7 17 bc f2 d2 c2 3c 2f 5f bc 3c 24 fd ae 3b
       -0.009259983 0.023782227 0.022994606 0.0053402353
000070 86 e9 39 3c 6b be 26 3c f5 71 91 3c e9 d9 f6 3c
       0.01134718 0.010177235 0.017754534 0.030133205
000080 7d 80 fa 3b a1 87 fe 3c 5e 41 b5 3c 86 72 d1 ba
       0.0076447115 0.031070532 0.022125896 -0.0015979565
000090 26 a7 f4 3b 44 03 32 3c 82 37 d5 3c 2b 20 31 3b
       0.0074662147 0.010865036 0.026027445 0.002702723
0000a0 20 30 c2 bb 31 f0 1a 3c 06 b6 af 3b de 3c 32 3b
       -0.005926147 0.00945668 0.005362275 0.0027196924
0000b0 97 55 80 bc f5 80 04 3a e3 e6 9f bb d3 bd 51 bb
       -0.015665812 0.00050546165 -0.0048798188 -0.0032004013
0000c0 ee e9 8e 3c 18 76 25 3c 91 1f d3 3c 05 94 98 ba
       0.01744553 0.0100989565 0.025771888 -0.0011640793
0000d0 82 9f bf 3b 94 a5 a4 3c 9e b5 7c 39 56 10 b4 3c
       0.0058478722 0.020098485 0.0002410025 0.021980446
0000e0 8b 95 7e 3c 9a 2b 02 bc 79 34 a7 bc 06 8f 5c 3c
       0.0155385835 -0.007944966 -0.020410763 0.013461834
0000f0 96 5c 6b 3c 2c 0d 5a b9 64 6a ad 3b 49 ef 2b 3c
       0.014365336 -0.00020795007 0.0052922238 0.010494062
000100 fa 9b 6f bc cb 42 16 bc ef d1 5f bc bd ff d5 3b
       -0.01462459 -0.009171198 -0.013660892 0.0065307305
000110 20 25 91 3b bd 64 9b 3b 47 86 a3 3c 46 00 2f 3c
       0.0044294745 0.0047422335 0.01996149 0.010681218
000120 9c 85 0f 3d d7 e4 96 bc 13 8f a6 3c d8 e5 3a 3c
       0.03503953 -0.018419666 0.020331895 0.011407338
000130 47 d7 ca bb 37 b2 ab bb 69 14 78 3c 80 75 ec 3b
       -0.006190214 -0.0052397507 0.015141585 0.0072161555
000140 81 a7 23 3c 22 0c a4 3a 7e ed 77 bb 48 42 73 ba
       0.0099886665 0.0012515823 -0.0037830765 -0.0009279591
000150 35 0e 5f 3b 9e 12 dd ba 44 25 fc bb 42 de 85 3b
       0.0034035568 -0.001686651 -0.007694872 0.004085333
000160 25 65 86 3c f5 63 70 bb 72 99 78 3c 1a ec 33 3c
       0.016405651 -0.0036680673 0.015173303 0.010981584
000170 13 6a a4 3c cc 1e 5b 3c 14 a3 1b 3c 4d 0b 8d 3c
       0.020070111 0.013374042 0.00949933 0.017217303
000180 3f af e0 3c 40 d0 57 bb a6 a9 6c bc 03 f0 10 3d
       0.027427314 -0.0032930523 -0.014444744 0.035385143
000190 06 36 0d 3c ac 79 2d 3c 76 5b 0b bc 45 8f 56 3c
       0.008618837 0.010588091 -0.008505693 0.013095682
0001a0 43 2c b0 bb 01 b9 f0 3c b2 05 8a 3c ea 69 9c 3c
       -0.00537637 0.029385092 0.016848419 0.019093473
0001b0 64 f1 80 38 9e 24 45 3b 78 37 4f bc 42 f3 a3 3c
       6.148478e-05 0.003008164 -0.012647502 0.020013455
0001c0 3b 60 e7 3c 6f 45 8e 3c 0c 0a 06 3b 41 19 05 bc
       0.028244128 0.017367093 0.0020452766 -0.008123697
0001d0 d5 13 aa 3b c3 43 a2 3c 76 5b 1c 3c 87 d7 11 bc
       0.0051903524 0.019807702 0.00954329 -0.008901483
0001e0 d6 13 cb b9 69 8c 89 bb 21 96 a2 3c 9e 21 01 bb
       -0.00038733956 -0.0041976464 0.019846978 -0.0019703875
0001f0 f5 44 a2 3c d2 5c 4d 3c 90 64 26 3c 84 df c8 3c
       0.019808272 0.012534337 0.010155812 0.024520643

model_1/building_output/BiasAdd/ReadVariableOp f4 [3]
000000 d2 74 f0 3c 43 ad d3 bc e4 05 da bc
       0.02935258 -0.025839454 -0.026614137

model_1/dense_5/MatMul f4 [128, 385]
000000 3d cf a3 3d c0 55 7e bc b9 77 91 3d e4 05 d9 39
       0.07998512 -0.015523374 0.071029134 0.00041393854
000010 97 87 77 3c fa 56 35 3c b5 32 de 3d d3 96 aa bd
       0.015108011 0.0110681 0.10849515 -0.08329549
000020 17 39 9c bd 5d 77 47 bd 6a 2f cf 3d 0f d7 86 bd
       -0.076280765 -0.048697818 0.101164654 -0.06583988
000030 50 0a 07 3d 0f 01 8f 3d 9e 85 97 bc 4a d0 8d bb
       0.03296882 0.06982624 -0.01849633 -0.0043278085
000040 23 8f 75 bd 90 23 9a 3d 7e 27 ad bd 27 84 c0 bd
       -0.05995096 0.07526314 -0.08454798 -0.09400206
000050 da f2 14 bd a0 00 21 bd a3 cd 8e bc 53 3e bc 3d
       -0.036364414 -0.039307237 -0.01743204 0.09191575
000060 0e 33 9b 3d 1c 67 96 bc 68 44 5a 3c d5 e1 35 3c
       0.07578097 -0.018359713 0.013321973 0.011101206
000070 1d 92 c5 bd db cb ec bd ca 3c a9 3c 8e 7d 14 bd
       -0.096470095 -0.1156232 0.02065887 -0.03625255
000080 3a fa 1f 3c 9d b9 91 bc 35 61 bf bb ee 37 42 bd
       0.0097642485 -0.017788703 -0.0058404454 -0.04741662
000090 84 9d 22 3d c2 9a 27 bd 0a a5 a7 3d c2 27 e4 3c
       0.039701 -0.040919073 0.081857756 0.02785099
0000a0 6b e0 92 ba 6f c7 87 3d fc 0e f6 3c 58 5d b0 b9
       -0.0011205798 0.06629836 0.030036442 -0.00033638882
0000b0 07 91 00 3c 82 e2 ad 3d d6 22 07 b8 4e bc 13 3d
       0.007847077 0.084904686 -3.221895e-05 0.036068253
0000c0 2c 8d a6 bd 74 35 3b bd 2a 40 00 bd 71 ff d5 3d
       -0.08132395 -0.045705274 -0.03131119 0.10449112
0000d0 34 f9 8a b8 df 9d e0 bc be 1a ca bb d9 e9 bb 3d
       -6.6267705e-05 -0.027419029 -0.0061677387 0.09175462
0000e0 4f e2 69 3b 21 90 3e bc 10 bd d4 3d e9 80 b4 bd
       0.003568787 -0.011631043 0.10387623 -0.0881365
0000f0 57 e0 a7 bd 96 8e ca bd 8b e5 d2 3c fd 3a 4d 3c
       -0.08197086 -0.09890477 0.02574422 0.012526271
000100 8e 55 94 bd f4 05 ab 3d c8 f4 93 3d bf df c4 bd
       -0.07242881 0.08350745 0.07224423 -0.09612989
000110 9c 7d e8 bc 8c fa 4b 3d 4f 13 90 3d 81 d4 96 3d
       -0.028380208 0.049799487 0.07034933 0.07364751
000120 80 5e 53 bd 51 b5 f9 3c b7 ef c7 bd 15 8f b6 bd
       -0.051603794 0.030481966 -0.09762519 -0.089140095
000130 88 9e 1c bc a8 12 a1 bc 69 a1 06 bd 96 a8 86 bd
       -0.009559281 -0.019662216 -0.032868776 -0.06575124
000140 53 85 77 bd a8 e7 68 3a 93 f1 f7 bc 17 28 7e bb
       -0.060429882 0.0008884617 -0.030266559 -0.003878122
000150 15 7d 20 bd 06 63 4e bd c7 6c d2 b9 eb 7b 88 bc
       -0.039181788 -0.050387405 -0.00040135367 -0.016660651
000160 5d 4e 4b bd 6f 10 0c b9 39 c9 4b 3a 94 35 77 3d
       -0.04963528 -0.00013357562 0.000777382 0.06035383
000170 06 4e 68 bb 24 77 02 bd c1 c3 9d bd 94 1c 17 3c
       -0.0035446896 -0.031851903 -0.07703353 0.009223122
000180 c4 f9 c8 3b 87 9a 70 bd a3 93 23 bd 47 02 ae 3d
       0.00613329 -0.05874112 -0.03993572 0.08496528
000190 b8 6e bc bd 0a 7a b7 bb 30 bf d7 bd 36 18 72 3c
       -0.092008054 -0.005599265 -0.10534513 0.01477628
0001a0 e6 d1 b3 3d 28 fb b7 bd c1 20 93 bc 9c c3 37 3d
       0.08780269 -0.08983451 -0.017959954 0.044864282
0001b0 c3 ab 46 bd b7 b4 61 bd 9c 1d 92 3c 4b ce 23 bd
       -0.04850365 -0.055103984 0.017836384 -0.03999166
0001c0 5e 07 92 3c d7 f9 4c bd 9c 8a 3c 3c da 41 8a 3d
       0.017825779 -0.050042953 0.011507656 0.067508414
0001d0 42 c3 7c bd 45 88 ab bd d9 49 40 bd cc 82 60 3d
       -0.06170965 -0.08375601 -0.046945427 0.054812238
0001e0 94 8d b5 3b a4 c3 8e 3d 4b ed 86 3d 2e 2a d6 3d
       0.005540559 0.06970909 0.06588229 0.10457264
0001f0 60 3f 4d bd 67 87 a5 bd 59 83 6c 3d 68 4a e5 3c
       -0.050109267 -0.080824666 0.05774245 0.027989581
000200 7e 43 23 bc 22 f8 9e bd 3a 60 92 b9 07 01 93 3d
       -0.009964822 -0.07762171 -0.00027918984 0.0717793
000210 88 57 3e bd 7f 5f 37 3d 86 31 87 3d e8 bd 50 bd
       -0.046470195 0.044768807 0.06601243 -0.05096236
000220 1f c8 22 3d 03 cc 92 3d 7f da cf bd 91 58 c3 3c
       0.03974163 0.071678184 -0.10149097 0.023845943
000230 c3 68 36 bd 25 03 a1 3c c6 80 68 3d 96 bf cf bc
       -0.044533502 0.01965482 0.056763433 -0.02535991
000240 bf 66 9a bb 31 6d ee bc b7 c2 5b bd 30 47 a5 bd
       -0.0047119553 -0.0291048 -0.05365249 -0.080702186
000250 36 14 ac bd 99 55 74 3d c3 53 19 3d 96 b0 ba 3d
       -0.084022924 0.059651945 0.037433397 0.09115712
000260 b8 09 5b 3d 46 57 58 3d 87 cd b2 3c 6b 5a 0b 3d
       0.053476065 0.052817605 0.021826519 0.034021776
000270 1f 4b 5c bd 2c 01 80 3d c1 04 37 3d 89 a5 61 bd
       -0.05378258 0.062502235 0.044682268 -0.055089507
000280 44 02 36 bd dd a6 44 3b 14 8b 8d 3d 76 62 ae 3c
       -0.044435754 0.0030006685 0.06911293 0.021287184
000290 6a 12 50 bd 90 51 98 3d 57 32 7f bd 5e c6 cb 3d
       -0.05079881 0.07437432 -0.062303867 0.09949945
0002a0 13 2e 6b bd a2 99 9e bd 26 3c c5 3d ea 8d be 3d
       -0.057416987 -0.07744147 0.09630613 0.09304412
0002b0 c9 76 18 bd a0 24 b9 3c 77 33 83 3d 2d 49 a8 bd
       -0.037222657 0.022600472 0.064063005 -0.08217082
0002c0 bf 0b 47 b9 fe dd 8a 3d f9 20 36 3d e0 10 2c bd
       -0.00018982495 0.06780623 0.04446504 -0.04200828
0002d0 f8 bf de bc 9c f2 06 3d b3 1b 19 3d 8d ee e6 bc
       -0.027191147 0.032946214 0.03737993 -0.028189922
0002e0 13 12 ab 3d 34 a0 41 bd 82 a8 d8 38 e1 4b 8b 39
       0.08353057 -0.047271922 0.0001033107 0.0002656868
0002f0 03 2e 4d 3d b0 20 3c bd 6d 1e 78 bb 75 05 1e bd
       0.05009271 -0.04592961 -0.0037859932 -0.038579423
000300 5d 8e 24 3d a7 de 05 bd 31 3d 11 3d e0 94 b6 b9
       0.04017483 -0.03268304 0.035458747 -0.00034824666
000310 06 0a 95 3d ae 86 ec bc a7 c1 95 3d 2c a6 26 bd
       0.072773024 -0.028872814 0.07312327 -0.040685818
000320 6a c4 a5 3d 03 b5 24 bc 26 3e a8 3c fe b8 b0 bd
       0.08094104 -0.010052922 0.020537447 -0.086290345
000330 e1 bb 03 3d 8b 2c 2f 3d c0 cc 81 bb 6e b3 ff 3b
       0.032161597 0.04276709 -0.0039611757 0.007803372
000340 de 69 e1 3c 92 77 53 ba 5e 90 c2 3d b3 61 f0 3b
       0.027516302 -0.00080668286 0.09500192 0.0073358654
000350 89 76 c4 bc 2e 1b 6c bc c0 30 9b bd ad bf a3 bc
       -0.023982303 -0.014410777 -0.07577658 -0.01998886
000360 3a aa 88 bc 58 d9 42 3d 7d 48 55 bd 01 9e a7 bd
       -0.016682733 0.047570556 -0.052071083 -0.08184434
000370 c2 24 b7 bd 26 58 ba bb 43 13 ed bc ab c0 ce bd
       -0.08942558 -0.0056867776 -0.028939849 -0.10095342
000380 6d 4b 00 3d 2a cf 11 bd 05 79 1d 3d 09 31 89 3b
       0.03132193 -0.035597958 0.03844549 0.0041867536
000390 8f b2 70 bd 1e f3 a6 bb 69 25 a6 3d 6e f9 8c bd
       -0.058764037 -0.0050949 0.08112604 -0.068835124
0003a0 92 7e a2 3d c6 24 39 bd 82 3f 79 bd e9 b8 75 bd
       0.079342976 -0.045201086 -0.06085158 -0.059990797
0003b0 48 41 c5 bd 76 ad 29 bd 7c 42 95 3c 5e df 93 bd
       -0.09631592 -0.04142519 0.018220179 -0.07220338
0003c0 6c ae 9a 38 7e 56 7d bc be a7 12 3a 15 ba 4d 3c
       7.375781e-05 -0.015462516 0.00055944535 0.012556572
0003d0 9d 63 a5 bd c1 a4 a2 3d d1 75 0a 3d cd 61 cf 3c
       -0.0807564 0.079415806 0.033803765 0.02531519
0003e0 bc ae 99 3c db 24 81 3c f1 9a b4 3d dc 31 68 3d
       0.018760078 0.015764644 0.08818615 0.056688175
0003f0 62 d5 17 3b 97 46 4a 3d ac d2 9a bd ed 70 05 bb
       0.0023167958 0.049383726 -0.07559714 -0.0020361498

model_1/attention_layer_1/MatMul f4 [64, 64]
000000 a3 3c 0c 3e c3 eb 55 3e cc c7 0f 3d 46 83 a7 bd
       0.13695006 0.20890717 0.03510265 -0.08179335
000010 f0 86 50 bd 46 a8 2a be 56 b7 32 be 06 c6 ba 3d
       -0.050909936 -0.16665754 -0.1745275 0.09119801
000020 5d 91 15 be f3 5b 31 3e b2 45 c6 bd f3 de 14 be
       -0.14606233 0.17320232 -0.09681262 -0.14538173
000030 db 9b 57 3e a3 1c 05 3e b0 4b 3b 3c 07 3a 55 3e
       0.21055548 0.12999205 0.0114316195 0.20822917
000040 c0 a9 1b bc 10 4f 87 bc 70 60 15 3c 00 d0 9f 39
       -0.009500921 -0.016517192 0.009117231 0.00030481815
000050 a1 a9 22 3e 1e a5 31 be e2 77 3e be a8 13 c1 3c
       0.15885021 -0.17348143 -0.18600419 0.023568943
000060 8f 4b 38 3e 67 45 42 be 50 2b 2e bc 38 63 02 3d
       0.17997573 -0.18971787 -0.010630444 0.031832904
000070 8e 09 92 3d 08 39 20 be 78 30 12 bd 07 c6 24 3e
       0.07130729 -0.15646756 -0.035690755 0.16091166
000080 0c a4 33 be c5 dc 5a 3e 83 c7 45 be 3d 02 43 3e
       -0.17543048 0.2137328 -0.19314389 0.19043823
000090 6e 52 ef 3d b2 1a 18 be 80 3e 01 be 9c 46 92 bd
       0.11685644 -0.14853933 -0.12621498 -0.07142374
0000a0 2b 03 23 3e a2 b3 be 3d f5 5a 59 3e 28 f6 44 bd
       0.15919177 0.09311606 0.21226104 -0.048086315
0000b0 aa cd 98 bd 2b 0a f2 bd 3c c8 0f 3d dd 5e 55 3e
       -0.07461102 -0.11818346 0.035103068 0.20836969
0000c0 05 0b 41 3e da be 02 be 5b 95 32 3e 90 ea 63 bd
       0.1885186 -0.12768117 0.17439787 -0.055643618
0000d0 ac d3 32 3d 00 80 c0 b9 71 ac 37 be 7a 15 a7 3d
       0.043658897 -0.0003671646 -0.17936875 0.08158393
0000e0 97 0f 5a be fe 91 a2 3d 77 61 16 3e 9c 85 40 3d
       -0.2129501 0.07938002 0.14685617 0.04700242
0000f0 88 c2 33 be 58 62 44 bd fb 7d 31 3e 08 63 90 bc
       -0.17554677 -0.04794535 0.17333214 -0.017625347
000100 6f 99 dc bd e8 88 e8 bd c0 13 de bc 66 54 98 3d
       -0.10771453 -0.11354238 -0.027109027 0.07437973
000110 a2 7c 9c 3d 95 58 55 3e d8 03 5c be cb 39 07 3e
       0.07640959 0.20834573 -0.21485841 0.1320564
000120 6d 5c 15 3e 38 aa 17 be b9 7f 4e 3e 99 2c f8 bd
       0.14586039 -0.14811027 0.2016591 -0.12117881
000130 b5 8b 15 be d7 4d d0 bd 88 42 af bd 2c a7 24 be
       -0.14604075 -0.10171097 -0.08557612 -0.16079396
000140 e1 9c 56 be 36 b9 ad 3d 60 98 a8 bd 21 01 24 3e
       -0.20958282 0.08482592 -0.08232188 0.16016056
000150 96 63 39 be d0 9d 1a be d3 e7 1b 3e fe 06 81 3d
       -0.18104395 -0.15099263 0.15225153 0.06300162
000160 90 d4 ab 3c b0 89 90 bc 31 e6 e5 bd 28 ba a0 3c
       0.020975381 -0.01764378 -0.11225546 0.019620016
000170 13 75 bd bd 44 12 4b 3d 12 e8 86 3d 91 ae d6 bd
       -0.09250846 0.049577966 0.06587233 -0.10482515
000180 7e 49 f2 3d 92 d8 37 be ea a3 53 be 20 80 77 3c
       0.11830424 -0.17953709 -0.20667997 0.015106231
000190 20 8f 5c be 8a e5 ab 3d 8b 51 4b 3e 9a b4 c9 bd
       -0.21538973 0.083933905 0.19855325 -0.098489
0001a0 cd 0f 20 be 75 87 0d be 07 1b 12 be 74 5d 54 3d
       -0.15631028 -0.13821204 -0.14268123 0.051846936
0001b0 08 62 42 bd cc 2f c0 bd f4 0c 28 3d 1c 33 4d be
       -0.04745677 -0.093841165 0.041027978 -0.20039028
0001c0 09 ce 0c 3e b0 6a e4 bc 01 38 2a 3e 82 96 ac bd
       0.13750471 -0.027882904 0.16622926 -0.084271446
0001d0 ef dc 33 3e be df f6 3d 66 d0 9b bd a5 db 2b be
       0.17564748 0.12054394 -0.07608108 -0.16783006
0001e0 e0 a6 e1 bb 95 a6 f0 bd 2f 5c 37 3e 04 8d 94 bd
       -0.006886348 -0.11750523 0.17906259 -0.07253459
0001f0 5e 09 24 be d9 8b 3a be e7 bb 57 3e 4d 3b 34 3e
       -0.16019198 -0.1821741 0.21067773 0.17600746
000200 c0 16 80 3b f9 90 1d be 7e 14 95 3d 9e bb f6 3d
       0.003908962 -0.15387334 0.07279299 0.12047504
000210 24 c3 7c 3d ec d6 30 be da d9 ff bd 2e 71 3b be
       0.061709538 -0.17269486 -0.12492724 -0.18304893
000220 1e da 26 be ed 59 15 3e ec a2 21 3d 01 fe 12 3e
       -0.16294143 0.14585085 0.039462015 0.14354707
000230 a9 cd 27 3e 6f 60 41 3e 28 a7 00 3d e0 01 47 3c
       0.16387047 0.18884443 0.031409413 0.012146443
000240 ac fe 61 3d 30 45 7f 3c 87 7d 2f be 8a 53 1a be
       0.055174515 0.01558046 -0.17137729 -0.1507093
000250 fa b7 07 be 01 85 26 3e f9 69 39 be 03 53 01 3e
       -0.13253775 0.16261674 -0.18106832 0.12629323
000260 d8 b5 fd bc b8 53 84 bd 51 c8 56 be 20 f4 9c 3b
       -0.030970499 -0.064612806 -0.20974852 0.004789844
000270 ae 96 b1 3d a6 bf 88 3d 6e 93 df bd c1 a6 1f 3e
       0.08671318 0.06677179 -0.10916792 0.15590955
000280 94 bd 2b be 41 9d 43 3e 6c 0e 0c bd 7a 13 ec 3d
       -0.16771537 0.19102956 -0.03419344 0.11527152
000290 40 91 53 bb b6 9f 3f be 31 5e 45 3e fa 20 a7 3d
       -0.003228262 -0.18713269 0.19274212 0.08160587
0002a0 58 ae 36 be 1e 0a ad bd 79 ee cb bd 9c 8d a8 bd
       -0.17839944 -0.08449195 -0.099575944 -0.08230135
0002b0 f4 bd 18 3d 02 ee bb 3d 85 fe 0c 3e 41 7a 5b be
       0.03729053 0.09176256 0.13768966 -0.21433355
0002c0 c7 fc 32 3e ad ee d0 bd 00 22 a8 bc 2a ea 45 be
       0.1747924 -0.10201774 -0.020524025 -0.19327608
0002d0 18 98 d7 bd 8b 44 34 3e 04 e1 2b 3d dd f5 08 3e
       -0.105270565 0.17604272 0.04196264 0.1337504
0002e0 99 79 21 3e 6f 7f 51 3e 85 da 51 be 8e cf ea bd
       0.15769042 0.20458768 -0.20493515 -0.11465369
0002f0 0b 3e 57 3e 8d 5d 4b 3e 4d d3 2c be 00 f2 fa ba
       0.21019761 0.19859906 -0.1687748 -0.0019145608
000300 70 bf 93 3c f9 2b eb bd 38 08 b9 bc a4 67 7d bd
       0.01803562 -0.114829965 -0.022586927 -0.061866418
000310 4e 43 a3 bd 10 fb fa bc 8e 98 a7 3d 90 f2 b7 bd
       -0.07971822 -0.030637294 0.08183394 -0.08981812
000320 63 b4 fd bd f0 80 25 bd ce 13 ad bd 02 4d bb 3d
       -0.12387922 -0.040406168 -0.08451043 0.091455474
000330 d1 fb 1a 3e 63 3b 44 be ca 02 88 3d 8f 9a 43 3e
       0.15135123 -0.19163279 0.06641157 0.19101928
000340 bd 52 53 3e 05 92 06 3e 91 1c 4a 3e 36 87 05 be
       0.20637031 0.1314164 0.1973746 -0.1303986
000350 7f 6a 45 be 1c a0 05 be 78 4f d1 bc 02 1d c1 3d
       -0.19278906 -0.13049358 -0.025550589 0.09429361
000360 ad 1e 04 be 07 3e 54 be 56 b2 c2 3d e9 03 dc bd
       -0.12902327 -0.20726787 0.09506671 -0.10742933
000370 8b b8 37 3e f8 61 f8 3c 68 0c 0b bd a0 cb 89 bd
       0.17941491 0.030320153 -0.03394738 -0.067282915
000380 50 fd 2c 3c be d5 ee 3d 47 76 4f be 9d 6d 05 3e
       0.010558441 0.11661862 -0.20259963 0.13030095
000390 e0 e6 cf 3b 40 04 73 bc 1c 6a 4b bd 84 53 0d 3d
       0.006344661 -0.014832556 -0.04966174 0.034503475
0003a0 b0 9b ae bd 00 2b 25 be fe 54 ab 3d 84 b5 7d bd
       -0.08525789 -0.16129684 0.0836582 -0.061940685
0003b0 20 5e 2a bc 44 b1 78 3d ae 58 34 be de a9 f9 3d
       -0.010398418 0.06071593 -0.17611954 0.12190603
0003c0 40 c2 f8 3b 46 cf 37 be 29 14 01 be 00 37 72 ba
       0.007591516 -0.17950162 -0.12605347 -0.0009239763
0003d0 bf 9f 31 3e 83 e0 39 3e c3 2a 38 be c4 c1 52 3d
       0.17346095 0.1815205 -0.17985062 0.05145432
0003e0 28 1e de 3c 22 4a 81 3d e9 52 14 3e d9 8d 23 3e
       0.027113989 0.06312968 0.14484753 0.1597208
0003f0 b0 f0 42 be b0 58 1d bd 50 11 4b 3c 91 2a 13 be
       -0.19037127 -0.038414657 0.012394264 -0.14371707

model_1/attention_layer_1/MatMul_1 f4 [1, 64]
000000 40 97 31 be 00 6c 7d bc 5e ee dc bd d8 ee 69 bd
       -0.17342854 -0.015467644 -0.107876524 -0.057112545
000010 60 06 13 3c 80 2a 31 3e 6c 2e 9d bd 60 04 55 3e
       0.008973688 0.17301369 -0.0767487 0.2080245
000020 c8 76 77 3d 0e 12 27 3e f3 df 07 be bc d9 91 3e
       0.060416013 0.16315481 -0.13269024 0.2848643
000030 a4 29 95 3e ca 9e 9b bd b0 35 d9 3d dc 8a 4f 3e
       0.29133332 -0.07598646 0.10605943 0.20267814
000040 2a 79 ab bd 98 04 0e 3d 1c dd a5 3d 64 d5 67 3e
       -0.083727196 0.03467235 0.08098814 0.22639996
000050 fc fb 9a be 4e e5 52 be a8 f5 61 3e f2 e7 86 be
       -0.30270374 -0.20595285 0.22066367 -0.26348835
000060 10 6e 9a 3e 1c 1b 1a be 8a 36 38 be 90 bc 6e 3d
       0.30162096 -0.15049404 -0.17989555 0.058285296
000070 08 e2 9e bd a0 7b 69 bd fb e2 0d be 64 e3 52 3e
       -0.07757956 -0.057002664 -0.13856117 0.20594555
000080 0a a6 2c be e9 ff 46 be 08 62 5e 3e 64 2a 8b be
       -0.16860214 -0.1943356 0.21717083 -0.2718078
000090 44 7c 83 3e a2 d9 94 bd ef 62 1b be 48 d0 7d 3e
       0.25680745 -0.07268073 -0.15174459 0.24786484
0000a0 df e2 8e be 24 de 54 be a8 33 7e 3e 38 e2 4b 3d
       -0.27907464 -0.20787865 0.24824393 0.049776286
0000b0 2e de b9 bd be 95 00 be 02 16 1b 3e 02 c3 de bd
       -0.090755805 -0.12557122 0.15145114 -0.108770385
0000c0 e5 7e 71 be 26 a3 30 3e 3e 5a 3b 3e 92 31 60 be
       -0.23583563 0.17249736 0.18296143 -0.2189391
0000d0 82 18 71 be 74 a8 5c 3e ba 53 9b 3e 00 b1 fa ba
       -0.23544505 0.21548635 0.30337316 -0.0019126236
0000e0 00 6f 9e bb 51 64 00 be 84 8b 7a be 4e a8 98 3e
       -0.0048350096 -0.12538268 -0.24467283 0.29815906
0000f0 46 83 82 3e 2b 7b 86 be ae ca 1f be 63 4f 0e be
       0.2549078 -0.26265845 -0.1560466 -0.13897471

model_1/dense_7/MatMul f4 [64, 64]
000000 7a 1b d8 3d cd 67 aa bd 10 72 3e 3e c9 d5 06 be
       0.10552116 -0.0832058 0.18598199 -0.1316749
000010 1c 18 37 3e aa f2 8e 3d 7d ba 90 3d c2 60 1a bd
       0.17880291 0.06979878 0.0706682 -0.03768993
000020 c8 d7 f7 bd ce 6c bf 3d ea 4a ee bd c4 8d 66 bd
       -0.12101704 0.09346925 -0.116353825 -0.056287542
000030 70 be 51 be 21 85 8a bd 76 4b 5b 3e 0b 32 43 3e
       -0.20482802 -0.067636736 0.21415505 0.19062059
000040 44 f7 0f 3e 35 d7 31 3e 66 70 f0 3b 0e 9e 3b be
       0.14059168 0.17367251 0.0073376177 -0.18322012
000050 0c 71 82 bd 24 bc 15 3e 7c 11 d4 bb 92 8b f8 bd
       -0.06369218 0.14622551 -0.006471811 -0.12135996
000060 9a 95 43 3c 8c 85 be bb d1 04 fd 3d c4 4a 3f be
       0.011937523 -0.00581426 0.12354434 -0.18680865
000070 60 f2 00 3e 1b 85 5a 3d de 8c cb 3d 88 ea 6a 3d
       0.12592459 0.053349596 0.09938978 0.057352573
000080 c7 71 08 3c 9b 70 1b bb 73 b7 d1 3d 24 88 b3 3d
       0.008327908 -0.002371824 0.10240068 0.08766201
000090 fb 52 03 be 02 6e c9 3d 54 f1 99 bd bc db 81 3d
       -0.12824623 0.098354355 -0.07516733 0.06340739
0000a0 7f e4 19 3d 32 35 87 3c b4 23 46 be c2 37 3c be
       0.037571426 0.016504858 -0.19349557 -0.18380645
0000b0 ed 10 2e bb 47 38 a4 bc 63 fb 45 3d 18 9f 01 be
       -0.0026560382 -0.020046366 0.048335444 -0.12658346
0000c0 98 cc 0d 3e fd 3b d6 bc e4 41 bb bd e7 ca e8 3d
       0.13847578 -0.026151652 -0.09143427 0.113668256
0000d0 1d a2 a7 bd d5 42 3a bd 78 d0 e4 3c cd 07 1b 3e
       -0.081852175 -0.045473892 0.027931437 0.15139695
0000e0 1e d9 1f 3d 1e 0b 98 3d 75 1d 03 3e 30 d8 09 3e
       0.03902542 0.074239954 0.12804206 0.13461375
0000f0 53 fe 02 be b7 23 45 3e 7f 52 9e bd ac e1 3f be
       -0.1279233 0.19251905 -0.07730579 -0.1873843
000100 02 fa 5f bd 98 3a 27 bd d6 f9 db 3d d7 a2 e9 bd
       -0.054681785 -0.040827364 0.10741012 -0.11408012
000110 86 54 9e bd fa 7f 62 be e1 a9 c3 bc 59 32 75 bd
       -0.07730965 -0.22119132 -0.023884716 -0.05986247
000120 12 57 07 3e 13 0e 25 3e 8d f3 05 3e 02 8b 62 3b
       0.13216808 0.1611865 0.13081188 0.0034567718
000130 9d 4e c6 3d 73 18 27 bd a5 92 c3 bd de 40 5b 3e
       0.09682963 -0.0407948 -0.095494546 0.21411464
000140 83 f5 f2 bc db 6b 32 3d 2a 50 fa 3d b5 05 04 3e
       -0.029658085 0.04355989 0.12222321 0.12892802
000150 8d c9 2c 3e 45 0d 05 bd f4 df 1d be 0f 03 0e 3e
       0.1687376 -0.032483358 -0.15417463 0.13868354
000160 48 dd 36 be 3b 82 cf 3c 65 c9 c0 3d cd 49 32 be
       -0.1785785 0.025330653 0.09413413 -0.17410965
000170 5e 52 81 bd 1b 64 10 3d cd 90 d6 bd 76 72 dd 3d
       -0.063145384 0.035251718 -0.10476837 0.10812847
000180 54 c1 11 be 75 1b 1a 3e a2 b4 0c bd dd 8a f2 bc
       -0.14233905 0.15049537 -0.034351952 -0.02960723
000190 fa 62 0c 3e d1 2e d1 3d f8 07 3f be 1d ed 2d 3e
       0.13709632 0.10214008 -0.18655384 0.16984983
0001a0 5d 9a 0d 3d 4d 2a bc bd 24 18 43 3e 6f 24 9d bd
       0.03457104 -0.09187756 0.19052178 -0.07672965
0001b0 36 17 14 3e 0c 25 42 3e da 4f a8 3d 2c 90 ec bc
       0.1446198 0.18959445 0.082183555 -0.02887734
0001c0 15 1a ec bc aa 2b 4f bc 09 27 13 3e 12 1c 63 be
       -0.02882103 -0.012644688 0.1437036 -0.22178677
0001d0 76 56 3a bd 3c 46 5d 3e d9 51 b6 bc dc 46 da 3d
       -0.04549261 0.21608824 -0.022255825 0.106580466
0001e0 30 67 d9 3c 99 25 37 3e 8c 84 41 3e 9d 4b 4b be
       0.026538461 0.17885436 0.18898219 -0.19853063
0001f0 55 62 56 3e ef 0b 26 bd 27 eb 32 be 30 b3 2f b8
       0.20935948 -0.040538725 -0.17472516 -4.1890133e-05
000200 9b a6 2b 3e 18 82 a2 3c 94 40 6a 3e a0 37 ee 3d
       0.16762774 0.019837424 0.22876197 0.116317034
000210 d3 9e 08 3d ee 74 e9 bd 8f f9 32 be 7f 63 40 be
       0.03335459 -0.11399256 -0.17478012 -0.18787955
000220 fc 1a 41 bd 39 30 b4 bd 29 9c 7f 3d d0 a0 44 3e
       -0.047144875 -0.0879826 0.062404785 0.1920197
000230 66 51 07 be e9 ac 2f 3c 91 1c 13 be 90 98 69 3d
       -0.13214645 0.010722377 -0.14366366 0.05703026
000240 26 71 3c bd bf 3f 91 3c 60 d3 2e be ca 44 47 bc
       -0.046006344 0.017730592 -0.1707282 -0.012162397
000250 66 20 f3 bb a8 f6 3b be 62 79 3b bd c4 64 27 be
       -0.0074196337 -0.1835581 -0.045770057 -0.16347033
000260 13 4f 03 bc 47 d1 56 3e a9 2f 4f be c5 56 43 3e
       -0.008014458 0.2097827 -0.20233025 0.19076069
000270 6c 0c e7 bb 76 2b 46 be 64 21 5a 3c 03 15 eb 3c
       -0.0070510413 -0.19352517 0.013313625 0.028696543
000280 90 08 aa bd c7 7e f5 bd 87 c0 ce bb d0 4f 4c 3e
       -0.083024144 -0.119870715 -0.006309572 0.19952321
000290 88 bc cf 3d 5f cd 8c bd a1 4e ce bd 97 df 60 3e
       0.10143381 -0.06875109 -0.10073591 0.21960293
0002a0 48 c3 d2 bd b7 34 11 be fe 9c eb 3d 6a f7 0a 3e
       -0.10291153 -0.14180265 0.11504553 0.13570943
0002b0 35 f3 38 be 10 af 90 bc f0 3e c3 3d f0 c8 1a 3e
       -0.18061526 -0.017661601 0.09533489 0.15115714
0002c0 74 18 4a 3e 84 59 ce 3d 9a 28 0f 3e 57 62 0b be
       0.1973589 0.100756675 0.13980332 -0.13611732
0002d0 79 06 23 be 95 e4 0d 3e f5 78 15 be f8 5e 1d 3e
       -0.15920438 0.13856728 -0.14596923 0.15368259
0002e0 41 08 63 be 6d 64 94 3c 3a 6f de 3d 3e 35 0d be
       -0.22171117 0.018114293 0.108610585 -0.13789842
0002f0 cb 47 37 be 08 12 7b bd 1a 12 5f 3e 78 94 4b 3e
       -0.1789848 -0.061296493 0.21784249 0.19880855
000300 f4 03 0a 3e 5f 0f e3 3d a9 1e 23 be 9b b9 97 bd
       0.1347807 0.11086916 -0.15929665 -0.07408448
000310 cf 3f 46 3e 7b 1e 86 bd c3 8a 15 3e 3b 8c 0d 3e
       0.19360279 -0.065487824 0.14603715 0.13823025
000320 80 b7 2c 3e 22 3e eb bd 76 b5 de bd 83 78 15 bc
       0.16866875 -0.1148646 -0.10874455 -0.0091229705
000330 43 45 d9 bb 3d e8 14 be e7 64 57 3d 02 45 5c 3e
       -0.006630571 -0.14541717 0.052586462 0.215107
000340 f8 93 54 be d1 40 bf 3d c7 85 4b be 3d dc 5d 3e
       -0.2075957 0.093385346 -0.19875251 0.21666045
000350 6d 03 11 3e e8 a9 c1 bd 24 5e 10 3d 90 4a 0e 3e
       0.14161463 -0.09456235 0.03524603 0.13895631
000360 da 77 40 3e cc b3 01 3e 1b 6f 5a 3e 5a f1 18 be
       0.1879572 0.12666243 0.21331446 -0.14935818
000370 41 4c 03 3d 47 66 a8 bc 6f 39 c1 bc 44 a7 23 3e
       0.032055143 -0.020556582 -0.023586957 0.15981776
000380 df c9 6a bd 63 db 3f 3d 9c 07 67 bd 3c 5e b3 bd
       -0.057321426 0.046840083 -0.05640374 -0.08758208
000390 29 44 76 bb 46 fc 2e 3e f8 14 6a be e5 19 72 3e
       -0.0037577248 0.17088422 -0.22859561 0.2364269
0003a0 60 71 41 3e 97 92 c9 3d 93 82 1b be 99 36 20 3e
       0.18890905 0.09842413 -0.15186529 0.15645827
0003b0 71 14 cd bd 24 b8 4a be da e2 d6 bd 0d 15 be bd
       -0.100136645 -0.19796807 -0.10492487 -0.09281359
0003c0 06 73 aa 3d 11 d8 32 bd 25 e5 c4 bc 8a d2 a1 bd
       0.0832272 -0.04366309 -0.024035046 -0.07901485
0003d0 09 c1 ea 3c b3 7b 28 3e b4 4d 80 bd 1d d6 8a bd
       0.0286565 0.16453438 -0.06264821 -0.0677912
0003e0 61 3f 35 3e 52 e4 64 3e 2e 45 1e 3e 74 bb 56 3d
       0.17699958 0.22352722 0.15456077 0.052424863
0003f0 31 34 2e be bb dd bf 3d 53 e3 9a 3d 22 74 26 3e
       -0.17012097 0.093684636 0.0756289 0.16255239

model_1/building_output/MatMul f4 [3, 64]
000000 46 8e f6 bc 84 33 80 3d 84 6b 38 3e 14 80 5e be
       -0.030097138 0.06259826 0.18009764 -0.21728545
000010 24 a2 b4 3c ec c7 62 be 01 95 74 be 74 c3 82 be
       0.02204997 -0.22146577 -0.23884965 -0.25539744
000020 67 ac 2b bd 13 a2 f6 3d c4 74 96 3c 48 b3 85 3c
       -0.041912463 0.12042632 0.018366225 0.01632084
000030 e5 9f 03 be 62 af 6f 3e a7 ce 53 be 9f 3d 5f bd
       -0.12853964 0.23406747 -0.206843 -0.054502126
000040 f5 d2 63 bc f1 c3 73 bd 2e 01 70 3e 66 43 9c bd
       -0.013905277 -0.059513036 0.2343795 -0.07630043
000050 2f 5e a5 bc 0b 61 1b be 14 13 a3 bd 6b a3 3e 3d
       -0.020186512 -0.15173738 -0.07962623 0.046542566
000060 5b 9a 45 3e 08 62 99 3e ff 14 29 3e ec 93 81 3e
       0.19297163 0.29957604 0.16511916 0.25308168
000070 d3 0c 46 bd 1c 78 1d 3d e9 da a0 3d 23 fa 8e 3e
       -0.048352074 0.038444623 0.07854254 0.27925214
000080 65 ac ac 3b f6 8e bf 3c c2 b4 08 be 73 af 6d be
       0.0052695745 0.023383599 -0.13350204 -0.2321146
000090 cd a6 68 3e f2 d5 a1 bd 2e e9 fa bd cf 6d 76 3e
       0.2271988 -0.07902135 -0.12251507 0.24065326
0000a0 ac 78 12 3e 19 0e 16 3e 74 2e c6 3d 80 22 7d 3c
       0.14303845 0.14653815 0.09676829 0.01545012
0000b0 86 8d 9e 3d b7 0c 85 3e 26 47 06 be b7 16 26 3c
       0.07741837 0.25986263 -0.13113078 0.010137252
0000c0 01 be 82 3e f8 fb 90 be 9b 3d 23 be 2a 17 05 be
       0.25535586 -0.28317237 -0.1594147 -0.12997118
0000d0 f0 ad 95 be a2 77 50 be 06 ff 79 be 30 cb 8f bd
       -0.29234266 -0.20358136 -0.2441369 -0.07021177
0000e0 16 66 cf bd e8 a8 8a be b1 2c 60 bd 53 f9 86 3e
       -0.10126893 -0.2708199 -0.05473012 0.26362094
0000f0 3d 1d 2f 3e 66 46 53 3d d4 10 bd 3c df 4e c7 3d
       0.17100997 0.05158081 0.023079313 0.0973184
000100 bf d2 fd 3d de f5 94 be 32 ab 92 3c fa e7 21 3e
       0.12393712 -0.29093832 0.017903898 0.15811148
000110 19 54 24 3e da 75 1b bd 50 4b 41 3e a7 66 a6 bd
       0.16047706 -0.03795419 0.18876386 -0.08125048
000120 b7 9f 68 3e e8 78 27 3e 29 f6 24 be 21 8f 6e be
       0.22717176 0.16354716 -0.16109528 -0.23296787
000130 c8 42 7b 3e d3 f1 ac bd 7b d1 8b be 03 91 7e be
       0.24537194 -0.08444562 -0.27308258 -0.24860005
000140 44 7d 8d 3e cb f8 1c 3e 88 04 13 3e ac 72 13 be
       0.27634633 0.15329282 0.14357197 -0.14399213
000150 13 c1 fa 3c 4e 67 9b be 43 6a 60 bb 6f 2f 36 3d
       0.030609643 -0.30352253 -0.0034243024 0.04447883
000160 e0 99 01 be 3e 1a 94 3c 8c ef f0 3d bb d2 02 3e
       -0.12656355 0.01807892 0.1176444 0.127757
000170 85 b8 82 3e bb 14 45 3d 60 a2 ee bd ab 9e a6 be
       0.25531402 0.048115473 -0.11652064 -0.3254293
000180 a3 9d 23 be c2 8e 46 be 2f 20 fd 3d 32 10 43 be
       -0.15978102 -0.19390395 0.12359654 -0.19049147
000190 af 95 50 be f1 b5 b8 bb 1c 20 4e 3e 7a cc 18 be
       -0.203696 -0.0056369235 0.20129436 -0.14921752
0001a0 a3 a5 9b be 33 9d 74 3e d1 5c 72 3e 20 9b f7 bc
       -0.30399808 0.23888092 0.23668219 -0.030225337
0001b0 78 23 5e 3c 2b ac 1d 3d 87 c4 29 3d 31 e9 89 3c
       0.013558261 0.03849427 0.04144719 0.016834827
0001c0 a7 53 3a 3e a1 47 5a 3e e8 49 25 3e ae fa 9a bd
       0.18195973 0.21316387 0.16141474 -0.075673446
0001d0 1f a8 b4 bc 0e eb 20 3e 3e 5f 8c 3d 9e 36 87 bb
       -0.022052823 0.15714666 0.068541035 -0.004126384
0001e0 30 a1 49 ba 56 99 48 be 80 d3 f8 bc e9 58 76 bd
       -0.00076915603 -0.19589743 -0.030374289 -0.060143385
0001f0 f5 86 18 3e 4d 1e 16 be d6 ad 03 3d db d0 4e 3d
       0.14895232 -0.14659996 0.032148205 0.05049215
000200 d8 2b 3e be b9 49 99 3e 77 6e 84 3e 50 ed 73 3e
       -0.18571413 0.29939058 0.25865528 0.23820996
000210 1c 54 0e bd da f8 99 be 18 1c 71 3d ee 9b 8c b8
       -0.03474818 -0.3007267 0.058864683 -6.7047644e-05
000220 1b db e0 bd b5 b5 ec bd e4 62 c3 3d f0 2e 90 3e
       -0.10979291 -0.11558095 0.09540346 0.2816081
000230 6c 67 f1 3d 64 02 6c be b4 43 40 bc ab 13 7e be
       0.11787304 -0.23047787 -0.011734892 -0.2481219
000240 8e ff f5 3d 13 07 27 3e 18 58 91 bd b9 20 b1 bc
       0.12011634 0.16311292 -0.07096881 -0.021622049
000250 04 53 92 3e 70 e2 56 be 3c a6 48 be e8 60 2c 3e
       0.2857896 -0.20984817 -0.19594663 0.16833842
000260 9f 6b 4a 3e 32 c2 72 3e 7a ed a4 bd ea 94 e3 3d
       0.19767617 0.23706892 -0.080531076 0.111123875
000270 31 f5 53 be 3e c9 14 3e 28 72 2b 3e 0e cb 94 3d
       -0.20699002 0.14529893 0.16742766 0.07265292
000280 e3 a6 99 be a0 ec 5d 3e 0b 9d 82 be 7f 17 34 bd
       -0.30010137 0.21672297 -0.2551044 -0.04396772
000290 15 2c 08 3c 71 46 25 be 3d 40 99 bc 4f a6 57 be
       0.008311291 -0.16140153 -0.018707389 -0.21059535
0002a0 af fb 91 3e e9 5c 01 bc 4e 2b 40 3e 19 cf 74 be
       0.28512332 -0.007895687 0.1876652 -0.23907126
0002b0 9d 43 56 3d aa 0c 1b 3e 53 ec 62 3e 2e 76 81 3e
       0.052310575 0.1514155 0.22160463 0.25285476
0002c0 7d a8 1c 3e 08 43 5f bc 24 a2 4d 3e d5 52 15 be
       0.15298648 -0.013626821 0.20081383 -0.14582379
0002d0 ce 13 92 3e 85 21 49 3d aa 75 03 bd d0 ca 18 be
       0.28530735 0.049104232 -0.032094635 -0.14921117
0002e0 27 a2 38 be 6f e7 97 3d 97 48 92 3e 37 a8 0f be
       -0.18030606 0.07417189 0.28571007 -0.14029013
0002f0 4a 75 9a be 60 95 b3 bd 95 e3 90 be 96 57 0e be
       -0.3016761 -0.087687254 -0.2829863 -0.13900599
