250713/models/hadnn_n_random_forest.tflite (tflite, 306260 bytes, 20 tensors)

model/dense_1/MatMul;model/dense_1/Relu;model/dense_1/BiasAdd f4 [64]
00000000: b9cc 17bd e5e7 8cbd 0567 bf3e 7893 213f
00000010: 1e1d 43be bfa0 55bd 1ead 893e 99f2 aa3e
00000020: 1ec7 6f3d a8c9 cabe 90bf 27be 0c53 2cbd
00000030: cf7a 613e d4fd 183e 3e78 743c 490f b53c
00000040: 8466 d53d 09f2 183f a88b 933e aa63 76be
00000050: 3808 a43e 0066 0e3e ac8b a4bd 274c 633e
00000060: 75de a93d 610a 12be db34 e7be 07ff 1fbe
00000070: 4d9c 5fbe 9ac3 d6be 1004 2a3e eca0 9c3c
00000080: 1555 2c3e ca3b 00bf 3dcb b8bc 162a 963c
00000090: 48e3 093e 9963 2cbe 5e4a 1fbe 8591 9b3e
000000a0: 00fd e43d f5b8 273e 70ed c63e 567c f03e
000000b0: 07e4 fbbe e9c1 bfbe cb6e 033e 9cc3 9ebe
000000c0: 5b53 1dbe cdad bfbe 6e37 9e3e ba0d 7c3c
000000d0: e8ef aabe 7a03 563e 2e0b cb3e a360 6f3e
000000e0: 96b3 67be fa11 4f3d 62ea babd ca04 dc3d
000000f0: 504c acbd 7b40 02bf b049 eabd e1c2 473e
-0.037060473 -0.06880168 0.37383285 0.63115644 -0.19054076 -0.052155253 0.2688989 0.33388212
0.058539502 -0.39606977 -0.16381669 -0.042071387 0.22019504 0.14940578 0.014921246 0.022102015
0.10419944 0.59744316 0.28817487 -0.24061456 0.3203752 0.13906097 -0.08034453 0.22197019
0.082943834 -0.14261772 -0.45157513 -0.15624629 -0.21836968 -0.41946107 0.16603112 0.019119702
0.16829331 -0.5009123 -0.022557849 0.018330615 0.13465607 -0.16834868 -0.15555713 0.3038446
0.111810684 0.1637915 0.38853025 0.4696986 -0.4919741 -0.3745263 0.12835233 -0.31008613
-0.15363829 -0.37437287 0.30901664 0.015384132 -0.3338616 0.20899764 0.39656967 0.23376708
-0.226271 0.050554253 -0.09126736 0.10743101 -0.08412993 -0.5087964 -0.11439836 0.19507934

model/batch_normalization/batchnorm/mul_1;model/batch_normalization/batchnorm/add_1;model/dense_1/MatMul;model/dense_1/Relu;model/dense_1/BiasAdd f4 [64, 128]
00000000: e43f 63bd fbd7 483d 35f8 cfbd 4904 37bd
00000010: d58c 4b3e 8c17 e53d 97be ad3c df02 25be
00000020: 84f4 7f3d d356 3abe 4c11 85bd 20ff 2b3e
00000030: 51bc 45be acf0 b7bd 4d61 0fbe eb8a 373e
00000040: 8a27 193e 58ed c1bd 1bf3 d23d f05e 313d
00000050: f40a 2ebe 8780 4bbe 090c ea3c d389 78bd
00000060: 8eea 053e dbc2 e4bc 198d 55be f31b b6bd
00000070: 084d 203e f8da f5bc 3664 3b3d 9478 4b3d
00000080: 5aac 2abe e599 a5bd 33b5 51bd f92f 50be
00000090: d190 99bd a1cf 003d d693 433e 2793 133e
000000a0: 87f1 ca3d 1916 1dbd a28f 153d 039b 1e3e
000000b0: 08b4 30be cacd 343e 8a4f 113e 9f2d 153c
000000c0: ebfc 313e e0b9 193d 141c 003e 6331 32be
000000d0: 06cc 83bc dcab 15be 6462 6b3e 2e71 3fbe
000000e0: 1359 4bbe 28d4 89bd 5fe8 5cbd 1062 63bd
000000f0: 7a52 fe3c bd5f cd3d 3048 053e 2cc8 cebd
00000100: 0c75 0a3e e8de ae3d 1cd8 55be 768b 17be
00000110: d5e0 fdbc 768b 3b3e eed2 21be 7266 2c3e
00000120: d72d 383e f957 d0bd e715 18be 7e05 8dbd
00000130: 27c2 b43d 337b 6ebd 8ced 8cbc 82c3 1e3e
00000140: bb44 12be 3825 2b3e fa22 5d3d 1a9f bc3d
00000150: 3445 213e e5fe ad3c c7e6 bb3b 428a 07be
00000160: 8d79 093e 8980 983d eeeb 4abe 854c b8bd
00000170: 76c2 203e f464 27bd 2192 ee3d 515a 9bbd
00000180: 0236 9abd 155c eabd fcd4 353e 91f4 41be
00000190: e917 873d f9c1 6a3e a000 733c 0089 24be
000001a0: 7a3b a33d b7f5 b3bd 1f91 34bd 3641 123e
000001b0: be07 a7bd fbce 0bbd fb27 043d 66a9 ea3d
000001c0: fc6e f03d 9ae0 463e dbc3 fbbd 69c7 38be
000001d0: 659d afbd 24b5 903d 9981 463e 0296 473b
000001e0: 75d1 483e aaf5 2d3e c5d2 e53c 14be f53b
000001f0: 96d3 2abe 3146 c4bd 87d5 a83d 4c8a 99bd
00000200: 0cd6 34bc 57ac 473e b692 43be 2b41 1ebe
00000210: 3360 9b3c 07c9 2f3e cb1d 283e 7fc3 783d
00000220: 6c66 e8bd 182f cdbd 226a bdbd 4c13 123e
00000230: 3d6b 4fbe 37fb 463e 4711 e23d 925c 1e3e
00000240: 1d09 babd e982 bfbd 0ea0 41be e663 2fbb
00000250: 61b8 313e 8cf8 38bd 41b8 643d a075 18be
00000260: 56b0 7fbd 1f0f 213e 0473 cabd 2ef1 a13d
00000270: e9c6 4cbe 03ff 47be 7745 1b3d 450b 1d3d
00000280: 4fa1 963d ec56 35be 917a c1bc 540f 1fbe
00000290: a6f2 973c 5883 233e 9900 c33c 615b 35be
000002a0: e615 e7bc 559e 6f3d 6e14 aebd 90c0 22bc
000002b0: 1fc9 e1bd ccbf 3f3e 9584 02be 65cb 1cbe
000002c0: 603c f0bc 42fc f23b ce78 e93d 58ec 1d3d
000002d0: 65d2 dc3c fe13 35bd d4db 133e 263e 833d
000002e0: 11d9 183e fb45 013d 00b4 0f3d 5496 353e
000002f0: e9c7 e0bd fa24 593d 70af 343d c5aa 5cbd
00000300: 3b7d b3bd 00e4 8b3d 4f7a 633c 472e 173c
00000310: 636c 9cbc 35d7 dfbd 57a7 14bd 7ba3 bb3d
00000320: c743 523d 4e94 5b3d 48e1 21be ed11 cc3c
00000330: d041 c43d 6a92 fabd 266b 273e 42b3 263e
00000340: 1d4c 2e3d a6a7 853d b6c1 9f3d 8e57 a53d
00000350: 6b7a 5e3e 81bd 33bc aab8 133e 658c c43d
00000360: e25e 1b3e afbd 30bd 8bd2 da3d 1f7e 643e
00000370: 5271 273d d886 03bc d08e fd3d da4f 24be
00000380: 092a 97bd 567c 1abe 778d 85bd 27a9 513d
00000390: 4d43 583e 3d36 c83d 32dd 943d 21c5 62be
000003a0: 1864 a6bd 95a3 babd 1ec4 01be b8ab 02be
000003b0: d756 d03b 1171 eabc e679 153e b2c1 36be
000003c0: 171b 473e 9ad0 62be 0444 723d e0cc 603e
000003d0: dfc1 cb3c 1a1e 273e 1914 88bc 6443 f8bd
000003e0: c51e d23d 90d8 96bd 2ab0 96bd 58d4 33be
000003f0: 24e7 d2bc daea 103e e0f7 713d ded8 fabd
-0.055480853 0.0490341 -0.101547636 -0.04468182 0.19877942 0.11186132 0.021209044 -0.16114376
0.062489048 -0.18197183 -0.0649744 0.16796541 -0.19310118 -0.089814514 -0.14001961 0.17924087
0.14956489 -0.09469098 0.10300275 0.04330343 -0.16996366 -0.19873248 0.028570192 -0.060678314
0.13077757 -0.027924946 -0.20854606 -0.0889205 0.15654385 -0.030011639 0.045749865 0.04967554
-0.1666731 -0.08085994 -0.051198196 -0.203308 -0.07498325 0.03144801 0.19099364 0.14411603
0.09909349 -0.038351152 0.036513932 0.1548882 -0.17256176 0.17656627 0.14190498 0.009105115
0.17381637 0.03753078 0.12510711 -0.17401652 -0.016088497 -0.1461634 0.22986752 -0.18695518
-0.19858198 -0.06729919 -0.053932544 -0.05551344 0.031045187 0.10028026 0.13015819 -0.100967735
0.13521212 0.0853861 -0.2088322 -0.14799294 -0.030990997 0.18314919 -0.1580312 0.16835955
0.17986237 -0.101730295 -0.14852105 -0.06885813 0.08826094 -0.05822296 -0.017203115 0.15504268
-0.14284031 0.16713417 0.053988434 0.09210034 0.15749055 0.021239707 0.005734298 -0.13236335
0.13425274 0.07446391 -0.19816563 -0.0899897 0.15699181 -0.04086776 0.116489656 -0.07585586
-0.075298324 -0.114433445 0.17757028 -0.18940951 0.065963574 0.22925557 0.014831692 -0.16067886
0.07970329 -0.08787101 -0.04408371 0.14282688 -0.081557736 -0.03413294 0.03226469 0.114580914
0.117399186 0.19421616 -0.12293216 -0.18044819 -0.085749425 0.070658 0.19385375 0.0030454402
0.19611152 0.16988245 0.028054604 0.0074994657 -0.16682276 -0.095837004 0.08243852 -0.07497081
-0.011037361 0.19499336 -0.19098935 -0.15454547 0.01896677 0.1716653 0.16417615 0.060733315
-0.113476604 -0.10018748 -0.09248759 0.14265174 -0.20255752 0.19431768 0.11038452 0.15465
-0.090837695 -0.09351141 -0.18908712 -0.0026762425 0.17355491 -0.045158908 0.05583978 -0.1488862
-0.062424026 0.15728424 -0.09885219 0.079073295 -0.19997753 -0.19530873 0.037908044 0.038340826
0.07354986 -0.1770894 -0.023618015 -0.15533191 0.018548321 0.15968072 0.023803996 -0.1771064
-0.028208684 0.058500607 -0.084999904 -0.009933606 -0.11024689 0.18725508 -0.12745889 -0.15311964
-0.029325664 0.0074153254 0.11399995 0.038555473 0.026955793 -0.04420852 0.14439327 0.06408338
0.14926554 0.03156088 0.03508377 0.17733127 -0.1097563 0.05301378 0.044112623 -0.053873796
-0.0876412 0.06830597 0.013884141 0.009227342 -0.019094652 -0.10929719 -0.0362924 0.09162041
0.05133417 0.05360823 -0.15808594 0.024910891 0.09582865 -0.122349575 0.16349468 0.16279319
0.042553056 0.06526117 0.07800619 0.0807334 0.21726386 -0.010970474 0.14425912 0.09597091
0.15172914 -0.043149646 0.10684689 0.22313736 0.040879555 -0.008027755 0.12380755 -0.16046086
-0.073810644 -0.15086493 -0.06521123 0.051186707 0.21119423 0.0977597 0.07268752 -0.22145511
-0.0812456 -0.09113232 -0.12672469 -0.12760818 0.0063580084 -0.028618367 0.14597282 -0.17847326
0.19443928 -0.22149888 0.059146896 0.21953154 0.024872718 0.16320077 -0.016611146 -0.12122229
0.10259775 -0.07365525 -0.073578194 -0.17561471 -0.025744982 0.14152089 0.059074283 -0.122483954

model/batch_normalization_1/batchnorm/sub f4 [64]
00000000: 9d71 8ebe 5adf 7abe 2e7a 88be 803a adbe
00000010: cc05 4dbe bcb7 93be e419 85be 56fa b2be
00000020: 924e 78be 097c 57be 32b4 5abe 8342 89be
00000030: d35b 8dbe fd73 89be 81e4 5ebe 3339 81be
00000040: 104f 96be f0a8 c5be eeae a2be b4bc 58be
00000050: 03bf b6be 0c4f 99be efa6 8cbe 674d 8bbe
00000060: 0526 8bbe ae5f 51be b160 85be 4533 7bbe
00000070: 87f4 72be 237b 83be b021 a2be d605 70be
00000080: bb95 75be b28f 81be e943 71be 5da8 85be
00000090: f464 a8be 2920 8abe aebe a4be 4382 9ebe
000000a0: 1498 94be 1a90 9fbe bf8f b1be 045b b9be
000000b0: c7a6 82be 64bf 68be d56a 85be 8d83 80be
000000c0: 14cc 8cbe 9bbf 5fbe 9bb2 7fbe 6f84 8abe
000000d0: 8f24 8cbe 5fc9 9abe 8800 a1be 770a 8abe
000000e0: 7b0a 7abe 19bd 61be 31f1 7dbe e140 87be
000000f0: f40c 8dbe 2f65 82be c600 7ebe eba7 8dbe
-0.27821055 -0.24499264 -0.26655716 -0.33833694 -0.20021743 -0.28851116 -0.25996315 -0.34956616
-0.24248722 -0.2104341 -0.21357802 -0.26808557 -0.2760912 -0.26846305 -0.21766855 -0.25238952
-0.29357195 -0.38605452 -0.31774086 -0.21165735 -0.35692605 -0.2994312 -0.2747111 -0.2720749
-0.27177444 -0.20446655 -0.26050332 -0.24531277 -0.23726092 -0.25679883 -0.31666327 -0.23439726
-0.23982899 -0.25304943 -0.23561062 -0.26105013 -0.3288952 -0.2697766 -0.32176727 -0.30958757
-0.29022276 -0.31164628 -0.34679982 -0.36202252 -0.25517866 -0.2272926 -0.2605807 -0.25100365
-0.2749945 -0.21850435 -0.24970476 -0.27054164 -0.27371642 -0.3023176 -0.31445718 -0.2696111
-0.2441806 -0.22044791 -0.24799038 -0.26416686 -0.27548945 -0.25467822 -0.24804983 -0.27667174

model/batch_normalization_1/batchnorm/mul f4 [64]
00000000: fa03 7a3f 1891 883f d2b5 8d3f e846 853f
00000010: 3a72 7c3f db06 6c3f cc05 8c3f 8049 8e3f
00000020: 87ca 893f 3c02 643f 3aac 753f 27f3 833f
00000030: cf73 873f 9490 793f 1a3f 883f 1d4b 853f
00000040: 7fbe 8c3f a94a 893f f08b 873f 8485 743f
00000050: 3da5 853f 98b6 863f dcaa 683f 05fa 883f
00000060: 2e8d 813f 7495 793f 7f46 523f ea4b 613f
00000070: 2a91 7d3f 8d65 453f d560 853f 05ff 7e3f
00000080: fd97 833f 745d 4a3f 5f85 6d3f 96c6 853f
00000090: 8331 7f3f 27a9 6e3f 9c7b 7d3f 2bbf 8c3f
000000a0: 0df2 853f 86d8 863f 8a8b 8a3f b202 873f
000000b0: 4ddb 5f3f 0f7f 723f 2cdd 8b3f 080a 553f
000000c0: 0c9a 6c3f d465 6d3f f013 8d3f 21f4 823f
000000d0: 5da9 5e3f eba8 853f 75fe 893f e6a7 8b3f
000000e0: 96f1 683f 7ae3 5f3f c967 803f 5d5d 833f
000000f0: 4ef2 843f b45a 623f 9807 703f 8379 813f
0.9766232 1.0669279 1.1071112 1.0412264 0.98611796 0.9219796 1.0939269 1.111618
1.0764931 0.8906591 0.9596592 1.0308579 1.0582217 0.97486234 1.0644257 1.0413548
1.0995635 1.072591 1.058958 0.9551623 1.0441052 1.0524473 0.9088571 1.07013
1.012121 0.9749367 0.8213882 0.8800646 0.9904963 0.7710808 1.0420176 0.9960788
1.0280758 0.7904885 0.92781633 1.0451229 0.99684924 0.93226856 0.9901674 1.099584
1.0464493 1.0534828 1.0823834 1.0547698 0.87444 0.94725126 1.0926871 0.8321843
0.92422557 0.927335 1.102171 1.0230752 0.8697718 1.0442175 1.0780779 1.0910614
0.9099363 0.87456477 1.0031673 1.0262867 1.0386446 0.8841965 0.9376159 1.0115207

model/position_output/BiasAdd/ReadVariableOp f4 [2]
00000000: 3d4b 74bc 543f de3c
-0.014910516 0.027129807

model/floor_output/BiasAdd/ReadVariableOp f4 [5]
00000000: 4e38 703a 2dc4 af3c 2598 06bd 31ca ea3c
00000010: c63f b1bc
0.00091636635 0.021455849 -0.03285994 0.028660866 -0.021636855

model/dense/BiasAdd/ReadVariableOp f4 [128]
00000000: c283 c2b9 c9f3 bbbb 447b 2f3c fbe1 ab3b
00000010: c78a 873c 4239 fcbb 5682 b939 d479 6abc
00000020: 7bee 703c 89d5 8e3c f1a7 f83b 949c 1eba
00000030: 2371 ca3c a213 a73b 0047 d0bb 180d 5bbc
00000040: aff7 5fbc f56a 9f3c 75af d53c c082 43bb
00000050: 14b5 6739 bc28 df3c a073 2f3b 7279 303c
00000060: bfb4 00ba 8549 cb3c d14d ff3b c233 063c
00000070: 1230 573a cde3 053d 717f 87bc 17cf 8b3a
00000080: 3eff 1bbc a292 7a3c 850c 503b 878d 03bb
00000090: 29f4 2dbb cc01 833c d2aa 703c f217 1ebc
000000a0: e942 ccbc bfa7 1b3b cef6 c5bc c615 8abb
000000b0: eab6 803c 95a6 513c 48df 4f3b df9e bcbc
000000c0: 7951 d33c 9e75 2c3b ee85 e2ba 822a 073a
000000d0: 166f b53c f3d4 4ebc 46eb 583c be8e 4dba
000000e0: 8f12 033c 0285 9d3b b869 49b7 06e6 123d
000000f0: 84b5 b73c 0d91 87ba 58d7 9ebc ffe4 02bb
00000100: de8f cf3c 813e b139 a3fe a83b 6d74 e63c
00000110: a9b5 f73c b763 d63c 51c5 923c 3e17 6e3b
00000120: 7dc2 3ebc 0880 103a 1cde 5ab9 ccc5 793c
00000130: 5296 f23b 86a0 103c d8cd 823c 6130 0cbc
00000140: 6f3d 29bc 72ff e93c e6f9 563c 40a3 f8bb
00000150: 295c 333c b107 b23c 2537 6a3c c4c5 153d
00000160: a280 863c dfba 243d c78d 04bc f2a0 bd3c
00000170: 58cf 50ba 085e 823c 7e4e 563c f4a0 0dbc
00000180: c9ff 673c c84a b23b 22f4 9a3c 9c64 a33c
00000190: aff8 913c 0755 78bb 120f 92bc c54a 4d3c
000001a0: fc46 a93c ca50 e63a 95fd 8d3c cad3 32bc
000001b0: 3122 f33b 3059 8d3c 3137 da3a 60da 55bc
000001c0: ef5c 09bc 0ee2 153c a5e4 b23c 7d8d 5e3c
000001d0: 63ce be39 a194 c53c 2c8d f5b9 cee6 813b
000001e0: b419 3e3b f7ec c33c 1d21 ec3c 4986 0a3b
000001f0: 54c6 173c e816 cb3a 32d2 3dbc 5e91 b63c
-0.0003710073 -0.0057358486 0.010710541 0.005245445 0.016545666 -0.0076972554 0.00035383058 -0.014311273
0.014705296 0.017435806 0.0075883796 -0.00060505536 0.02471215 0.005098776 -0.00635612 -0.013369821
-0.013669892 0.01946018 0.026084641 -0.0029832572 0.00022097334 0.027241103 0.0026771799 0.010771142
-0.0004909746 0.02481533 0.007791259 0.008191051 0.0008208762 0.03268795 -0.016540261 0.0010666576
-0.009521304 0.015293749 0.0031745743 -0.002007337 -0.0026543236 0.015992068 0.014689164 -0.009649264
-0.024934249 0.0023751108 -0.024165537 -0.0042140214 0.01571222 0.012796064 0.003171878 -0.023024974
0.025795685 0.0026315222 -0.0017282346 0.00051561755 0.022147696 -0.012624013 0.013239687 -0.00078413996
0.00800003 0.0048071155 -1.2005148e-05 0.0358639 0.02242542 -0.0010342911 -0.019389793 -0.0019972918
0.025337156 0.0003380664 0.005157308 0.028131688 0.03023799 0.026170595 0.017916353 0.0036329771
-0.011643049 0.0005512242 -0.00020872842 0.015244912 0.0074031735 0.008827334 0.015967295 -0.008556456
-0.010329588 0.028564189 0.013121104 -0.0075878203 0.010947266 0.021732183 0.014295374 0.036565557
0.016418759 0.040217277 -0.008090443 0.023148034 -0.0007965467 0.015913978 0.013080237 -0.008644331
0.014160105 0.0054410435 0.01891524 0.019945435 0.017818777 -0.0037892477 -0.017829452 0.0125300335
0.02066373 0.0017571684 0.017332831 -0.010914752 0.0074198474 0.017254442 0.0016648528 -0.013052553
-0.0083839735 0.009148134 0.021837542 0.013583538 0.00036393394 0.024118723 -0.00046835223 0.0039642816
0.002900702 0.023916705 0.028824383 0.002113717 0.009263594 0.0015494497 -0.011585759 0.022286113

model/dense_4/BiasAdd/ReadVariableOp f4 [64]
00000000: 98ff f33b 65c2 0b3b 7f52 80bc aacc fa3b
00000010: 6671 c5bc 6575 03bd 3212 98bb cdb5 2e3c
00000020: db37 9dbb 3982 91bc e53a 483c 5379 35bc
00000030: 7be5 03bd 77b2 e5bc 4e60 32bc afa1 13bd
00000040: a48a f4bc d167 02bd a3be dcbc 1454 25bc
00000050: 946a e1bc d260 15bd b90f b7bc ef77 dfbb
00000060: b136 b2bb 0b26 e2bc d5f4 f63b 64c4 cfbc
00000070: ef4c b7bc 6d65 febc 84db 833c bed8 5abc
00000080: 3656 cfbc e65b 49bb 3a8d dfba 6aba 2a3c
00000090: 754d d5bc b31f 8c3c a54f a4bc 52e7 35bc
000000a0: a437 b1bc 7603 8dbc 6d9d bebc 7c7f d1bb
000000b0: 69c7 c0bc 1d4f 50bc 0614 5dbb 29c4 debc
000000c0: a440 09bd 6c2b b63c 1012 d2bc ab38 aebc
000000d0: 5815 9bbc e26f c7bb 17be 183b 51c1 1abc
000000e0: d7af 1abb cb95 82bc 254c 853c 80cc a6bc
000000f0: 88a3 d1bc 3967 c7bc 248f c5bc b11f 1d3b
0.0074462406 0.0021325585 -0.015664337 0.0076537924 -0.024101924 -0.032094378 -0.004640841 0.010663462
-0.0047979183 -0.01776229 0.012221073 -0.011076289 -0.03220127 -0.0280392 -0.010887219 -0.036042865
-0.029851265 -0.03183729 -0.026946371 -0.010090847 -0.02751664 -0.03646929 -0.022346364 -0.006819717
-0.0054386486 -0.02760603 0.0075365105 -0.025362201 -0.022375552 -0.031054223 0.016095884 -0.013357339
-0.025309663 -0.0030724942 -0.0017055639 0.010420421 -0.026037911 0.01710496 -0.020057509 -0.011102514
-0.021632977 -0.017213564 -0.023268426 -0.006393371 -0.023532586 -0.012714175 -0.0033733859 -0.027193146
-0.03350891 0.022237502 -0.025643378 -0.021267256 -0.018931076 -0.0060863355 0.0023306662 -0.009445504
-0.0023603344 -0.015940567 0.01627166 -0.020361185 -0.025590673 -0.024341213 -0.024116106 0.0023975188

model/dense_3/BiasAdd/ReadVariableOp f4 [64]
00000000: 675c aa3b 5969 003d 3b63 f2bb 4202 00bd
00000010: 5f9f 063d 2f77 00bc 0987 103c 24c6 73bc
00000020: 4438 293d bea3 ea39 e5ae 89bc a4e3 eb3c
00000030: 3c70 0e3a ab6d 43bc 84e2 283c 2673 65bc
00000040: 1096 af3c 9716 843c e9f3 f93c 6088 933a
00000050: 88f7 15bc 488c c0bc 58ce 933c e332 11bb
00000060: 1e40 b93c 3ec5 d53c 090b e3bb ced9 90bc
00000070: 5c58 2cbc e367 173d 8acb d63b 7008 db3c
00000080: aa77 eebc 134e a4bc 389e 49bb 9858 2c3d
00000090: 514e de3b 8d2c 09bc b436 bb3b 0b3c 913b
000000a0: 6aa4 75bb 2169 11bc 223d ba3c 8b30 ef3c
000000b0: bad6 32bc 9711 a23c 8600 cebb 6049 2d3d
000000c0: ef37 88bc 206f 5f3c 8406 eabc 1777 763b
000000d0: 52cb fe3b 4786 383d 8c59 b2bb c47a 033d
000000e0: 383d 10bd 20cc 23bd ab65 6c3c 6b9f 1f3d
000000f0: a593 64bc 634b f43c 44f4 7c3c 6edc 1b3d
0.0051990035 0.031350467 -0.007397083 -0.031252153 0.032866832 -0.007840916 0.008821257 -0.014878783
0.041313425 0.00044753955 -0.016807029 0.028795071 0.00054335943 -0.011928002 0.010307912 -0.014004504
0.02143386 0.016124053 0.030511813 0.0011255853 -0.009153254 -0.023504391 0.018042728 -0.0022155575
0.022613581 0.026095029 -0.0069288057 -0.017681982 -0.010519113 0.03696431 0.0065550255 0.026737422
-0.029109795 -0.02005676 -0.0030764472 0.042076677 0.0067842384 -0.008372438 0.005713308 0.0044322065
-0.0037482032 -0.008875162 0.022734229 0.029197952 -0.010915453 0.019783778 -0.0062866835 0.042306304
-0.016628234 0.013637334 -0.02856756 0.0037607604 0.0077757025 0.04504993 -0.0054428037 0.0320995
-0.035214633 -0.03998959 0.014428536 0.038970392 -0.013951217 0.029821103 0.015439097 0.038052015

model/dense_2/BiasAdd/ReadVariableOp f4 [64]
00000000: 9bde 2d3b 2e26 103d 344a f73c 819d 46bc
00000010: c380 533b 7576 333d 57f3 d8bc 879c 22bc
00000020: 7963 c3bc 0c8a 2b3d 758e ec3c a7bf b33b
00000030: 928f f63c 03a0 42bc 284e 8cbb b296 25bc
00000040: 6805 ad3b 2d45 babc 8c54 3dbc b596 ecbc
00000050: 64f2 dd3c 050e c73c 5558 473b 1d43 12bc
00000060: 131d c4bc 9a8c 9ebc 4ca0 b6bb bf23 d23c
00000070: 7d31 3cbc 2159 553c acc2 8b3c 9fa6 7f3c
00000080: 1e4a 22bb 7b75 063d 42e1 073d 6ede c93c
00000090: b0ab e6bb 2182 eb3c c5cd 233c da0e b23c
000000a0: aafd a73c 9e9f 3abc 4488 103c 8070 083c
000000b0: ad0a 95bc 5823 15bd 0c68 053d b92a 9cbb
000000c0: d826 7fbc 51fc a9bc a074 e1bc d4a3 223b
000000d0: ea01 ac3c 0b54 223b ebe4 9d3c 9ed9 a5bc
000000e0: d087 c1bb a515 49bc b2cc 1a3b 391d d7bb
000000f0: b804 793c 96d4 ee3c d741 873c 325a bc3c
0.0026530388 0.03519266 0.03018675 -0.012122513 0.0032272793 0.04381414 -0.026483221 -0.009925014
-0.023851143 0.0418797 0.028876523 0.005485493 0.030097757 -0.01187897 -0.004281778 -0.010106729
0.0052801855 -0.022738064 -0.011555802 -0.028880456 0.02709312 0.024298677 0.003041764 -0.008927134
-0.023939645 -0.019354153 -0.005573308 0.02565181 -0.011486408 0.013021738 0.0170606 0.01560369
-0.0024763416 0.03282688 0.033173807 0.024642196 -0.0070395097 0.028748574 0.00999779 0.021735597
0.020506699 -0.011390595 0.008821551 0.008327603 -0.018193567 -0.03641066 0.03256993 -0.004765835
-0.015573226 -0.020750197 -0.027521431 0.0024816887 0.020997006 0.0024769332 0.019274196 -0.02024537
-0.0059060827 -0.012273227 0.0023620543 -0.006564763 0.015198879 0.029154103 0.016510887 0.022992227

model/building_output/BiasAdd/ReadVariableOp f4 [3]
00000000: 9050 be3c 64f2 67bb 0201 c3bc
0.023231775 -0.0035392279 -0.023804191

model/dense/MatMul f4 [128, 385]
00000000: e537 21bd 4013 0bbd 3974 a6bb 4821 593b
00000010: f403 89bd 6fb8 153c fc3f abbd 6ead 8bbd
00000020: 63ff 003d d9fb 65bd 78d9 8a3d 6735 16bd
00000030: 3138 743d 5944 8dbd d783 01bd 3e8f 8039
00000040: 62ca 11bc 56d2 ed3b 9537 bcbd 6a79 c6bc
00000050: b054 a7bc 5d18 58bd 7bce 09bd ab5b 8fbc
00000060: 129d aa3d d10f 9c3d 5db0 abbd 3bd8 4cbb
00000070: 5b97 01bd 7716 88bc 2ff0 21bd da30 ce3d
00000080: e595 323c 4da6 9fbd 57fb abbd 21ae 8f3d
00000090: b34b b33c 26b9 b0bd 6ad5 23bd ccd4 93bd
000000a0: 0604 3a3d 3acf 703d 58d5 a83d efe5 4c3d
000000b0: ae2b 713d 402a 493d ecdc 04bb 8efe 87bc
000000c0: a524 bfbc 0cda 67bd 7798 55b9 e7f1 19bd
000000d0: 7f99 2bbd 4d06 3cbd 58c6 8c3d ef58 55bd
000000e0: 159b a7bd 583b 9f3d dfff 8cbd c327 dfbd
000000f0: addf e1bd 4513 c13d 1e45 ef3c b4cb 91ba
00000100: 8723 65bd 3446 9c3c 9910 b2bd 6a54 663d
00000110: 475b a2bd 7e71 e53c 57eb 14bd 93a3 aabc
00000120: 6659 afbd 289c 41bd be38 d03b 139c 0c3d
00000130: 0d22 99bd 4009 1dba c254 2a3d 9d49 943d
00000140: eb01 febb cf74 88bc 2000 5dbd b108 cc3d
00000150: e2d0 013e f3be 33bd adf6 0e3d e248 0ebd
00000160: c3fa a53d 1b50 a4bd efae 963d b5ff 81bc
00000170: db32 32bc 24f5 56bc a6e1 2f3d 4965 a1bd
00000180: 1f98 b9bb 6437 293c c170 1338 9990 14bd
00000190: 1fae de3c 289f b9bc 01f8 c1bc 8b6e 3bbd
000001a0: 705f b2bd f751 a0bd 3933 b83d efe8 b03c
000001b0: 8018 8a3c 3272 a23c 45b8 febc 6999 58bd
000001c0: 2c16 2fbd 9bdf b43c a64d 4d3d 39d1 c43d
000001d0: c8c5 f3bc b141 363d d8fd b43d b37d aebd
000001e0: 63ef 8a3d 392d 64bd 6172 9cbc fbd7 5ebd
000001f0: f70a f8bc d378 913d ba00 debd 4615 963d
00000200: 0fb9 cd3c bbbe 99bd acc5 dc3d e000 f4bc
00000210: 5a89 903d 9aca 833d cca9 ccbd 17cc cb3b
00000220: 7bab 743c 12c2 b43d bc38 39bd 8eee b0bd
00000230: 2f7c bdbc 5e0b 263c a2fd 81bb 3a8d 8bbd
00000240: fb11 ef3c 3499 c6bd 0690 babd ecaf 5dbd
00000250: 2783 04bd 41d5 b13c 442b f5bc a91a 0fbc
00000260: 4f1a cc3d 682a ff3c 5209 cc3c 86bc c0bc
00000270: 15c8 83bc c54c dc3c bca5 97bd 29cf 64bc
00000280: f50d a73a bc66 273d 84f5 0ebd b87e 82bd
00000290: c1d5 01bd b0e3 4f3d 3939 db3c 489b 823c
000002a0: 821f 943c 893d 06bd 6fc9 b03b 0f64 3f3b
000002b0: 19f3 ac3d 9b8b c5bd 2272 253d 2812 39bd
000002c0: 5ed3 743b fcd3 02bc b45b 413d 5296 19bd
000002d0: de62 903d 1b7f 9abd 1795 04bd a64e 7c3d
000002e0: d323 513c bea1 bdbd ed67 963d 5f36 9c3d
000002f0: ddc6 a6bd 3463 8c3d cde4 4c3d 761e c83b
00000300: e4e3 c13d fba9 9d38 1d5e 36bd 5eef b83d
00000310: a160 f83a 90b3 9cbb e48f ba3d a930 92bd
00000320: a891 15bd e390 003d 139f 783d 5ddc e43b
00000330: 8287 983d 2b05 b23d e1e8 843c d1c0 5f3d
00000340: 0101 483d 2c81 3fbd 3ba2 853d 5003 d6bd
00000350: 705a b0bd 7ef9 bf3d 3dcb 393d b849 8d3d
00000360: 7040 7dbd aaef acbc 428b b8bd 7b96 d3bd
00000370: cf95 6e3c 97eb 99bd 227b c23d 7813 6f3d
00000380: c4fe 06bd 49a8 8dbd 517f 963c 3a63 85bd
00000390: 9b3b d73d 4f1e 16bd f59e b83d 7d05 803d
000003a0: 300e 8f3b fecd 87bb 3ac6 ac3d 3ad3 e3bb
000003b0: f438 80bd 9480 b43d bc88 273a 6161 5ebd
000003c0: c0be 9b3d b007 8c3d 5a34 e4bc 26f4 b0bd
000003d0: cb06 cfbc 0ee9 8e3d 00b2 833d 46ff 7c3c
000003e0: c70a 80bc e575 6cbc 5340 633d 8424 0cbd
000003f0: 1248 41bd 5295 3cbd d3ad c73d 0aeb 713d
-0.039359946 -0.033953905 -0.005079773 0.003313141 -0.06690207 0.009138211 -0.083618134 -0.068201885
0.031493556 -0.056148384 0.0677976 -0.036672022 0.0596239 -0.06897802 -0.031619873 0.00024520786
-0.0088983495 0.00725774 -0.09190289 -0.024227817 -0.020426124 -0.05275761 -0.03364418 -0.017499765
0.0833074 0.07620204 -0.08383248 -0.0031256813 -0.031638484 -0.016612275 -0.039535698 0.100679114
0.010899995 -0.07795391 -0.08397549 0.07015634 0.021886682 -0.08629064 -0.03999845 -0.07218322
0.045413993 0.058791377 0.08243817 0.05002397 0.058879547 0.04911256 -0.0020273281 -0.016600873
-0.023332903 -0.05660443 -0.0002037006 -0.03758421 -0.041894432 -0.045904446 0.068737686 -0.052086767
-0.081838764 0.07774991 -0.06884741 -0.10896256 -0.11028991 0.094275035 0.029207762 -0.001112333
-0.055942085 0.019076444 -0.08694572 0.056232847 -0.07927566 0.028008219 -0.03635725 -0.020829951
-0.08561973 -0.047268063 0.0063544204 0.03432853 -0.07477198 -0.0005990453 0.041584738 0.07240603
-0.0077516935 -0.016657261 -0.053955197 0.09962595 0.12677339 -0.043883275 0.034903217 -0.034737475
0.081044696 -0.080230914 0.07357585 -0.015869 -0.010876383 -0.0131199695 0.042939804 -0.07880647
-0.005663886 0.010328148 3.515254e-05 -0.03627071 0.027182637 -0.0226589 -0.023677828 -0.04575972
-0.087096095 -0.078281336 0.08994145 0.021595446 0.016857386 0.019829843 -0.031093726 -0.05288068
-0.042745754 0.02207928 0.05012288 0.096102186 -0.029757395 0.044496242 0.08837479 -0.08520069
0.06783941 -0.05570719 -0.019097509 -0.054405194 -0.030278666 0.071031235 -0.10839982 0.07328276
0.025112657 -0.07507082 0.107798904 -0.029785573 0.07057448 0.064351276 -0.09993324 0.0062193978
0.014933462 0.088260785 -0.04522012 -0.08639251 -0.023130504 0.010134546 -0.003967003 -0.06814046
0.029183378 -0.0969719 -0.091095015 -0.05412285 -0.03235164 0.021708133 -0.029927857 -0.008734384
0.099659555 0.03114815 0.024906788 -0.023527395 -0.016086617 0.026892075 -0.07404658 -0.013965406
0.0012745248 0.04086946 -0.03490211 -0.06371826 -0.031697992 0.05075425 0.026760684 0.015943184
0.01808143 -0.03277353 0.0053951065 0.0029203927 0.08444805 -0.09645768 0.04039205 -0.04518333
0.003735743 -0.007985111 0.047206596 -0.037496872 0.070501074 -0.07543775 -0.032368746 0.061598442
0.012764889 -0.092593655 0.07344041 0.07627558 -0.08143399 0.06854859 0.05002289 0.006107147
0.09467295 7.518005e-05 -0.044523347 0.09030031 0.0018949696 -0.0047821477 0.09109476 -0.071381874
-0.03651586 0.031388175 0.06069858 0.006984277 0.07447721 0.08692392 0.016224327 0.054627243
0.048829082 -0.046754047 0.06525084 -0.104498506 -0.086109996 0.09373759 0.04535984 0.06898826
-0.06182903 -0.021110374 -0.09010936 -0.10331436 0.014562084 -0.07515638 0.09496142 0.058368176
-0.032957807 -0.069168635 0.018371256 -0.065130666 0.10509416 -0.03665 0.09014694 0.06251047
0.004365705 -0.004144429 0.08436246 -0.0069526704 -0.06260863 0.08813587 0.00063909194 -0.054292087
0.07604742 0.06837404 -0.027856994 -0.086403176 -0.025271794 0.069780454 0.06430435 0.015441721
-0.015630139 -0.014432405 0.055481266 -0.03421451 -0.047187872 -0.04604084 0.09749951 0.05906204

model/attention_layer/MatMul f4 [64, 64]
00000000: d864 1dbe f14d 283e 6a06 11be 9297 c23d
00000010: 8cbe 31bd 7ac2 f13d 9748 433e a498 533d
00000020: 7544 33be 56a8 823d 1c4e 593d 27dd 46be
00000030: c043 c9bc 50ce 2cbd 761f 94bd 3004 5e3c
00000040: 4ae7 17be 0052 e23b 18d4 973c 8443 37bd
00000050: e4fa 3bbe 9f2c 1f3e aa79 19be 0060 dbbb
00000060: be8f f3bd f87d f13c dc29 483d 8488 623d
00000070: 5ef7 ed3d 0c07 2ebd c0ca 9b3c d5ac 31be
00000080: a80a bc3c 002f 79bc 48bd e4bd 4e39 fc3d
00000090: 17d8 02be 582e b9bc 68c5 4bbe 0be8 553e
000000a0: 4e58 833d 3579 4d3e 805a a2ba b2fb 853d
000000b0: 10d5 56be ebf3 3fbe 4aad 9cbd 3e74 fb3d
000000c0: 4c2f 4f3d b49d 623d 402c 8bbb d4d6 0ebe
000000d0: 050a e0bd dc9e 1bbe 7c36 543d 518b cebd
000000e0: 0577 4cbe 24b5 0a3d 784b cb3c 0214 a63d
000000f0: 5b65 123e a571 3b3e 54a0 acbd 6af3 49be
00000100: 8c1a 26bd e5de 2e3e e1f4 133e d67f 0cbe
00000110: a07f 04bc 637d 123e 16c9 c3bd 14f3 a3bd
00000120: 20e9 21be 0f56 093e 7a93 bfbd 76ec f33d
00000130: 50b3 98bc 6a6c ee3d 1f38 463e 4215 01be
00000140: bec9 91bd a6bc 17be 2e79 b43d 1499 d6bd
00000150: 4f69 43be 1226 db3d c947 333e 9b4f 453e
00000160: 20ec 1bbe 7cc7 1d3d 385b 94bd 94ce 09bd
00000170: 7ddc f4bd dcd8 623d 80ae 963b f107 4abe
00000180: 0cc7 253d 34e0 543d 345e 3abe 68c2 cf3c
00000190: 9c10 133d 8864 c33c cd06 bcbd b071 92bc
000001a0: 3eeb 813d 81f8 d9bd fcc4 08be 60c6 ca3b
000001b0: 391a 57be d8b7 8cbd 3f72 5c3e 3403 023d
000001c0: 50a7 25bc b014 3ebc 762f 1dbe c513 2e3e
000001d0: 07e4 1abe 4993 053e 4a5f b73d 9ab0 e53d
000001e0: bc13 6c3d 402a 4e3b 8dd4 2c3e 1e11 14be
000001f0: 179e 0e3e ed26 3fbe ea98 883d fdd3 19be
00000200: 9046 7dbd 30aa 5cbd 1cdf 30bd c06b a4bc
00000210: 62da b93d 8d80 1b3e 26ac be3d 9ebe f0bd
00000220: 2c92 093d a09e 80bc 8654 c33d 805c f5bc
00000230: b02d be3c 8a14 993d d4cd 3dbe a0dd 63bd
00000240: 26f8 8e3d 7a23 47be e288 ef3d ba71 fa3d
00000250: 906f 88bd 3dea 183e a320 303e 7820 27be
00000260: 4432 273d f516 003e e8f1 b63c 00f3 da3c
00000270: 0bae 573e 5bf0 41be c622 b0bd 62ba a93d
00000280: 1afa f63d 7cb0 18bd 2726 053e 62e1 b63d
00000290: d46c 8bbd 67be 54be e0af 7b3c 16c9 98bd
000002a0: 1ec5 d53d eee1 953d 5c9d 4b3d a04b 3abe
000002b0: 0a82 f73d be7e d93d 3e6b 43be b0af aabd
000002c0: b8d6 efbc e1d1 f4bd 4f27 5cbe c546 453e
000002d0: 97dd d1bd 8e7a 32be e00d b93c 6a8d 2dbe
000002e0: 26d4 ed3d 4cc2 0abd beb1 b73d e02a e3bb
000002f0: 8025 dcba e364 0bbe a280 ac3d f8e6 a5bc
00000300: bcd3 673d 37ce 493e a9fd 353e a8de b8bc
00000310: 298a 0a3e bead f83d 959e c8bd 4c3a 393d
00000320: c097 10be 4df3 febd ae12 a83d 1670 bf3d
00000330: 2421 293d eb26 5abe 70b8 843c 6cc1 2b3d
00000340: 4882 3dbe 6455 d0bd 5133 c3bd c61c b3bd
00000350: 84fb 783d 666a 13be ce90 a73d cc82 4ebd
00000360: 001d a5ba 27b1 2dbe ce16 29be 404e 783c
00000370: fe7b 8b3d 0549 55be 2040 e93c 0bcf 153e
00000380: 9a21 8abd 2c1f 2abe 1892 b0bc e0be 39bc
00000390: 87be 2c3e 6a30 09be 27c7 2fbe f6fd 01be
000003a0: 48b9 c23c ae48 a4bd 8042 35bd 6bde 133e
000003b0: 00f0 ecbb d0b1 debc 9654 57be 29d4 bfbd
000003c0: 64b1 0fbe 8565 223e 80e0 2fbd 0e04 8c3d
000003d0: a5fe 183e 1cde 453d db1c edbd 7a63 fc3d
000003e0: e708 1bbe db44 0b3e a634 f73d 2da0 573e
000003f0: cb9b 433e 6575 0d3e c423 153d 8f89 423e
-0.153705 0.16435982 -0.14162603 0.09501566 -0.04339461 0.118046716 0.1907066 0.05165924
-0.17506583 0.06379764 0.053053007 -0.194203 -0.024568439 -0.042188942 -0.07232563 0.013550803
-0.14834324 0.006906748 0.018533751 -0.044742122 -0.18357426 0.15544365 -0.14987817 -0.0066947937
-0.11892651 0.029479012 0.048868045 0.055305973 0.11619447 -0.04248719 0.019017577 -0.17351086
0.0229543 -0.01520896 -0.11168915 0.123156175 -0.12777744 -0.022605106 -0.19899523 0.20889299
0.06413327 0.20065768 -0.001238659 0.06542148 -0.20979714 -0.18745391 -0.0765024 0.12278031
0.050582215 0.05532618 -0.0042472184 -0.13949138 -0.10939411 -0.15197319 0.051809773 -0.10085166
-0.19967277 0.033864155 0.02481626 0.08109285 0.14296477 0.1830507 -0.08429018 -0.19721761
-0.04055266 0.17077215 0.14448883 -0.1372064 -0.008087069 0.14305644 -0.095598385 -0.08005348
-0.15811586 0.13411735 -0.09354301 0.11910336 -0.01864019 0.11641772 0.19357346 -0.12605765
-0.071185574 -0.14818057 0.08812176 -0.10478416 -0.19083141 0.10700621 0.17507853 0.19268648
-0.15226793 0.03852032 -0.07243961 -0.033644274 -0.11956117 0.055382594 0.0045984387 -0.19729592
0.04047303 0.05197163 -0.18199998 0.025361255 0.03590451 0.023851648 -0.09180985 -0.017876476
0.06343697 -0.106431015 -0.13356394 0.006188199 -0.21006097 -0.06871003 0.21527956 0.031741336
-0.010110691 -0.011601612 -0.15350136 0.16999729 -0.15126048 0.13044466 0.08953722 0.11215325
0.057636008 0.0031458288 0.16877957 -0.14459655 0.13927494 -0.18667193 0.06669791 -0.15022273
-0.06183487 -0.05387324 -0.043181524 -0.02007091 0.09074856 0.15185757 0.093101785 -0.11755107
0.033586666 -0.015700638 0.09537606 -0.029951334 0.023215145 0.07474621 -0.18535548 -0.05563128
0.06980924 -0.19447127 0.1169603 0.12228723 -0.06661904 0.14933105 0.1719995 -0.1632098
0.04081942 0.12508757 0.022332147 0.0267272 0.21062486 -0.18939345 -0.086003825 0.08287503
0.12059422 -0.037277684 0.13002835 0.08929707 -0.06807867 -0.20775758 0.015361756 -0.07460229
0.10437988 0.07318483 0.049710616 -0.18192911 0.1208535 0.10619877 -0.19083878 -0.08334291
-0.02927719 -0.11954094 -0.2149937 0.19265278 -0.10247343 -0.17429563 0.022589624 -0.16948476
0.1161273 -0.033876702 0.089694485 -0.0069326013 -0.0016795844 -0.13612704 0.08422972 -0.020251736
0.05659841 0.19707571 0.17772545 -0.022567108 0.13529266 0.12142514 -0.09795872 0.04522161
-0.14120388 -0.1244875 0.08206688 0.093475506 0.04129137 -0.21303909 0.016201228 0.04193251
-0.1850673 -0.10172537 -0.09531272 -0.087457225 0.06078674 -0.14396057 0.08181916 -0.050417706
-0.0012597144 -0.1696211 -0.16512606 0.015155375 0.06810759 -0.20828636 0.02847296 0.14629762
-0.0674469 -0.16613454 -0.021554038 -0.011337012 0.16869555 -0.13397375 -0.17165814 -0.12694535
0.02376999 -0.08021675 -0.044252872 0.14440314 -0.0072307587 -0.027184397 -0.2102836 -0.09366638
-0.14032513 0.15859039 -0.04293871 0.06836711 0.14940889 0.048307523 -0.11577769 0.12323661
-0.15140115 0.13600485 0.12070589 0.21057196 0.19102399 0.13814314 0.036411062 0.18997787

model/attention_layer/MatMul_1 f4 [1, 64]
00000000: 404d 8f3c 85d7 93be e85f 2f3d b9a7 7bbe
00000010: c9cf 84be 207d dd3d 8c9f a13d 2eb3 3d3e
00000020: b071 c93d f627 123e d6a6 203e c3a2 96be
00000030: ae82 50be e450 11be 459c 84be 7206 cabd
00000040: 9bc4 7bbe 18f6 483e 003b 443b 9861 ec3d
00000050: c827 0c3e 3e07 23be 9657 4abe fefd 6dbe
00000060: d0df 533e 005a aa3b d418 5c3e 8072 0c3e
00000070: 1230 39be cbb1 7ebe 02a7 9dbd 48fc d43d
00000080: 94a6 c3bd ded1 083e b8a5 523e 1e97 c2bd
00000090: b4c7 5ebe 60b1 3c3d b8b7 e63d b060 a33c
000000a0: a050 febc 404d c1bc da68 073e b64f 823e
000000b0: 6cfb 54be 045d 883d 3428 58be e450 6fbe
000000c0: 74ab 7cbe 342b ac3d 5c86 833e 9ee3 243e
000000d0: 1ff2 2bbe d405 583e 1c22 9c3d 60c3 6c3d
000000e0: 407a 323d 5624 26be 1cfe fc3d cc71 8ebd
000000f0: 400d 1d3e e4ff 643e 12b6 8cbe 904b 543e
0.01749289 -0.28875366 0.042816073 -0.245757 -0.25939777 0.10814881 0.07891759 0.18525383
0.09836137 0.14273056 0.15688643 -0.29421052 -0.2036235 -0.14191014 -0.25900474 -0.098645106
-0.24586718 0.19625127 0.0029942393 0.11542052 0.1368705 -0.15920731 -0.19759974 -0.23241422
0.20690846 0.005198717 0.21493846 0.13715553 -0.18084744 -0.2487251 -0.0769787 0.10399681
-0.09553257 0.13361308 0.20571029 -0.095014796 -0.21755868 0.046067595 0.1126551 0.019943565
-0.031044304 -0.023596406 0.13223591 0.2545144 -0.20799035 0.06658366 -0.21109086 -0.23370701
-0.24674779 0.08406678 0.25688446 0.16102454 -0.1679158 0.21095973 0.07623693 0.05780351
0.043573618 -0.16224799 0.12353155 -0.06955299 0.15337086 0.2236324 -0.2748266 0.2073195

model/dense_2/MatMul f4 [64, 64]
00000000: 2fdd 24be 29dc 263e e61a bebd 0e7b 083e
00000010: 701e 443e 2397 233e 08ca 173d 98c4 3f3e
00000020: cd3f 823b fbad 003e fe20 7f3b c5ac adbd
00000030: c1e4 bebd ec36 78be c677 663e 068e b9bd
00000040: ea86 4e3e 55ad 31bc 860b 41be aa6b 963b
00000050: 4c7f 603e 8e18 50bc e3a8 63be 85f0 1dbe
00000060: a465 2cbe 5cf8 0bbc 2250 033e b6c3 083e
00000070: 3653 2fbd 1daa 9b3d 34d5 82bd 96e6 1dbe
00000080: 0012 08be b639 7e3d df02 8bbd a78c 033e
00000090: 7024 2c3d e0f8 aa3d 7512 ed3d a8c5 2c3e
000000a0: c3cc 4c3e e9d0 1e3c 5571 afbd 0f90 4a3d
000000b0: 4acd fcbc f004 0d3d 98f6 983d 6f83 cebc
000000c0: f961 fdbd 015d 173d 15af 8dbd 4c6c d4bb
000000d0: 9b57 a33d 9c23 843c 700f 963d 0fa5 3d3e
000000e0: fd0d 12be 9f31 313e f327 a0bd bd1e 9cbd
000000f0: 1bfd d03d a6d1 e2bd 555d fd3d c24b 573d
00000100: 38c0 6abe 167e 33be 53c5 de3d 96b6 9c3d
00000110: 7e12 253d df5a 3b3e 0377 703d 324c 3a3e
00000120: 5f8f 473d 6e6a 033e 525c aa3b ee2c 253e
00000130: dbd7 473e 3790 47be 1cb3 3a3b b924 e6bd
00000140: 534e 273e cfaa 333e 26d5 2dbe 9d42 193e
00000150: 9d94 dc3d b1ad 2bbd 97e6 7abe 25a8 6dbe
00000160: 1fd6 81bd fc80 25be 10ef debd 6016 fcbd
00000170: e25e 1d3d e112 0fbe f7f1 1ebe d5a8 86bd
00000180: 5738 cfbc 1ee0 9d3d e116 073e 460f 25be
00000190: 96c7 15be 7f95 853d a81b 79bb f5bf 8e3d
000001a0: ffb7 c9bd 899b d73d 3d54 cc3c 827b 5abe
000001b0: ee16 3abe c184 b3bc 2dcb 363d af63 1dbe
000001c0: 50c5 dcbc 9c1c 66be 9475 0cbd e342 02be
000001d0: 3792 5b3c 8bf2 543e f1b3 253e c056 aeba
000001e0: 4e67 5cbe 50e8 033d 085f ab3d 21b9 2abe
000001f0: 3ec7 21be 469b 70bd ec03 223e f754 943d
00000200: 3db8 2e3d 4c89 cdbd 1a38 bb3d 224d 1abd
00000210: 7622 94bd 83b2 603d de6f edbd 8333 19be
00000220: c907 05bd a1e2 26bd dc08 e73d 723c 80be
00000230: a210 2e3d d9a0 873d 7def 4a3e 5133 c3bd
00000240: fdd4 25be 2401 4d3d 8624 60bd 7cf3 95bd
00000250: 50a6 893d bc35 1e3e 596c f43c efe0 3abe
00000260: 9de9 29be 5dd5 b0bc 1e78 34be 0bd5 73be
00000270: 6621 56be e7b1 17be fd70 143e 367d 9dbc
00000280: 66e1 013e 28a8 d0bd b1e1 ee3d 1bf5 2e3e
00000290: b479 af3d f58a cd3d 775d 443e 8563 253d
000002a0: 83bb 0cbe 4689 34be 1a40 41be 20a7 a13d
000002b0: 6330 7c3d ae80 42be 9816 bdbd 13d9 65be
000002c0: 9563 0d3e ede6 3ebe 27c3 02be fd19 2d3e
000002d0: 5444 c8bd 5e0d 78bd b1a6 483e 57c2 cc3d
000002e0: 837e 1bbe ed45 81bd 619d 313d 79f0 083e
000002f0: 2d37 60be 8c4d 36be 23b5 9a3c df28 25be
00000300: 3606 3d3e 00e6 533c 80aa 32be 8fdd e2bd
00000310: e23b 3e3e d6f9 b0bd 9bf9 103e c240 1e3e
00000320: 0248 0f3e bffa b0bd 797e bc3d 03ca 403e
00000330: f6b8 923d 4665 383e 396f 0fbb f4be 31be
00000340: 6691 b9bd 9249 2fbe 49fa d53d 352e be3c
00000350: 5710 1d3d a3a4 91b9 20e2 083e be1c 5bbd
00000360: 7825 1e3e 2d75 2fbe 720c 683e 2d74 db3d
00000370: 1d78 48bd 37de 9d3d a484 3bbe 8ba2 573e
00000380: 234d 2b3d 9cb7 40be c9fd 003e 17da 01be
00000390: 5388 1abe 63ed 0e3d f96e 3ebe d950 b1bd
000003a0: 9fec 213e 8b60 98bd ddbc 743c 2b99 573e
000003b0: de55 113d b504 033e a0a0 1dbd b712 313e
000003c0: 28f9 f0bd 7ab8 34be 48e8 6e3d 9585 b2bd
000003d0: 3aa9 dfbd b82d 57be d63e 183e 75c6 f93c
000003e0: 64fc 53bd dba9 42be 537d df3d 5fd2 b03d
000003f0: 2098 b6bd 6678 f1bd 5c8d ccbd 1145 2bbd
-0.161 0.16294922 -0.09282474 0.13328192 0.19152236 0.15975623 0.037057906 0.18727338
0.003974891 0.12566368 0.0038929577 -0.08480219 -0.09320975 -0.24239701 0.22506627 -0.09060292
0.20168653 -0.010844548 -0.18852052 0.0045904713 0.2192356 -0.012701167 -0.22232394 -0.15423782
-0.16835648 -0.0085431 0.12823537 0.13355908 -0.042803966 0.07600806 -0.063883215 -0.15419993
-0.13288116 0.062066756 -0.06787657 0.12846623 0.042026937 0.083482504 0.11575786 0.16872275
0.19999985 0.009693363 -0.08566538 0.04945379 -0.030859608 0.034428537 0.07468909 -0.025209157
-0.123722024 0.03695393 -0.0691816 -0.0064826366 0.07975694 0.016130261 0.07327163 0.18519996
-0.14263149 0.17304085 -0.0782012 -0.0762305 0.10204526 -0.110751435 0.12371317 0.052562483
-0.22924888 -0.17528567 0.1087748 0.07652013 0.04030084 0.18296383 0.05870725 0.18193129
0.048720714 0.12833568 0.0051989937 0.1613042 0.19515936 -0.19488607 0.0028488105 -0.11237473
0.16338472 0.17545627 -0.16975841 0.14966817 0.10770533 -0.041913692 -0.24502026 -0.23208673
-0.063396685 -0.16162485 -0.10885441 -0.12308955 0.038420565 -0.13972045 -0.1552199 -0.06575171
-0.02529542 0.077087626 0.13192321 -0.16119108 -0.14626917 0.06522655 -0.003801087 0.06970207
-0.098495476 0.10527713 0.024942512 -0.21336177 -0.1817281 -0.021913888 0.044627357 -0.15370058
-0.026949555 -0.22471851 -0.03429182 -0.12720828 0.01340156 0.20795648 0.16181923 -0.0013301
-0.21523783 0.032203972 0.08367735 -0.16672184 -0.15798661 -0.05874183 0.15821809 0.07242768
0.042656172 -0.10035953 0.0914156 -0.037671216 -0.072331354 0.054857742 -0.115936026 -0.14961056
-0.032478128 -0.040743474 0.11280987 -0.25046116 0.04249633 0.06622476 0.1981792 -0.09531272
-0.1619453 0.050049916 -0.05472233 -0.073218316 0.06721175 0.15450186 0.02983682 -0.18249868
-0.16593023 -0.021586115 -0.17623946 -0.23811738 -0.20911178 -0.14813958 0.14496227 -0.019224744
0.12683639 -0.10188323 0.11664141 0.17085688 0.08568135 0.100362696 0.19176279 0.040378112
-0.13743405 -0.1763049 -0.18872109 0.07893205 0.061569583 -0.189944 -0.09232825 -0.22446088
0.13807519 -0.18642779 -0.12769757 0.16904445 -0.097786576 -0.060559623 0.19594838 0.09998005
-0.15184979 -0.063121654 0.04336298 0.13372983 -0.21896048 -0.1780302 0.0188852 -0.16128872
0.184594 0.012933254 -0.17447853 -0.11077415 0.18577531 -0.086414024 0.14157717 0.1545439
0.13992313 -0.08641576 0.0920381 0.18827061 0.07164185 0.18007383 -0.0021886362 -0.17357999
-0.09060936 -0.17117909 0.10448129 0.023215393 0.03834566 -0.0002777922 0.1336751 -0.053494208
0.1544398 -0.17134543 0.22660998 0.10715518 -0.048942674 0.077084 -0.18312317 0.21058099
0.04182161 -0.18820041 0.12596811 -0.12680851 -0.15091066 0.03489436 -0.1859702 -0.086579986
0.1581292 -0.07440289 0.014937607 0.21054523 0.03548228 0.12794764 -0.038483262 0.17292295
-0.11766273 -0.17648497 0.05832699 -0.08716885 -0.10920949 -0.21013534 0.1486772 0.03049014
-0.05175437 -0.19010107 0.109125756 0.08633875 -0.08915734 -0.11790542 -0.099879 -0.041813914

model/building_output/MatMul f4 [3, 64]
00000000: 504a 1dbd 13a5 a23d c105 5e3e 867d b8ba
00000010: 1ca1 86be ee2d 593e dca2 8dbe 6f15 1abd
00000020: 4047 8dbe 79dc 893e b9ed 1a3e 6817 59be
00000030: ac26 f93d 48d4 5fbe eb67 41be 19c6 87be
00000040: a257 3c3e 4879 323e cad6 4fbe f84c 26be
00000050: 7f87 c93d a51a ea3d f980 953e aa72 f6bd
00000060: 6963 7fbe b7b1 9fbd 5c1b 24bd 6a32 983e
00000070: 291e c83d 2bd2 a1be e311 9fbc 4c83 383e
00000080: 5afe 30bd 4392 ae3e 2169 2f3e 5959 733e
00000090: f437 68be 5d06 983e 50f5 4d3e dff5 4fbd
000000a0: be6e c93c fe58 253d b5ae 1cbe b760 96be
000000b0: 0d81 0a3e b0a7 26be a96f 1d3e 6a01 15be
000000c0: d34d 17bd a527 25bd 8088 82be 9bc7 083e
000000d0: 7697 903e df41 c83d 9523 433c 12bc c33b
000000e0: 3206 91be d27c 8fbd d676 94be 2c30 66be
000000f0: d2d7 16bd bae6 2f3e 0804 10be 5d06 5e3e
00000100: 636f 20be e33c e2bd 06e3 ccbd 70bb 863c
00000110: 6581 8d3d 625a 1dbd 3da7 81be 60d6 3cbe
00000120: 74a6 21be 9ac1 683e 0e63 a5bd e9c6 28bd
00000130: 4118 64be 7ed3 81be 0411 7e3e b1f2 433e
00000140: 9428 9bbd 6f56 41bd bfe2 323d 28e7 7bbe
00000150: de7f 8c3e 022b 3ebe 1894 753d f9fa 283e
00000160: 97b9 1cbe 3450 87be 2c5c f33d 02d3 373e
00000170: 8c8c 74be 39e6 17be 56a0 943e d9e9 88be
00000180: 66ef 2b3e e02f 88be 5fab 3b3e 7e07 8cbd
00000190: 3046 323e 4e88 10bd a9f1 37be 933c 083e
000001a0: cbd5 703d 01f2 c5bc a90c 9c3d 8a56 123e
000001b0: 2dfe de3c 13d6 413e 4dad 9b3d a5c2 0a3e
000001c0: 0d64 a33d 11aa f4bd e4e5 06be cccb 8cbe
000001d0: 4225 1c3e 07e3 88bc d9ce 00be de6c a43d
000001e0: a9af 373e faf7 883e e7fe 6dbe 8ea6 b03d
000001f0: a126 863e e177 c4bd 0418 6e3e c2df fabd
00000200: a2ee 59be 0a88 7ebe f6f4 1abe 9e25 9a3e
00000210: 05aa 01bd f321 a6ba 11ac 35bd b8b9 7c3e
00000220: ad3c 81be 6e42 a7be f3cc 733c 0d95 81be
00000230: c9fe a2be fdfd 753e 016e 88be ef95 993d
00000240: b8db bb3c f18c 933e 8875 043d 8bcb e23d
00000250: 8abb 46be fb84 683e efe7 133e ce88 563e
00000260: 09fa ff3d 9505 e0bb 2c59 6cbe d15f 87be
00000270: 981f 883e 0cc2 69be 9844 df3d f322 6bbd
00000280: f608 7bbe f22c afbc cade 48be 6828 4b3e
00000290: 65f4 47bd 4ffb 72be c83f 35be 4c5a 663e
000002a0: 3a9f 48be 6b53 003e 7917 21be 03d4 073e
000002b0: ccd0 333e 0d70 8cbb b6e6 ffbd 311c 4cbd
000002c0: e15a 883e 2ca1 e73d 494f f73d 5dd5 883e
000002d0: 0840 7d3e 8ee7 a53d 00f6 57bc 0ba6 e73d
000002e0: 68c1 533e 38f0 5b3e f129 e63d 09b4 423e
000002f0: 3aa2 8cbe fbad 6abe 043f 38be c984 2a3e
-0.038400948 0.07941642 0.21681882 -0.0014075495 -0.26294792 0.21208927 -0.27663314 -0.037618097
-0.27593422 0.2692602 0.15129746 -0.21200335 0.12165579 -0.21858323 -0.18887298 -0.26518324
0.18392804 0.17429078 -0.2029678 -0.16240299 0.09840297 0.11430863 0.2919996 -0.12033589
-0.24940266 -0.07797568 -0.040065154 0.29725963 0.097713776 -0.31605658 -0.019417709 0.18018836
-0.04321132 0.34095964 0.17129947 0.23764552 -0.22677594 0.29692355 0.2011311 -0.05077159
0.024588939 0.040368073 -0.1530102 -0.29370663 0.13525791 -0.16274905 0.15374626 -0.1455132
-0.036939453 -0.04032101 -0.25494766 0.13357393 0.28240556 0.09778189 0.011910339 0.0059733475
-0.2832504 -0.070062295 -0.28996915 -0.22479314 -0.036826916 0.17177859 -0.14064038 0.21682115
-0.1566749 -0.110467695 -0.10004239 0.016446799 0.06909446 -0.038416274 -0.25322905 -0.18441153
-0.15786153 0.22730103 -0.08075534 -0.04120532 -0.22274877 -0.25356668 0.24811178 0.19135548
-0.07576099 -0.04720157 0.043673273 -0.24599898 0.27441305 -0.18571094 0.059955686 0.16501988
-0.15305172 -0.26428378 0.11882815 0.17951587 -0.2388174 -0.14833917 0.29028577 -0.26740912
0.16790542 -0.26599026 0.18327092 -0.068373665 0.17409587 -0.03528624 -0.1796328 0.13304357
0.05879764 -0.024163248 0.07619602 0.14290825 0.02722081 0.18929319 0.07601414 0.13550813
0.079780675 -0.119465 -0.13173634 -0.27499235 0.15248588 -0.016709818 -0.12578906 0.08028577
0.17938103 0.2675169 -0.23241769 0.08625518 0.26201347 -0.095931776 0.23251349 -0.1224971
-0.21282437 -0.24856582 -0.15132508 0.30106825 -0.031656284 -0.0012674913 -0.04435355 0.24680221
-0.25241604 -0.3266787 0.014880407 -0.2530903 -0.3183501 0.2402267 -0.26646426 0.07499301
0.022931919 0.28818467 0.03233865 0.11073979 -0.19407478 0.22706978 0.14443944 0.20950624
0.12498862 -0.006836603 -0.23080891 -0.2644029 0.26586604 -0.2282793 0.10901755 -0.057406377
-0.24515137 -0.021383736 -0.19616237 0.19839633 -0.048817057 -0.23728679 -0.17700112 0.22495383
-0.1959199 0.12531821 -0.1573161 0.1326447 0.17560118 -0.0042858184 -0.124951765 -0.049831573
0.26631835 0.11310038 0.12075669 0.26725283 0.24731457 0.08100806 -0.01318121 0.11310967
0.20679247 0.21478355 0.112384684 0.1901399 -0.2746752 -0.22917931 -0.17992789 0.16652216
