250713/models/mlp.tflite (tflite, 288304 bytes, 16 tensors)

model/dense_1/MatMul;model/dense_1/Relu;model/dense_1/BiasAdd f4 [64]
0.040471505 0.08599928 0.4994709 0.28164446 0.12832819 -0.07315935 -0.06454679 -0.3295787
0.40094972 0.41041148 -0.201618 0.1395443 -0.23977086 -0.3461621 0.10260722 0.63660777
0.044066925 -0.16984212 0.31107628 0.3640553 0.4612173 0.06371423 0.014753343 -0.2684445
-0.041594755 -0.19676417 -0.116696924 0.6023947 0.32693148 -0.26855284 0.040189542 -0.030605251
-0.09627843 0.040978912 0.26934785 0.29728258 0.6289815 0.22605716 0.044677686 0.5936875
-0.39716846 0.11485739 0.09280671 0.35998142 0.08199099 0.18794455 0.20905824 0.23001094
0.030379144 0.08456444 0.25192046 -0.20136882 -0.12558064 -0.15530309 0.27347285 0.341783
-0.13997531 0.2899569 0.37554854 0.32343185 0.23398823 -0.45931223 -0.12519741 0.13853787
00000000: 73c5 253d 6420 b03d a6ba ff3e b433 903e
00000010: 7768 033e 92d4 95bd 1c31 84bd 8abe a8be
00000020: 4849 cd3e 7421 d23e f374 4ebe b3e4 0e3e
00000030: 7e86 75be 293c b1be bc23 d23d baf8 223f
00000040: 857f 343d 18eb 2dbe 6445 9f3e 7565 ba3e
00000050: ad24 ec3e 9b7c 823d 01b8 713c 8f71 89be
00000060: 435f 2abd 8c7c 49be ccfe eebd 8a36 1a3f
00000070: 9063 a73e c27f 89be ca9d 243d ddb7 fabc
00000080: a02d c5bd 81d9 273d f6e7 893e 6c35 983e
00000090: ee04 213f 877b 673e f3ff 363d e7fb 173f
000000a0: aa59 cbbe 5a3a eb3d 7211 be3d 7c4f b83e
000000b0: e4ea a73d 8974 403e 5d13 563e fd87 6b3e
000000c0: afdd f83c 1f30 ad3d b8fb 803e a133 4ebe
000000d0: 3698 00be c607 1fbe a204 8c3e 2efe ae3e
000000e0: b055 0fbe 3b75 943e e647 c03e dc98 a53e
000000f0: 9c9a 6f3e f92a ebbe c033 00be dfdc 0d3e

model/batch_normalization/batchnorm/mul_1;model/batch_normalization/batchnorm/add_1;model/dense_1/MatMul;model/dense_1/Relu;model/dense_1/BiasAdd f4 [64, 128]
0.13969873 -0.08674183 0.051669154 0.14578563 0.019220807 0.17749238 0.08665371 -0.1366544
0.059158113 0.062922366 -0.0008491447 -0.13110496 -0.1298316 0.016621009 -0.14797147 -0.09498626
0.12453559 -0.15633988 0.14757475 0.13340424 -0.22447746 -0.0698379 -0.13490269 -0.015126176
0.076698646 -0.20384185 -0.068156034 0.007292492 0.038770802 -0.06913737 0.02228422 0.02926411
0.028048828 0.0733321 0.11079095 -0.07185958 0.08907273 0.1758218 0.012104465 0.20879076
0.10934385 -0.2190775 -0.107852995 0.101711534 -0.083406866 0.12744625 0.12253182 -0.22195354
-0.09107264 -0.12875079 -0.074261814 0.027144276 -0.13189921 -0.14643662 0.12401634 -0.22891924
-0.0061828303 0.11607657 0.19806701 0.1739561 -0.10140061 -0.038964946 -0.088419445 0.03451346
0.13339326 0.14819762 0.062956505 -0.15382986 -0.039978392 0.05131098 -0.11250767 0.03664417
0.09373432 0.13343924 -0.20412894 0.09638251 0.19746077 0.026359798 -0.2342642 0.117562726
0.022468256 -0.233149 -0.124765195 -0.1369339 0.03682226 0.20678695 -0.12065224 0.08874308
-0.049566675 0.13698427 -0.16002817 -0.22595346 0.10939588 0.06714997 -0.08209891 0.035837587
0.13764828 -0.020126732 0.19699074 0.104486614 -0.01693013 0.15746836 -0.20890339 0.09639093
-0.0200193 -0.21977836 -0.06293957 0.116624676 -0.027104212 -0.16649549 -0.101036735 -0.061410494
-0.1177954 -0.18091735 0.12956795 -0.2247437 -0.035827287 0.15758225 -0.01145769 0.049395878
-0.17013955 0.121600956 0.21333079 0.12810527 -0.20400804 -0.0053616995 0.1705301 0.09172745
-0.23093572 0.056955557 0.08149951 -0.1762812 0.08696174 -0.18985586 0.039310824 0.17937303
-0.13698795 -0.1796776 -0.17334417 0.1335051 -0.14462017 0.16625834 -0.1773902 0.1029754
0.059321065 0.11403355 -0.0529314 0.040650748 0.14759001 -0.039749224 -0.12516722 0.11280878
-0.080237456 -0.103944525 0.0708187 -0.17902191 0.041462507 -0.005136318 0.022320708 0.108070955
0.25583458 -0.12828304 0.12616695 -0.14103322 -0.20484124 -0.19616216 -0.055073567 0.13912956
-0.07046776 -0.22742479 -0.19028123 0.16566435 -0.15077223 0.09299529 -0.0016870018 0.20163289
-0.14661722 -0.14082146 -0.107724436 -0.037611246 0.03455759 0.1531046 0.10631659 0.12950216
-0.18468927 -0.20661174 0.08600638 -0.20799242 0.013999228 0.041626334 0.18026173 0.020753969
-0.012439269 -0.053756263 0.0018114992 -0.07120359 0.056574218 0.088191085 -0.12451695 -0.13509083
-0.08825056 -0.14902015 -0.0601492 -0.0138037 0.071509615 0.23053603 -0.09563884 -0.0050801137
0.05508707 -0.045468286 0.23083408 0.23215784 -0.13677447 -0.08453695 0.01978169 -0.14973643
0.0801631 0.20408916 0.026376639 -0.09046908 0.18671553 -0.17471111 -0.00046998207 0.0673957
-0.19567691 0.07588323 -0.007425192 -0.12595065 0.12798385 -0.023131995 0.089349575 0.113547266
0.111629836 0.17915957 0.21982074 -0.061950833 -0.23293565 0.040247455 -0.13119659 0.032338437
0.14814058 0.037882388 -0.12555757 0.017098218 -0.1198136 0.01602725 -0.14650817 -0.060836222
-0.05528807 -0.15079416 0.23422608 -0.18097591 0.13234381 0.18236038 0.18743058 0.009272404
00000000: 2f0d 0f3e b3a5 b1bd 09a3 533d d448 153e
00000010: f474 9d3c 90c0 353e 8077 b13d 22ef 0bbe
00000020: c74f 723d 71dd 803d 2399 5eba 6140 06be
00000030: 93f2 04be c828 883c d585 17be 2888 c2bd
00000040: 840c ff3d 9017 20be d61d 173e 1f9b 083e
00000050: 6bdd 65be 2c07 8fbd ee23 0abe c8d3 77bc
00000060: 2e14 9d3d ebbb 50be 6495 8bbd dbf5 ee3b
00000070: 22ce 1e3d e597 8dbd 668d b63c 49bb ef3c
00000080: a8c6 e53c 242f 963d 5ee6 e23d 1e2b 93bd
00000090: c36b b63d a10a 343e ce51 463c 3fcd 553e
000000a0: abef df3d da55 60be 08e2 dcbd 234e d03d
000000b0: 38d1 aabd 4581 023e f6f1 fa3d ca47 63be
000000c0: 4b84 babd 3fd7 03be 9416 98bd ac5d de3c
000000d0: 9610 07be 7bf3 15be 47fc fd3d ce69 6abe
000000e0: 5799 cabb 8db9 ed3d 14d2 4a3e 8c21 323e
000000f0: 1fab cfbd b599 1fbd 4115 b5bd fc5d 0d3d
00000100: 3e98 083e 1ec1 173e 57ef 803d 9385 1dbe
00000110: 62c0 23bd 762b 523d 6c6a e6bd 3218 163d
00000120: c7f7 bf3d 4ca4 083e 2d07 51be 3264 c53d
00000130: 2833 4a3e 81f0 d73c f4e2 6fbe bac4 f03d
00000140: 590f b83c 9dbe 6ebe e584 ffbd 6638 0cbe
00000150: f0d2 163d f5bf 533e 8618 f7bd efbe b53d
00000160: 6d06 4bbd 9b45 0c3e 6dde 23be 5860 67be
00000170: f20a e03d ec85 893d 7923 a8bd 6fca 123d
00000180: acf3 0c3e d1e0 a4bc f1b7 493e 14fd d53d
00000190: 0eb1 8abc 633f 213e c5ea 55be 9c68 c53d
000001a0: 84ff a3bc 940d 61be 76e6 80bd ebd8 ee3d
000001b0: a709 debc cb7d 2abe 59ec cebd 9289 7bbd
000001c0: b73e f1bd 6642 39be 76ad 043e 3623 66be
000001d0: a2bf 12bd 3e5d 213e 09b9 3bbc 5553 4a3d
000001e0: 1039 2ebe ec09 f93d 6373 5a3e 072e 033e
000001f0: 7ce7 50be 32b1 afbb 719f 2e3e 9adb bb3d
00000200: 6a7a 6cbe 3b4a 693d 37e9 a63d 0f83 34be
00000210: ff18 b23d 9369 42be 6304 213d 90ad 373e
00000220: 9246 0cbe 68fd 37be 2281 31be 90b5 083e
00000230: 4f17 14be a03f 2a3e c7a5 35be c4e4 d23d
00000240: a5fa 723d 6c8a e93d 98ce 58bd 6681 263d
00000250: d621 173e 15d0 22bd d62b 00be 4a08 e73d
00000260: 8953 a4bd dee0 d4bd 6509 913d 8551 37be
00000270: 97d4 293d 8f4e a8bb ebd9 b63c 4e54 dd3d
00000280: c0fc 823e a15c 03be e931 013e 036b 10be
00000290: e7c1 51be bcde 48be d294 61bd fb77 0e3e
000002a0: 6751 90bd 0be2 68be 15d9 42be eaa3 293e
000002b0: 0964 1abe 5174 be3d 631e ddba da78 4e3e
000002c0: d322 16be 8033 10be a19e dcbd 400e 1abd
000002d0: 428c 0d3d 74c7 1c3e 83bc d93d 379c 043e
000002e0: 2f1f 3dbe 0792 53be 1d24 b03d f7fb 54be
000002f0: 055d 653c 6080 2a3d 8896 383e 3a04 aa3c
00000300: 13ce 4bbc 872f 5cbd d46f ed3a 30d3 91bd
00000310: 5eba 673d 879d b43d be02 ffbd 4055 0abe
00000320: b6bc b4bd bd98 18be 025f 76bd ea28 62bc
00000330: a273 923d a311 6c3e 4cde c3bd 1577 a6bb
00000340: fba2 613d f43c 3abd c55f 6c3e c9ba 6d3e
00000350: 9b0e 0cbe b521 adbd 360d a23c 8254 19be
00000360: 8d2c a43d c0fc 503e d213 d83c da47 b9bd
00000370: 5b32 3f3e 78e7 32be ed67 f6b9 c206 8a3d
00000380: 875f 48be ab68 9b3d 064f f3bb 35f9 00be
00000390: 330e 033e 4f7f bdbc e9fc b63d 788b e83d
000003a0: 2f9e e43d 9b75 373e b018 613e 28c0 7dbd
000003b0: af86 6ebe 84da 243d 6658 06be 4f75 043d
000003c0: 2ab2 173e 902a 1b3d 2a92 00be 9011 8c3c
000003d0: d560 f5bd 944b 833c 3d06 16be 672f 79bd
000003e0: be75 62bd c969 1abe f6d8 6f3e c051 39be
000003f0: 2385 073e aebc 3a3e cded 3f3e 48eb 173c

model/dense_2/MatMul;model/dense_2/Relu;model/dense_2/BiasAdd f4 [64]
-0.044297196 0.27770567 -0.33490208 -0.1007643 -0.12999165 0.29105815 -0.38485116 -0.36172104
0.55000937 -0.25201645 -0.1153511 -0.10440616 0.53536975 -0.10520704 -0.007512726 0.55182046
0.24194255 -0.24701883 -0.41278258 -0.048666712 0.14540625 0.27576697 -0.33775476 -0.10932589
-0.31959236 -0.47141194 0.41630983 0.53601515 0.3085155 0.31506497 -0.052944206 -0.30853456
0.24035087 0.43699154 -0.25497353 -0.059299376 0.16198535 -0.55494225 0.23498026 0.43658635
0.05980235 -0.12753463 0.43250397 -0.17860492 -0.10765265 0.015791716 -0.031900767 0.11461983
0.39812282 -0.15436773 -0.39511144 -0.23935185 -0.16487542 -0.7732455 -0.07986462 -0.12181763
-0.75750774 0.05266806 -0.01912588 -0.1462668 0.3063353 0.2844937 0.3542204 0.4024438
00000000: fa70 35bd 702f 8e3e 4978 abbe 835d cebd
00000010: 881c 05be 9305 953e 360b c5be 8033 b9be
00000020: 6acd 0c3f 4d08 81be 333d ecbd e6d2 d5bd
00000030: fe0d 093f ca76 d7bd 502d f6bb 1b44 0d3f
00000040: cabf 773e 81f2 7cbe 3d58 d3be bf56 47bd
00000050: 60e5 143e 5431 8d3e 31ee acbe 41e6 dfbd
00000060: 9ca1 a3be e85c f1be 9026 d53e 4a38 093f
00000070: bef5 9d3e 3250 a13e 06dc 58bd 3ef8 9dbe
00000080: 8a1e 763e 5bbd df3e e48b 82be e7e3 72bd
00000090: 7ddf 253e b210 0ebf aa9e 703e 3f88 df3e
000000a0: 4ff3 743d 7098 02be 2971 dd3e 35e4 36be
000000b0: fe78 dcbd a15d 813c 61aa 02bd cdbd ea3d
000000c0: c1d6 cb3e 9312 1ebe 0c4c cabe a718 75be
000000d0: 1ad5 28be 6bf3 45bf 1090 a3bd 867b f9bd
000000e0: 07ec 41bf 77ba 573d e1ad 9cbc f7c6 15be
000000f0: fbd7 9c3e 29a9 913e 605c b53e 1d0d ce3e

model/batch_normalization_1/batchnorm/mul_1;model/batch_normalization_1/batchnorm/add_1;model/dense_2/MatMul;model/dense_2/Relu;model/dense_2/BiasAdd f4 [64, 64]
0.19549331 0.10205144 0.043444347 -0.12647967 0.1954266 -0.1685123 -0.05984299 0.14621693
-0.10865252 -0.15546137 0.071773954 -0.06590747 0.05285049 -5.632977e-05 0.1568411 -0.13827755
0.08523313 -0.17225319 0.09667014 -0.019593125 0.024759598 0.05973974 0.0022796749 0.11444933
-0.18579389 0.13188289 -0.074424274 0.099075444 0.17313488 0.085903995 0.16975105 -0.14690752
-0.11329895 -0.063050546 0.18117976 0.02120168 0.032671534 0.04184251 -0.08530605 0.16266546
-0.12652712 0.25476488 0.11695165 -0.14591691 0.095673926 0.097159706 -0.048598614 -0.18640868
-0.22249138 -0.16865782 -0.07446319 -0.013858928 0.0072954167 0.05859668 -0.22141069 0.16420159
-0.0065590525 0.21454136 0.018671257 0.2392129 -0.222565 -0.119432636 -0.14277095 -0.08551241
0.09917558 0.08963086 -0.022509927 -0.17520401 -0.07360219 -0.10357138 -0.2241652 -0.0058846995
0.052703112 -0.16306365 0.10752936 0.1721653 0.09639897 0.018593311 0.1329715 0.2805476
-0.21166426 -0.15766688 -0.11874897 0.022855414 0.09649484 -0.16401152 -0.17388831 0.1430705
0.024195489 -0.10992849 0.14734013 -0.018822746 0.015956571 0.12893751 -0.115151756 0.118229404
-0.062071677 0.004178406 0.018407479 -0.23512535 0.10320503 -0.07852299 -0.1527875 -0.17232467
-0.050874658 -0.043049537 0.20592362 -0.24451758 -0.11682064 -0.071439736 0.16237402 0.18633431
0.04528236 0.2234515 0.054919254 -0.09069152 -0.052073907 -0.1091542 0.1935246 0.08940154
-0.24375184 -0.1723106 -0.043665916 0.04666322 -0.08492916 -0.14217661 -0.24771382 0.079354495
0.20760679 -0.19564593 -0.019360011 0.25332585 -0.028972393 0.16172992 0.017406324 0.11553947
0.19063509 0.1983573 0.17072587 -0.02756584 -0.101007916 0.025523 0.08112703 -0.18627629
0.13850278 -0.12367096 -0.2186019 0.1604942 -0.05384676 0.18497252 0.16713727 -0.13153529
0.076795414 -0.041346855 -0.15028323 -0.15144433 0.11624095 -0.005789599 -0.043324884 0.052017093
0.051512986 0.1362107 -0.09221393 -0.08506373 -0.18283369 -0.035001587 0.020070758 0.0113555705
-0.031648498 0.17164949 -0.15301578 -0.22020297 0.15657835 0.025455553 0.045377392 0.14458512
-0.19667009 -0.03189911 0.1420266 -0.02868189 -0.010031451 -0.10926469 0.09336734 -0.09612952
0.124105625 0.13520804 -0.0016809306 0.15821593 0.1855047 -0.115418635 0.16895509 -0.08424378
-0.15955526 0.034128424 -0.116546266 0.0035082123 -0.031090207 0.15765564 -0.17973806 0.05084984
-0.16978803 -0.08956183 -0.07967864 -0.16645108 0.11165685 0.114287265 -0.18060438 -0.20605923
-0.058317322 -0.21720003 -0.21614125 0.051596146 0.021842917 -0.059711467 -0.16627795 0.10331286
0.027246993 0.00010721384 -0.20628677 0.16727681 -0.0023027686 0.11379323 0.04397927 0.12322223
0.005951679 -0.06544822 0.08130956 -0.032367367 0.16988496 -0.118467204 0.096914686 -0.1516202
0.013065308 0.008314959 0.1998517 0.024161331 -0.13321432 0.17060193 -0.09246474 0.0034476696
-0.036725953 0.117704876 0.12157764 -0.06353216 0.1861726 -0.07591586 -0.07432126 0.2141772
0.18968827 0.21418868 0.19928926 0.027708787 -0.08012389 0.04977237 0.0713708 0.0040966747
00000000: 662f 483e 5800 d13d b3f2 313d e383 01be
00000010: e91d 483e 7d8e 2cbe ec1d 75bd e4b9 153e
00000020: 3685 debd 4431 1fbe 39fe 923d 7ffa 86bd
00000030: c179 583d a143 6cb8 f49a 203e a198 0dbe
00000040: b58e ae3d 2463 30be fffa c53d c381 a0bc
00000050: a4d4 ca3c a8b1 743d 9966 153b 6964 ea3d
00000060: c140 3ebe 4f0c 073e c16b 98bd 11e8 ca3d
00000070: 454a 313e 6fee af3d 38d3 2d3e ed6e 16be
00000080: 4809 e8bd a520 81bd 3087 393e 25af ad3c
00000090: 96d2 053d 0d63 2b3d f0b4 aebd c691 263e
000000a0: 5390 01be 8b70 823e 5984 ef3d 3e6b 15be
000000b0: b1f0 c33d abfb c63d 570f 47bd ebe1 3ebe
000000c0: c8d4 63be a3b4 2cbe 2880 98bd 8f10 63bc
000000d0: 640e ef3b 1303 703d 7cb9 62be 7624 283e
000000e0: 52ed d6bb bbb0 5b3e 77f4 983c 3af4 743e
000000f0: 14e8 63be 1999 f4bd 8c32 12be 2121 afbd
00000100: 911c cb3d 6290 b73d bd66 b8bc ae68 33be
00000110: bfbc 96bd 3b1d d4bd 908b 65be 70d4 c0bb
00000120: 38df 573d 28fa 26be 5a38 dc3d 1a4c 303e
00000130: d36c c53d 0051 983c ae29 083e efa3 8f3e
00000140: 84be 58be 6d73 21be a932 f3bd 473b bb3c
00000150: 169f c53d a3f2 27be c70f 32be 1381 123e
00000160: 9e35 c63c 3022 e1bd 55e0 163e 2932 9abc
00000170: 5bb7 823c 3208 043e afd4 ebbd 4222 f23d
00000180: df3e 7ebd 03eb 883b 48cb 963c b3c4 70be
00000190: 295d d33d a9d0 a0bd 5474 1cbe e175 30be
000001a0: f261 50bd b654 30bd a4dd 523e d162 7abe
000001b0: a93f efbd ff4e 92bd 6045 263e 6cce 3e3e
000001c0: ff79 393d 78d0 643e 03f3 603d 7abc b9bd
000001d0: 734b 55bd 3d8c dfbd 502b 463e 2818 b73d
000001e0: 159a 79be 3172 30be 08db 32bd ef21 3f3d
000001f0: 57ef adbd bf96 11be b1a8 7dbe 9c84 a23d
00000200: e096 543e 6857 48be e398 9ebc edb3 813e
00000210: 8357 edbc 879c 253e b597 8e3c f59f ec3d
00000220: d835 433e 2d1e 4b3e c3d2 2e3e c2d1 e1bc
00000230: 3ddd cebd 9c15 d13c ee25 a63d 36bf 3ebe
00000240: acd3 0d3e 3347 fdbd 2dd9 5fbe 9758 243e
00000250: 6c8e 5cbd 7069 3d3e 0826 2b3e 30b1 06be
00000260: ea46 9d3d 525b 29bd d9e3 19be 3914 1bbe
00000270: bc0f ee3d adb6 bdbb 6f75 31bd e00f 553d
00000280: 48ff 523d d17a 0b3e a8da bcbd e535 aebd
00000290: c138 3bbe d35d 0fbd 6e6b a43c b70c 3a3c
000002a0: dba1 01bd e2c4 2f3e 2bb0 1cbe e37c 61be
000002b0: 1356 203e 2a88 d03c a5dd 393d 1f0e 143e
000002c0: e263 49be a4a8 02bd 6c6f 113e 48f6 eabc
000002d0: f45a 24bc 2ac6 dfbd 6037 bf3d 8edf c4bd
000002e0: 172b fe3d fa73 0a3e ac52 dcba 5b03 223e
000002f0: f2f4 3d3e 9b60 ecbd 9002 2d3e 0188 acbd
00000300: 7462 23be 3fca 0b3d cfaf eebd 09ea 653b
00000310: e4b0 febc 7b70 213e 410d 38be ec47 503d
00000320: eadc 2dbe 316c b7bd 8e2e a3bd 2772 2abe
00000330: 59ac e43d 710f ea3d 5bf0 38be 3101 53be
00000340: 25de 6ebd af69 5ebe 2254 5dbe 7b56 533d
00000350: ebef b23c 0394 74bd c444 2abe b195 d33d
00000360: 1635 df3c fed7 e038 d73c 53be 9d4a 2b3e
00000370: 0cea 16bb 6d0c e93d 9b23 343d f05b fc3d
00000380: 4d06 c33b b709 86bd a085 a63d a593 04bd
00000390: 53f6 2d3e ef9e f2bd 357b c63d 5342 1bbe
000003a0: e00f 563c 773b 083c eda5 4c3e fced c53c
000003b0: 5669 08be 46b2 2e3e 275e bdbd 4cf2 613b
000003c0: f46d 16bd 410f f13d b3fd f83d 261d 82bd
000003d0: 08a4 3e3e c679 9bbd bf35 98bd 4551 5b3e
000003e0: a43d 423e 4754 5b3e 7c12 4c3e 8afd e23c
000003f0: fe17 a4bd 1dde 4b3d db2a 923d 663d 863b

model/dense_3/MatMul;model/dense_3/Relu;model/dense_3/BiasAdd f4 [64]
0.1684324 0.4646572 0.1432308 0.5764289 0.21591549 -0.03973064 0.20702288 0.031060252
-0.08530871 -0.04337745 -0.026564619 0.07091438 0.5443382 0.58613914 -0.76822454 -0.025208736
0.19056869 0.2829927 -0.17506947 0.15293455 -0.20875959 0.42341423 0.13379216 -0.2732404
0.43342295 0.117140405 -0.20279957 0.23914057 -0.061450657 0.15723063 0.08773364 0.22877094
0.428578 -0.42042765 0.39549744 0.330973 -0.07788313 0.36364976 -0.029888717 0.35590777
0.13192494 -0.26530507 0.11372273 0.03023397 -0.0051320335 0.23963152 -0.4963227 0.30787316
-0.095367946 0.250047 -0.5427764 0.27083406 0.31973886 0.1900584 -0.15684812 0.20593987
0.17884238 0.102487944 0.15478997 0.42895475 -0.5322341 -0.4055052 0.110287055 0.62891185
00000000: 8b79 2c3e 8ce7 ed3e 18ab 123e d890 133f
00000010: f318 5d3e 98bc 22bd cefd 533e 1272 fe3c
00000020: 55b6 aebd 8eac 31bd 0b9e d9bc 8f3b 913d
00000030: c059 0b3f 370d 163f 5daa 44bf 8d82 cebc
00000040: 7024 433e 6be4 903e 6945 33be e09a 1c3e
00000050: 13c5 55be c0c9 d83e d000 093e 2ae6 8bbe
00000060: 9de9 dd3e 4fe7 ef3d b1aa 4fbe 44e1 743e
00000070: afb3 7bbd 1101 213e b2ad b33d ee42 6a3e
00000080: 936e db3e 4b42 d7be a47e ca3e 4b75 a93e
00000090: 3181 9fbd 4d30 ba3e 2fd9 f4bc 8b39 b63e
000000a0: 5517 073e 11d6 87be 76e7 e83d 3bad f73c
000000b0: 9e2a a8bb f761 753e 021e febe 8da1 9d3e
000000c0: 4550 c3bd 2906 803e 65f3 0abf c3aa 8a3e
000000d0: d0b4 a33e ab9e 423e cb9c 20be e7e1 523e
000000e0: 7522 373e 33e5 d13d 4381 1e3e f59f db3e
000000f0: 7e40 08bf 619e cfbe 2ede e13d 5e00 213f

model/batch_normalization_1/batchnorm/mul_1;model/batch_normalization_1/batchnorm/add_1;model/dense_3/MatMul;model/dense_3/Relu;model/dense_3/BiasAdd f4 [64, 64]
-0.15800942 -0.14707114 0.10955876 0.04301946 -0.10115244 0.13187775 0.12513681 0.21573575
0.0052109286 0.10939157 -0.14986995 -0.03704723 -0.13641924 0.014719461 0.05605157 -0.08375943
-0.10093044 -0.038750637 -0.038305473 0.032938782 -0.18309176 -0.19129042 0.07277789 -0.14159238
0.07348468 0.16737752 -0.19791907 0.119284816 -0.18733966 -0.22377731 0.17110948 0.1373013
-0.019306673 -0.20034114 -0.052418433 -0.024693714 -0.0014034561 0.10185361 0.2038819 0.11843488
0.021224702 0.050770026 -0.0035266215 -0.21436834 0.039903477 -0.20135878 -0.2029182 -0.11510297
0.23722205 -0.1597175 0.11531878 -0.09022884 -0.014692871 0.15008351 -0.041666664 0.11454392
0.07316635 -0.09377932 -0.060925238 0.23234396 -0.19083577 0.17817892 -0.044848897 0.05738104
0.17739928 -0.06086501 -0.092725635 0.09730598 0.1263478 0.15649018 0.03402607 0.11458906
-0.13807578 -0.23187983 0.13013273 -0.1900273 -0.19306986 -0.15053901 -0.1937109 0.18163194
0.20520394 0.12588535 -0.22077698 0.054873075 0.036049176 0.036983877 0.00403948 0.12690717
0.095747076 -0.14693978 0.12709878 0.19689049 0.21800795 0.105241284 -0.09803997 -0.15043129
-0.1896957 0.14165175 0.08698498 -0.09493877 -0.07991157 0.09777509 -0.014915321 -0.050873414
-0.08760577 -0.0047852043 -0.11165652 -0.065462634 0.0014604435 -0.07032011 0.20727082 -0.11067119
0.018508416 -0.17623994 -0.115806304 -0.20783034 0.05016941 -0.045166306 -0.18343836 -0.21006364
-0.025508534 -0.015140233 -0.2450756 -0.18929353 -0.11358625 -0.023293057 -0.08908234 -0.12958106
0.12279798 0.16484009 0.23069614 -0.17626844 0.05268537 0.07379933 -0.19917125 0.0052225837
0.08931999 -0.064294524 0.06285256 0.06813574 -0.061704997 0.17107385 0.15874036 0.13909405
0.15747963 0.11794991 -0.18268014 -0.09429493 -0.10114009 0.10354167 0.11326379 0.03910963
-0.19755389 0.0031199781 -0.2754152 0.17191103 -0.14627661 0.13831149 0.033663668 0.023576701
0.1313156 0.10415104 0.0054896353 -0.19495787 0.030615637 -0.1317865 -0.11220585 0.086982235
-0.11987961 -0.0034315865 -0.08674881 0.14551994 0.06670022 -0.24134701 0.14106746 0.045148976
-0.15033084 -0.19494416 0.09623184 -1.3082201e-06 -0.1737255 -0.24036211 -0.121865906 0.037021518
-0.1735896 0.1555283 -0.20016786 0.20365979 -0.06356258 -0.1925437 -0.0057032667 -0.021128062
-0.025446508 -0.06813953 -0.058768906 -0.11533102 -0.1229105 -0.21170989 -0.20900539 -0.19338873
-0.17468198 0.11005783 0.22019836 -0.0015859475 -0.021786828 0.14592917 -0.18471402 -0.15176375
0.06062968 -0.0012750904 -0.04866483 0.082488686 0.110051036 -0.11461319 -0.21137887 -0.031095056
-0.16298084 -0.061034203 0.04656499 -0.013043911 0.11160049 -0.12477653 0.09742391 -0.010016695
-0.18479696 -0.096240215 -0.17485835 0.15399699 0.11055629 0.045636687 -0.15148115 -0.21202801
-0.1611335 0.21041118 0.21408531 -0.22007379 0.097565815 0.17330563 0.08943212 0.10950502
-0.06416897 -0.20558041 -0.09645515 -0.19002505 0.18885992 0.023276495 -0.023203027 -0.036194827
-0.13038966 0.13181658 0.02298313 0.15746172 -0.20673007 0.1781128 -0.1656509 -0.203356
00000000: 39cd 21be d199 16be 5860 e03d 2c35 303d
00000010: 0329 cfbd f60a 073e dd23 003e d5e9 5c3e
00000020: 70c0 aa3b b008 e03d 8277 19be d6be 17bd
00000030: 7cb1 0bbe e529 713c 5596 653d 108a abbd
00000040: 9eb4 cebd fdb8 1ebd 33e6 1cbd d1ea 063d
00000050: 687c 3bbe a3e1 43be 930c 953d 98fd 10be
00000060: 237f 963d 0365 2b3e 4cab 4abe 994b f43d
00000070: f8d5 3fbe e125 65be 5337 2f3e b698 0c3e
00000080: 0729 9ebc 3a26 4dbe b6b4 56bd 794a cabc
00000090: 2cf4 b7ba a098 d03d 6bc6 503e fd8d f23d
000000a0: 6ddf ad3c 3bf4 4f3d e41e 67bb 6083 5bbe
000000b0: d471 233d ff30 4ebe cac9 4fbe 1bbb ebbd
000000c0: 56ea 723e fc8c 23be 412c ec3d e6c9 b8bd
000000d0: 5eba 70bc 7eaf 193e aaaa 2abd 0196 ea3d
000000e0: 3dd8 953d 5f0f c0bd be8c 79bd 93eb 6d3e
000000f0: 746a 43be 8974 363e 7ab3 37bd 6208 6b3d
00000100: 28a8 353e 974d 79bd f0e6 bdbd 5c48 c73d
00000110: 5161 013e f63e 203e ec5e 0b3d abad ea3d
00000120: bd63 0dbe e871 6dbe 8441 053e 8496 42be
00000130: 1bb4 45be e626 1abe 265c 46be b9fd 393e
00000140: fb20 523e 17e8 003e 5c13 62be 97c2 603d
00000150: 4da8 133d 687c 173d 9d5d 843b f4f3 013e
00000160: 0b17 c43d 6277 16be 2f26 023e a99d 493e
00000170: 7a3d 5f3e be88 d73d 2ec9 c8bd a90a 1abe
00000180: 973f 42be 280d 113e 2e25 b23d 426f c2bd
00000190: ada8 a3bd 4e3e c83d 645f 74bc a460 50bd
000001a0: a76a b3bd 34cd 9cbb 2cac e4bd 4611 86bd
000001b0: 5a6c bf3a fd03 90bd cd3e 543e 94a7 e2bd
000001c0: f69e 973c 3e78 34be db2b edbd 7ad1 54be
000001d0: 707e 4d3d 4e00 39bd 44d7 3bbe ec1a 57be
000001e0: 46f7 d0bc bd0e 78bc 19f5 7abe 2ad6 41be
000001f0: e89f e8bd 15d1 bebc cd70 b6bd e6b0 04be
00000200: 827d fb3d d7cb 283e 9c3b 6c3e b77f 34be
00000210: 9dcc 573d 1a24 973d 8cf3 4bbe 3522 ab3b
00000220: 66ed b63d d9ac 83bd d8b8 803d c08a 8b3d
00000230: 61be 7cbd fc2d 2f3e d58c 223e ac6e 0e3e
00000240: 5742 213e b98f f13d 8110 3bbe b31d c1bd
00000250: 8922 cfbd a80d d43d d9f6 e73d 6b31 203d
00000260: 914b 4abe 8c78 4c3b 3903 8dbe 7209 303e
00000270: 89c9 15be 87a1 0d3e eae2 093d ed23 c13c
00000280: 9977 063e 244d d53d 66e2 b33b 09a3 47be
00000290: a5cd fa3c 0af3 06be 2ecc e5bd be23 b23d
000002a0: 7183 f5bd 78e4 60bb 5ca9 b1bd 2e03 153e
000002b0: 209a 883d ac23 77be fd73 103e 22ee 383d
000002c0: 54f0 19be 719f 47be 3315 c53d 1a96 afb5
000002d0: 19e5 31be 7c21 76be d594 f9bd e0a3 173d
000002e0: 79c1 31be d042 1f3e cef8 4cbe 318c 503e
000002f0: 192d 82bd 2d2a 45be 78e2 babb c214 adbc
00000300: 3275 d0bc bd8c 8bbd aab7 70bd ab32 ecbd
00000310: 80b8 fbbd 7aca 58be 8205 56be b207 46be
00000320: d5df 32be 0066 e13d ae7b 613e 91df cfba
00000330: 4a7a b2bc 756e 153e ac25 3dbe f567 1bbe
00000340: d456 783d ef20 a7ba c654 47bd d4ef a83d
00000350: 7062 e13d 52ba eabd b473 58be 0fbb febc
00000360: 73e4 26be 00ff 79bd eeba 3e3d 21b6 55bc
00000370: cc8e e43d d68a ffbd 3086 c73d 101d 24bc
00000380: 6a3b 3dbe 9719 c5bd 110e 33be 63b1 1d3e
00000390: 566b e23d 89ed 3a3d e01d 1bbe df1d 59be
000003a0: 2e00 25be 0776 573e 2e39 5b3e 065b 61be
000003b0: 96d0 c73d 0877 313e 3028 b73d 2b44 e03d
000003c0: 056b 83bd ac83 52be 478a c5bd ed95 42be
000003d0: 7f64 413e 59ae be3c 4614 bebc 0741 14bd
000003e0: de84 05be edfa 063e 1e47 bc3c a53d 213e
000003f0: 0cb1 53be 3463 363e 64a0 29be 8e3c 50be

model/dense_4/MatMul;model/dense_4/Relu;model/dense_4/BiasAdd f4 [64]
0.279614 0.4625038 0.2829409 -0.30073327 0.057519417 -0.13667448 0.5730667 -0.007006749
-0.0008365809 0.10360634 0.08213238 0.30937585 -0.037359394 -0.009801213 0.04136718 0.1798761
-0.06173695 0.08656372 -0.34169847 0.20068057 0.21707822 0.1073648 0.094130166 0.31654757
-0.1342219 -0.5974713 -0.15031368 -0.19355649 -0.031453323 -0.19071862 -0.1546234 0.21784663
0.088639155 0.3460758 0.17961885 0.16306509 0.8143879 -0.17893618 -0.05165849 -0.21705657
-0.011323475 -0.25832355 -0.33489993 -0.0346647 0.22583789 -0.12790509 0.032659184 -0.22373939
-0.44387984 0.5092633 0.8088267 -0.12278965 0.2391572 0.15881963 0.13912426 -0.04256552
0.43621638 0.026118964 -0.05713763 -0.4652117 -0.08508222 -0.33852378 0.110536456 0.83324724
00000000: 9129 8f3e 4ccd ec3e a1dd 903e b6f9 99be
00000010: 7b99 6b3d 65f4 0bbe 80b4 123f df98 e5bb
00000020: fe4d 5bba 902f d43d 0535 a83d 8366 9e3e
00000030: 2a06 19bd 4495 20bc a270 293d 7131 383e
00000040: e2df 7cbd 5248 b13d 1af3 aebe 357f 4d3e
00000050: c149 5e3e 14e2 db3d 51c7 c03d 8612 a23e
00000060: 7771 09be e1f3 18bf d4eb 19be ac33 46be
00000070: 33d5 00bd be4b 43be 9955 1ebe 3013 5f3e
00000080: 7288 b53d d930 b13e 01ee 373e 89fa 263e
00000090: ba7b 503f 0c3b 37be da97 53bd 1444 5ebe
000000a0: 1986 39bc fc42 84be 0178 abbe 93fc 0dbd
000000b0: 0c42 673e 8df9 02be a3c5 053d f01b 65be
000000c0: 3844 e3be 145f 023f 440f 4f3f 2479 fbbd
000000d0: a0e5 743e 9da1 223e 9776 0e3e 2f59 2ebd
000000e0: c157 df3e 70f7 d53c 2609 6abd 3a30 eebe
000000f0: 963f aebd fd52 adbe f060 e23d b14f 553f

model/batch_normalization_1/batchnorm/mul_1;model/batch_normalization_1/batchnorm/add_1;model/dense_4/MatMul;model/dense_4/Relu;model/dense_4/BiasAdd f4 [64, 64]
-0.14995082 -0.14570977 -0.134924 0.03896348 0.046112757 -0.10840755 0.017129157 -0.009537812
-0.1232033 -0.2119399 0.17857161 -0.019011013 -0.04500339 -0.039016973 -0.018959071 -0.11996998
-0.13854551 -0.013745909 0.18477471 -0.24431121 0.070153855 0.07865541 0.027338177 0.08351683
0.036686935 0.040324736 -0.20008107 -0.024309156 -0.007692357 -0.13964939 0.008513322 -0.05875041
-0.14060082 0.008491009 0.19886044 -0.14848718 0.068022735 -0.11672381 0.0957614 0.17355484
0.12754017 -0.002388305 -0.030553324 -0.23255156 0.13472074 -0.16770619 -0.19335663 -0.059883382
-0.10252216 0.011752235 0.13171002 -0.037219264 0.22178732 0.09965661 -0.10552949 0.20307088
0.15131208 -0.08028819 -0.16778411 0.14087796 0.03399037 -0.05772125 -0.213715 0.15072249
0.048796896 0.1461692 -0.056436304 -0.089945436 0.06395083 0.04343238 -0.013243186 -0.17924102
0.035539776 -0.15621684 0.047368288 -0.15974887 -0.0419244 -0.11018051 0.016657447 0.051302943
-0.019824121 0.030929327 -0.17488675 -0.045981117 8.715658e-06 -0.11348802 -0.058487177 0.17507042
-0.053267322 0.13036539 -0.08205066 0.102532014 -0.191009 -0.17257324 -0.19611105 0.11144551
0.052419826 -0.04471805 -0.18068077 -0.15947884 0.015800226 -0.14214845 -0.109857894 -0.04135533
-0.077524886 0.11589827 -0.19024086 0.010690621 -0.08140588 -0.19498807 0.10736417 -0.08102757
-0.18608133 -0.06221555 -0.11267313 0.05204111 -0.001095391 0.03725193 0.20565845 0.14320107
0.17617951 0.016760439 -0.12871212 -0.08934574 -0.18812947 0.114004344 -0.021437218 0.05199734
0.046736255 -0.1267142 -0.017441541 0.14607508 -0.06998491 0.19142082 -0.15662505 -0.17108616
-0.25940457 0.20610197 -0.08550159 -0.06889017 -0.16129391 0.13535391 -0.05871461 0.05791075
0.10391906 0.08898592 0.16788773 -0.17204154 0.059835277 -0.12589596 0.15543602 -0.19621535
-0.12400363 -0.045285683 0.18002146 0.05752499 -0.18166257 0.033987895 -0.0037794088 -0.18804517
0.17657171 0.22806007 -0.17515537 -0.12008537 0.17971034 0.076203644 -0.13752677 -0.07238974
-0.097539976 0.031209983 -0.183341 0.22877747 0.18876106 -0.012223069 -0.12605017 -0.17802423
0.106683806 0.089165844 0.077629276 0.049118422 0.08420474 -0.22051357 -0.10517144 0.114192106
-0.2303747 -0.18442287 0.0028731418 -0.11552375 0.17507002 0.16053063 -0.15812896 -0.03847447
-0.18423611 -0.043504205 -0.006528143 0.10515903 -0.16534306 0.00067300006 0.034061342 -0.19625254
-0.08493075 0.22302508 -0.14548331 0.19077174 0.09531811 -0.15022491 0.16965188 0.04035266
-0.14732571 0.092357285 0.050203796 0.084298335 -0.091403544 0.03895128 0.21126115 0.14250012
-0.20737273 -0.12595187 -0.19525151 -0.08736966 -0.09874261 0.15854816 0.05008331 0.19347638
0.05242559 0.13913612 0.18567568 -0.22186995 -0.046493087 0.029973684 0.09215638 0.08552061
0.038608484 0.1461374 0.16629905 -0.18604791 0.17602727 0.0066029867 0.10568907 -0.06497329
-0.15042877 -0.00033789754 -0.051183198 -0.051899947 -0.12651591 0.1543293 0.22566757 0.10770424
0.102444984 -0.020247184 -0.16489545 0.03305149 0.16043296 0.11284955 -0.05218625 -0.0126047
00000000: b58c 19be f134 15be 8429 0abe 2c98 1f3d
00000010: bbe0 3c3d c704 debd 7252 8c3c 7c44 1cbc
00000020: 0352 fcbd c606 59be 7adb 363e fcbc 9bbc
00000030: 7a55 38bd 43d0 1fbd 0e50 9bbc d2b2 f5bd
00000040: e0de 0dbe 8536 61bc 9535 3d3e b82c 7abe
00000050: d3ac 8f3d 1616 a13d 50f4 df3c df0a ab3d
00000060: 0a45 163d 8d2b 253d 0de2 4cbe ff23 c7bc
00000070: 2b10 fcbb 4000 0fbe 767b 0b3c 45a4 70bd
00000080: a9f9 0fbe df1d 0b3c 12a2 4b3e 060d 18be
00000090: 814f 8b3d e50c efbd 8e1e c43d 5cb8 313e
000000a0: e499 023e 1c85 1cbb f74a fabc ff21 6ebe
000000b0: 3cf4 093e 2cbb 2bbe 48ff 45be 4748 75bd
000000c0: 23f7 d1bd 728c 403c fede 063e 3a73 18bd
000000d0: 371c 633e c418 cc3d d81f d8bd d0f1 4f3e
000000e0: 8ef1 1a3e 226e a4bd 99cf 2bbe 5042 103e
000000f0: 7c39 0b3d 1e6d 6cbd 1bd8 5abe ff56 1a3e
00000100: 41df 473d 61ad 153e c129 67bd 5035 b8bd
00000110: a7f8 823d 27e6 313d f3f9 58bc f58a 37be
00000120: 2892 113d 4ff7 1fbe 4005 423d 3595 23be
00000130: ebb8 2bbd 52a6 e1bd 3375 883c 0923 523d
00000140: 3266 a2bc 805f fd3c 8315 33be b256 3cbd
00000150: 7739 1237 686c e8bd 4090 6fbd a945 333e
00000160: d62e 5abd 817e 053e 2d0a a8bd 4efc d13d
00000170: dd97 43be 0ab7 30be 56d1 48be 8b3d e43d
00000180: 2cb6 563d 462a 37bd 6104 39be 6c4e 23be
00000190: 7a6f 813c 5d8f 11be 2dfd e0bd 3564 29bd
000001a0: 5ec5 9ebd 125c ed3d 80ce 42be b727 2f3c
000001b0: 20b8 a6bd f4aa 47be bfe1 db3d c8f1 a5bd
000001c0: 1b8c 3ebe bcd5 7ebd 2cc1 e6bd 0f29 553d
000001d0: 3993 8fba 7b95 183d 2198 523e 4da3 123e
000001e0: 6768 343e 304d 893c 1ccd 03be e6fa b6bd
000001f0: 03a5 40be 1c7b e93d 1b9d afbc 2afb 543d
00000200: 846e 3f3d 5ec1 01be 90e1 8ebc b594 153e
00000210: 4054 8fbd d203 443e 5162 20be 3631 2fbe
00000220: add0 84be 650c 533e 751b afbd 4a16 8dbd
00000230: 3b2a 25be 379a 0a3e bb7e 70bd d333 6d3d
00000240: 84d3 d43d 403e b63d c3ea 2b3e a82b 30be
00000250: d615 753d dfea 00be 9f2a 1f3e adec 48be
00000260: 9df5 fdbd 7b7d 39bd 8c57 383e 539f 6b3d
00000270: c105 3abe e436 0b3d f5af 77bb ea8e 40be
00000280: 37cf 343e 9488 693e ee5b 33be 52ef f5bd
00000290: fd05 383e a810 9c3d d1d3 0cbe 1241 94bd
000002a0: 0ac3 c7bd 14ac ff3c bebd 3bbe a444 6a3e
000002b0: 944a 413e 4443 48bc 4c13 01be fc4b 36be
000002c0: 0a7d da3d 959c b63d 19fc 9e3d 6630 493d
000002d0: 8973 ac3d 4fce 61be 2064 d7bd 8ddd e93d
000002e0: 58e7 6bbe 59d9 3cbe 524b 3c3b b797 ecbd
000002f0: 8e45 333e 2462 243e 8fec 21be 6897 1dbd
00000300: 64a8 3cbe 7731 32bd 08ea d5bb 9e5d d73d
00000310: b14f 29be 456c 303a e883 0b3d 6df6 48be
00000320: 2cf0 adbd b060 643e 94f9 14be ab59 433e
00000330: 2436 c33d 8fd4 19be 39b9 2d3e d548 253d
00000340: 8ddc 16be d125 bd3d 7fa2 4d3d 9ba4 ac3d
00000350: c831 bbbd 618b 1f3d d854 583e 8deb 113e
00000360: 8459 54be 87f9 00be 03f0 47be ddee b2bd
00000370: 9139 cabd 735a 223e 2824 4d3d ac1e 463e
00000380: 37bc 563d b379 0e3e c421 3e3e e031 63be
00000390: 896f 3ebd 5f8b f53c 7cbc bc3d 6e25 af3d
000003a0: ee23 1e3d 0ba5 153e 4c4a 2a3e 5883 3ebe
000003b0: 7e40 343e de5d d83b 8373 d83d b710 85bd
000003c0: 000a 1abe d727 b1b9 79a5 51bd 0a95 54bd
000003d0: 638d 01be 8008 1e3e 6615 673e 0a94 dc3d
000003e0: adce d13d 6cdd a5bc 5ada 28be 0061 073d
000003f0: 8a48 243e aa1d e73d 40c1 55bd f283 4ebc

model/position_output/BiasAdd/ReadVariableOp f4 [2]
-0.024419192 -0.017723467
00000000: c20a c8bc ce30 91bc

model/floor_output/BiasAdd/ReadVariableOp f4 [5]
0.026542343 -0.018703984 0.0032807225 0.017006671 -0.026031304
00000000: 546f d93c 1939 99bc 6401 573b 9351 8b3c
00000010: 9a3f d5bc

model/dense/BiasAdd/ReadVariableOp f4 [128]
0.020476192 -0.0023623346 0.017153088 -0.008714093 0.018891357 0.012538117 -0.015013165 -0.028030444
0.029086677 0.020952595 -0.008028958 0.022264326 -0.018887507 0.003330449 0.011215219 0.01668209
-0.001726632 0.03147454 0.008217718 0.0023845537 0.001046147 -0.023071056 -0.006492591 -0.008356796
0.029223653 0.036346007 0.012459885 0.0008913431 -0.0022208279 0.0002180229 0.01678263 0.02593836
-0.002312634 0.028182352 0.033132028 0.00939677 0.0349331 -0.0051383874 -0.0017063163 0.03263988
0.019674223 -0.011164622 -0.00654579 0.0018753039 0.0048292503 0.024868926 -0.009218847 0.0019104073
0.023430366 0.00587498 0.019712571 0.007343049 0.026140656 0.025285304 -0.004490985 0.02514459
0.0058068247 0.009563332 -0.020761693 -0.0024558704 0.0028897324 0.020066043 0.007531785 0.016068004
-0.008244255 -0.01635605 0.010788459 0.025327312 -0.005330057 0.00107096 -0.0015886215 -0.01506499
0.03787389 0.008884018 -0.026844008 -0.005936772 -0.026318138 0.0077522746 0.028258393 0.006905802
0.024207711 0.0016846547 0.015909296 0.024745718 0.012487817 0.0034379065 0.033880375 0.013938965
0.013952772 0.0064623593 0.01913399 0.013611963 0.013868039 -0.012372457 0.00930814 -0.0016094497
-0.009910764 0.026714768 0.006237427 -0.01414976 -0.0046503344 0.008584096 0.005011556 0.03027338
-0.0055697234 -0.027731808 0.0034200512 0.0085879965 -0.011164985 0.011230468 0.0030827692 0.018369453
0.005601965 0.00324253 0.019335274 0.0014724332 0.020823587 0.00403713 -0.008959451 0.024354506
0.046813972 -0.0073813964 0.015896853 -1.7064099e-06 0.013101535 -0.0043072244 -0.008302272 0.015730197
00000000: b0bd a73c 66d1 1abb a284 8c3c 8ec5 0ebc
00000010: 0cc2 9a3c ad6c 4d3c c7f9 75bc 1aa0 e5bc
00000020: 2f47 ee3c c7a4 ab3c e48b 03bc ad63 b63c
00000030: f9b9 9abc aa43 5a3b 0ac0 373c e1a8 883c
00000040: 2850 e2ba 72eb 003d 9ca3 063c 2c46 1c3b
00000050: de1e 893a 83ff bcbc cdbf d4bb f1ea 08bc
00000060: 7166 ef3c 8ddf 143d 8c24 4c3c 06a9 693a
00000070: 4f8b 11bb 149d 6439 ba7b 893c af7c d43c
00000080: 8f8f 17bb adde e63c 73b5 073d e9f4 193c
00000090: 0316 0f3d eb5f a8bb 79a6 dfba 65b1 053d
000000a0: d62b a13c d2eb 36bc 117e d6bb c2cc f53a
000000b0: b03e 9e3b ebb9 cb3c a60a 17bc a266 fa3a
000000c0: 0af1 bf3c e782 c03b 427c a13c f69d f03b
000000d0: ee24 d63c 2023 cf3c 1d29 93bb 07fc cd3c
000000e0: 2d47 be3b 86af 1c3c 6d14 aabc abf2 20bb
000000f0: aa61 3d3b 8b61 a43c 31cd f63b 0ca1 833c
00000100: e912 07bc 1ffd 85bc 14c2 303c 397b cf3c
00000110: c2a7 aebb 745f 8c3a 4b39 d0ba 26d3 76bc
00000120: a721 1b3d 468e 113c f7e7 dbbc 4189 c2bb
00000130: 2399 d7bc cb06 fe3b 257e e73c 114a e23b
00000140: 404f c63c a2cf dc3a 3654 823c 88b7 ca3c
00000150: b399 4c3c 804e 613b 26c6 0a3d 4260 643c
00000160: 2b9a 643c 33c2 d33b e3be 9c3c b604 5f3c
00000170: c536 633c d9b5 4abc 2b81 183c 2cf4 d2ba
00000180: c260 22bc eed8 da3c 5463 cc3b 65d4 67bc
00000190: d561 98bb 4fa4 0c3c fb37 a43b e1ff f73c
000001a0: 3a82 b6bb d12d e3bc f022 603b abb4 0c3c
000001b0: 57ed 36bc ffff 373c 4908 4a3b 897b 963c
000001c0: b090 b73b a080 543b 0265 9e3c a9fe c03a
000001d0: 3a96 aa3c e749 843b a9ca 12bc 1a83 c73c
000001e0: 02c0 3f3d a4df f1bb 1e3a 823c cc07 e5b5
000001f0: d2a7 563c 9e23 8dbb 4106 08bc 9ddc 803c

model/building_output/BiasAdd/ReadVariableOp f4 [3]
0.021465681 0.034623764 -0.03407158
00000000: ccd8 af3c a6d1 0d3d a48e 0bbd

model/dense/MatMul f4 [128, 385]
-0.015348507 -0.013687875 0.0642432 0.033463225 -0.0069806273 0.029242046 -0.011684706 -0.08274279
-0.051030904 -0.011561461 -0.023058595 -0.027020266 0.06067948 0.06399998 -0.035671435 -0.0071100765
0.033832684 -0.08961336 -0.020999372 -0.039666515 -0.10087497 0.051190477 0.0920357 -0.0741672
-0.08941575 0.08771939 -0.10056524 -0.032953344 0.015383009 0.024641912 0.08484613 0.008331609
0.07350487 -0.045544285 0.0891533 0.06840363 -0.018062336 0.013103158 0.008943534 0.02766111
-0.00030449405 0.05363945 0.03539002 0.00015627926 -0.080096066 0.056206506 -0.0090775 0.020873591
-0.079840146 0.028756114 0.005096507 -0.020210048 -0.02989638 0.07923007 0.08720989 0.06206231
-0.013362713 -0.043022193 0.039694242 0.13837641 0.071635365 -0.024977906 -0.11492515 -0.016098386
0.013666463 -0.05570505 0.13658158 -0.05758833 -0.08408192 0.00093663356 0.012466875 -0.11363447
-0.02834103 0.09550083 0.01164246 -0.1158955 0.11253027 -0.0430758 -0.08344972 -0.06796944
0.015926654 -0.009391229 -0.023777274 -0.0075626327 -0.02815184 0.0022348196 -0.0072033005 0.01674271
0.026617708 0.080242164 0.04637028 0.013961811 -0.054929193 -0.05389864 -0.097519636 -0.03002954
-0.013686803 0.07364552 -0.09312995 -0.0646207 0.0072184308 0.0037388892 -0.06381964 -0.065535605
0.06917923 -0.014223903 -0.08973844 0.068810925 -0.050149523 0.025358329 -0.02752251 0.023369305
-0.0047877226 0.00096890645 0.0171564 -0.07828516 -0.013845173 -0.106322765 0.0033517755 -0.0490522
0.010779654 -0.0010416773 -0.07325101 -0.105106674 -0.030514566 0.03083514 -0.088176146 -0.025305757
0.06384679 0.027632182 -0.09378401 0.065956645 -0.09236593 -0.0040498865 0.11202076 -0.07741808
-0.0008973613 0.0019907567 0.08732492 0.085852906 -0.06425844 0.094608 0.033863805 0.06952991
-0.060493592 -0.061783824 0.005574772 0.024237845 0.07372258 0.025096089 0.110707864 -0.052766025
0.0639401 0.07059345 -0.08988921 -0.037296243 -0.06906268 2.4896959e-05 0.032160446 0.027552601
0.026856044 0.03422976 -0.0024433332 -0.038811017 0.051718507 0.0776001 0.00030766614 -0.0033646678
0.07162485 -0.09915953 -0.07259662 0.01727756 -0.015619181 -0.024246471 -0.08745586 0.03385249
-5.9405942e-05 -0.06394846 -0.00083786313 0.024556706 0.036154963 -0.0053674155 -0.059675336 0.040767636
-0.012681275 -0.015817294 -0.066756666 0.05512101 -0.08932168 0.03604392 -0.03954361 -0.05237288
0.00033290664 -0.023946246 0.06696517 0.082460664 -0.102847174 -0.005933082 4.0382158e-05 -0.051119268
-0.015409537 0.04145919 -0.06587404 0.048955962 -0.06445487 -0.01749007 -0.042629603 -0.064759
-0.094422914 0.030037493 0.06878566 -0.01752916 0.07345101 -0.08601484 0.01527809 0.061309896
0.020504959 0.054020274 0.091945246 -0.08774682 -0.042646147 -0.03664935 -0.107348375 0.10388058
-0.037953656 -0.09597976 0.03922523 0.016334523 -0.08142489 0.05327075 0.0011277192 0.05271094
0.08660298 0.013259734 -0.009774448 -0.016835878 0.009471646 -0.04413879 -0.008257762 -0.035339303
0.021005422 0.05569616 -0.06536058 -0.07050925 -0.036092877 0.08194519 -0.061211348 -0.061996154
-0.10597341 -0.04326174 -0.071929336 0.08251343 0.07035177 -0.004392934 0.11071274 0.1254221
00000000: 4e78 7bbc 1c43 60bc f091 833d bc10 093d
00000010: bfbd e4bb 048d ef3c 3671 3fbc 0d75 a9bd
00000020: c805 51bd 486c 3dbc 61e5 bcbc 9b59 ddbc
00000030: 0c8b 783d 6c12 833d 361c 12bd a5fb e8bb
00000040: 2494 0a3d 3687 b7bd e006 acbc 5b79 22bd
00000050: 8997 cebd 1bad 513d 377d bc3d f9e4 97bd
00000060: 9b1f b7bd 39a6 b33d 26f5 cdbd 16fa 06bd
00000070: 0409 7c3c d6dd c93c cfc3 ad3d 4d81 083c
00000080: b989 963d a58c 3abd 0196 b63d 3417 8c3d
00000090: 77f7 93bc a1ae 563c e787 123c 8d99 e23c
000000a0: 80a4 9fb9 0ab5 5b3d 20f5 103d e5de 2339
000000b0: 6809 a4bd cb38 663d cbb9 14bc 18ff aa3c
000000c0: 3b83 a3bd f191 eb3c 9900 a73b 8b8f a5bc
000000d0: 41e9 f4bc 6043 a23d 199b b23d 0c35 7e3d
000000e0: 48ef 5abc 0a38 30bd 6e96 223d 8cb2 0d3e
000000f0: 90b5 923d 779e ccbc e15d ebbd c3e0 83bc
00000100: 4de9 5f3c fa2a 64bd 0bdc 0b3e bee1 6bbd
00000110: 2433 acbd 6a88 753a dd41 4c3c 30b9 e8bd
00000120: 732b e8bc f095 c33d 04c0 3e3c 9f5a edbd
00000130: 4576 e63d 4070 30bd b0e7 aabd 9033 8bbd
00000140: 9d78 823c abdd 19bc 8fc8 c2bc f6cf f7bb
00000150: b09e e6bc 0d76 123b aa09 ecbb 0228 893c
00000160: 610d da3c 0156 a43d c3ee 3d3d 14c0 643c
00000170: 6ffd 60bd d2c4 5cbd 60b8 c7bd 8300 f6bc
00000180: 9d3e 60bc 76d3 963d eaba bebd dc57 84bd
00000190: 9688 ec3b 2708 753b dfb3 82bd 8837 86bd
000001a0: d7ad 8d3d 600b 69bc cac8 b7bd beec 8c3d
000001b0: 9669 4dbd 45bc cf3c e376 e1bc fc70 bf3c
000001c0: 54e2 9cbb 36fe 7d3a 948b 8c3c f853 a0bd
000001d0: ddd6 62bc c0bf d9bd 76a9 5b3b f6ea 48bd
000001e0: 259d 303c e488 88ba a004 96bd 2b42 d7bd
000001f0: aff9 f9bc fa99 fc3c b295 b4bd 054e cfbc
00000200: 1bc2 823d e35c e23c d511 c0bd 4714 873d
00000210: 592a bdbd e9b4 84bb 246b e53d 5f8d 9ebd
00000220: e63c 6bba 5b77 023b 68d7 b23d a6d3 af3d
00000230: ee99 83bd d7c1 c13d c6b4 0a3d b365 8e3d
00000240: 21c8 77bd 0911 7dbd 94ac b63b 728e c63c
00000250: ddfb 963d 5096 cd3c ceba e23d 3021 58bd
00000260: 07f3 823d 4c93 903d d617 b8bd f2c3 18bd
00000270: bc70 8dbd d0d9 d037 acba 033d feb5 e13c
00000280: 3501 dc3c 8134 0c3d 5420 20bb 4df8 1ebd
00000290: c9d6 533d cdec 9e3d 404e a139 c281 5cbb
000002a0: 0db0 923d 2714 cbbd 89ad 94bd ab89 8d3c
000002b0: 98e7 7fbc 89a0 c6bc 0f1c b3bd e9a8 0a3d
000002c0: a52a 79b8 69f7 82bd 0ba4 5bba 252b c93c
000002d0: 3a17 143d 25e1 afbb 206e 74bd f7fb 263d
000002e0: 1fc5 4fbc 4593 81bc b8b7 88bd 91c6 613d
000002f0: 49ee b6bd caa2 133d 7bf8 21bd f284 56bd
00000300: f989 ae39 eb2a c4bc 0925 893d 23e1 a83d
00000310: 8aa1 d2bd 4d6a c2bb 0360 2938 7062 51bd
00000320: 4878 7cbc 1dd1 293d f8e8 86bd 0c86 483d
00000330: ea00 84bd 5647 8fbc 619c 2ebd 5ea0 84bd
00000340: cd60 c1bd 3011 f63c 7fdf 8c3d 5099 8fbc
00000350: 7c6d 963d 8c28 b0bd f450 7a3c 1620 7b3d
00000360: 04fa a73c 5d44 5d3d ca4d bc3d 9bb4 b3bd
00000370: baad 2ebd a11d 16bd 77d9 dbbd 57bf d43d
00000380: 4b75 1bbd 0991 c4bd a3aa 203d facf 853c
00000390: 18c2 a6bd 6e32 5a3d facf 933a 6de7 573d
000003a0: e75c b13d 5b3f 593c 0225 20bc 65eb 89bc
000003b0: f62e 1b3c e0ca 34bd 904b 07bc f2bf 10bd
000003c0: 9013 ac3c a821 643d c5db 85bd 2767 90bd
000003d0: 20d6 13bd e1d2 a73d c0b8 7abd aeef 7dbd
000003e0: 9608 d9bd 3933 31bd b04f 93bd cdfc a83d
000003f0: 9714 903d 9af2 8fbb 5cbd e23d a76e 003e

model/building_output/MatMul f4 [3, 64]
-0.20197214 0.27494577 0.15416247 0.09017307 0.014887129 0.06433907 -0.08565735 0.08271884
-0.007076519 0.18367556 0.19871177 -0.20738102 0.33784536 -0.067114174 -0.037437733 -0.26650298
0.2904866 0.058569208 -0.120810315 0.04879024 -0.18322195 0.25424013 0.014644552 0.111213915
-0.10631619 0.011523465 0.22641402 0.28935933 0.23032844 0.28313768 -0.06618214 -0.055896882
0.17957212 0.20066822 0.115105644 0.07276582 -0.09747234 -0.31778166 0.15614332 0.10871411
0.1454592 -0.045021534 0.26449054 -0.26141778 0.26649246 0.3083129 -0.0622512 -0.12322037
0.044968024 0.06548144 -0.16395427 0.017984364 -0.1600077 0.04678119 0.31720495 -0.14295305
-0.22768615 0.045572136 -0.13161585 0.032820426 0.23794754 -0.1323942 0.18998927 -0.07822327
-0.1426336 0.16809402 0.09091378 -0.20705287 -0.060479395 -0.11034028 0.2242813 -0.004499442
-0.033074588 0.16366199 0.11393386 -0.27547452 0.17485616 0.3049233 0.12916753 -0.050415967
0.11845869 0.23930326 0.21971446 0.22273816 0.29293272 0.057186317 0.2687576 0.15500478
0.11354917 -0.15705281 -0.13451317 -0.13162297 -0.12797281 0.27068385 -0.019798532 0.2786286
-0.14183871 0.19406968 0.09024257 0.010147894 0.0134140905 -0.2503499 -0.2525455 0.050781533
-0.29053575 0.31384176 -0.072160184 -0.12738559 0.31372628 -0.042038146 -0.16952203 -0.2614974
0.24689966 0.11234173 -0.18268222 0.32458463 -0.13804378 -0.0034836212 -0.19327702 -0.12035894
0.112999015 0.09155755 -0.032328896 0.092365496 0.17796014 -0.118388765 0.19994128 -0.17337927
-0.28403926 0.09363717 0.25879988 0.18868142 -0.056783494 -0.30246028 0.101355925 0.23957139
-0.049530037 0.18112607 0.06821504 -0.16098861 -0.2301557 0.16450903 0.182731 0.24406949
0.18749304 0.27862355 0.04636072 0.1707929 -0.21486521 -0.32337332 -0.108900525 0.22642156
0.07865855 0.08019589 -0.13667312 0.17249411 0.2523584 0.090093866 0.06806049 0.16495912
0.24926753 0.05039548 0.035904787 -0.20085214 -0.1609744 -0.1316925 -0.25792086 -0.26090664
0.30410227 0.17705612 -0.06708329 0.15707034 0.08498485 0.265951 -0.191172 0.24425767
-0.045684204 0.11926336 -0.01969406 0.20596235 -0.073908426 0.09470536 0.15589464 0.14540446
0.24615943 -0.057500772 -0.018921515 0.1868791 -0.12620501 -0.10522579 0.09453264 -0.22833246
00000000: c9d1 4ebe b1c5 8c3e c4dc 1d3e a9ac b83d
00000010: 25e9 733c 34c4 833d 1f6d afbd 7f68 a93d
00000020: 25e2 e7bb 7215 3c3e 197b 4b3e b15b 54be
00000030: 11fa ac3e 2873 89bd 4f58 19bd 1473 88be
00000040: a9ba 943e 44e6 6f3d 666b f7bd 46d8 473d
00000050: 899e 3bbe c32b 823e b4ef 6f3c 1fc4 e33d
00000060: 4dbc d9bd eacc 3c3c 14d9 673e e826 943e
00000070: 38db 6b3e 6cf7 903e 808a 87bd 21f4 64bd
00000080: c1e1 373e f87b 4d3e 82bc eb3d 3f06 953d
00000090: 949f c7bd 47b4 a2be 09e4 1f3e 81a5 de3d
000000a0: 42f3 143e 8068 38bd 4e6b 873e 8dd8 85be
000000b0: b371 883e 30db 9d3e 1dfb 7ebd f65a fcbd
000000c0: 6430 383d 221b 863d a1e3 27be f253 933c
000000d0: 0fd9 23be a29d 3f3d b068 a23e 4962 12be
000000e0: 8f26 69be d9a9 3a3d 4ec6 06be b66e 063d
000000f0: 85a8 733e 5892 07be 8c8c 423e 8633 a0bd
00000100: 8b0e 12be d720 2c3e 0131 ba3d ab05 54be
00000110: 3eb9 77bd 16fa e1bd ffa9 653e 0e70 93bb
00000120: 3879 07bd 0297 273e 2856 e93d ff0a 8dbe
00000130: 7e0d 333e e81e 9c3e 7e44 043e f980 4ebd
00000140: 789a f23d ea0b 753e d4fc 603e 7915 643e
00000150: 47fb 953e 333c 6a3d 999a 893e 93b9 1e3e
00000160: 788c e83d 74d2 20be d2bd 09be 2cc8 06be
00000170: 4e0b 03be 1397 8a3e 8830 a2bc 68a8 8e3e
00000180: 2b3e 11be 34ba 463e 19d1 b83d 5a43 263c
00000190: c6c6 5b3c dd2d 80be a54d 81be 4c00 503d
000001a0: 1ac1 94be deaf a03e b8c8 93bd 5e71 02be
000001b0: bba0 a03e 3130 2cbd 2f97 2dbe fde2 85be
000001c0: 44d3 7c3e 6c13 e63d 0c11 3bbe f52f a63e
000001d0: 595b 0dbe 774d 64bb 69ea 45be bf7e f6bd
000001e0: 076c e73d 8682 bb3d 4e6b 04bd 1f2a bd3d
000001f0: 2f3b 363e cf75 f2bd 68bd 4c3e 568a 31be
00000200: 986d 91be d8c4 bf3d 6b81 843e b435 413e
00000210: cf95 68bd 13dc 9abe b293 cf3d 3452 753e
00000220: 02e0 4abd 1d79 393e 54b4 8b3d 33da 24be
00000230: f0ad 6bbe 0e75 283e d61d 3b3e 5aed 793e
00000240: 2dfe 3f3e bfa7 8e3e bde4 3d3d 55e4 2e3e
00000250: a005 5cbe 3091 a5be 3d07 dfbd 0edb 673e
00000260: bc17 a13d be3d a43d 0af4 0bbe 4ca2 303e
00000270: 1f35 813e 2283 b83d 4c63 8b3d 0beb 283e
00000280: fd3f 7f3e 7e6b 4e3d e610 133d 2fac 4dbe
00000290: 79d6 24be 66da 06be 340e 84be 8e95 85be
000002a0: 4bb3 9b3e 334e 353e f762 89bd 0cd7 203e
000002b0: 890c ae3d bb2a 883e 98c2 43be af1e 7a3e
000002c0: 5c1f 3bbd 5940 f43d 7055 a1bc cbe7 523e
000002d0: 4d5d 97bd e2f4 c13d d8a2 1f3e e8e4 143e
000002e0: 3811 7c3e ee85 6bbd 4b01 9bbc 3c5d 3f3e
000002f0: e33b 01be 9e80 d7bd 549a c13d fccf 69be
