250713/models/mlp.tflite (tflite, 288296 bytes, 16 tensors)

model/dense_1/MatMul;model/dense_1/Relu;model/dense_1/BiasAdd f4 [64]
0.17058654 -0.26854664 0.13649344 0.3437807 -0.061622594 0.32798794 0.12815888 0.22849412
0.03063704 0.026724512 -0.013187503 -0.004240159 0.21718091 0.08255615 -0.31780925 -0.35613647
-0.29405427 -0.40122226 0.44281146 0.026135983 -0.016652603 0.53906703 0.37440166 -0.18374944
0.13146682 0.06881723 0.38831484 0.10698031 -0.34092695 0.3188739 0.16255233 -0.03221559
-0.063281015 0.2981288 -0.1523325 0.43901855 -0.14837463 0.061983176 -0.20740657 0.6322382
0.039184704 0.6643713 0.6109969 0.19363336 -0.17471184 0.5123777 0.16589193 0.10841281
0.11210635 0.18439153 -0.37013066 -0.11652999 -0.043355886 0.15230526 0.015459081 0.03479206
0.34111357 -0.4099033 -0.05424305 0.014252612 0.08896988 -0.21020901 -0.26316372 -0.29914957
00000000: 3dae 2e3e f27e 89be f0c4 0b3e 0604 b03e
00000010: f967 7cbd 09ee a73e 153c 033e 5dfa 693e
00000020: 88fa fa3c 5ded da3c 6610 58bc 08f1 8abb
00000030: ac64 5e3e 3313 a93d e5b7 a2be 8557 b6be
00000040: 488e 96be 016d cdbe 2fb8 e23e 211b d63c
00000050: 0a6b 88bc 4c00 0a3f 93b1 bf3e d028 3cbe
00000060: 3d9f 063e 0cf0 8c3d 34d1 c63e 7e18 db3d
00000070: fa8d aebe 7143 a33e 1e74 263e 7ff4 03bd
00000080: 7a99 81bd 57a4 983e 0dfd 1bbe 0ac7 e03e
00000090: 85ef 17be 12e2 7d3d 6362 54be 5dda 213f
000000a0: 2480 203d 3d14 2a3f 4b6a 1c3f d347 463e
000000b0: a9e7 32be 2f2b 033f 93df 293e 8907 de3d
000000c0: 0498 e53d 22d1 3c3e c481 bdbe 47a7 eebd
000000d0: f195 31bd e9f5 1b3e 1648 7d3c 1e82 0e3d
000000e0: 70a6 ae3e d8de d1be f62d 5ebd ca83 693c
000000f0: d735 b63d 0841 57be 65bd 86be 222a 99be

model/batch_normalization/batchnorm/mul_1;model/batch_normalization/batchnorm/add_1;model/dense_1/MatMul;model/dense_1/Relu;model/dense_1/BiasAdd f4 [64, 128]
-0.06430005 0.18662524 0.19507295 0.0996333 -0.07572648 -0.1868062 0.14952587 -0.20717461
-0.10936099 0.10746574 -0.14483783 0.04573528 0.06968925 -0.09918351 -0.16536629 0.20735809
-0.10897163 0.055307336 -0.15023176 -0.17366217 0.110811636 0.24273556 -0.029438904 -0.13376014
0.25659257 0.12548181 0.18252683 0.21548042 -0.072116554 0.0478824 0.1323827 0.08601167
-0.12056178 -0.20949964 -0.07851046 -0.23227677 0.19421196 0.0968633 0.17876072 -0.22529748
-0.097329974 0.0532151 -0.18137547 0.1411846 -0.12269258 0.051655587 0.16284662 -0.20985442
-0.023142897 0.16605115 0.22060269 0.18228197 -0.14134473 -0.010508352 0.18264191 -0.14073125
-0.07589735 -0.04451571 0.059553776 -0.18029287 -0.10878788 0.035582162 -0.03168052 -0.10528068
0.09814844 -0.07944175 0.15526383 -0.23907076 -0.025626386 0.116606064 -0.05466112 -0.009430555
-0.14081156 0.21638328 -0.1596484 -0.05799344 0.04988371 0.16469789 0.024793647 0.007079652
0.003633159 0.16449605 0.11666764 0.121556334 0.019041069 0.073299065 0.1303125 0.051267106
-0.2217119 0.10901813 -0.07584489 -0.074089564 -0.0060752886 0.10638894 -0.20882866 -0.038512208
-0.14357568 0.06993134 0.08793625 -0.16638173 -0.24786395 -0.22308402 0.011557387 -0.048762538
0.14267802 -0.19094867 -0.22342163 0.09733586 0.117687374 -0.21902658 -0.09197048 -0.06394467
-0.03213235 0.1151992 -0.043797445 0.024638439 0.012143178 -0.031555794 -0.2049149 0.05039061
-0.0092233755 0.03137819 -0.06351178 -0.05492033 0.06689308 0.1613636 -0.007951452 0.18248558
-0.20493649 0.046403058 -0.22457558 0.17817698 0.14686586 0.20828104 0.2375374 0.22683275
0.15047504 -0.18454677 0.19105731 0.10835649 0.15425318 0.16557474 0.040702395 0.04461578
0.11868605 -0.19667262 -0.042828962 0.20514014 -0.116074994 0.11198331 -0.1571437 -0.026690679
-0.060318638 -0.21024027 -0.17130719 -0.03594251 -0.08730291 0.012635932 -0.05073339 0.20710483
-0.18577991 0.040849257 -0.08554002 0.19543053 0.14015783 -0.2321682 -0.052382708 0.056092244
0.12449316 -0.13879319 0.078255445 -0.15463866 0.19943184 0.17326383 -0.12957513 -0.0033979584
-0.10082542 -0.18438518 0.12032814 0.036248535 0.22725241 -0.05734694 0.04261125 0.18730055
0.08522799 0.15595588 -0.16405937 -0.06445563 -0.15863785 0.04341623 0.15426803 0.1780787
0.08529849 -0.053654943 -0.15899803 -0.20532484 0.24418554 0.07949547 0.1926226 0.010940425
-0.17800343 -0.16399702 -0.24273783 -0.06437633 0.1891219 0.0023324816 -0.14667132 0.19596013
-0.14274305 -0.0747228 0.004090552 0.041072685 0.07528143 0.24947043 -0.16935104 0.1440787
0.023466093 -0.04390744 -0.043278627 -0.18495959 0.076978914 0.025464756 0.14978367 0.05788923
0.07889771 0.020978123 0.15490395 0.072620206 0.24097429 0.060790602 0.13227606 -0.13105592
0.10889001 0.106748044 0.19297326 -0.19546142 -0.028511627 -0.012639179 0.1724348 -0.17186737
-0.10807385 -0.06982784 -0.014553717 0.13670675 -0.16500743 0.22328731 -0.051179565 -0.071838416
0.0145736085 0.105344556 -0.19010872 -0.19631718 0.076494195 0.09699973 0.023187535 0.070001476
00000000: bfaf 83bd b01a 3f3e 34c1 473e 8b0c cc3d
00000010: 7c16 9bbd 204a 3fbe 4f1d 193e 9525 54be
00000020: a8f8 dfbd ff16 dc3d 5e50 14be eb54 3b3d
00000030: 3db9 8e3d b920 cbbd c855 29be ae55 543e
00000040: 852c dfbd f289 623d 5bd6 19be 7fd4 31be
00000050: 36f1 e23d ac8f 783e db29 f1bc 6bf8 08be
00000060: 1a60 833e 4e7e 003e 50e8 3a3e e6a6 5c3e
00000070: d8b1 93bd 5620 443d 558f 073e e326 b03d
00000080: 18e9 f6bd 1387 56be 18ca a0bd f6d9 6dbe
00000090: 80df 463e 4460 c63d 0d0d 373e 62b4 66be
000000a0: f054 c7bd 14f8 593d 7eba 39be b292 103e
000000b0: 3f46 fbbd cf94 533d 44c1 263e 14e4 56be
000000c0: 2c96 bdbc 5009 2a3e ace5 613e 20a8 3a3e
000000d0: acbc 10be 392b 2cbc 7b06 3b3e da1b 10be
000000e0: 1270 9bbd 1b56 36bd a9ee 733d b29e 38be
000000f0: 2ecc debd 9abe 113d 6fc3 01bd 669d d7bd
00000100: 0d02 c93d 5bb2 a2bd 7bfd 1e3e f7ce 74be
00000110: 6dee d1bc 29cf ee3d 57e4 5fbd 9d82 1abc
00000120: e830 10be 9493 5d3e df7a 23be 888a 6dbd
00000130: dc52 4c3d 90a6 283e 0c1c cb3c 6dfc e73b
00000140: 4b1a 6e3b a771 283e 72ef ee3d 87f2 f83d
00000150: 04fc 9b3c d21d 963d a470 053e 75fd 513d
00000160: 7208 63be e644 df3d 9154 9bbd 45bc 97bd
00000170: 3713 c7bb 72e2 d93d 2ed7 55be fabe 1dbd
00000180: 8105 13be 2a38 8f3d ec17 b43d f95f 2abe
00000190: 0cd0 7dbe 2370 64be 325b 3d3c 3abb 47bd
000001a0: 301a 123e 0c88 43be a4c8 64be 0658 c73d
000001b0: 1406 f13d 8148 60be 055b bcbd 6cf5 82bd
000001c0: 369d 03bd 8fed eb3d f364 33bd 8dd6 c93c
000001d0: 2ef4 463c a640 01bd 36d5 51be 6266 4e3d
000001e0: a41d 17bc 6b86 003d 7712 82bd 24f4 60bd
000001f0: 3dff 883d 803c 253e cf46 02bc 80dd 3a3e
00000200: dfda 51be 2211 3e3d 24f7 65be 0774 363e
00000210: 0164 163e a047 553e 013d 733e d846 683e
00000220: 2116 1a3e d4f9 3cbe 87a4 433e 02ea dd3d
00000230: 8cf4 1d3e 6d8c 293e 8eb7 263d 09bf 363d
00000240: ac11 f33d 8c64 49be 6c6d 2fbd 4210 523e
00000250: bab8 edbd 8157 e53d 47ea 20be 69a6 dabc
00000260: ad10 77bd 3a49 57be 276b 2fbe 7438 13bd
00000270: decb b2bd f106 4f3c d1cd 4fbd 4a13 543e
00000280: 173d 3ebe 8d51 273d 9b2f afbd f11e 483e
00000290: 8985 0f3e 80bd 6dbe 408f 56bd fbc0 653d
000002a0: 45f6 fe3d cd1f 0ebe 6444 a03d 9959 1ebe
000002b0: dc37 4c3e 136c 313e 58af 04be 48b0 5ebb
000002c0: 8f7d cebd 78cf 3cbe 9a6e f63d 5879 143d
000002d0: dbb4 683e a0e4 6abd 2289 2e3d b7cb 3f3e
000002e0: 038c ae3d e6b2 1f3e 2eff 27be 5001 84bd
000002f0: f671 22be 37d5 313d 70f8 1d3e 435a 363e
00000300: fab0 ae3d 49c5 5bbd 61d0 22be ad40 52be
00000310: c60b 7a3e 85ce a23d dc3e 453e 783f 333c
00000320: 8846 36be d6ee 27be 4490 78be bdd7 83bd
00000330: 2ca9 413e 8cdc 183b 0231 16be c6a9 483e
00000340: 3c2b 12be 4408 99bd 0a0a 863b d53b 283d
00000350: 262d 9a3d 2d75 7f3e 5c6a 2dbe 5e89 133e
00000360: f73b c03c 4ad8 33bd ee44 31bd 0c66 3dbe
00000370: 1fa7 9d3d 779b d03c e460 193e 421d 6d3d
00000380: 1f95 a13d 50da ab3c 249f 1e3e e7b9 943d
00000390: f7c1 763e 91ff 783d 6073 073e 8633 06be
000003a0: ba01 df3d b89e da3d c89a 453e 0a27 48be
000003b0: 3791 e9bc 8f14 4fbc c092 303e 00fe 2fbe
000003c0: d355 ddbd e601 8fbd b772 6ebc dbfc 0b3e
000003d0: b5f7 28be 6ea5 643e aaa1 51bd 0520 93bd
000003e0: 25c6 6e3c e3be d73d dcab 42be 5f07 49be
000003f0: fda8 9c3d cba7 c63d c9f3 bd3c ef5c 8f3d

model/dense_2/MatMul;model/dense_2/Relu;model/dense_2/BiasAdd f4 [64]
0.15052992 0.21024446 0.19544296 0.2477078 0.027748248 0.6116567 -0.42496985 0.07293829
-0.38265252 0.44673172 -0.69719833 0.12477356 -0.4031559 -0.29228586 0.22660719 -0.32137945
-0.3011538 -0.56955904 -0.07158267 0.13259758 0.15485059 0.19759364 -0.81461126 0.3857125
0.10023425 0.15125257 0.25436684 0.020761186 -0.6231428 -0.074745245 0.44972596 -0.18505402
0.22516528 0.28146017 0.044959065 0.0059482898 0.4098136 -0.38946518 -0.54267573 -0.6368327
0.21901499 0.21009469 0.020056827 -0.42811576 0.48606956 -0.40048823 -0.03872453 -0.21368465
-0.19648926 0.25806963 0.37246394 0.54044324 0.11076292 0.47293273 0.36707884 -0.28455868
0.3187574 0.26019865 0.476483 0.021547042 0.58529717 0.59867746 0.20376164 -0.005364018
00000000: 8424 1a3e 534a 573e 3322 483e 1da7 7d3e
00000010: 4b50 e33c 8995 1c3f a695 d9be ac60 953d
00000020: 08eb c3be 05ba e43e 977b 32bf 4889 ff3d
00000030: 736a cebe 7ea6 95be b70b 683e d98b a4be
00000040: d530 9abe 9fce 11bf ef99 92bd a9c7 073e
00000050: 2791 1e3e fd55 4a3e 5d8a 50bf 1c7c c53e
00000060: 9d47 cd3d f4e1 1a3e 5f3c 823e 5d13 aa3c
00000070: 4986 1fbf 0914 99bd 7b42 e63e cd7e 3dbe
00000080: ba91 663e 8c1b 903e ff26 383d dfe9 c23b
00000090: 17d3 d13e fb67 c7be ccec 0abf 7807 23bf
000000a0: 7745 603e 1023 573e 374e a43c fd31 dbbe
000000b0: 1cde f83e cb0c cdbe 9d9d 1ebd 26d0 5abe
000000c0: 7b34 49be b421 843e 98b3 be3e 7d5a 0a3f
000000d0: abd7 e23d 3d24 f23e c2f1 bb3e adb1 91be
000000e0: 2c34 a33e c238 853e 94f5 f33e 6c83 b03c
000000f0: 09d6 153f ed42 193f e4a6 503e a5c4 afbb

model/batch_normalization_1/batchnorm/mul_1;model/batch_normalization_1/batchnorm/add_1;model/dense_2/MatMul;model/dense_2/Relu;model/dense_2/BiasAdd f4 [64, 64]
-0.15543087 0.1178795 0.16738799 -0.09708487 0.20673285 -0.1543221 0.15806042 0.2022731
0.064850576 0.022718664 -0.029550862 0.12179333 0.035015896 -0.14917636 -0.11561901 -0.13037688
-0.01761111 -0.026175173 -0.09283643 -0.02982076 -0.1817335 -0.012398015 0.00036729642 -0.19220977
0.13363886 -0.19461593 -0.22084801 0.00660334 -0.0025469246 0.013544587 -0.12386311 0.20015508
0.2515024 -0.21669169 -0.012727828 -0.12308793 -0.15988144 0.241571 0.035588562 0.006340484
0.20905815 -0.09712138 0.13167678 -0.19200961 0.07083563 -0.20768864 -0.15313125 -0.058390845
-0.20159349 -0.20717789 0.0045530824 0.13675416 0.025513774 -0.024320953 0.09299591 0.20005007
0.035313852 0.046612974 0.05362701 0.152085 0.111180276 -0.14940853 0.048343148 0.02594251
0.26003334 0.0950963 -0.0350082 -0.0013807171 0.11976985 0.07208705 0.19669914 -0.17394228
0.09021415 -0.14469193 -0.12354379 0.12304531 0.120307684 -0.19670926 0.1162337 0.118541256
-0.15989947 0.12007211 -0.17178549 -0.18145399 0.10631064 0.1812776 0.19808738 0.038395464
-0.03601242 -0.022976698 -0.18194142 0.0762726 -0.10781383 -0.17277634 0.110229276 -0.20027861
0.17979686 0.03201098 -0.16282177 -0.07551371 0.06857734 0.1135331 -0.1363205 -0.03140623
-0.06684625 -0.06609508 0.089021295 -0.04107258 -0.02685188 0.05169387 0.2287777 -0.16942357
-0.023574034 -0.1624725 0.012293736 -0.16986512 -0.1616373 -0.0018429254 0.15121911 0.053170454
0.1550075 -0.07181164 0.05190814 -0.19375253 -0.13643327 -0.21436365 -0.164173 0.16251677
0.07032076 -0.082047306 -0.1149144 -0.017706312 -0.1794101 0.14166063 0.12140518 0.06004134
0.016795373 -0.1185823 0.11242336 0.09198836 -0.016560508 0.08146061 -0.2241122 -0.12856276
0.041388836 -0.01636762 0.14119162 0.07936581 0.09527958 0.013921354 -0.11074999 0.19282566
-0.16367988 0.12466805 0.16549768 -0.05104103 0.07221672 -0.16158356 0.13738263 -0.21802177
-0.20611678 0.123527594 -0.20746164 -0.014650609 -0.18640947 -0.2550348 -0.19569497 0.030536322
0.09678489 -0.085467175 -0.0629835 0.12192898 0.10470729 0.14277329 0.08236488 -0.031028397
0.031294554 -0.10235285 0.14689825 -0.16557714 -0.23478661 0.11895615 -0.026066422 -0.025781505
0.046822492 -0.12760179 0.026417296 0.1659542 0.21895993 -0.1696243 -0.09040371 0.09911024
0.14137553 -0.04151749 0.07420524 0.028943973 -0.2049993 -0.113670476 0.19777171 0.05083392
-0.11024698 0.17475495 -0.097398736 -0.08073951 -0.0183445 -0.17779166 -0.17326726 0.071763605
-0.15200892 -0.062017582 0.075888544 -0.1811758 -0.097746335 0.02060748 -0.04707152 0.09162667
-0.041775912 -0.05909066 0.055273518 -0.18941437 0.14776014 -0.036041126 0.1839048 0.08160371
0.07755547 -0.20011787 0.11698811 -0.09934745 -0.070435554 0.23803551 -0.009302406 0.16348727
0.1393797 0.2179497 -0.12377084 -0.09347988 -0.17062794 0.18109451 -0.026072696 0.053622928
-0.09068518 -0.0380594 -0.12924917 -0.11690505 -0.03294812 0.18933268 0.0338797 -0.23193032
-0.07165751 -0.03104448 0.028125674 -0.17008014 0.08034941 -0.18966326 -0.12844898 -0.110798776
00000000: 4529 1fbe cf6a f13d c267 2b3e 6fd4 c6bd
00000010: c7b1 533e 9d06 1ebe 97da 213e ae20 4f3e
00000020: 61d0 843d 7e1c ba3c a614 f2bc c86e f93d
00000030: d46c 0f3d b0c1 18be a9c9 ecbd 8481 05be
00000040: 2d45 90bc 516d d6bc 0721 bebd ab4a f4bc
00000050: 5918 3abe 0b21 4bbc b191 c039 a3d2 44be
00000060: a0d8 083e 6649 47be fb25 62be d560 d83b
00000070: 4eea 26bb 1eea 5d3c f1ab fdbd 74f5 4c3e
00000080: ecc4 803e 6de4 5dbe 6188 50bc 8615 fcbd
00000090: f6b7 23be 635e 773e 50c5 113d d6c3 cf3b
000000a0: 5713 563e 93e7 c6bd 47d6 063e 2b9e 44be
000000b0: 4512 913d 55ac 54be 70ce 1cbe 3d2b 6fbd
000000c0: 866e 4ebe 7126 54be 0632 953b 4809 0c3e
000000d0: 4302 d13c bc3c c7bc a474 be3d edd9 4c3e
000000e0: 42a5 103d 3fed 3e3d ffa7 5b3d 2cbc 1b3e
000000f0: 7cb2 e33d 8dfe 18be 7703 463d 6385 d43c
00000100: 1723 853e d9c1 c23d c264 0fbd 2ef9 b4ba
00000110: e549 f53d 60a2 933d 806b 493e ed1d 32be
00000120: 32c2 b83d 1f2a 14be 8704 fdbd 2eff fb3d
00000130: e063 f63d 276e 49be ef0b ee3d c2c5 f23d
00000140: b0bc 23be 5ee8 f53d 89e8 2fbe 13cf 39be
00000150: 65b9 d93d d6a0 393e 6bd7 4a3e 9044 1d3d
00000160: c281 13bd a139 bcbc da4e 3abe cf34 9c3d
00000170: 7fcd dcbd 48ec 30be e3bf e13d d615 4dbe
00000180: ab1c 383e f21d 033d c0ba 26be efa6 9abd
00000190: 4772 8c3d 0b84 e83d 9a97 0bbe d2a3 00bd
000001a0: b0e6 88bd db5c 87bd cc50 b63d b93b 28bd
000001b0: 79f8 dbbc f4bc 533d b444 6a3e 5f7d 2dbe
000001c0: 551e c1bc 315f 26be ab6b 493c 1ff1 2dbe
000001d0: 4084 25be 518e f1ba 2fd9 1a3e 43c9 593d
000001e0: 49ba 1e3e fb11 93bd a19d 543d 1067 46be
000001f0: 2ab5 0bbe 2582 5bbe f81c 28be cc6a 263e
00000200: 5504 903d 6b08 a8bd 3e58 ebbd d40c 91bc
00000210: 48b7 37be 7c0f 113e 47a3 f83d e8ed 753d
00000220: 7396 893c 47db f2bd 383e e63d 6564 bc3d
00000230: e7a9 87bc d2d4 a63d ab7d 65be f5a5 03be
00000240: 5787 293d 6315 86bc 8994 103e 8b8a a23d
00000250: f121 c33d 6416 643c e4d0 e2bd 1774 453e
00000260: b39b 27be f651 ff3d 3978 293e 6610 51bd
00000270: 5ce6 933d 2976 25be 08ae 0c3e 1941 5fbe
00000280: 4710 53be 09fc fc3d d370 54be 1c09 70bc
00000290: 20e2 3ebe ec93 82be 4364 48be 4f27 fa3c
000002a0: 2837 c63d 6a09 afbd 7efd 80bd e7b5 f93d
000002b0: c770 d63d 2933 123e ebae a83d 442f febc
000002c0: b82e 003d 5f9e d1bd 7f6c 163e 0e8d 29be
000002d0: e76b 70be 489f f33d 4089 d5bc bc33 d3bc
000002e0: f1c8 3f3d 0baa 02be 1669 d83c e6ef 293e
000002f0: 0837 603e feb1 2dbe 9525 b9bd 4ffa ca3d
00000300: bfc4 103e 3e0e 2abd ebf8 973d e91b ed3c
00000310: 56eb 51be 11cc e8bd ab84 4a3e 3a37 503d
00000320: 2bc9 e1bd f6f2 323e fd78 c7bd c25a a5bd
00000330: 3447 96bc 040f 36be f96c 31be ccf8 923d
00000340: 3aa8 1bbe 2606 7ebd 746b 9b3d 2686 39be
00000350: 3b2f c8bd 05d1 a83c 11ce 40bd c3a6 bb3d
00000360: 381d 2bbd 0c09 72bd 7c66 623d d7f5 41be
00000370: 6f4e 173e dc9f 13bd 8a51 3c3e d91f a73d
00000380: 67d5 9e3d b3eb 4cbe 7697 ef3d ad76 cbbd
00000390: 8440 90bd 95bf 733e 1e69 18bc 3569 273e
000003a0: 8db9 0e3e 352e 5f3e 917b fdbd 6172 bfbd
000003b0: 17b9 2ebe d770 393e 6896 d5bc b7a3 5b3d
000003c0: 27b9 b9bd 2ce4 1bbd e559 04be ea6b efbd
000003d0: 9cf4 06bd 6de0 413e 71c5 0a3d 247f 6dbe
000003e0: 2cc1 92bd fe50 febc d067 e63c 7d29 2ebe
000003f0: 3b8e a43d 1637 42be 2188 03be 78ea e2bd

model/dense_3/MatMul;model/dense_3/Relu;model/dense_3/BiasAdd f4 [64]
0.096906915 -0.011129196 -0.5936386 0.11446911 0.14128104 -0.09105646 0.36316723 0.20584448
0.35058415 0.086786866 -0.35259697 -0.28941223 0.26252013 -0.15592687 0.51789975 -0.7124114
0.8736747 0.13257477 0.36520186 -0.15124086 0.08356099 0.15464179 -0.33441287 0.15831055
-0.5077551 -0.23344402 0.4936297 -0.080082595 -0.21262772 0.097880796 -0.35765013 0.18086462
0.29652262 -0.23585576 0.36726275 0.49256942 -0.04123798 -0.017157132 0.2370518 0.51695013
0.3784621 -0.095193885 0.4561426 -0.2205972 -0.32066986 0.31635487 -0.07170161 -0.0751555
-0.42455792 -0.66070545 -0.08062141 0.1168426 0.02361797 0.27041587 -0.45906717 0.08334494
-0.11354867 -0.2893358 0.3434034 -0.14767799 0.43291453 -0.22891003 0.13594893 -0.35454112
00000000: 2277 c63d 3b57 36bc b3f8 17bf c86e ea3d
00000010: faab 103e cf7b babd 0ef1 b93e e5c8 523e
00000020: c47f b33e 50bd b13d 9787 b4be d72d 94be
00000030: 0a69 863e 4bab 1fbe 1495 043f 9860 36bf
00000040: 25a9 5f3f aec1 073e bdfb ba3e e2de 1abe
00000050: 0622 ab3d 6b5a 1e3e 2a38 abbe 291c 223e
00000060: 3dfc 01bf f30b 6fbe 08bd fc3e 5802 a4bd
00000070: 15bb 59be ba75 c83d eb1d b7be 9334 393e
00000080: d0d1 973e 2c84 71be dd09 bc3e 0f32 fc3e
00000090: 28e9 28bd 1d8d 8cbc b5bd 723e d856 043f
000000a0: c9c5 c13e 03f5 c2bd 868b e93e 3be4 61be
000000b0: d72e a4be 44f9 a13e 4bd8 92bd 20eb 99bd
000000c0: a85f d9be fe23 29bf d61c a5bd 2c4b ef3d
000000d0: 797a c13c f373 8a3e da0a ebbe c0b0 aa3d
000000e0: 358c e8bd d223 94be 92d2 af3e e638 17be
000000f0: f9a6 dd3e 6467 6abe 3236 0b3e 6a86 b5be

model/batch_normalization_1/batchnorm/mul_1;model/batch_normalization_1/batchnorm/add_1;model/dense_3/MatMul;model/dense_3/Relu;model/dense_3/BiasAdd f4 [64, 64]
-0.10136171 -0.10043504 -0.0015049367 0.22472474 0.002885961 0.0479509 -0.030281564 -0.11435789
-0.061768245 -0.109485246 0.17079137 -0.09255021 -0.14577779 0.08687931 -0.04328649 -0.04244531
0.092429034 -0.04874039 0.26882172 -0.114282645 0.07517237 -0.17134042 0.14152539 -0.15354376
-0.12678514 -0.08810823 0.022202907 -0.12744123 -0.045689467 0.23312706 0.1204306 0.04330681
-0.1348203 0.21828008 -0.14020783 0.09707903 -0.09725437 -0.11072142 0.13768211 0.07935201
0.011286595 0.060492124 -0.07584007 -0.08779242 -0.19990864 0.05546246 -0.17783031 -0.106964976
0.005990446 0.07842585 0.14262483 0.13171883 0.1275165 -0.20319939 0.1377699 0.17888135
-0.12012507 0.1373969 -0.07708243 -0.026188545 -0.15518749 0.032791797 -0.018386373 -0.025090653
-0.17983642 0.14534424 0.15891352 0.20376143 -0.18139024 0.14385429 -0.14488102 -0.16530572
0.15491012 0.09320709 0.26139173 0.03898507 -0.14299259 -0.20605473 -0.033623435 -0.15112226
-0.074221805 -0.1575772 0.058547333 -0.19420496 0.060138848 0.128006 -0.066862255 0.10420124
-0.04186425 0.13028753 -0.0041276854 0.19404782 -0.017239556 -0.20382886 0.045376986 -0.07097111
0.1916778 0.04104971 -0.031666905 -0.11060431 0.16818182 0.12608576 0.06705597 0.04931053
-0.058085572 0.10861564 0.0069881743 -0.078630336 -0.18292284 0.18025482 0.110246584 -0.07729341
-0.20666815 0.10258363 -0.12625857 -0.16499163 -0.040027473 0.15934224 0.06873903 -0.14324929
0.0064987214 0.1525401 -0.1487476 -0.153222 0.026595127 0.08480723 0.04069998 -0.05984051
0.10818729 -0.044906694 -0.013559668 0.11894142 0.052180458 0.1774032 0.14954475 -0.2020724
0.022866322 0.189764 -0.12918168 0.24949792 0.2061973 -0.03570235 -0.114205055 0.10826262
-0.11983793 0.10314646 0.05367401 0.09363211 -0.08871882 0.16380915 -0.1098324 0.015164358
0.11005839 0.095148765 -0.11410494 0.094843954 0.13715671 -0.0994998 -0.021089597 -0.13759066
-0.13902989 0.17822993 -0.092540964 0.0279605 0.13660222 -0.0026614824 0.07809068 0.22910395
-0.12569502 0.16944192 0.057575837 0.036556568 -0.03508499 -0.110492945 0.05930175 -0.0013556734
0.012890854 -0.23877801 0.09238572 0.0008124441 0.06586691 0.1387584 -0.071409 -0.005157771
-0.06860017 0.16659525 0.09373056 -0.11950839 0.13648678 -0.012290585 0.11080771 0.22916482
-0.0043260995 0.0843083 0.0283297 -0.22414322 0.013364228 0.16169736 -0.13440926 0.11087679
-0.18489969 0.15108258 0.13930643 0.052836105 0.060994107 0.006638641 -0.12150283 -0.17449231
0.0089647425 -0.104816526 -0.083353445 -0.21137732 0.14012718 -0.197796 -0.006492258 -0.08159541
0.15365185 -0.19970529 -0.22408554 -0.019638477 -0.13796775 0.10828578 0.19745061 -0.042498276
0.06532393 0.12565108 0.21039955 0.124165915 -0.023251718 0.09653097 -0.053222835 -0.17901655
0.16293788 0.1798191 0.119359545 0.14430293 -0.0939579 -0.079456724 -0.058780283 0.1223021
-0.1374635 -0.14194052 0.17535868 0.13010247 -0.16236553 -0.023896765 -0.17862996 -0.015079775
0.013610887 -0.02152069 -0.17628051 0.21010424 -0.10578941 0.088762075 -0.05474957 -0.11943391
00000000: ba96 cfbd e3b0 cdbd 4c41 c5ba 3e1e 663e
00000010: 6422 3d3b 2a68 443d 0b11 f8bc 7834 eabd
00000020: b300 7dbd cd39 e0bd efe3 2e3e f78a bdbd
00000030: c646 15be c8ed b13d 2d4d 31bd 22db 2dbd
00000040: 6f4b bd3d 01a4 47bd 00a3 893e 050d eabd
00000050: f9f3 993d dd73 2fbe 08ec 103e 933a 1dbe
00000060: f7d3 01be 1672 b4bd dfe2 b53c f47f 02be
00000070: e124 3bbd dcb8 6e3e 52a4 f63d 7b62 313d
00000080: 550e 0abe d084 5f3e a492 0fbe 5fd1 c63d
00000090: 4d2d c7bd e9c1 e2bd 8afc 0c3e 4e83 a23d
000000a0: 69eb 383c 97c6 773d 0a52 9bbd 83cc b3bd
000000b0: dab4 4cbe 9b2c 633d 2619 36be 7410 dbbd
000000c0: 814b c43b bb9d a03d 3e0c 123e 4de1 063e
000000d0: af93 023e 8013 50be 8d13 0d3e ac2c 373e
000000e0: 2204 f6bd c6b1 0c3e 65dd 9dbd 5c89 d6bc
000000f0: 78e9 1ebe b150 063d 059f 96bc ea8a cdbc
00000100: 0a27 38be 1fd5 143e 3aba 223e d6a6 503e
00000110: 5dbe 39be 8a4e 133e b15b 14be e745 29be
00000120: c2a0 1e3e 5ce3 be3d 23d5 853e cfae 1f3d
00000130: a66c 12be 0300 53be bab8 09bd cbbf 1abe
00000140: 9a01 98bd eb5b 21be 54cf 6f3d aadd 46be
00000150: 2754 763d 0114 033e 14ef 88bd 7667 d53d
00000160: d979 2bbd 186a 053e 8941 87bb 79b4 463e
00000170: f839 8dbc 83b8 50be 38dd 393d 4d59 91bd
00000180: 2f47 443e be23 283d 28b5 01bd 8384 e2bd
00000190: db37 2c3e a01c 013e a454 893d d7f9 493d
000001a0: 23eb 6dbd e071 de3d 0efd e43b f108 a1bd
000001b0: 2050 3bbe b894 383e f6c8 e13d 024c 9ebd
000001c0: d1a0 53be 5e17 d23d ed49 01be 91f3 28be
000001d0: d9f3 23bd 9d2a 233e 0cc7 8c3d f1af 12be
000001e0: 3af3 d43b 7933 1c3e 4a51 18be 3ae6 1cbe
000001f0: 06de d93c 6aaf ad3d 06b5 263d 531b 75bd
00000200: 4c91 dd3d 15f0 37bd 5f29 5ebc 8f97 f33d
00000210: 2dbb 553d 2fa9 353e 4222 193e 11ec 4ebe
00000220: 2752 bb3c 7e51 423e 3448 04be 627c 7f3e
00000230: 6325 533e a13c 12bd 57e4 e9bd cbb8 dd3d
00000240: 976d f5bd 743e d33d 47d9 5b3d 31c2 bf3d
00000250: 36b2 b5bd 96bd 273e cfef e0bd ed73 783c
00000260: 4b66 e13d 5bdd c23d daaf e9bd 8c3d c23d
00000270: cf72 0c3e 8dc6 cbbd 17c4 acbc 91e4 0cbe
00000280: da5d 0ebe e881 363e 1e86 bdbd 6b0d e53c
00000290: 74e1 0b3e 446c 2ebb 02ee 9f3d 3a9a 6a3e
000002a0: 32b6 00be 2f82 2d3e a4d4 6b3d 57bc 153d
000002b0: 47b5 0fbd 204a e2bd 64e6 723d dab0 b1ba
000002c0: 2934 533c 3982 74be b934 bd3d 33fa 543a
000002d0: 3be5 863d af16 0e3e e23e 92bd 8502 a9bb
000002e0: 3f7e 8cbd f297 2a3e cff5 bf3d d1c0 f4bd
000002f0: 31c3 0b3e 735e 49bc 27ef e23d 2faa 6a3e
00000300: f4c1 8dbb d4a9 ac3d b013 e83c cd85 65be
00000310: a3f5 5a3c fe93 253e 95a2 09be 5f13 e33d
00000320: 5856 3dbe 64b5 1a3e 58a6 0e3e ac6a 583d
00000330: f5d4 793d f588 d93b 7ad6 f8bd 1dae 32be
00000340: dbe0 123c 0caa d6bd 36b5 aabd 4c73 58be
00000350: 807d 0f3e 098b 4abe 02bd d4bb 7f1b a7bd
00000360: e956 1d3e 8b7f 4cbe ae76 65be dfe0 a0bc
00000370: 6b47 0dbe efc4 dd3d 7e30 4a3e ac12 2ebd
00000380: 8dc8 853d adaa 003e fb72 573e b34a fe3d
00000390: 637a bebc 07b2 c53d 3000 5abd 1d50 37be
000003a0: 30d9 263e 8022 383e c772 f43d 26c4 133e
000003b0: 006d c0bd 35ba a2bd 98c3 70bd 8679 fa3d
000003c0: 3bc3 0cbe db58 11be 3a91 333e 9539 053e
000003d0: 2643 26be 26c3 c3bc c6ea 36be 2911 77bc
000003e0: 3300 5f3c 284c b0bc e182 34be 9125 573e
000003f0: 1ea8 d8bd e4c8 b53d 1641 60bd c499 f4bd

model/dense_4/MatMul;model/dense_4/Relu;model/dense_4/BiasAdd f4 [64]
0.15490843 -0.4616764 0.18979771 0.5063763 -0.24166825 0.52495426 0.34399453 -0.20050718
-0.042839903 0.03302939 -0.39756793 -0.27109933 -0.17383665 0.27797973 0.09812813 0.21222258
0.2379871 0.18683827 -0.51061666 0.23871534 0.22512077 0.29409805 -0.1000166 0.027113678
0.1334817 0.037673853 0.011805414 -0.25618756 0.026549233 -0.29041103 0.32534868 0.06466059
0.09766472 0.1760892 0.18478242 -0.24421185 0.00767042 0.069786854 0.32396552 0.3306174
0.015475796 0.044458933 -0.21040067 -0.063211106 -0.23963194 -0.3432894 -0.09763003 -0.032115962
-0.015868768 0.15782355 0.15692337 -0.419956 -0.07892291 -0.5099701 -0.4008783 0.22435254
-0.4198797 -0.05818369 -0.3238738 -0.25436336 0.48924306 -0.029322717 -0.08474117 0.062140867
00000000: 51a0 1e3e d960 ecbe 555a 423e e1a1 013f
00000010: e277 77be 6763 063f 0d20 b03e c151 4dbe
00000020: e578 2fbd d349 073d 068e cbbe 88cd 8abe
00000030: 3c02 32be 5c53 8e3e 67f7 c83d e050 593e
00000040: e4b2 733e 8852 3f3e c6b7 02bf cb71 743e
00000050: 0f86 663e 0594 963e 81d5 ccbd 811d de3c
00000060: 6daf 083e e64f 1a3d 7f6b 413c 042b 83be
00000070: c77d d93c c1b0 94be 1a94 a63e c56c 843d
00000080: 7104 c83d ba50 343e 9a37 3d3e ac12 7abe
00000090: 2658 fb3b 69ec 8e3d cfde a53e af46 a93e
000000a0: 318e 7d3c 921a 363d 4673 57be d374 81bd
000000b0: 1362 75be a1c3 afbe 41f2 c7bd 078c 03bd
000000c0: 38ff 81bc 7f9c 213e 85b0 203e 7904 d7be
000000d0: 56a2 a1bd 678d 02bf ec3f cdbe acbc 653e
000000e0: 79fa d6be 0552 6ebd c9d2 a5be ea3b 82be
000000f0: 117e fa3e 3236 f0bc c78c adbd 6c87 7e3d

model/batch_normalization_1/batchnorm/mul_1;model/batch_normalization_1/batchnorm/add_1;model/dense_4/MatMul;model/dense_4/Relu;model/dense_4/BiasAdd f4 [64, 64]
0.13411896 0.13884479 0.119003296 -0.13457368 -0.07967909 0.11072162 0.122704014 -0.1525519
0.13336529 0.10741002 0.23484714 0.14255494 -4.360447e-05 -0.2277141 -0.21910843 0.20702794
0.043225728 0.08380638 -0.16236982 0.06293489 0.188931 -0.08814891 -0.20328017 -0.0783583
0.08359293 -0.0657424 -0.07630787 0.19827972 -0.17294514 0.13875344 0.23143558 -0.06475074
-0.10488533 -0.19958036 -0.19431148 0.12993935 0.15044783 0.20557477 -0.03966011 -0.14451998
-0.15374307 -0.2108946 0.18950608 -0.10132123 -0.18472604 0.086866304 0.067200966 0.057835136
-0.13980667 0.1309256 -0.18890359 0.1561626 0.05863555 -0.073735386 0.04480769 0.05445446
-0.18944098 -0.016529426 -0.15069218 0.17048687 -0.16579126 -0.1858332 -0.06423946 -0.07330978
-0.0487668 0.12222671 0.014583438 -0.18850796 -0.01557953 -0.028902901 0.062539116 0.21785225
-0.011928443 0.103637695 0.037500467 -0.22988877 -0.039427046 -0.013528647 -0.10577552 -0.14834937
0.16926585 0.062008902 0.013765289 0.10845931 0.07672166 0.015826479 0.20845136 -0.051518284
-0.18507399 0.10135229 0.19514163 0.057836436 -0.042738255 0.13451019 0.0061015687 -0.06120819
-0.03129788 0.16554031 -0.027886163 0.22091864 0.04979665 -0.018254122 0.041578107 -0.06936927
0.20380574 -0.07203047 -0.15171629 -0.09059086 -0.14730753 -0.090042256 0.20586787 -0.21398082
-0.1407968 0.15302569 0.1724071 0.08098845 0.1783166 0.057531673 -0.004806285 0.15763316
0.11959127 -0.069386266 0.12976667 0.07968585 0.054328848 -0.17373082 0.17208998 -0.032433193
0.011074962 -0.18253648 -0.08828764 0.0048735505 0.06198204 -0.23054622 0.13411145 -0.1963266
0.037917163 -0.031802747 -0.06206869 0.09865575 -0.20208257 -0.0076650702 0.0124564795 -0.1356617
0.15402357 -0.07498525 -0.2102226 -0.14765476 -0.06744287 0.06447812 -0.14822185 -0.061766043
-0.20265599 0.19132362 -0.17961748 -0.069809824 0.05887432 0.1704472 0.18042009 -0.09254896
0.17772458 -0.21200562 -0.013675329 0.052129816 0.057466425 0.1395815 0.08244647 -0.12982453
0.15506509 0.07453289 -0.18167469 -0.17071252 0.041670553 -0.14804043 0.026628505 -0.04967989
-0.07535604 0.14413403 0.19621576 0.1312767 0.22284187 0.19299452 -0.0023741534 0.051260527
0.06385966 -0.1402455 -0.14070182 -0.13403352 0.12609966 -0.07998161 0.058789354 0.114898175
-0.103716075 -0.08420563 -0.1301208 -0.054374117 0.09532207 -0.1770335 -0.23857775 0.11171829
0.06805192 0.13685505 -0.111139126 -0.17333722 0.12181515 -0.23594475 -0.15411144 -0.17099403
-0.19691373 0.13941316 0.10168031 -0.04708463 0.18910305 -0.17204861 0.042153955 -0.013434123
0.004951105 -0.19181237 -0.2428649 -0.026833912 -0.038636927 0.072790615 -0.07108043 -0.22581887
0.1649364 0.23093833 0.007021396 -0.12886976 -0.13394572 -0.107709095 0.028420093 0.13754275
0.013727526 0.1831056 -0.05388658 -0.13714342 -0.010701475 -0.012870101 0.268736 0.113449514
-0.20831077 0.042118564 0.18170078 -0.08910301 -0.18607096 -0.14407025 -0.0017606056 -0.06209747
0.1500169 0.021832528 0.017458376 0.21151371 -0.19598281 -0.10828532 0.022865942 -0.012183813
00000000: 7b56 093e 542d 0e3e 00b8 f33d afcd 09be
00000010: ca2e a3bd 04c2 e23d 3e4c fb3d 9136 1cbe
00000020: e990 083e c9f9 db3d c57b 703e ecf9 113e
00000030: f1e3 36b8 e32d 69be f65d 60be 22ff 533e
00000040: 760d 313d aea2 ab3d 4644 26be 02e4 803d
00000050: 2177 413e 6a87 b4bd ad28 50be 517a a0bd
00000060: c532 ab3d f4a3 86bd 4d47 9cbd d709 4b3e
00000070: 8818 31be 6215 0e3e 73fd 6c3e 099c 84bd
00000080: 1fce d6bd cb5e 4cbe 97f9 46be d20e 053e
00000090: ff0e 1a3e 3182 523e a472 22bd 0cfd 13be
000000a0: d36e 1dbe c1f4 57be e20d 423e 8181 cfbd
000000b0: d328 3dbe f6e6 b13d a9a0 893d 89e4 6c3d
000000c0: 7b29 0fbe 5c11 063e f16f 41be 17e9 1f3e
000000d0: d52b 703d 9402 97bd 4588 373d a40b 5f3d
000000e0: d1fc 41be b868 87bc 0d4f 1abe 1c94 2e3e
000000f0: 2fc5 29be 0f4b 3ebe fa8f 83bd 7023 96bd
00000100: b2bf 47bd ff51 fa3d 5fef 6e3c 3b08 41be
00000110: 4941 7fbc c7c5 ecbc 8214 803d a914 5f3e
00000120: 846f 43bc 0040 d43d 179a 193d f667 6bbe
00000130: 417e 21bd 42a7 5dbc d6a0 d8bd e6e8 17be
00000140: 0754 2d3e 0cfd 7d3d cf87 613c ea1f de3d
00000150: 3f20 9d3d 88a6 813c 4674 553e d604 53bd
00000160: 0984 3dbe ca91 cf3d 35d3 473e e6e5 6c3d
00000170: 4f0e 2fbd 0abd 093e abef c73b 70b5 7abd
00000180: 3532 00bd 6683 293e 8671 e4bc 7f38 623e
00000190: 92f7 4b3d ab89 95bc ce4d 2a3d 7a11 8ebd
000001a0: 74b2 503e b684 93bd 845b 1bbe b387 b9bd
000001b0: c9d7 16be 1368 b8bd 07cf 523e ca1d 5bbe
000001c0: 092d 10be c4b2 1c3e 7d8b 303e 46dd a53d
000001d0: a098 363e 55a6 6b3d 0a7e 9dbb 966a 213e
000001e0: 45ec f43d 631a 8ebd 8ee1 043e 5632 a33d
000001f0: ed87 5e3d 7ee6 31be 5b38 303e abd8 04bd
00000200: c273 353c d8ea 3abe 26d0 b4bd 4eb2 9f3b
00000210: e1e0 7d3d 4f14 6cbe 8354 093e d709 49be
00000220: 074f 1b3d 9943 02bd bd3b 7ebd 070c ca3d
00000230: bcee 4ebe 452b fbbb 4316 4c3c e7ea 0abe
00000240: 5bb8 1d3e de91 99bd 9844 57be cf32 17be
00000250: 7d1f 8abd 1b0d 843d 78c7 17be 64fe 7cbd
00000260: 0d85 4fbe 57ea 433e a5ed 37be 74f8 8ebd
00000270: 3326 713d b689 2e3e 0bc0 383e 4f8a bdbd
00000280: 6ffd 353e 0018 59be 7d0e 60bc 1386 553d
00000290: ea61 6b3d 74ee 0e3e b2d9 a83d b9f0 04be
000002a0: 62c9 1e3e b3a4 983d ee08 3abe 43cf 2ebe
000002b0: beae 2a3d e997 17be 0624 da3c 247d 4bbd
000002c0: 4454 9abd df97 133e c9ec 483e 666d 063e
000002d0: a930 643e 5ba0 453e af97 1bbb 8ff6 513d
000002e0: dac8 823d 849c 0fbe 2314 10be 1540 09be
000002f0: 4520 013e 66cd a3bd 1bcd 703d bc4f eb3d
00000300: 1869 d4bd 0074 acbd 633e 05be 65b7 5ebd
00000310: 3838 c33d 4548 35be ba4d 74be 8fcc e43d
00000320: ce5e 8b3d bb23 0c3e e99c e3bd 507f 31be
00000330: 397a f93d 809b 71be 64cf 1dbe 0f19 2fbe
00000340: c1a3 49be 53c2 0e3e c43d d03d d0db 40bd
00000350: 3ba4 413e 832d 30be a0a9 2c3d cc1a 5cbc
00000360: e13c a23b 766a 44be 94b1 78be cbd2 dbbc
00000370: c141 1ebd 3f13 953d 9e92 91bd 103d 67be
00000380: 16e5 283e 197b 6c3e bd13 e63b 6ff6 03be
00000390: 1129 09be 9696 dcbd 41d1 e83c 02d8 0c3e
000003a0: 6be9 603c 0980 3b3e 2db8 5cbd 536f 0cbe
000003b0: 3d55 2fbc 1edd 52bc c497 893e 3858 e83d
000003c0: 6b4f 55be 8484 2c3d c50f 3a3e a47b b6bd
000003d0: 6389 3ebe 2787 13be 1fc4 e6ba eb59 7ebd
000003e0: 089e 193e 21da b23c de04 8f3c 0d97 583e
000003f0: b8af 48be b2c4 ddbd 5b51 bb3c 9e9e 47bc

model/position_output/BiasAdd/ReadVariableOp f4 [2]
0.03168515 0.01584867
00000000: 4ac8 013d 12d5 813c

model/floor_output/BiasAdd/ReadVariableOp f4 [5]
0.027841808 0.01190017 -0.036911413 0.013721535 -0.017044354
00000000: 8114 e43c eef8 423c 6c30 17bd 4ad0 603c
00000010: 9aa0 8bbc

model/dense/BiasAdd/ReadVariableOp f4 [128]
0.012839077 0.010710839 0.02259247 0.02538142 -0.0026417733 -0.012181782 -0.006357526 0.0047350177
0.02701364 0.036712058 0.0020026434 0.0245141 -0.002445933 -0.007449858 -0.00078345195 0.011312738
0.0016392706 -0.0028970875 0.008837775 0.016041502 0.006981772 0.02310169 0.0025803049 0.0212933
0.0047500674 0.017144501 0.011545423 0.0057278876 -0.009971653 0.021259647 0.033004045 0.012456797
0.021778824 0.020646332 0.004196722 0.018880187 0.028947359 0.014210344 0.012130882 -0.0023722854
-0.015749915 -0.016850369 0.0027584222 0.035918534 0.006257002 0.015623061 -0.020199612 0.033980716
0.007043895 0.010852981 0.016350856 0.014145494 0.025514035 0.009189978 0.007446035 0.015337164
0.001190189 0.018836055 0.02600283 0.008932816 -0.0012589346 0.011442224 0.014837324 0.006624949
-0.011541421 -0.0071657337 0.00057422655 0.034312338 -0.0051506823 0.024282401 -0.012279625 -0.0056566754
0.0068904366 0.024702396 0.006495978 0.0022420273 0.029022517 0.006857078 0.013801033 0.013470755
0.0015424906 0.013824434 0.006182708 -0.0019329713 0.00031671813 -0.004908843 -0.008581218 0.00501543
-0.026212268 0.013794464 -0.023053931 0.01307119 -0.0064348713 0.011431398 0.0060848854 0.008896355
0.010580407 0.012019569 0.0125784315 0.023678418 0.0185585 0.02332327 0.008910529 0.004078748
0.0012555103 -0.008868023 0.002095982 0.03336512 0.014017362 0.002419386 -0.0075365715 -0.009822422
-0.009645526 0.011047554 -0.00072575925 0.014005263 0.016478587 0.02246865 0.017277708 -0.010191631
0.028690703 0.007689707 0.0064700935 -0.0059980927 0.03471133 0.012555784 0.010160011 -0.012156089
00000000: fe5a 523c 847c 2f3c d813 b93c b2ec cf3c
00000010: 9a21 2dbb 1996 47bc cb52 d0bb 3528 9b3b
00000020: b64b dd3c 625f 163d c83e 033b cbd1 c83c
00000030: f24b 20bb f01d f4bb 9260 4dba 1059 393c
00000040: cbdc d63a 10dd 3dbb 51cc 103c 7869 833c
00000050: 59c7 e43b c13f bd3c 551a 293b 496f ae3c
00000060: 74a6 9b3b a072 8c3c 0429 3d3c 01b1 bb3b
00000070: 2560 23bc b628 ae3c 402f 073d 9817 4c3c
00000080: 8169 b23c 7f22 a93c a884 893b 9faa 9a3c
00000090: 0323 ed3c 81d2 683c 9bc0 463c 5878 1bbb
000000a0: f705 81bc c909 8abc a5c6 343b 501f 133d
000000b0: 8907 cd3b def7 7f3c a879 a5bc 5d2f 0b3d
000000c0: 79d0 e63b b4d0 313c 3bf2 853c 81c2 673c
000000d0: cf02 d13c 9091 163c defd f33b ba48 7b3c
000000e0: 1e00 9c3a 124e 9a3c e303 d53c f25a 123c
000000f0: d602 a5ba 2a78 3b3c 3f18 733c 1a16 d93b
00000100: 3a18 3dbc 88ce eabb b187 163a 188b 0c3d
00000110: 0ec7 a8bb e3eb c63c 7b30 49bc a25b b9bb
00000120: 2cc9 e13b ae5c ca3c 37dc d43b faee 123b
00000130: a1c0 ed3c 57b1 e03b ba1d 623c 71b4 5c3c
00000140: 652d ca3a e17f 623c 5098 ca3b c15b fdba
00000150: 300d a639 5cda a0bb 3d98 0cbc 7a58 a43b
00000160: 1cbb d6bc 2d02 623c 99db bcbc 8b28 563c
00000170: 9ddb d2bb c24a 3b3c b863 c73b 04c2 113c
00000180: 7259 2d3c baed 443c c415 4e3c 3ef9 c13c
00000190: ff07 983c 7110 bf3c 78fd 113c 05a7 853b
000001a0: ef8f a43a 2f4b 11bc be5c 093b dda9 083d
000001b0: 14a9 653c 908e 1e3b 58f5 f6bb 39ee 20bc
000001c0: 4508 1ebc cd00 353c e140 3eba 5576 653c
000001d0: 1afe 863c 2d10 b83c fb89 8d3c ccfa 26bc
000001e0: c408 eb3c f0f9 fb3b 1403 d43b a68b c4bb
000001f0: 782d 0e3d c6b6 4d3c 2d76 263c 552a 47bc

model/building_output/BiasAdd/ReadVariableOp f4 [3]
-0.018062327 -0.009784715 0.024531819
00000000: 72f7 93bc 1250 20bc f4f6 c83c

model/dense/MatMul f4 [128, 385]
0.0045092367 0.012742332 0.057258476 0.022408767 -0.057700306 -0.06805376 -0.02973703 0.07275331
-0.036855623 -0.046675604 -0.017984906 -0.045581996 0.05326082 -0.06951949 0.09734392 0.0036230632
0.06746917 0.001588496 0.032867458 0.060907032 -0.055948235 -0.044140004 0.08353153 -0.05208992
0.0063371523 -0.027766379 0.04315381 0.05771042 0.10086282 0.08349132 -0.027639473 -0.024720266
0.08879238 0.05608137 0.11879582 0.009589152 -0.017627241 -0.08854359 0.105150595 0.013410384
0.02799031 -0.06654967 -0.04640496 -0.0019249584 0.055307962 0.08249111 -0.008496899 0.07066192
-0.0044476627 0.034742855 0.07877927 0.06915673 0.00024066486 0.042544182 0.092367426 0.0708405
0.091984294 0.10282631 0.088562556 -0.061215337 0.09096094 -0.101904325 -0.058791097 0.0047059427
0.059109367 0.04054712 0.06020122 0.033804998 0.08785395 -0.09687469 0.06220314 0.025401855
0.016375918 0.09532102 0.0007740877 0.05508227 -0.06444714 -0.076209284 -0.053700946 -0.06572385
-0.0911677 0.04302122 0.031468783 -2.1641725e-05 0.027915321 0.09411249 0.023150407 -0.04945254
-0.051599815 -0.0059603807 0.0051309126 0.079714656 0.0066042393 0.099513866 0.031037789 -0.010945933
-0.09201842 -0.02138655 0.077753976 -0.10411398 0.091644175 0.07404003 0.081518754 -0.01622443
-0.03878019 -0.0802081 0.0022560551 0.07418517 0.048995707 -0.01864536 -0.07530986 0.098322414
-0.014846411 -0.018601742 -0.08121979 -0.054885823 0.10550065 -0.05404167 -0.018111229 -0.015433432
-0.010666397 0.034582105 -0.07577621 0.07312069 0.05913013 0.0072759595 -0.0560846 0.027492616
0.016671881 0.09800176 0.014046084 -0.027821707 0.055562716 0.033078615 0.064914994 -0.048340607
0.06591543 0.033378456 0.08904679 0.062361956 0.098880306 -0.09909156 -0.012650776 -0.076439135
-0.051916823 0.064346574 0.0632552 0.028642057 -0.08953732 -0.09516967 0.12369263 -0.052701484
0.106703386 0.037409317 -0.07561231 -0.03910415 0.110013604 -0.030777687 0.08606102 0.0032955958
0.05482221 0.035496425 0.090445526 -0.008205767 0.066926286 0.035126276 0.07221173 -0.04162647
0.078546 -0.013543645 -0.006563785 0.011098648 0.03676681 -0.022062467 -0.091088496 0.017028349
0.02082745 -0.04655383 0.056460127 -0.080962606 -0.010738378 0.07454842 -0.0671863 0.0050219544
-0.00024754828 -0.09128974 0.06619877 -0.04307914 0.019764185 0.045413427 0.06031675 0.016345428
-0.006382743 0.022104042 -0.0520281 0.09618853 -0.07427286 -0.06892767 0.093147136 0.1071776
0.049971998 0.06732013 0.045664042 -0.04338461 0.05990459 0.10103673 -0.0827355 0.051081736
0.0713833 -0.03315836 -0.0847977 -0.028848462 0.0562925 0.091523856 -0.021138271 0.049147412
-0.07703477 -0.070315 0.05268573 0.08299219 0.105456196 0.042880267 -0.07806869 0.055515848
-0.033023324 0.103373066 -0.049685676 0.0071861353 -0.04607827 0.098247066 -0.03900058 -0.03470225
0.061226163 0.05894961 -0.095218755 0.011511333 0.07111181 -0.03007732 0.069787525 -0.07076084
0.04946418 -0.042290207 0.07270759 -0.07101871 0.005320248 -0.02969789 0.04354476 -0.0035029722
0.021222083 -0.07284863 -0.035053086 0.057133343 -0.0078785205 -0.055283457 0.06282573 0.033705465
00000000: 38c2 933b 37c5 503c dd87 6a3d 9792 b73c
00000010: 2857 6cbd c55f 8bbd 129b f3bc b0ff 943d
00000020: ecf5 16bd eb2e 3fbd 1555 93bc 30b4 3abd
00000030: 0528 5a3d 3c60 8ebd 405c c73d ea70 6d3b
00000040: 472d 8a3d 1535 d03a 07a0 063d a779 793d
00000050: fa29 65bd 26cc 34bd 9412 ab3d 3d5c 55bd
00000060: e3a7 cf3b 5176 e3bc 0dc2 303d c361 6c3d
00000070: 2b91 ce3d 7ffd aa3d 2d6c e2bc 2882 cabc
00000080: c8d8 b53d 94b5 653d 394b f33d d21b 1d3c
00000090: 0167 90bc 5756 b5bd 3259 d73d 3ab7 5b3c
000000a0: ef4b e53c 324b 88bd 2113 3ebd e34e fcba
000000b0: 9a8a 623d 19f1 a83d 9436 0bbc 32b7 903d
000000c0: b3bd 91bb 864e 0e3d 0757 a13d 0ba2 8d3d
000000d0: fb5a 7c39 cf42 2e3d 222b bd3d d314 913d
000000e0: 4362 bc3d 9a96 d23d 4960 b53d efbc 7abd
000000f0: bb49 ba3d 37b3 d0bd efce 70bd 4f34 9a3b
00000100: aa1c 723d bd14 263d 8e95 763d 1c77 0a3d
00000110: c6ec b33d 3d66 c6bd b8c8 7e3d 8d17 d03c
00000120: ca26 863c ab37 c33d 25ec 4a3a f29d 613d
00000130: ddfc 83bd 9d13 9cbd 86f5 5bbd 3a9a 86bd
00000140: 22b6 babd 0537 303d 69e5 003d 408b b5b7
00000150: acae e43c 0dbe c03d eca5 bd3c bf8e 4abd
00000160: 545a 53bd 4c4f c3bb 3721 a83b 7041 a33d
00000170: 6068 d83b edcd cb3d f642 fe3c 9256 33bc
00000180: 2774 bcbd d932 afbc 7a3d 9f3d b639 d5bd
00000190: f1af bb3d 4da2 973d 4ef3 a63d 19e9 84bc
000001a0: fad7 1ebd 2544 a4bd 53da 133b 65ee 973d
000001b0: b9af 483d 27be 98bc 0e3c 9abd 435d c93d
000001c0: 5c3e 73bc ae62 98bc 9056 a6bd f5cf 60bd
000001d0: ba10 d83d cc5a 5dbd 005e 94bc 81dc 7cbc
000001e0: 1dc2 2ebc f7a5 0d3d 8f30 9bbd 4dc0 953d
000001f0: 6f32 723d 2c6b ee3b f7b8 65bd 3238 e13c
00000200: 7893 883c 26b5 c83d 8c21 663c 59ea e3bc
00000210: bb95 633d 717d 073d 27f2 843d cd00 46bd
00000220: abfe 863d d9b7 083d 2a5e b63d 406f 7f3d
00000230: c281 ca3d 84f0 cabd 3345 4fbc 1f8c 9cbd
00000240: bca6 54bd 23c8 833d f18b 813d bfa2 ea3c
00000250: 585f b7bd 51e8 c2bd 9052 fd3d 83dd 57bd
00000260: 4e87 da3d 833a 193d a0da 9abd ac2b 20bd
00000270: d04e e13d 7d21 fcbc c340 b03d ecfa 573b
00000280: 418d 603d b364 113d 813b b93d 7b71 06bc
00000290: a610 893d 92e0 0f3d bee3 933d 8480 2abd
000002a0: badc a03d 2ae6 5dbc 0515 d7bb 1bd7 353c
000002b0: cb98 163d 59bc b4bc 9b8c babd 097f 8b3c
000002c0: 549e aa3c 3baf 3ebd bc42 673d b9cf a5bd
000002d0: 06f0 2fbc d8ac 983d f998 89bd 358f a43b
000002e0: 5ec9 81b9 1df6 babd 3993 873d c173 30bd
000002f0: 80e8 a13c 6e03 3a3d b20e 773d d9e6 853c
00000300: 5426 d1bb 8913 b53c 6b1b 55bd 7efe c43d
00000310: 5f1c 98bd f329 8dbd edc3 be3d ee7f db3d
00000320: 70af 4c3d 23df 893d 380a 3b3d 10b4 31bd
00000330: 845e 753d 58ec ce3d 3b71 a9bd 153b 513d
00000340: 6831 923d 0fd1 07bd 6baa adbd 9c53 ecbc
00000350: f792 663d dc70 bb3d 2b2a adbc cc4e 493d
00000360: 68c4 9dbd 5001 90bd fecc 573d cff7 a93d
00000370: 6bf9 d73d 38a3 2f3d 7ae2 9fbd 9664 633d
00000380: 7743 07bd 42b5 d33d 3583 4bbd ac79 eb3b
00000390: 91bc 3cbd c235 c93d 12bf 1fbd f223 0ebd
000003a0: 49c8 7a3d 2575 713d 0d02 c3bd 089a 3c3c
000003b0: 12a3 913d b664 f6bc c3ec 8e3d 0feb 90bd
000003c0: f49a 4a3d 7f38 2dbd b8e7 943d 4272 91bd
000003d0: 7a55 ae3b fd48 f3bc fe5b 323d 1f92 65bb
000003e0: efd9 ad3c aa31 95bd d393 0fbd a704 6a3d
000003f0: e914 01bc e870 62bd c7aa 803d be0e 0a3d

model/building_output/MatMul f4 [3, 64]
-0.21837373 0.009806749 0.10693413 0.019897072 -0.075190626 0.1600848 -0.05877137 -0.089786895
-0.11094488 -0.13343616 -0.14135623 0.062369272 -0.077432506 0.14989029 0.14904884 -0.17459072
-0.21006928 0.15602316 -0.12016171 -0.09115412 0.2577583 -0.1219924 -0.1415625 0.26658553
0.23849164 0.07520552 0.30609 -0.09133246 0.25694928 0.05548617 -0.27654094 -0.02154306
0.117494375 -0.22942825 0.23107569 0.28045097 0.2205114 0.2315884 -0.2962964 -0.0439054
-0.20541391 0.2123772 -0.0349102 -0.3099317 -0.07024091 -0.15159999 -0.26624137 -0.112692624
0.2715799 0.19209762 -0.28131294 0.17641628 0.17500882 -0.1497429 0.08249423 0.048858825
0.21418592 -0.20659587 0.25808072 0.15848488 0.20501763 0.29024306 -0.0044458886 0.15185112
-0.06548788 -0.2075864 -0.24231872 0.24619637 0.09609098 0.28414974 0.08766975 0.29404798
-0.024926806 0.04049274 -0.15345669 -0.17541762 -0.16851196 -0.06518454 -0.16497913 -0.02552254
0.01596511 0.29446363 0.19331299 -0.30779123 0.13980621 0.0106118675 0.11348717 0.12075408
-0.28052878 0.21208581 0.0008782241 0.1697042 0.25600925 -0.12592776 -0.038098495 -0.30579543
0.2176589 -0.09039528 0.09005305 -0.066653095 -0.30242983 0.21672547 -0.24091692 -0.19016899
0.27799538 0.24509476 0.14499338 0.27345785 -0.31091934 0.24271974 0.0049450113 -0.19121781
-0.013491442 -0.18837254 -0.21733624 -0.2687163 -0.15668274 0.17548788 0.013601486 -0.12080485
-0.21952805 0.12304308 0.2509226 -0.18463099 0.26255277 0.23914795 -0.27294254 -0.007723127
0.040737115 -0.07402152 -0.11460295 -0.05726343 -0.050184604 -0.16951312 0.08121187 -0.21704671
-0.21982943 0.03133283 0.17874813 0.15539534 -0.18115023 -0.07447782 0.24941991 -0.0428853
0.28938127 -0.19740608 -0.13072316 -0.23126939 0.050119475 0.2948445 0.32371613 0.13135801
-0.017059423 -0.05336601 -0.17268981 -0.1378807 -0.061677095 -0.056651678 0.019003095 0.21472648
0.06871162 0.28470698 -0.11773477 -0.28128305 0.19061042 -0.16459587 0.102436945 0.18625917
-0.03128572 0.28844717 0.12886512 0.12321063 -0.21445714 -0.05751729 -0.104451895 0.05640623
-0.19525827 -0.04665015 -0.08690756 0.3094317 -0.09354926 -0.087390095 -0.034370314 -0.13087006
-0.07366878 -0.2570768 -0.14468881 0.027747115 -0.07966232 -0.039763436 -0.053533394 0.09754778
00000000: 5d9d 5fbe 7dac 203c 4800 db3d 2fff a23c
00000010: 8bfd 99bd 45ed 233e 40ba 70bd 31e2 b7bd
00000020: 1237 e3bd 7da3 08be b0bf 10be ec76 7f3d
00000030: ef94 9ebd d77c 193e 42a0 183e e9c7 32be
00000040: 671c 57be 89c4 1f3e 5817 f6bd 03af babd
00000050: e5f8 833e 27d7 f9bd c3f5 10be e67d 883e
00000060: 2737 743e 5a05 9a3d d4b7 9c3e 830c bbbd
00000070: db8e 833e 7745 633d c696 8dbe 127b b0bc
00000080: e4a0 f03d 3def 6abe 1b9f 6c3e 4597 8f3e
00000090: becd 613e 8225 6d3e 29b4 97be 26d6 33bd
000000a0: 0658 52be 6979 593e fffd 0ebd 5eaf 9ebe
000000b0: 77da 8fbd 073d 1bbe ca50 88be 64cb e6bd
000000c0: 850c 8b3e 3db5 443e 4008 90be 78a6 343e
000000d0: 8335 333e 3456 19be bcf2 a83d 3120 483d
000000e0: 8e53 5b3e de8d 53be 2823 843e dc49 223e
000000f0: 24f0 513e bd9a 943e d1ae 91bb dc7e 1b3e
00000100: 821e 86bd 8791 54be 6622 78be e71a 7c3e
00000110: 59cb c43d 137c 913e 338c b33d 758d 963e
00000120: 4d33 ccbc b7db 253d c023 1dbe ada0 33be
00000130: 668e 2cbe 797f 85bd 4af0 28be a514 d1bc
00000140: 43c9 823c f0c3 963e d7f3 453e d096 9dbe
00000150: 5c29 0f3e 66dd 2d3c f66b e83d ea4d f73d
00000160: 78a1 8fbe 062d 593e 9f38 663a f0c6 2d3e
00000170: a513 833e 35f3 00be 2b0d 1cbd 3891 9cbe
00000180: fae1 5e3e 2921 b9bd bc6d b83d 6b81 88bd
00000190: 15d8 9abe 48ed 5d3e edb2 76be a9bb 42be
000001a0: 6955 8e3e 1ffa 7a3e 2579 143e ab02 8c3e
000001b0: d230 9fbe 868b 783e c309 a23b 9ace 43be
000001c0: 360b 5dbc bbe4 40be 648d 5ebe 2f95 89be
000001d0: 7171 20be 18b3 333e c4d8 5e3c 8868 f7bd
000001e0: f6cb 60be 03fe fb3d ed78 803e e80f 3dbe
000001f0: 516d 863e 33e3 743e 20bf 8bbe 4912 fdbb
00000200: f6db 263d 9898 97bd f4b4 eabd 0f8d 6abd
00000210: 5f8e 4dbd d994 2dbe 6952 a63d 7e41 5ebe
00000220: f71a 61be db56 003d c009 373e f51f 1f3e
00000230: 727f 39be d487 98bd ef67 7f3e 7fa8 2fbd
00000240: c829 943e d224 4abe 4bdc 05be e2d1 6cbe
00000250: 144a 4d3d dcf5 963e 1fbe a53e b782 063e
00000260: 34c0 8bbc 5196 5abd 99d5 30be 9930 0dbe
00000270: 1fa1 7cbd 970b 68bd 61ac 9b3c 42e1 5b3e
00000280: aeb8 8c3d 1dc5 913e ed1e f1bd 5504 90be
00000290: 612f 433e d28b 28be 76ca d13d b9ba 3e3e
000002a0: 7525 00bd 59af 933e 38f5 033e db55 fc3d
000002b0: a79a 5bbe 4097 6bbd e0ea d5bd 380a 673d
000002c0: c9f1 47be 3a14 3fbd 97fc b1bd d56d 9e3e
000002d0: c196 bfbd 94f9 b2bd e3c7 0cbd cd02 06be
000002e0: a8df 96bd 929f 83be 4e29 14be eb4d e33c
000002f0: 0026 a3bd fcde 22bd d545 5bbd 21c7 c73d
