250713/models/original_hadnn.tflite (tflite, 362344 bytes, 26 tensors)

model/position_output/MatMul f4 [2, 64]
000000 97 9c 59 be de 35 1d be 73 09 35 bd dd 7f ff bd
       -0.2125114 -0.1535258 -0.044198465 -0.1247556
000010 7c 4a 9b bd 54 c6 cc bd 60 57 30 bd a0 43 64 bd
       -0.07582566 -0.099987656 -0.043052077 -0.055728555
000020 6e 91 5b 3c b0 14 b6 bd 26 54 81 bd c1 c5 28 bc
       0.013401372 -0.088906646 -0.06314878 -0.010301054
000030 05 fa f6 3b aa f2 40 be a0 2c 7c bd 3c 6d 4c 3e
       0.007537129 -0.18842569 -0.061565995 0.19963545
000040 ad f9 7c 3d f0 54 05 bd 9b cb 14 3e 97 0a 08 3d
       0.061761547 -0.032551706 0.14530794 0.033213224
000050 2f bb 00 be 7a 72 23 3e 2d d4 74 be 2f 55 1a 3e
       -0.12571405 0.15961638 -0.23909064 0.15071557
000060 ea 44 87 3d 2d c5 bb bd 2b 2c 68 be b4 3c 97 3d
       0.06604941 -0.09168468 -0.22673099 0.07384625
000070 df ca e3 3d 00 c2 4c 3e aa 62 81 bd d4 60 47 3e
       0.11122679 0.1999588 -0.06317647 0.19470531
000080 8b 9e 0b be 07 23 65 3e c0 22 8c bd a0 57 12 be
       -0.13634698 0.22376643 -0.068425655 -0.14291239
000090 90 08 3d be 59 19 4d 3e 83 30 33 3e 1a e5 7f 3e
       -0.18460298 0.200292 0.17498975 0.24989739
0000a0 b2 6e 79 3e 7c 75 61 bc 7a 04 98 bd 1d 92 31 be
       0.24358633 -0.013760921 -0.07422729 -0.17340894
0000b0 3c ea 50 3e fb 9f f0 bc 30 be 7e 3e ba 7b 4d 3d
       0.20401853 -0.02937316 0.24877238 0.050166823
0000c0 0c 10 37 3e 43 73 30 be 79 b8 9e bd 90 63 7a b9
       0.17877215 -0.17231469 -0.07750029 -0.00023878948
0000d0 65 c1 95 3d 33 bc 73 be 60 13 1e bc e4 32 4a 3e
       0.07312278 -0.23802261 -0.009648174 0.19745976
0000e0 f1 f8 61 be fc cf 6d be 69 34 02 bb 9c 3a dc 3b
       -0.2206762 -0.23223871 -0.0019867665 0.006720854
0000f0 b1 d9 ac bd a7 d4 e9 bb 9a 9c 9e 3d e5 f6 2f 3c
       -0.08439959 -0.007135946 0.07744713 0.010740017
000100 b1 3c d5 bd f0 0b e6 bd 6f d5 43 3b 09 c1 3d 3c
       -0.104119666 -0.11232746 0.0029881855 0.011581668
000110 70 72 60 3e 6e ea 16 3e 01 27 63 3c 66 7f 6e 3e
       0.21918654 0.14737865 0.01386428 0.23290786
000120 1d 9d c6 3d 98 bd ae 3d 50 db a5 3d d6 f4 1a be
       0.09697936 0.08532256 0.08098471 -0.1513246
000130 fb bc 22 3e 2f ac e1 3d 00 c6 ad bd eb 97 51 bd
       0.15892403 0.110191695 -0.08485031 -0.05117027
000140 42 5e 1c bd 6c af 32 be 85 82 94 3d 1f 2c aa bd
       -0.03817583 -0.1744973 0.07251457 -0.08309197
000150 99 29 d9 bc 95 84 22 3e 42 7e 5f 3d 8e e5 10 3d
       -0.026509093 0.15870889 0.05456377 0.03537517
000160 0e b4 94 bd 19 45 dd 3c 3f 41 ac bc a8 1f 3a be
       -0.07260905 0.027010487 -0.021027206 -0.18176138
000170 6e 1a 9d bd 11 31 43 3e 67 0e 4e 3e 97 8a 21 be
       -0.07671057 0.19061686 0.20122682 -0.15775524
000180 fa 98 7a be 63 10 eb 3d 06 19 35 3e 8c 96 3d 3e
       -0.24472418 0.11477735 0.17685327 0.1851446
000190 1a 79 54 be 35 2e 2a be 62 df 62 3e d7 67 4c 3e
       -0.20749322 -0.16619189 0.22155526 0.19961487
0001a0 79 77 11 3c 7b 7c 6f bd 04 df 3f be 08 00 66 be
       0.008878582 -0.058468323 -0.18737417 -0.2246095
0001b0 7e d2 04 be de e1 15 bd 83 37 6b 3e 22 81 e7 bc
       -0.12970921 -0.036592357 0.22970395 -0.028259818
0001c0 7d d0 56 bd 61 16 a7 3d 22 61 0f be 69 d5 a3 bd
       -0.052444924 0.08158565 -0.14001897 -0.07999689
0001d0 91 34 c0 3d 30 4e b2 3d 0e ab de bd 50 aa 7d bd
       0.09385026 0.08706319 -0.1087247 -0.06193
0001e0 8e b9 13 3e 6f 2f 82 bd 39 97 1a be b9 6a 13 3e
       0.14426252 -0.063567035 -0.1509675 0.1439618
0001f0 65 5f 4c bb 72 ff 3e bc c5 03 a8 3d f6 08 18 3d
       -0.003118479 -0.011657583 0.08203844 0.03711792

model/floor_output/MatMul f4 [5, 64]
000000 f3 ed 5b 3e dc e9 3e be d9 01 48 3e e6 08 27 be
       0.21477489 -0.18643898 0.19531955 -0.16311988
000010 91 9a ed 3d d7 89 20 3e 9b bc ae bd 29 b2 3b 3e
       0.11601747 0.15677582 -0.085320674 0.18329681
000020 b3 32 98 3e 94 c7 44 bd 2f 39 23 3e a4 b9 97 3e
       0.2972618 -0.048041895 0.15939783 0.2963382
000030 7d 47 f8 bc db 1a 65 3e 0d 92 1a be 27 1e 24 be
       -0.030307526 0.22373526 -0.15094776 -0.16027127
000040 07 73 96 bd f8 c2 82 be fa 20 7b be 25 50 80 3b
       -0.073461585 -0.25539374 -0.24524298 0.003915804
000050 6c 0d 9b 3d e5 0e 0d be 27 0b 52 bd 88 2f 1e be
       0.075709194 -0.13775213 -0.051280167 -0.15447819
000060 28 ec 7b be b1 53 32 3e 75 ff 23 3e a8 46 d1 3d
       -0.24601805 0.17414738 0.16015418 0.10218555
000070 62 aa 4f be 4a f5 86 3e 55 c1 93 3e bd 25 82 be
       -0.2027984 0.26359016 0.28858438 -0.25419417
000080 c7 8c cc 3b e9 da 8a 3d 7f f4 0d 3d a2 1a fd bc
       0.006242368 0.06780035 0.034656998 -0.030896489
000090 92 23 76 3e 0b fb 10 be c6 63 67 bd ec 8c 4e be
       0.24037006 -0.14158265 -0.056491636 -0.20170945
0000a0 ad 10 b2 bc 7a ce 57 3e 34 e7 0f 3e 8a 10 2f be
       -0.021736467 0.21074858 0.1405304 -0.17096153
0000b0 dd be 00 3c 01 0d 06 be 15 f5 3b 3e 51 98 23 3d
       0.007858005 -0.13090898 0.1835521 0.039940182
0000c0 9a 88 97 3e 4b 97 a1 3c e6 74 98 be c1 ea 1a 3e
       0.29596406 0.019725462 -0.29776686 0.15128614
0000d0 8a a6 1e 3e c7 d4 89 bd e3 55 55 3e ee fa 33 bd
       0.15493217 -0.06730037 0.20833544 -0.043940477
0000e0 be 18 f8 3d b5 b3 ca bd 4b fc 17 3e e4 6e 50 be
       0.12114094 -0.09897558 0.14842336 -0.20354801
0000f0 cd a8 81 be 1b d9 5e 3d ff ea a6 3e c8 88 7d 3e
       -0.25324097 0.054406267 0.32601163 0.24759209
000100 31 60 49 3e af 63 8d be c6 0b 3f be 18 20 c8 bd
       0.196656 -0.27615115 -0.18656835 -0.097717464
000110 1e c5 99 3e 87 e5 b1 bd 38 e8 bf 3c 6e 12 bd bd
       0.300332 -0.08686357 0.02342616 -0.09232031
000120 d8 f8 3b bd 18 01 5a bd 6b a8 4a be 65 41 86 bd
       -0.045891613 -0.0532237 -0.19790809 -0.06555442
000130 f0 50 19 be 4c 03 64 be fd e3 46 be d9 6a 8a be
       -0.14972281 -0.22266883 -0.19422908 -0.27034643
000140 43 6e 86 3e f9 ac 90 be 58 8d 8a be 70 e9 4f 3e
       0.26255998 -0.28256968 -0.27060962 0.20303893
000150 f9 67 9d 3e 65 9c 76 3e 48 c9 27 3d d6 59 cf bd
       0.30743387 0.24083097 0.04096344 -0.10124557
000160 5a 7f 2d be 30 30 a5 bd 86 7e 41 bd 08 81 7f 3e
       -0.16943112 -0.08065832 -0.047239803 0.24951565
000170 85 b9 93 3e 22 5a 1d bd 2b d4 6c be 11 e6 92 3d
       0.28852478 -0.038416035 -0.2312781 0.07172788
000180 2c 2e 3a be 0a 06 84 3e cb cb 65 3e d1 26 c8 bd
       -0.18181676 0.25785857 0.22441022 -0.09773029
000190 6d 51 34 be e2 b3 96 3e 44 3d 91 bd e9 03 8d be
       -0.17609186 0.29434115 -0.070917636 -0.27542046
0001a0 97 5e 5b be 4d 1d 01 bd a2 2a 57 3e 7b b3 b5 bd
       -0.21422802 -0.031522084 0.21012357 -0.08872124
0001b0 d3 14 7c be c1 53 0e 3e d7 53 82 3e b3 c3 62 be
       -0.24617319 0.13899137 0.2545459 -0.22144966
0001c0 dd 1e a0 bd 6b 74 97 3e 5b fb a6 3e b0 34 47 3d
       -0.07818387 0.29581007 0.32613644 0.04863423
0001d0 46 ed 58 3c 1b 69 82 be 8f 3f 83 be b6 cc 48 bd
       0.013240164 -0.25470814 -0.2563443 -0.049023353
0001e0 52 ee 31 be a1 94 72 3e 79 01 6c 3d d5 a3 aa 3d
       -0.17376068 0.2368951 0.057618592 0.0833203
0001f0 f1 34 8b 3e db 95 00 3d f7 f3 3e be 79 ca 91 be
       0.2718883 0.031392913 -0.18647753 -0.28474787
000200 c7 55 3b bd 43 31 ea 3d 58 e2 09 be 62 de da bd
       -0.0457361 0.11435177 -0.1346525 -0.106869474
000210 5e ed 02 be 9c a7 ac 3c dc 34 96 be 9b d9 a1 bd
       -0.12785861 0.021076016 -0.29337204 -0.07902833
000220 67 d1 9b be 3f ae 38 be e3 2d 8b 3d 76 b2 65 bd
       -0.304332 -0.1803522 0.067958616 -0.056078397
000230 79 d9 e7 3c ac b4 fb bd e1 51 a2 3e 3d c8 52 bd
       0.028301941 -0.1229032 0.31703094 -0.051460493
000240 c2 b2 83 be 80 10 5c bd bf 7a 27 be 53 0e 7d 3c
       -0.2572232 -0.053726673 -0.16355418 0.01544531
000250 bc 56 95 be fb 73 41 3e ec ce 83 be 05 61 05 3d
       -0.29167736 0.188919 -0.25743806 0.03256323
000260 ce 12 06 3e 39 69 88 3d 43 90 d9 3d 33 7d 93 bc
       0.13093111 0.06660695 0.10623219 -0.018004036
000270 10 7f d9 bd 03 ca 7d 3c 5e 99 0c 3e d4 c4 28 be
       -0.106199384 0.015490058 0.1373038 -0.16481334
000280 6d 4a 25 3d 01 d2 87 bd b0 b8 4b be 17 b4 a4 3c
       0.04035418 -0.06631852 -0.19894671 0.020105405
000290 97 4c 8e be 38 d4 26 3d 38 28 38 bc 4f 42 02 be
       -0.27792808 0.04072973 -0.011240058 -0.12720607
0002a0 25 e8 58 3e 72 16 99 bd 05 f5 92 be c8 c6 93 3e
       0.21182306 -0.07474984 -0.2870256 0.28862596
0002b0 64 7f 80 bc e4 c7 9c bd 20 75 1e be 3b b1 7c 3e
       -0.015685745 -0.076553136 -0.15474367 0.24676983
0002c0 ec 63 86 be a3 1a aa be 3b 28 82 3e fb 62 69 3e
       -0.2624811 -0.33223447 0.25421318 0.22791664
0002d0 f5 c2 98 3e 87 53 16 3e 9f 5a 9f 3e 66 74 2a 3e
       0.2983624 0.146803 0.31123826 0.16645965
0002e0 fe a4 5a 3e d9 bd 1e 3e 1f b0 10 3e 99 d1 9e bc
       0.21352002 0.15502109 0.14129685 -0.019387053
0002f0 8a 85 a6 bd 1a 99 22 3e 25 87 ac 3d aa 34 88 3e
       -0.08130939 0.15878716 0.08424214 0.2660268
000300 d6 61 e6 bd d0 b3 9b 3e b3 3b a7 3c ff 41 98 3d
       -0.112491295 0.30410624 0.020414209 0.07434463
000310 28 3d a1 be 43 ef e7 3d 7f 96 b3 bd ba 08 ae bd
       -0.3149197 0.113249324 -0.08768939 -0.08497758
000320 32 1e 58 3e f3 86 d6 3d c6 44 98 be 41 ce 90 bd
       0.21105269 0.10474958 -0.2973997 -0.0707059
000330 3f 32 d1 3d 6a 19 93 bd b8 95 98 be 44 1c 82 3e
       0.10214662 -0.07182582 -0.29801726 0.2541219
000340 9d c1 a4 bd 1e 29 0a 3e 5d 14 0f be 5a d8 7c 3e
       -0.08044741 0.13492247 -0.13972612 0.24691907
000350 d9 6a 84 3d b3 fe 71 be 31 5b 68 3e ad 99 d3 bd
       0.06465692 -0.23632316 0.22691037 -0.10332046
000360 d4 32 81 bd 60 87 9f 3d 53 8d 60 3c a0 00 a9 3d
       -0.06308523 0.077894926 0.013705569 0.08252072
000370 0f 40 3e be 18 60 03 3d 2f d4 46 3e 1c e9 16 be
       -0.18579124 0.032074064 0.19416879 -0.14737362
000380 52 c7 4e be be bc 6c 3e 7d ed 1b 3e 97 02 52 be
       -0.20193222 0.23118874 0.15227313 -0.205088
000390 93 b6 60 3e f9 07 09 be 51 53 3b be 41 42 94 3e
       0.21944647 -0.13381948 -0.18293501 0.28956798
0003a0 14 f7 21 3d 6a 58 8a 3c bf 23 a9 be 60 6c 6a 3e
       0.039542273 0.016887862 -0.33035085 0.22892904
0003b0 ab 0c 63 be c2 a9 1e bd 1e 83 62 3c 63 38 cb 3d
       -0.22172801 -0.038736112 0.013825206 0.09922864
0003c0 22 4e 7a 3d 80 b4 7f 3e 53 78 a7 3e 34 8a 2b 3e
       0.06110967 0.24971199 0.32708988 0.16751939
0003d0 7d bd 87 be ce 46 ab 3e ae 7d d4 bd aa c5 bc 3e
       -0.26511756 0.33452457 -0.10375534 0.36869556
0003e0 89 f4 bc bc ca 1f 40 be 55 9a 94 3d 6b aa 9a bd
       -0.023065822 -0.18762127 0.07255999 -0.07552036
0003f0 cf f6 f9 bd 1e 7d a7 be bc e8 38 be 75 fb 24 be
       -0.12205278 -0.32712644 -0.18057531 -0.16111548

model/building_output/MatMul f4 [3, 64]
000000 a9 a7 56 be da 35 4d 3e 6f f3 6e 3e 7b 18 3b 3d
       -0.20962395 0.20040074 0.2333505 0.045677643
000010 5e 8a 58 be e7 fd b1 bd 20 91 96 bc 29 a8 20 3e
       -0.21146533 -0.08691006 -0.018379748 0.15689148
000020 8f 4d 72 3e 44 4d 7a 3d b7 db 2c 3e 6e f4 a3 be
       0.23662399 0.061108842 0.1688069 -0.32022423
000030 b4 38 92 3d 82 05 83 3e 25 a9 ec bd 97 c6 74 3e
       0.071397215 0.2559014 -0.11555699 0.23903881
000040 0d df 0d 3e 89 c9 86 be 35 3e 9c 3e 55 51 1d be
       0.13854618 -0.26325634 0.3051621 -0.15363057
000050 1b 92 9d be 45 53 55 3e 77 a0 a7 3e 05 55 70 3e
       -0.30775532 0.20832546 0.32739612 0.23469932
000060 19 e1 e9 3d 5d 37 8d bd 09 84 7a bb ee 48 9d 3e
       0.11419887 -0.06895325 -0.0038225672 0.30719703
000070 4e 02 ab bd 0f 0e 6c be 54 fa 98 3e c9 46 c0 bb
       -0.08350049 -0.23052238 0.29878485 -0.0058678132
000080 8f f5 8e be ad cf 0a 3d 52 95 2c be 17 64 28 bd
       -0.2792172 0.03388946 -0.16853836 -0.041111078
000090 f6 7d 8d bd 88 3b 0c 3e 74 8d 37 be c5 78 4e be
       -0.06908791 0.13694584 -0.17925054 -0.20163257
0000a0 e6 b9 b6 3d 44 19 7f be da 7e 0d bc b9 1b 24 3e
       0.08922176 -0.24911982 -0.008636201 0.160262
0000b0 77 40 78 bd 68 ea 18 be cb 49 d5 bc f2 5c 4a 3d
       -0.060608353 -0.14933169 -0.026036164 0.049405046
0000c0 33 bf 3d 3d f3 34 3d 3d 7c cf 87 bd 37 f7 6e 3e
       0.04632492 0.046193074 -0.066313714 0.23336492
0000d0 58 e9 07 3e b8 33 dd bd c4 62 8e be f9 4e 4e 3e
       0.13272607 -0.1080088 -0.27809727 0.20147313
0000e0 b7 a3 68 be 5c 8d b0 bc d2 c7 65 3e 50 0c 53 3e
       -0.22718702 -0.02155178 0.22439507 0.20610166
0000f0 25 5c 7a 3e 80 95 12 be da e3 6a be ec 93 ab 3e
       0.24449213 -0.14314842 -0.22938481 0.33511293
000100 0e ab 65 be 4c d4 6a be aa f4 db bd 5f 50 68 3e
       -0.22428533 -0.22932547 -0.10740025 0.22686909
000110 2b 0e e8 bd 7a 30 9c be 7f 7a 4d be e7 84 03 3e
       -0.11330827 -0.30505735 -0.2006626 0.12843667
000120 fe f1 9d be 8b 8e 54 be 96 cd 66 3e fa 20 d2 bd
       -0.30848688 -0.20757501 0.22539362 -0.10260196
000130 a8 c0 c9 3d 49 27 90 be 3b b7 8b 3e ad ea af bd
       0.098511994 -0.28154972 0.2728823 -0.08589683
000140 66 5e 01 be e7 5a 3b bd 6b c7 f1 3d 9e f6 78 be
       -0.12633666 -0.045740988 0.11805614 -0.24312827
000150 0f 90 d5 3b dd 95 ab bd e5 47 36 3e 45 11 40 be
       0.0065174173 -0.083781935 0.17800863 -0.18756588
000160 72 0c 5d bd 9c fe a0 bd eb 9c ea 3d 16 b5 b3 3d
       -0.053966947 -0.07861063 0.11455711 0.08774774
000170 cb 3e 8c 3d 30 7f 23 3d 58 8b 27 3e 50 b1 07 3d
       0.06847914 0.039916217 0.16361749 0.033128083
000180 d3 5d 8c 3c a1 79 21 be 2a dc 61 3e 40 76 5e 3e
       0.017134583 -0.15769054 0.22056642 0.21724796
000190 13 a0 4f 3d 6c fa 05 3e 4e ce 24 be 42 60 b6 bc
       0.050689768 0.1308381 -0.16094324 -0.022262696
0001a0 35 e1 bd 3d cd 34 3c be 7d 73 9a 3d 33 d4 96 bd
       0.092714705 -0.18379517 0.07541559 -0.073646925
0001b0 ef 09 94 3e 32 af 59 be 07 b8 8a 3e 67 22 a2 3e
       0.2891383 -0.21258238 0.27093527 0.31666872
0001c0 30 8f 9f 3e d2 36 d2 3c 4f c5 e1 bd 36 9f 2d 3e
       0.3116393 0.025660906 -0.11023962 0.16955265
0001d0 15 f4 73 be 0f ee 7a be 31 8e 5e be 1b bd 48 be
       -0.23823579 -0.24504875 -0.21733929 -0.19603388
0001e0 f7 79 6e 3e ab 42 ba bd 1f a3 a7 3b 3f 88 42 be
       0.23288713 -0.09094747 0.005115881 -0.18997286
0001f0 07 e7 8c bd 5c e4 3f bd f5 28 89 3d 39 f1 16 3e
       -0.068800025 -0.04684864 0.06697265 0.14740457
000200 69 5c 2e 3e 6c f9 08 bd 60 fd 9d 3d 03 de d3 3d
       0.17027439 -0.033440992 0.07714343 0.1034508
000210 cd 4e 48 bd 35 8f 54 3e b1 30 47 be d5 28 36 3e
       -0.048903275 0.20757754 -0.19452168 0.17789014
000220 5e a9 39 3e 9a 8b dd 3b ae db ab be c1 7e bb bd
       0.18131015 0.0067610266 -0.3356604 -0.09155036
000230 f6 6b 93 be 62 dd ee bd 52 97 45 bc 23 6d 95 3e
       -0.28793305 -0.11663319 -0.012060003 0.29184827
000240 05 03 e8 3d 1d 60 9e be d0 db a2 3d 46 9d f8 3d
       0.11328701 -0.30932704 0.07952082 0.121393725
000250 bd 52 4c 3e af 8f 8e 3d 1e 32 15 3e 00 00 74 bd
       0.19953437 0.06960999 0.145699 -0.059570312
000260 85 9d 02 3e 8d cd 64 bd 83 be 0a be 4e 5c f0 3d
       0.12755401 -0.05586009 -0.13549237 0.11736356
000270 c4 36 50 be 6a cc 41 3e e3 30 2c bd 40 3f 64 be
       -0.20333391 0.18925634 -0.04203881 -0.22289753
000280 99 41 3e be a9 5d 0f 3e bc cf ee bd e5 03 8f 3d
       -0.18579711 0.14000572 -0.11660716 0.06983165
000290 2a 23 1e 3e cd da 2e 3e 7c d9 da bc 99 3f 97 be
       0.15443102 0.17075653 -0.026715033 -0.2954071
0002a0 e2 b7 8b 3e 5f fd 69 3d 90 3d 77 be ee 26 a7 be
       0.2728873 0.0571264 -0.24144578 -0.32646888
0002b0 a1 ed 9b 3e 21 19 0f be 7c c9 79 be 1f 32 26 3e
       0.30454734 -0.1397443 -0.24393266 0.16230057
0002c0 98 7b aa be f0 03 53 be f3 88 66 3e 7f 2e 15 be
       -0.3329742 -0.20606971 0.2251318 -0.14568518
0002d0 51 77 0c be 9c 6f 85 3e aa ed ad 3d f8 6a 32 be
       -0.1371739 0.26061714 0.084925964 -0.17423618
0002e0 42 8c 5f 3e f4 5a 26 3e 14 14 3e be 91 ee 28 3e
       0.21830848 0.16245633 -0.18562347 0.16497256
0002f0 31 e7 0f 3e 74 0d a6 bc bc f4 b4 3c 53 6b 97 be
       0.14053036 -0.020270087 0.022089355 -0.2957407

model/attention_layer/MatMul_1 f4 [1, 128]
000000 ac c2 85 bd 28 3d 8e bd 44 ec 51 3e 88 2a c5 3d
       -0.06531271 -0.069452584 0.20500284 0.09627253
000010 00 ef ca bd 70 47 30 3e b0 e1 64 bd 62 60 08 be
       -0.09908867 0.17214751 -0.055879295 -0.13318017
000020 20 9a 3d bd 50 80 45 3d 88 f3 f9 3d 48 63 cd 3d
       -0.046289563 0.04821807 0.12204653 0.10028702
000030 30 96 45 3c f0 8e 04 3e ab 5f e4 bd 20 3d 48 3d
       0.012059733 0.12945151 -0.1115106 0.04888642
000040 40 8b 2a bb 34 de d1 3d ac ea 7d bd 42 9c 13 be
       -0.002602294 0.1024746 -0.06199138 -0.14415076
000050 40 c6 1a be 12 fe 42 3e 1d c8 37 be d9 97 ff bd
       -0.15114689 0.19042233 -0.17947431 -0.124801345
000060 56 e9 0a be 8a 1e 98 bd 74 30 08 be 40 c4 d6 3c
       -0.13565573 -0.074277 -0.13299733 0.026216626
000070 d8 0d 94 3d cb fc 57 be 85 37 f6 bd 34 25 b2 3d
       0.07229203 -0.21092527 -0.12022308 0.08698502
000080 2e c8 3d be 60 3b 1c 3c 32 f6 3f 3e 31 84 fb bd
       -0.18533394 0.0095356405 0.1874626 -0.12281073
000090 d0 2b 1c 3d 48 69 5a 3d b0 ce ae 3d 68 17 ff bc
       0.03812772 0.05332306 0.08535516 -0.03113909
0000a0 30 da 71 bd 64 2e 3b 3e 60 24 2b 3e c2 1e 0a be
       -0.05904597 0.18279415 0.16713095 -0.13488296
0000b0 68 54 e4 3d 9c e3 ae 3d 7c b0 a4 3d 5a 65 31 3e
       0.11148912 0.08539507 0.08041474 0.17323819
0000c0 5c 30 56 be b5 dc 1a be e0 07 ec 3b 15 fa 4f be
       -0.20916885 -0.15123256 0.007203087 -0.20310242
0000d0 be c5 37 3e 0a f2 2b 3e 60 1d f8 bc c0 11 7a bc
       0.17946526 0.1679155 -0.030287445 -0.015263021
0000e0 df 15 2e be 06 42 07 3e 58 b2 83 3d d4 9d 3d be
       -0.1700053 0.1320878 0.06430501 -0.18517238
0000f0 b0 97 a4 bd fc 2d 5c 3e 61 c6 df bd a8 2e 55 3e
       -0.080367446 0.21501917 -0.1092651 0.20818579
000100 de 3d fe bd b1 f4 c9 bd 36 38 27 3e ce 8a b3 bd
       -0.12414144 -0.09861124 0.16330037 -0.08766709
000110 4a 50 05 be 34 9f 52 be a4 2a 64 bd d2 cc 27 3e
       -0.13018909 -0.20568544 -0.055704728 0.16386726
000120 e3 2f 36 be 08 e1 9c 3c 66 e6 3f 3e 08 98 ad bc
       -0.17791705 0.019150272 0.18740234 -0.021190658
000130 b2 cb 1a be de 71 4e be e8 0f f6 3c f0 f8 2b 3d
       -0.15116766 -0.20160624 0.030036882 0.041985452
000140 44 7a af 3d 10 ed ca 3d c0 89 d9 bd e0 21 eb 3c
       0.08568242 0.09908497 -0.10621977 0.028702676
000150 c0 d9 36 bc cc 46 26 be d8 1e 6d bd 20 5e 1e 3c
       -0.011160314 -0.16237944 -0.057890743 0.009665996
000160 44 33 3c 3e e8 52 f1 bd bc 99 53 bd f8 16 42 3e
       0.18378931 -0.11783391 -0.051660284 0.18954074
000170 7c f9 96 3d cc 90 5b bd 54 db f8 3d 00 4e 50 3e
       0.07371804 -0.053604886 0.121512085 0.20342255
000180 ff ae 25 be df e6 32 be 16 f4 54 be 18 74 12 be
       -0.16180037 -0.17470883 -0.20796236 -0.14302099
000190 e4 42 8b bd 58 fb f3 bc 8c 85 13 be e8 c3 e2 3d
       -0.06799868 -0.029782936 -0.14406413 0.110725224
0001a0 70 82 88 3c 04 91 d1 bd 69 51 de bd 80 16 bc 3a
       0.01666376 -0.10232738 -0.108553715 0.0014349967
0001b0 28 5b 36 3e 70 06 62 bc 64 b8 58 bd fc 8c 4d bd
       0.17808211 -0.01379548 -0.052910224 -0.05018328
0001c0 a0 0d 5b 3e 2a 7b 31 be f2 c9 1a be 9e 7e 36 3e
       0.21391916 -0.1733214 -0.15116099 0.17821738
0001d0 10 ba b6 bc 96 b3 36 3e 34 e3 97 bd 48 db f5 bc
       -0.022305518 0.17841944 -0.074163824 -0.030011788
0001e0 94 b7 b8 3d 20 63 07 bd e0 d5 e1 3b 71 ca 45 be
       0.0901939 -0.033053517 0.006891951 -0.19315507
0001f0 d4 23 a2 bd 40 ba b9 3d 2c e0 09 3e a9 c7 c1 bd
       -0.0791699 0.090687275 0.13464421 -0.0946191

model/building_output/BiasAdd/ReadVariableOp f4 [3]
000000 08 ed 3a 3c 82 4f 3f 3b cf e4 c3 bc
       0.011409052 0.0029191677 -0.023912815

model/dense_2/BiasAdd/ReadVariableOp f4 [128]
000000 0e 62 36 3d e0 67 aa ba e3 bb c8 3c 46 b5 a4 ba
       0.044527106 -0.0013000928 0.024503654 -0.0012566231
000010 ad 59 f6 3b 25 d8 19 3d 74 34 d2 bb 3c 29 ac 3c
       0.0075180144 0.037559647 -0.0064149443 0.021015756
000020 b3 b9 e3 3c 08 16 84 3c 72 bc 28 3c bc c3 07 3c
       0.02779851 0.016123787 0.010298835 0.008286413
000030 fd b1 3f 3b 89 e8 01 3c 13 98 42 3c bb c2 22 3c
       0.0029250376 0.007928976 0.011877078 0.009934123
000040 7e a1 3b 3c 6d 80 ec bb 90 30 44 3c af 69 1b 3d
       0.011452077 -0.007217458 0.011974469 0.037942585
000050 02 51 ff bb 63 05 dc 3c de 27 1a bc 65 b7 07 3d
       -0.0077916393 0.026858037 -0.009408919 0.033133883
000060 65 1e 94 3c d6 b0 8e 3c 5e 39 26 3c 11 1e 70 3c
       0.0180809 0.017418306 0.010145513 0.014655606
000070 db 42 9a 3b 9f 2f 5c 3c 9b ef 1a 3b d5 7d 1a 3c
       0.004707677 0.013439088 0.002364135 0.009429415
000080 89 28 1a 3d 0d ff 23 bc 27 44 06 3c 17 1e f8 3c
       0.037636314 -0.010009539 0.00819496 0.030287785
000090 b2 a8 b2 3b fb 45 98 bc b3 67 48 bb 16 b0 80 3c
       0.005452239 -0.018588057 -0.0030579388 0.015708964
0000a0 fc 4c 33 bc d3 d8 17 bc 12 e7 77 3c 25 42 f3 3b
       -0.0109436475 -0.0092680035 0.015130775 0.0074236565
0000b0 b6 fe 62 bc d7 8b fa bb ed 7f d5 bc f6 f7 7f 3c
       -0.013854673 -0.0076460647 -0.026061976 0.015623083
0000c0 43 a8 18 bc cd 2e ae 3b c4 bf 1f 3c 04 41 f8 3b
       -0.0093174605 0.0053156377 0.00975031 0.00757611
0000d0 7d 48 af 3c 60 a8 02 3d 84 ed df 3c 80 64 84 3c
       0.02139687 0.031898856 0.027334936 0.016161203
0000e0 e5 78 94 3c 5a 1f 70 bb f0 3b 03 3d db eb 6f ba
       0.018124053 -0.003663978 0.032039583 -0.00091522717
0000f0 7f ad 06 3d 2f 9b a3 3c f1 db 83 3c f3 f4 18 3d
       0.032880303 0.019971458 0.016096087 0.037342977
000100 18 d0 cc 3c c5 28 ce 3c 24 ec 16 3b fb 0b 6f 3c
       0.02500157 0.025165925 0.0023028934 0.014590259
000110 7f 2e 02 3c f9 2d 9d 3c 3d ca b8 3c e6 8c c2 3b
       0.007945656 0.01918696 0.022557372 0.0059372066
000120 96 ee a7 3b 5c a2 83 3c 5a 79 a5 3c b5 01 42 3b
       0.005124877 0.01606863 0.020199466 0.0029603068
000130 11 e0 4b 3c ef 8e bc 3c 19 c8 55 3d 8a 95 4b 3d
       0.012443558 0.023017375 0.05219278 0.04970316
000140 10 c0 e3 bb 91 76 9f 3c 02 0c a8 3c 40 46 40 3c
       -0.006950386 0.019465717 0.020513538 0.011735499
000150 75 77 c0 3c 41 de 12 ba 4a 92 01 ba 68 cd 12 3c
       0.023494462 -0.00056025764 -0.0004942758 0.0089601055
000160 56 ce 54 3b c2 14 25 3b d8 4d f0 3c d0 84 93 3c
       0.0032471619 0.0025189375 0.029333994 0.018007666
000170 01 b3 39 3c f3 4a 1c b9 fb 7e 46 3b e6 b8 a4 3c
       0.011334182 -0.0001490524 0.0030288089 0.020107698
000180 9e e2 d2 3c ef 91 ab bb 94 b8 4a 3c 5b 0e 8e 3c
       0.025742825 -0.0052359025 0.012373108 0.01734083
000190 bb 2a 36 bc 16 8b 29 3c ac 1d 5e 3c 19 cb ed 3c
       -0.011118586 0.010348102 0.013556879 0.029027509
0001a0 91 a6 54 3c 43 24 a1 3c b3 01 a3 3c 8c c3 2e bc
       0.012979166 0.019670611 0.019898271 -0.010666739
0001b0 9a d9 fa 3c 9e ae 2b bc 41 ac c6 bb 65 63 4b 3c
       0.030621339 -0.010478644 -0.0060630147 0.012413834
0001c0 e1 51 f5 3b e8 05 b2 3c e2 0a b7 3c 14 0d a3 3c
       0.0074865674 0.021731332 0.022344057 0.019903697
0001d0 cf 90 cd ba 6d 5e 8a 3c 2a 77 f4 3c d7 36 9b 3c
       -0.0015683415 0.016890729 0.029841978 0.018947048
0001e0 ef 5f 32 3b e7 c4 57 bb 61 a6 12 3b ad 04 90 3c
       0.0027217825 -0.003292376 0.0022377002 0.017580355
0001f0 a6 2b f4 3b 6d 3f 9b bc 2d 00 7e 3c c3 bc 80 3c
       0.0074514924 -0.018951142 0.015502972 0.015715009

model/dense_4/BiasAdd/ReadVariableOp f4 [128]
000000 72 ae 86 bb 2a 0f 80 ba 68 e3 c3 3c c2 ed a6 3c
       -0.004110151 -0.0009770144 0.023912147 0.020377044
000010 9c 21 dd 3c 95 bc 01 3d 66 14 86 3c 0d 7d 34 3c
       0.026993565 0.031673986 0.016367149 0.011016143
000020 b2 70 df 3b 81 12 cd bb cf 46 56 3c 97 6f 5c 3c
       0.0068188543 -0.0062583094 0.0130784055 0.0134543395
000030 51 d8 bd bb 7b 55 17 3c 73 1c 77 3c 9c 9c 7b 3c
       -0.005793609 0.009236689 0.015082466 0.015357163
000040 4f c8 5c 3c 3f 78 78 3c fe 73 be 3c 2b 99 94 bc
       0.013475492 0.015165388 0.023248669 -0.018139442
000050 f1 31 81 3c 9e 58 b6 bb 4f 57 96 3c a7 cd b4 3b
       0.015770884 -0.005564763 0.018352179 0.0055176797
000060 1a d1 02 3c 0e 84 a4 3c b4 92 10 bc 91 ba 09 bc
       0.007984424 0.0200825 -0.008824039 -0.008406297
000070 48 63 92 3c 3c 16 1d 3d 1c f6 0b bc 97 42 2e bb
       0.017869607 0.038351282 -0.008542564 -0.0026589984
000080 53 e9 00 3c 82 ec 8f 3c 17 7d fd 3a 40 3e ae 3c
       0.007868129 0.01756883 0.0019339648 0.021269917
000090 8b 0b b3 3b 8d da b4 3c 7e f9 9c 3c fa 9b 9d 3b
       0.0054640225 0.02207687 0.019161936 0.0048098536
0000a0 7a 84 9b 3c b2 1e c8 3c 95 a4 6f 3c 6d ad 18 3c
       0.018984068 0.0244287 0.014626642 0.009318692
0000b0 0a c3 ba bb a9 6c 34 3b cf 5a 95 bb 7e 7c 7d bc
       -0.00569952 0.0027530587 -0.0045579444 -0.015471576
0000c0 12 1d 62 3c a4 d7 dd 3c 40 51 b7 3b 58 74 83 3c
       0.013800876 0.027080365 0.0055944026 0.016046688
0000d0 51 1c 86 bc 22 76 83 3c f9 b0 0f 3d 5e 45 34 3c
       -0.016370924 0.016047541 0.035080884 0.011002867
0000e0 88 12 bc bc 40 ff a8 3c e0 15 bd ba d3 bd bf 3b
       -0.022958055 0.020629525 -0.0014426075 0.005851486
0000f0 f0 56 75 3a 29 80 18 3c 84 d5 40 3c d2 c6 9a bb
       0.0009358963 0.0093078995 0.011769656 -0.0047234083
000100 c0 4b e9 bb f7 db c5 3c 35 66 ce 3c 73 99 8b 3c
       -0.007119626 0.024152739 0.02519522 0.017040944
000110 7b 94 a7 3c 1f 4e db bb 23 78 4d 3c 76 c2 8c 3a
       0.020456543 -0.0066926624 0.01254085 0.0010739106
000120 1c 55 b6 3c 03 93 96 3c c8 6c 4b 3b 55 18 9e ba
       0.02225738 0.018380648 0.003104018 -0.0012061695
000130 66 6a eb 3b 88 75 a1 3c 3f 5f b4 3c 26 8a bf 3c
       0.0071843145 0.019709364 0.022018073 0.023381304
000140 24 ec 01 3d 8e c1 eb 3a 12 a0 a6 3c cc 1e 3c bc
       0.031719342 0.0017986761 0.02034 -0.011481952
000150 84 57 56 3c 87 5b 49 3c 2e 95 a4 3c e9 93 df 3b
       0.013082389 0.012289888 0.020090666 0.006823052
000160 be 15 c0 bc 54 65 19 3d c1 0f 2d 3c e0 d5 81 3c
       -0.023447867 0.03745015 0.010562838 0.015849054
000170 92 04 a7 bb 40 15 17 3b 13 44 05 3d cd 42 cf 3c
       -0.0050969804 0.0023053437 0.032535624 0.025300408
000180 99 e4 1a 3d e5 e0 8b bc db 6f 7b 3c a8 79 e9 3c
       0.037815664 -0.017075012 0.015346493 0.028500393
000190 86 7d 10 3d a1 1e f6 3c e6 77 cd 3c 49 09 4d 3c
       0.03527596 0.030043902 0.025081586 0.012514421
0001a0 f8 6e 15 3d 29 6e 37 3c 87 4b 6d 3c f1 63 d1 3c
       0.03648278 0.011195698 0.014483339 0.025560351
0001b0 49 9e 3b 3c dd 2b 44 3c 76 8d a7 3c b6 35 b8 3c
       0.011451312 0.011973348 0.020453196 0.022486549
0001c0 84 82 e6 3c ec 20 a4 3c fd 11 de 3b 18 fe 46 3c
       0.028138407 0.02003523 0.0067770467 0.012145542
0001d0 a6 34 a6 3c 56 95 c5 3c 54 45 a2 3c cc 8c 7b bb
       0.020288777 0.02411906 0.019808449 -0.0038383482
0001e0 ad d5 3f 3b 92 c2 3f 3d 01 f3 39 3b 8f f6 7e 3b
       0.0029271648 0.046816416 0.0028373601 0.0038904285
0001f0 a9 0f cb b9 a0 b9 fe 3c 9e 4d 7a 3c c3 04 b0 3c
       -0.00038730845 0.031094372 0.015277294 0.021486646

model/dense_6/BiasAdd/ReadVariableOp f4 [128]
000000 04 a0 fc 3c 9f f2 33 3c 85 1d 01 bc 22 e4 3e bb
       0.03083802 0.010983138 -0.007880573 -0.0029127677
000010 a5 6d 08 bb 82 e3 a8 3c 83 e2 2b bc 79 46 69 3c
       -0.0020817306 0.020616297 -0.010491016 0.014237993
000020 76 cc d3 3c 59 2a 0b bb a5 ad 9d 3c 04 b7 73 bc
       0.02585433 -0.0021234958 0.01924784 -0.014875177
000030 9f 5a 33 3a 29 0a d7 bb ef a8 4f 3c d4 98 dc 3b
       0.00068418117 -0.0065624905 0.012674554 0.0067320857
000040 e2 44 8c 3b 08 76 82 3b 78 a7 67 39 c1 97 e3 3a
       0.0042806724 0.0039813556 0.00022092264 0.0017363952
000050 d3 cb e9 3c 87 5b 39 bb e5 95 2a 3b de 00 8b 3c
       0.028539574 -0.0028283314 0.0026029286 0.016968187
000060 90 3f f6 3c 2b 54 c2 3c a8 dc 6f 3b 07 f7 e4 3b
       0.030059606 0.023721775 0.0036600027 0.0069874558
000070 2e d2 59 3c 24 ba c9 3b d3 77 0e 3c b4 9e 8c bb
       0.01329474 0.006156223 0.0086955605 -0.00429138
000080 87 66 1c 3c 77 44 02 bc 47 72 64 3c 4e 4b c8 3b
       0.009545929 -0.007950894 0.0139432615 0.0061124926
000090 41 10 ea 3c 5a cc 59 bb be 85 c8 3b 1a 3d 2f bb
       0.028572204 -0.0033233375 0.006119459 -0.00267393
0000a0 eb e8 92 3c 0d 35 db 3c ad 48 ab b8 96 5c 5e bb
       0.01793333 0.026758695 -8.167452e-05 -0.0033929697
0000b0 b2 01 f3 3b fe cf 86 3b a1 3a b7 3c 59 29 38 3c
       0.0074159736 0.00411415 0.022366824 0.011240327
0000c0 d4 6c 8e 3c ea 58 15 3d e8 7f 43 3c 62 75 15 bb
       0.017385878 0.03646175 0.011932351 -0.0022805561
0000d0 27 92 36 ba f8 52 12 3c 75 29 6e 3c 57 28 1f bb
       -0.00069645274 0.008930914 0.014536251 -0.002428552
0000e0 37 a7 49 3c 16 ee 24 3c 33 6e ff 3b df 12 ce 39
       0.0123079335 0.01006653 0.007795119 0.00039305442
0000f0 0b b1 87 3c 71 bc 72 bc 13 d1 0e 3d 46 4d bf 3c
       0.016563913 -0.014815436 0.034867357 0.023352277
000100 fa 62 e2 3b 55 56 ad 3c db e8 a1 3c 51 26 f3 3b
       0.0069087716 0.02115933 0.019764354 0.007420339
000110 83 ce cf 3b af 33 fb 3c 94 4a 85 3c bc 93 83 3c
       0.006341757 0.030664293 0.016270913 0.016061656
000120 c2 8e 4d 3c 50 59 95 3c ef c9 59 ba 54 36 2a 3c
       0.012546243 0.018231064 -0.00083079835 0.010388929
000130 a2 7d 87 3b 19 c0 be 3c f8 06 23 3d fc 9c f9 b9
       0.0041348496 0.023284959 0.039801568 -0.00047609943
000140 85 b7 ff 3a d8 c2 0c 3c d2 c0 58 bb 41 1e b3 3a
       0.0019509649 0.008591376 -0.0033073914 0.0013665633
000150 e3 af c8 3c 9d bc a8 3c f8 28 a5 bb 0c a9 e3 3c
       0.024497932 0.02059775 -0.0050402842 0.027790569
000160 55 2f 33 bc 60 08 00 3c 59 9d a1 3b f5 cb f5 3c
       -0.010936578 0.007814497 0.0049320874 0.03000448
000170 18 a4 aa 3b 36 59 15 3c c2 8e 24 bc 26 79 43 bc
       0.00520755 0.009115508 -0.010043802 -0.0119307395
000180 4d 8c aa 3c 54 01 61 3c c7 4c e3 3c 5c 56 cf 3c
       0.020818854 0.013733227 0.027746571 0.025309734
000190 f8 6a 1e 38 fa 0c 4b 3c 01 34 cc 3b fa a8 7a 3b
       3.7769758e-05 0.012393231 0.0062317853 0.003824769
0001a0 f5 74 f5 3c f8 12 92 ba c2 30 c5 3c 56 e7 3d 3c
       0.029962996 -0.0011144569 0.024071101 0.011590799
0001b0 fd f2 1b 3c be a1 11 3c 4b 27 1e bb 83 1d 52 3b
       0.009518382 0.00888866 -0.0024132307 0.0032061047
0001c0 6c f0 5b 3c 16 7d 3c bc 36 44 1e 3d 04 63 65 bc
       0.01342402 -0.011504432 0.03863927 -0.014000658
0001d0 ce 21 56 bb ed bb 0d 3c ef 34 d1 3b 84 2f 19 3a
       -0.0032673958 0.008650762 0.006384484 0.0005843567
0001e0 d1 87 5f bb d6 1d 9e bb 02 65 4b ba 6a cd ef 3c
       -0.0034108052 -0.004825334 -0.0007758887 0.029272754
0001f0 a5 15 8c 3b 07 74 52 3b d0 75 8c 3c 95 c7 85 bb
       0.004275041 0.0032112615 0.017146021 -0.00408263

model/dense/BiasAdd/ReadVariableOp f4 [256]
000000 54 7f 86 3c 15 d1 e7 ba 59 13 38 3d 21 89 a5 3b
       0.016418137 -0.0017686213 0.044940326 0.0050517474
000010 95 c9 a5 bb aa 74 06 3c 4f 45 10 3d 27 97 77 3d
       -0.005059431 0.008206526 0.035222348 0.060446884
000020 7f 0e 34 bb d6 cc c6 b8 a0 8b 68 3c 44 da 49 3c
       -0.002747446 -9.4795294e-05 0.014193445 0.012320105
000030 ed e9 99 3c 4a c0 ee 3b 63 73 e7 3c 2a d5 5c 3c
       0.018788302 0.0072861062 0.028253263 0.013478557
000040 c9 82 f7 3c 77 4b 16 3d 0c 3b 6f 3c 72 14 57 3c
       0.03021373 0.036693063 0.01460148 0.013127433
000050 47 fa 2c bc fc 06 01 3b 2e b9 1d bc 22 15 9f ba
       -0.010557718 0.0019688 -0.00962667 -0.0012137035
000060 5b 12 51 3c 4a 40 07 bc 79 50 5a bb 4a 84 dc bb
       0.012760724 -0.008255074 -0.0033312126 -0.0067296373
000070 82 82 f5 3c b9 12 2e 3d 5c 26 f3 3c cf 14 19 3c
       0.029969458 0.042498324 0.029681377 0.00934334
000080 ca 6a ea bc 0c 4e 4f 39 76 9c 4b 3b 90 34 45 bb
       -0.028615374 0.00019770133 0.00310686 -0.0030091144
000090 a3 16 fe bb 40 96 d2 3b b3 7b a1 3c 78 55 14 3d
       -0.0077541634 0.0064266026 0.019712305 0.03621432
0000a0 05 ec ab 3c bd 9f cf 3c 01 d3 1f 3d aa 2b b0 3c
       0.020986566 0.025344724 0.03901959 0.021505196
0000b0 dc 56 14 3c 8c 68 8a 3c 4b 80 44 bc 2f 0f 9c 3c
       0.009053912 0.016895555 -0.011993478 0.019050209
0000c0 d9 9b 9f 3b d4 68 89 3b f9 7e 90 3c d2 29 dc 3b
       0.0048708734 0.0041934047 0.01763867 0.0067188526
0000d0 4f a8 1e bc a7 a5 85 3c c7 e1 bd bb 9b 5b 6f 3b
       -0.009683683 0.01631434 -0.005794737 0.0036523107
0000e0 5c c8 ce 3b 3a 48 a1 bb c1 8d c1 3c 35 c5 54 3c
       0.006310506 -0.00492194 0.023627164 0.012986471
0000f0 a1 6b 15 3c 4c 05 32 3c 0f c4 86 3c 28 ad 3c 3c
       0.009119899 0.010865521 0.01645091 0.011515893
000100 90 7c 15 bc 3a 25 fc 3c e7 54 39 3d 7f 8e 1b 3c
       -0.009123936 0.03077947 0.045246985 0.009494423
000110 35 fd bd 3c 4c 3b fe 39 b6 8d 91 3c d0 0e 96 ba
       0.023192028 0.00048490835 0.017767768 -0.0011448506
000120 c7 df d4 bb 76 9d 97 3c 7c db 39 3a b0 fd 0b 3d
       -0.006496403 0.0185077 0.00070898957 0.034177482
000130 5a 9c 24 3a 6c 14 15 3d a2 57 e0 3c bc 95 a6 3c
       0.0006279402 0.03639643 0.027385537 0.02033507
000140 43 78 c2 3c aa 50 e5 3c 56 28 1d bc ab b5 a2 3a
       0.023738986 0.027992565 -0.009592136 0.001241376
000150 25 f8 04 3d 69 5d 8a 3b 8c c0 92 ba 15 b0 0d bd
       0.03246321 0.004222561 -0.00111963 -0.034591753
000160 24 f3 7a bb cf ad b1 ba ae e8 86 3c 3b 8d c9 bb
       -0.0038291896 -0.0013555827 0.016468372 -0.006150869
000170 d1 1f a1 ba ae 16 3b 3b bb 22 6b 3c 39 68 0c bb
       -0.0012292807 0.0028547454 0.014351542 -0.0021424426
000180 c1 05 24 bc f0 28 09 3d 7b ad bf 3c 93 45 c6 3b
       -0.010011137 0.033486307 0.023398152 0.0060507744
000190 de 2e be 3a 14 f1 11 3c 5a ef 31 3d 93 db 84 bb
       0.0014509817 0.008907575 0.043441154 -0.0040544956
0001a0 4c 37 48 3c 24 ab 37 bc a2 a8 8b 38 fa 0a c9 bc
       0.012220215 -0.011210237 6.659447e-05 -0.024541367
0001b0 fc 9f d6 3b 50 0b 21 3d 56 bf 5d 3c 0f 44 bf ba
       0.0065498333 0.03931743 0.013534388 -0.0014592427
0001c0 ad 54 2a bb 65 9e 2e 3b 61 47 14 3c 9f c6 98 3b
       -0.0025990412 0.0026644703 0.009050221 0.0046623494
0001d0 72 0d 8d 3c af b2 a1 3c ee 0d b9 3c af 8c 48 bb
       0.017218325 0.019738523 0.02258965 -0.0030601432
0001e0 f5 0f 46 3c 41 1f b7 3c 85 77 a2 bc 7c 12 ad 3b
       0.012088765 0.02235377 -0.019832382 0.0052817445
0001f0 34 77 a9 3c a7 a5 c8 3c 92 b6 83 3c 4d 21 f2 3b
       0.020686723 0.024493052 0.016078267 0.0073892237
000200 0a ec c7 3c ef 8b 2d 3c 71 e4 81 3c a4 b9 a4 3a
       0.024404544 0.010592445 0.015856 0.0012567532
000210 2f f2 9c 3c 8a a2 a2 3c c5 6c a3 3b 59 ea 77 3c
       0.01915845 0.019852895 0.0049873316 0.015131556
000220 22 8e 29 3c d0 22 d1 bc a3 6b e7 3b 1a f1 e0 3a
       0.0103488285 -0.025529295 0.007062392 0.0017161698
000230 ac 1e 80 3c aa f6 be bb 30 aa c2 3c bd d0 36 bb
       0.015639625 -0.0058277445 0.023762792 -0.0027895414
000240 45 2a f3 3b 1c fc 36 3c 4c af cb 3c a3 b1 68 3b
       0.0074208104 0.011168506 0.024863862 0.003550627
000250 cc af 46 3c 5d ed 1c 3c 81 8f 14 3d ab 3d fe 3c
       0.012126874 0.009578076 0.03626967 0.031035265
000260 7d 33 da 3b 25 c9 81 3b b2 64 32 3c e2 75 33 3d
       0.00665897 0.003960746 0.010888265 0.043813594
000270 9a 69 53 3c c9 64 51 3c 06 bd 29 bc a4 6b b8 3a
       0.012903595 0.012780377 -0.010360008 0.0014070165
000280 99 a2 bb bb c0 fa 0c 3a b4 03 3a 3c b1 f6 5c 3c
       -0.0057261703 0.0005377941 0.011353422 0.01348655
000290 4f 2c 38 3d 52 4f 36 bc 71 6e 32 3c 87 01 03 3b
       0.04496413 -0.01112731 0.010890589 0.0019989924
0002a0 b5 fd 14 3c e6 77 77 3c 2a d6 3d 3b 3a be 93 3b
       0.009093692 0.01510427 0.0028966763 0.0045087608
0002b0 77 f5 a1 3c 2b 03 61 3c 59 09 91 3c b5 d0 45 3d
       0.019770367 0.013733665 0.017704653 0.04829474
0002c0 9f c8 0f 3c f5 95 51 bc 5f fd bf 3b 6f f9 8b 3c
       0.008775859 -0.0127921 0.0058590616 0.017086713
0002d0 e6 ea 46 3d 03 f4 ae 3c 01 ca 74 bc 9f 94 5e ba
       0.04856386 0.021356588 -0.01494074 -0.0008490774
0002e0 a3 38 cd b9 47 82 3e ba 82 41 ee bb 04 7c 82 bc
       -0.00039142845 -0.00072673376 -0.0072709927 -0.015928276
0002f0 43 6a 3a 3c 68 3d f0 3c a8 a0 03 3d 53 94 11 bc
       0.011377874 0.029326156 0.032135636 -0.008885461
000300 37 fe 10 bc a1 d6 aa bb 70 7e 08 3c a4 89 99 3c
       -0.008849672 -0.005213574 0.008330926 0.01874239
000310 ac 5f d3 3c 77 aa 4f 3c 22 53 53 3d 13 40 f6 3c
       0.025802456 0.012674919 0.051592954 0.03005985
000320 69 83 f1 bc 97 82 96 bb ac 94 f1 3b 49 58 4f 3c
       -0.029481607 -0.0045932042 0.0073724594 0.012655326
000330 d2 db e0 3b d7 28 0f 3c 22 2b 62 3a 75 05 82 3c
       0.006862142 0.008737764 0.0008627643 0.015871743
000340 69 d6 89 bc 6c 89 66 bc 47 98 dc 3a 1c c5 67 bb
       -0.016825872 -0.01407085 0.001683005 -0.003536529
000350 91 8c d2 3a 82 b2 df 3c 6a 7c 85 3c 2e 54 bf 3c
       0.001606362 0.027306799 0.016294677 0.02335557
000360 c6 4e f7 b8 5f cb ce 3a 1d 95 ae bb 89 a8 c3 3c
       -0.000117925505 0.0015777162 -0.0053278343 0.023884075
000370 21 ad 70 3c 82 71 e5 3b f1 06 c2 bb 45 eb 9c 3c
       0.014689715 0.0070020566 -0.0059212376 0.019155154
000380 23 c6 6a 3c 91 14 2a 3d 27 d0 4d 3c 99 4f be bc
       0.014329466 0.04152352 0.012561834 -0.023231314
000390 4b 5d 4f bb 53 93 1f 3c b4 06 48 3a 62 a8 fa bb
       -0.00316413 0.009739715 0.00076303934 -0.0076494673
0003a0 1a 62 0a 3c 52 98 cf bb 3d 5f 79 bc 6c fa 34 3b
       0.008446241 -0.0063352967 -0.0152204605 0.0027615083
0003b0 f8 cb b4 3b 74 8f 22 3b 11 28 4c 3a ee 2a 74 3d
       0.005517479 0.0024804743 0.0007787953 0.059611253
0003c0 47 8e c3 3c 1e 2b 0b b7 13 ba 1b 3c 96 9c 95 3b
       0.023871554 -8.295085e-06 0.009504813 0.0045657856
0003d0 dd c3 72 3d 7d fb 61 ba 44 7e 93 3b eb d5 fe 3b
       0.05926882 -0.00086205435 0.004501136 0.007776966
0003e0 08 61 1e bc c6 b2 29 bc 4c 29 ab 3b fa 66 30 b9
       -0.009666689 -0.010357564 0.005223429 -0.0001682303
0003f0 cc 9d 6d 3c 42 7a e8 3c c6 94 0a 3b 22 a6 1a 3c
       0.014502954 0.02837861 0.0021145805 0.009439023

model/floor_output/BiasAdd/ReadVariableOp f4 [5]
000000 dd 2b 19 3c 98 fe e8 3b 2e b3 d6 bc e9 4d ad 39
       0.009348837 0.007110428 -0.026208486 0.0003305518
000010 33 b9 0b bd
       -0.034112167

model/position_output/BiasAdd/ReadVariableOp f4 [2]
000000 df 91 dd ba 54 d7 9b ba
       -0.0016904435 -0.0011889734

model/batch_normalization_1/batchnorm/mul f4 [256]
000000 6d cc a9 3f 03 08 a6 3f 8f d2 aa 3f fd 55 a7 3f
       1.3265511 1.2971195 1.3345507 1.3073117
000010 77 4e 9b 3f 90 0e a2 3f d7 fb 80 3f 74 a3 9f 3f
       1.213332 1.2660694 1.0076855 1.2471757
000020 3a 6b 84 3f 7c 2a 9f 3f 1c ff b2 3f 15 32 99 3f
       1.0345223 1.243484 1.3984103 1.1968409
000030 f3 cf af 3f cb d3 b8 3f 0a 85 a2 3f 79 c8 b9 3f
       1.3735336 1.4439634 1.269685 1.4514304
000040 f2 16 be 3f 9e 7b c7 3f 27 9e 94 3f 42 53 86 3f
       1.4850752 1.55846 1.1610764 1.0494158
000050 7d 62 84 3f 75 14 a7 3f b6 82 cc 3f a5 4c c5 3f
       1.0342556 1.3053118 1.597739 1.5414015
000060 af 56 bc 3f c1 29 a1 3f e3 79 61 3f 17 c4 91 3f
       1.4713954 1.2590867 0.8807661 1.1387967
000070 5f 99 a8 3f d1 20 a6 3f a5 11 a1 3f df 30 a6 3f
       1.3171805 1.2978765 1.258351 1.2983664
000080 47 0c b0 3f 66 72 94 3f 70 57 bc 3f 84 87 a4 3f
       1.3753747 1.1597412 1.4714184 1.2853856
000090 e1 cd 77 3f 56 f2 9c 3f e3 2b 87 3f 2f 04 8e 3f
       0.9679852 1.2261455 1.0560268 1.1095027
0000a0 76 0d a8 3f 90 6b a4 3f 76 f0 a4 3f cc f9 b2 3f
       1.3129108 1.2845325 1.2885883 1.3982482
0000b0 f2 34 6b 3f 54 b6 a7 3f c7 b3 a1 3f 2a ec 8c 3f
       0.91877663 1.3102517 1.2632989 1.1009572
0000c0 9a fd 90 3f 90 93 be 3f d7 18 c9 3f 24 b1 8c 3f
       1.1327393 1.4888783 1.5710706 1.0991559
0000d0 16 3e 89 3f 3c f1 94 3f d9 91 92 3f e1 cc a7 3f
       1.0722072 1.1636119 1.1450759 1.3109399
0000e0 49 98 ae 3f b3 f5 a3 3f b4 4c a3 3f 94 bf 9e 3f
       1.3640224 1.2809356 1.2757783 1.2402215
0000f0 9f 1f a0 3f 45 07 b2 3f 94 42 9e 3f 89 8e ac 3f
       1.250965 1.3908468 1.2364068 1.3480998
000100 5d 13 ad 3f fa 7b a1 3f da 95 ab 3f a2 3a 92 3f
       1.3521534 1.261596 1.3405106 1.1424143
000110 04 ce bb 3f 3c 8e 9e 3f 52 c8 a1 3f b6 6c a3 3f
       1.4672246 1.2387156 1.2639258 1.2767551
000120 53 de 6d 3f d5 a7 63 3f 15 d7 8d 3f 69 fe 8c 3f
       0.92917365 0.88927966 1.1081263 1.101514
000130 9b 46 a2 3f 35 06 93 3f f8 7b 94 3f 0f 37 98 3f
       1.2677797 1.1486269 1.1600332 1.1891803
000140 95 96 a6 3f c9 4d b4 3f 1b 48 c2 3f 7f a9 85 3f
       1.3014704 1.4086238 1.5178255 1.0442351
000150 18 88 cc 3f 80 c9 b0 3f 55 d0 8f 3f b0 fd 92 3f
       1.5979033 1.3811493 1.1235453 1.1483669
000160 40 d2 84 3f 2c 5d a8 3f 52 ad c3 3f 70 bc b1 3f
       1.0376663 1.3153434 1.5287268 1.3885632
000170 bd 2b a3 3f c9 c7 74 3f 6c 6c 93 3f dd 5a b3 3f
       1.2747723 0.9561735 1.1517463 1.4012104
000180 ee d6 a7 3f b0 c4 7b 3f a1 06 a3 3f 04 c1 85 3f
       1.3112466 0.98346996 1.2736398 1.0449529
000190 b3 aa a3 3f eb 16 c0 3f ce 93 9d 3f 16 ca a7 3f
       1.2786468 1.5006994 1.2310731 1.3108547
0001a0 98 79 85 3f 15 92 80 3f 6d df b0 3f a6 79 7d 3f
       1.0427732 1.0044581 1.3818184 0.99013746
0001b0 d2 20 a5 3f 93 57 ab 3f d7 82 93 3f f9 da aa 3f
       1.2900641 1.33861 1.1524304 1.3348075
0001c0 b0 16 90 3f a0 26 c0 3f f5 59 a6 3f f0 99 9d 3f
       1.1256924 1.5011787 1.2996203 1.2312603
0001d0 5e 07 9f 3f 50 7a 56 3f 22 85 a3 3f 51 e3 b6 3f
       1.2424123 0.83780384 1.2775004 1.4288121
0001e0 f3 17 a6 3f 19 50 b1 3f c1 61 9f 3f 60 6b a6 3f
       1.2976059 1.3852569 1.2451707 1.3001518
0001f0 af 8c c7 3f b5 22 89 3f 5b 65 c4 3f 88 8f b8 3f
       1.5589808 1.0713717 1.5343431 1.4418802
000200 cb fb 92 3f af 1c 9d 3f db 28 a8 3f 8d ed 99 3f
       1.1483091 1.2274379 1.3137468 1.202562
000210 43 a4 af 3f 74 8e a5 3f 17 dc 96 3f 02 03 8f 3f
       1.3722004 1.2934098 1.1785916 1.1172793
000220 cf 30 a7 3f 12 c5 96 3f 1a 52 8b 3f fa 8f 88 3f
       1.306177 1.1778891 1.088443 1.0668938
000230 c3 56 c3 3f 77 2d c0 3f 81 fa 8e 3f 1d 07 8d 3f
       1.5260853 1.5013875 1.1170198 1.1017796
000240 14 18 b9 3f ad d2 73 3f 6d 0e aa 3f 7d 53 8a 3f
       1.4460473 0.9524334 1.3285652 1.0806729
000250 a6 77 98 3f 84 40 8f 3f 59 62 ad 3f 7f 68 86 3f
       1.1911514 1.1191564 1.3545638 1.050064
000260 ce f0 a9 3f 9c dd 8d 3f e2 78 a2 3f a6 61 aa 3f
       1.3276613 1.1083255 1.269314 1.331105
000270 d3 45 b0 3f d9 ce b6 3f d2 f8 9a 3f f4 c6 88 3f
       1.3771309 1.4281875 1.2107184 1.0685716
000280 56 b7 b9 3f dd 77 8b 3f 66 33 b4 3f 0a 2c 8e 3f
       1.4509075 1.0895954 1.4078186 1.110719
000290 19 15 90 3f f0 98 80 3f 6d a4 94 3f 2b 82 99 3f
       1.1256438 1.0046673 1.1612679 1.1992849
0002a0 2d 8b ad 3f 22 eb b0 3f ca 2d 59 3f a6 ce 89 3f
       1.3558098 1.3821757 0.84835494 1.0766189
0002b0 87 5e 8c 3f 8c 1a 98 3f b0 d5 85 3f 3b 4d 9d 3f
       1.0966347 1.1883101 1.0455837 1.2289194
0002c0 b3 d3 8e 3f 5d 6f a1 3f 06 9d 91 3f a7 68 9a 3f
       1.1158355 1.261211 1.1376045 1.2063187
0002d0 72 15 98 3f 5b 6c a1 3f df 21 98 3f 19 77 a9 3f
       1.1881545 1.2611192 1.1885337 1.3239471
0002e0 0b 31 91 3f 84 f5 87 3f bb d2 9f 3f 6e fe 7e 3f
       1.1343092 1.06218 1.2486185 0.9960698
0002f0 69 06 94 3f 57 46 9c 3f cd 78 b3 3f dd 73 b3 3f
       1.1564456 1.2208966 1.402124 1.4019734
000300 5f 0f 9b 3f e3 f2 bf 3f 5c 3c 8f 3f bb e7 b8 3f
       1.2114066 1.4995998 1.1190295 1.4445719
000310 3f 30 95 3f c0 34 aa 3f ae f8 9d 3f 6b 16 ac 3f
       1.1655349 1.3297348 1.2341516 1.3444341
000320 fd 66 b2 3f ee 5a 84 3f 04 c0 86 3f 1d 73 a7 3f
       1.393768 1.034025 1.0527349 1.3082005
000330 5e 60 bc 3f 6e 1d bc 3f 59 4c a0 3f 6d 09 96 3f
       1.4716909 1.4696481 1.25233 1.1721627
000340 25 bd 96 3f fd ba a9 3f f0 36 9f 3f e5 3c b0 3f
       1.1776472 1.3260189 1.243864 1.3768584
000350 36 59 95 3f 09 7e 9c 3f d8 66 a9 3f 91 31 a7 3f
       1.166785 1.2225963 1.323451 1.3062001
000360 da 3f 9d 3f 2b 06 ab 3f 97 80 a8 3f 4c 91 98 3f
       1.2285111 1.3361257 1.3164243 1.1919341
000370 85 94 84 3f e8 1a 7f 3f c9 72 95 3f 8c 97 d0 3f
       1.0357825 0.9965043 1.1675655 1.6296248
000380 c8 6a b1 3f 4a 5a a3 3f 5b fb 96 3f f4 19 a7 3f
       1.3860712 1.2761929 1.1795458 1.3054795
000390 29 42 8f 3f 5e e5 ab 3f cb c0 b4 3f 99 62 a6 3f
       1.1192065 1.3429372 1.4121336 1.299884
0003a0 d1 dc a9 3f cc e7 91 3f ac 41 ae 3f dc a2 9d 3f
       1.3270513 1.1398864 1.3613791 1.2315326
0003b0 af e4 98 3f f0 7e 95 3f 45 20 77 3f 9a 4d a0 3f
       1.1944789 1.1679363 0.96533614 1.2523682
0003c0 8c 54 88 3f 01 e2 83 3f bb 8e 8b 3f db fe 96 3f
       1.0650802 1.0303346 1.0902933 1.1796526
0003d0 b8 a2 b6 3f 4d 93 ba 3f d7 9d ae 3f 85 98 97 3f
       1.4268408 1.4576203 1.3641919 1.184342
0003e0 65 4e bd 3f 16 2e d7 3f df 98 ac 3f 03 8e 9d 3f
       1.4789549 1.6810939 1.3484153 1.2308964
0003f0 b0 fa 96 3f c6 08 88 3f dc f1 91 3f c0 8c b8 3f
       1.1795254 1.0627677 1.1401935 1.4417953
